checkpoint/best_mappo_seed113_run20260211_183209_envmamujoco-halfcheetah-6x1_ep2800_agent4_actor.pt (torch, 27997 bytes, 11 tensors)

base.feature_norm.weight f4 [9]
00000000: 22a7 7a3f 8f5f 713f 1b99 813f a881 863f
00000010: fa29 7e3f f35d 8b3f 96c2 733f cff9 7c3f
00000020: c827 723f
0.97911274 0.94286436 1.0124849 1.0508318 0.992828 1.0888046 0.9521879 0.9881868
0.9459195

base.feature_norm.bias f4 [9]
00000000: 7e73 213b e237 b93b e71f 1bbb 8a74 7b3c
00000010: 8735 da3b cbdd b3bb df43 b0bc 6669 5d3c
00000020: 032b c63b
0.002463549 0.0056524137 -0.0023670138 0.015347609 0.006659213 -0.0054890863 -0.021516738 0.0135138985
0.006047608

base.mlp.fc1.0.weight f4 [64, 9]
00000000: cc47 813d 03cb 24bc ecf4 d0bd 63db 8e3d
00000010: 1431 6fbe f39e 9a3e e494 d63b 9777 0bbe
00000020: 30a6 973d 80ab 09be f2fa 803d 6d81 143e
00000030: 828f 723e 977f 8bbe 063e b13d b7ae 39bd
00000040: 3519 5e3d 633f 233d 2e2b afbd a129 c33d
00000050: 042d 0fbe 826a 75b8 22d2 f9bd b2b3 603c
00000060: 78d9 c6bd cd79 4e3e 4045 bbbd d635 c73c
00000070: af97 d3bd 26f8 d7bd a464 8cbc 7850 1dbd
00000080: afc0 bdbd 01e4 05be 2abb 9fbd 179f 2d3c
00000090: 648d 8c3e b3da 45be e25e b03e 8292 d43e
000000a0: 36ea 883e f4c8 c1bd 07e4 d73d 0cc1 2cbc
000000b0: 17dc c43d 7b34 8bbe 2e59 543c fc0c 1b3e
000000c0: 7f8a 5c3c 4a7c 37be c945 80bc cb54 623d
000000d0: b37d dabe 39ff 013e e8ba 5bbe 51f4 783e
000000e0: 8f9d d8bd ee76 263d 48e5 433e 5ae1 97be
000000f0: 259f ca3e 885b 8b3d 198f c7bc 621e 963e
00000100: 685e d3bd 64b6 11be fa87 46be f8cf 8dbe
00000110: 6bf1 da3d a181 efbd 098b 8c3d 970b c7bd
00000120: 7f88 d8bd 6e47 8bbe 6453 07bd 1330 a5be
00000130: 3c1f 423e 525b 6e3e ac30 ca3c 2586 793d
00000140: 4bdf 1abe 0b6d f2bc b7f1 49bc 847d 9c3d
00000150: 6e24 103e 040f 3f3d 2600 a93d e746 a43d
00000160: c866 613e be2d 253e 7d64 233d feaf 5cbe
00000170: 4fe4 813d 1d8b 1dbd 3c20 6ebe 4a92 aa3d
00000180: 5b1b 76be f339 82be 66bb 3e3e 0ad4 dfbd
00000190: d099 d0be cfce bdbb 9d7d b4bd b6ef 273d
000001a0: 20df fa3d 2cf6 a93d 2306 723c e53f 1bbd
000001b0: cd10 febd 6b85 85be 0ccd e23b 30ac 89be
000001c0: bde6 623e 39d8 c93e eb6e 47be 1f9a 95bd
000001d0: 6f29 233d 2dcb 8c3e 9417 3fbe 72f2 b13d
000001e0: c8cf e33d 73e4 a43d ca29 a6be 3e66 f9bd
000001f0: f19f 0fbe 41d8 a43d 7e14 34be 1d58 49be
00000200: 3926 ff3d ba51 4ebc 2575 44bd d55a 89be
00000210: 192e e6bd 6e0f 0f3e 53de 5839 4274 52be
00000220: 208d 8d3c 17c9 89be 5d69 c93e 8b8a b4bd
00000230: 5581 81be 931d cdbd 6098 a13e 7b87 123e
00000240: 5899 b6bd ab5e 903d 22f6 963d 2442 87be
00000250: 4f96 cbbc b1f7 ba3d 9dc3 7c3d 5792 24bc
00000260: b095 253e af12 6e3e 7d0f 03be 0d03 45be
00000270: 644b 86be 1f3f fbbd 957a bebd af30 a4bd
00000280: bd32 8ebc 1362 bcbd b79e debe 0036 17be
00000290: c0be cbbd 9cb9 123e e6b6 8e3d 4189 95be
000002a0: 8c06 0d3d e862 823c 9f88 a13d c532 09be
000002b0: 809a 103e fcd4 2b3d b06b debd d068 993e
000002c0: ef72 4d3e 13ae 92be df15 5dbc 20ee 373d
000002d0: 0259 c239 7d29 48be cda6 05bc bb05 223e
000002e0: f1b1 38bb 5e68 b3bd 4ad7 753d 3a83 6abc
000002f0: 3129 433d 79c3 10be 93ba 3fbd 4e02 f6bd
00000300: 1e88 6e3e 58dd 01be ddff 2dbe df4f dfbe
00000310: ffda 31be 6b03 a13e f5dc e0bd 34c6 ca3c
00000320: a871 2e3e 123d 03be d815 013d 54be 49be
00000330: b929 b4bd 3d52 883e e4a4 5d3d f478 113e
00000340: fed6 cfbc a975 a63d a3cc 61be 4643 f33c
00000350: 0301 95be 9650 eebe bd46 a7bd 99c5 383e
00000360: ad91 7b3d b6e5 89be 0517 153e 8c46 80be
00000370: c512 99bd 938b 2f3c 08a0 463e 858f 74be
00000380: e770 18be 0904 5dbe 4deb 10bd 97f2 773e
00000390: 44d4 5ebc 7eae b3bd bcd6 913e 3ea9 b5be
000003a0: 9f44 36be 5810 803d 08c0 0b3e 00a3 2cbe
000003b0: d213 083e 388d 4e3e f536 073e 030c 53bb
000003c0: 1c5e 9b3b 6e3c 5bbc 8871 23be 51f1 883e
000003d0: 28fd 083c dcc9 37bd ee86 98bd b512 56be
000003e0: 0984 a23c d9e3 e23b eb3f 7e3d a936 dd3e
000003f0: bbc9 fcbc cd95 483d c352 01bf 9281 8ebe
0.06312522 -0.010058167 -0.10202965 0.069754384 -0.23358566 0.30199394 0.006548511 -0.13619839
0.074047446 -0.13444328 0.06297864 0.14502497 0.23687556 -0.2724578 0.08654408 -0.045332637
0.054223258 0.039855372 -0.08553158 0.095294245 -0.13982016 -5.8511745e-05 -0.12198283 0.013714718
-0.097094476 0.20163651 -0.09144068 0.024317663 -0.10331666 -0.105453774 -0.017137833 -0.03840682
-0.09265267 -0.13075258 -0.077993706 0.010597012 0.27451622 -0.19321708 0.3444739 0.41518027
0.2674119 -0.09462157 0.1054154 -0.010544073 0.09612291 -0.27188477 0.012960715 0.15141672
0.013460754 -0.17918506 -0.015658276 0.055256646 -0.42674026 0.12695016 -0.21458018 0.2431195
-0.10576927 0.040640764 0.19130433 -0.29664117 0.39574543 0.068045676 -0.024360226 0.29320055
-0.10320741 -0.14229733 -0.19387808 -0.2769773 0.10690578 -0.116946466 0.06862456 -0.097190075
-0.105729096 -0.27202934 -0.033038512 -0.3226324 0.18957227 0.23277023 0.024681412 0.060918946
-0.15124242 -0.029593011 -0.012325696 0.07641128 0.14076397 0.04664518 0.082519814 0.08021336
0.22011864 0.1613073 0.039890755 -0.2155151 0.063423745 -0.038462747 -0.23254484 0.08328684
-0.24033873 -0.25434837 0.18626174 -0.10929115 -0.4074235 -0.005792476 -0.08813021 0.04100009
0.12249589 0.08298907 0.014771971 -0.03790273 -0.12405548 -0.26078352 0.006921416 -0.2688918
0.22158332 0.39422777 -0.19475906 -0.07304787 0.039834436 0.2749876 -0.18661338 0.08688821
0.111236155 0.08051386 -0.32453758 -0.12177704 -0.14025857 0.0804906 -0.17585942 -0.19662519
0.12458462 -0.012592727 -0.04796328 -0.26827112 -0.11239261 0.1397073 0.00020682187 -0.20552161
0.017279208 -0.26911232 0.39338198 -0.088154875 -0.25293985 -0.100154065 0.31561565 0.14309494
-0.08915967 0.070493065 0.07371165 -0.2641765 -0.024851946 0.09129275 0.06170999 -0.010044656
0.16170382 0.23249315 -0.12798877 -0.19239445 -0.26229393 -0.12267899 -0.093007244 -0.08017098
-0.017358178 -0.09198394 -0.43480465 -0.14766693 -0.09948492 0.14328617 0.06968479 -0.2920628
0.03443007 0.015916303 0.078873865 -0.13398273 0.14121437 0.041951165 -0.108603835 0.29962778
0.20063375 -0.28648433 -0.013493984 0.044904828 0.0003706888 -0.19547077 -0.008157444 0.15822499
-0.0028182233 -0.08760141 0.06001977 -0.014313513 0.047646705 -0.14137067 -0.04680879 -0.12012158
0.23294112 -0.12682092 -0.16992135 -0.43615624 -0.17368697 0.3144792 -0.10979644 0.024752714
0.17035544 -0.12816265 0.031514972 -0.1970151 -0.087970205 0.26625243 0.05411233 0.14206296
-0.025371071 0.08127911 -0.22050719 0.029695164 -0.29102334 -0.46545857 -0.08167789 0.18044128
0.061418224 -0.26933068 0.14559563 -0.25053823 -0.07474283 0.010714429 0.19396985 -0.23882873
-0.14886819 -0.2158357 -0.03538065 0.24213634 -0.013600413 -0.08773516 0.28484142 -0.35480684
-0.17799614 0.06253117 0.13647473 -0.16859055 0.13288811 0.20171058 0.13204558 -0.0032203204
0.0047414433 -0.013381107 -0.15961277 0.2674661 0.008361138 -0.044870242 -0.07447611 -0.20905574
0.01983835 0.006924134 0.062072676 0.43205765 -0.030857911 0.048970986 -0.5051691 -0.2783323

base.mlp.fc1.0.bias f4 [64]
00000000: 149d 643c 195e 1abc f4f7 79bc 4eab 4b3c
00000010: 49af 323c 7cbb 003c a67a 423d 3747 193c
00000020: 5fd8 333c 5644 82bd 4cb4 473d 968a 95bc
00000030: 6c3a 453c 1ad1 443d e4f1 95bb 90ca 5d3d
00000040: 9a22 81bc 2ba7 64bc bbd2 1ebd 7ce3 03bc
00000050: 6b28 31bc 433c fbbc 23d6 c2bc 874d 333d
00000060: 8a8d 1dbd 2b77 043c ab56 7dbc 2544 f7bb
00000070: 3f50 bb3a bb91 8e3b 3848 7fbc 20de 74bc
00000080: 8139 1bbc 2c5b 063d 62ae aabc ad60 00bc
00000090: cd64 a3bc 6e0f 5f3c 2253 ebbc 3791 c43b
000000a0: 1a9c 123c 80fe 403c 0f77 f6bc 21a2 143b
000000b0: 838a 9fbc 0a11 7abc ee9d 04bd 5066 053d
000000c0: 5d27 59bc 6a48 333b 5604 73bc c50c 2d3c
000000d0: 8362 f7bc 26da b2bc cf13 453b dc2a 2dba
000000e0: a611 2a3b 850f 9e3c 350b 8dbc ad12 4ebd
000000f0: 5bf0 8ebc 043a 51bc 6f44 f83c 25bc 0fbd
0.013953466 -0.009421849 -0.015256871 0.012430979 0.010906049 0.0078572 0.047480248 0.009355358
0.01097688 -0.0636069 0.04875593 -0.01825456 0.012037855 0.048050977 -0.0045759548 0.054148257
-0.01576357 -0.013955872 -0.038775187 -0.008049842 -0.010812859 -0.030668383 -0.023783749 0.043775108
-0.03846506 0.0080850525 -0.015462558 -0.0075459653 0.0014290883 0.0043508685 -0.015581183 -0.014945537
-0.009474159 0.032801792 -0.020835105 -0.007835549 -0.019945526 0.013614519 -0.028726164 0.0059987563
0.00894835 0.0117794275 -0.030086068 0.0022679644 -0.019475227 -0.0152628515 -0.032377176 0.032568276
-0.013254014 0.0027356395 -0.014832577 0.0105621265 -0.030198341 -0.021832537 0.0030071621 -0.0006605813
0.002595046 0.01929451 -0.017217258 -0.05031078 -0.017448595 -0.01277018 0.03030607 -0.035091538

base.mlp.fc1.2.weight f4 [64]
00000000: a383 8d3f f5b2 773f f5d2 823f edb8 7a3f
00000010: 2f7b 813f 171d 823f 7406 833f b517 7e3f
00000020: f251 823f c35b 793f 36e0 823f 1d7f 723f
00000030: fc6b 7c3f 3fd4 813f 2f5c 853f 8078 843f
00000040: 9ba6 773f 156d 833f 70cd 843f 2be9 7a3f
00000050: b77d 713f c8f0 733f f4fc 7a3f 2f0b 853f
00000060: fcab 743f 5b04 813f 6d82 7f3f 83e0 703f
00000070: d96c 833f b55e 823f d802 733f 0cbc 723f
00000080: 40b9 7c3f 1d35 833f be11 733f f7e6 7e3f
00000090: dc32 803f 52a3 7d3f 36be 703f 3e7c 833f
000000a0: 9491 7c3f b1f9 803f d9f1 783f 65ff 893f
000000b0: d795 883f 23c2 753f 3896 7a3f 90e4 853f
000000c0: af6d 7a3f ee11 7c3f ad0b 853f fc70 823f
000000d0: 8f93 7b3f c7b5 783f 3025 823f 275b 853f
000000e0: 4c98 823f 48a3 813f 16f4 783f 2c08 853f
000000f0: 4055 773f 1130 7a3f 3f56 7f3f da9d 823f
1.1055797 0.9675744 1.0220629 0.97938424 1.0115718 1.0165128 1.0236344 0.99254924
1.0181258 0.9740564 1.0224674 0.9472521 0.9860227 1.0142897 1.0418757 1.0349274
0.96738595 1.0267664 1.0375195 0.98012036 0.9433245 0.9528928 0.98042226 1.0394038
0.9557493 1.0079454 0.9980839 0.9409258 1.0267593 1.0185152 0.94926214 0.94818187
0.9872017 1.0250584 0.9494895 0.99571174 1.0015521 0.9907733 0.9404024 1.0272291
0.98659635 1.00762 0.9724403 1.0781065 1.0670727 0.95999354 0.97885466 1.0460377
0.97823614 0.9846486 1.0394188 1.019073 0.9827203 0.9715237 1.0167599 1.0418442
1.0202727 1.0127954 0.97247446 1.0393119 0.96614456 0.97729594 0.99740976 1.0204422

base.mlp.fc1.2.bias f4 [64]
00000000: 0ba4 6d3c 9c0d c83b 0abd 06bd 8ec6 553c
00000010: fca7 953c a7f1 143c 29fc fa3c 8fde 9139
00000020: 1ef7 153a ca62 50bd 34cf 023d 545d 48bb
00000030: 52b8 293d 62e5 e83c 163c 24bb 0614 fd3b
00000040: 8445 f73c fa01 1fbd c4e4 1cbd d1ae edbb
00000050: 1926 b03c 1ab4 d43c a098 93ba 9f13 c43c
00000060: efd7 ebbc 9e06 3fbd ace9 acbc f823 af3c
00000070: 27d0 dbba 17e2 40bc e7f4 973c 05d0 13bc
00000080: d803 09bd f0fb e3b8 f857 c8ba 22ec 003d
00000090: fdc9 aabc 07a4 083d e2b4 a43c 7275 fd3b
000000a0: 930f 14bc fab1 9e3c b32f adbc 395b 0abd
000000b0: 2f32 10bd a844 d5bb f899 8dbc a9ce bab9
000000c0: 440c cdbc c695 8e3a 7e5f 60bc 23dc 91bb
000000d0: 71a2 06bd 14a1 9dbb 5800 dfbb 6656 be3b
000000e0: f958 313c d5bb f43b 722c 1e3c 1665 7cbd
000000f0: 8a0d 4b3c 6201 82bc 88d2 c03c 0128 03bd
0.014504443 0.006105138 -0.032895125 0.013047827 0.018268578 0.0090908175 0.030637817 0.00027822374
0.0005720722 -0.050875463 0.031935886 -0.0030573206 0.041435547 0.02842969 -0.0025060228 0.0077233342
0.030184515 -0.038820244 -0.038304105 -0.0072535058 0.021502541 0.025964785 -0.0011260696 0.023935137
-0.028789489 -0.04663717 -0.021107517 0.021379456 -0.0016770408 -0.011772654 0.018549396 -0.009021764
-0.03345093 -0.000108711305 -0.0015285006 0.031475194 -0.020848269 0.033359554 0.020105783 0.007734948
-0.009036916 0.019371975 -0.021140909 -0.033778403 -0.03520411 -0.0065084286 -0.017285332 -0.00035630658
-0.025030263 0.0010878376 -0.013694642 -0.004451291 -0.03286976 -0.004810462 -0.006805461 0.0058086393
0.010824435 0.0074686804 0.009654151 -0.06161984 0.012393365 -0.0158698 0.02353789 -0.032020573

base.mlp.fc2.0.0.weight f4 [64, 64]
00000000: ff0a b3be 21ff 09bd d1ab d83d 15e1 0fbe
00000010: 71ec 8ebd 8b0e 6bbe 02c3 e83d 6735 95bd
00000020: 81af cb3c 643e abbe 5da2 043e f90c 08be
00000030: b503 39bd d7fb 913e 3754 383d d863 de3d
00000040: e639 37bd faea 15bd 0d35 22be f5d6 ac3d
00000050: ebba 51be b757 a9bc 8850 c6bd 6831 16be
00000060: b7a7 a83e 9f2c 813c 3948 ddbd 88ef febd
00000070: 2683 263e 695d 31be 4f1f e73d f54d 7cbe
00000080: 2c04 85bd d79e 503e 341a b53e 4a05 773e
00000090: 7a50 b8bd d7f3 3bbd dc88 0c3e ba4b 053e
000000a0: c7b1 4d3e 05ae 1fbe 4735 b2bd e29b cb3c
000000b0: 9fb6 f8bd b415 2dbd 3e9a 6c3e dee2 0e3e
000000c0: cef0 d83d 8729 cebd 95bf e73e 4d65 343e
000000d0: 68d8 9a3d 3ddb 1b3e 7d1a 59bd c4d4 ac3e
000000e0: 8520 ef3c 84ce 5d3e d250 95be 0cae ab3d
000000f0: 9d6b c5be 0231 383e bd48 a93d 24ff 1fbe
00000100: a752 183d e3d2 f33d 489a bebe 158f 73bc
00000110: e12d 2f3d 960b 3f3d 6f4b 333e bcd7 44be
00000120: 5d3b 1f3d 3fba f83d 7b17 3e3e 68ea 38be
00000130: 13be 2e3d ea92 1abe fc4d ef3d 0b8b 3b3e
00000140: d83e f3be 858f 023d d59c 9abc 4342 493d
00000150: 5ba7 503d 91b7 97bd e8b9 5bbe c35e 6e3e
00000160: e2d6 323e b809 4a3e 27b4 b03e fe3b 6abe
00000170: f00d 1f3c 949c a23e 8a7c af3d f004 283e
00000180: d7bd c6bd b419 2dba a122 a83e 990c d8bd
00000190: 2449 19be a23f 913e cc51 d33b cb14 5f3e
000001a0: 6a36 de3c 6f66 88be 26f9 e1bd c6ec efbd
000001b0: 25b7 923e f63f 0f3d 92ea b43e 8a75 1a3c
000001c0: 47ed 09bc dbdf 34bd cfb1 febd a8a9 973d
000001d0: 3884 713e e1e8 203e 4a68 333e f40d 7abe
000001e0: 6ec4 8d3e c857 703d a84a 613e 7352 ed3d
000001f0: e1d4 fb3c b385 2cbd 0079 5d3e 9e1c 98bd
00000200: ff63 9f3e c78e 233e de1d 753e e82c babe
00000210: 2e9a 863e 548d 14be 7899 7bbe 1c61 94be
00000220: 6380 aabd 08af d93c bf44 033e 6d20 12be
00000230: 3375 9abc c6a3 15be d824 1ebe a167 1bbc
00000240: ffa7 96bd b00b 59be 03b8 77be db9f a53d
00000250: 3a2a cfbc 6c1f 583e 0e1c 0bbe 8120 d4bd
00000260: 5178 8f3b e5ef 17be 6cc1 13be 1b90 103c
00000270: 4de7 933e 9f56 81bd 2563 c1be 26f6 82be
00000280: bd1e 373e fdb5 0bbe d6d8 d73d f6e2 f2bd
00000290: 0542 8b3d 229d c43e 6a20 07be a433 663c
000002a0: 4108 463e 7243 1b3e 9d43 053d 5ce0 01be
000002b0: 0c2c 9f3d 1e81 1d3b eeb6 73bd 613d aa3e
000002c0: 2f2a 91bd 96e3 843d 67db 82be 3570 a23d
000002d0: be04 2e3c 603e c7be a5b7 b9be a1ce cebd
000002e0: 2900 5abd 5a3f 403e 7496 0b3e 6b9d d93c
000002f0: 3cc8 ccbd 3dde c8bc bc3d 323e f0e1 b23d
00000300: 4e39 02be ed56 983b ec3c 2a3e cdec 283d
00000310: 5af6 503d 54cb 17be 1fcc 823d ee71 fdbd
00000320: acc2 03be 5e12 013e cc47 4bbe 9636 4bbe
00000330: c7b6 26be fdb6 503e cf87 85bd 93ff 1c3e
00000340: f2ea cabd a11f f23c c857 a7be 1381 3e3e
00000350: cdc8 65bd 14b4 1bbe bab9 2dbd 8ee3 9dbe
00000360: ef5b 393d 2f97 8b3c 1fab cf3e 4b83 4f3d
00000370: ff2b 803d a2ad 7c3e 77f4 adbe 6dff 0d3c
00000380: 3cec 0abe 447b 433d d4d2 f0bc 2a2b 8ebd
00000390: 4a26 afbd 3011 b3be b379 debc abf1 6abd
000003a0: c9a3 97be 7de7 8bbe a518 43be 5133 a9bb
000003b0: 397f f8bd f06c 143e 585b 63bd f737 403e
000003c0: 226e 853c 627d cf3e 94c4 e5bb f44d 51be
000003d0: 3943 85be 6678 3ebe dd80 413e c539 84be
000003e0: 4b15 c3bd 9b14 94bd 9e24 2cbe 2940 a03d
000003f0: 526d f8bc 85e9 783d f3e9 1abe d5e8 b03e
-0.34969327 -0.033690576 0.105796464 -0.14050706 -0.06978691 -0.22954766 0.1136532 -0.07285576
0.02486396 -0.33446038 0.12952562 -0.13286199 -0.04516955 0.2851245 0.04500219 0.108588874
-0.04473295 -0.036601044 -0.1584055 0.08439437 -0.2048146 -0.020671709 -0.09683329 -0.14667284
0.32940456 0.015768347 -0.10804791 -0.12448031 0.16260967 -0.1732079 0.112852685 -0.24639113
-0.06494936 0.20373093 0.35371554 0.24123111 -0.08999725 -0.04588684 0.13724083 0.13017169
0.20087348 -0.15593727 -0.08701568 0.024854604 -0.12144207 -0.042257026 0.23105714 0.1395373
0.10592805 -0.100665145 0.45263353 0.17616768 0.075608075 0.15220352 -0.053003777 0.33756077
0.029190311 0.2166081 -0.29163224 0.08382806 -0.38558665 0.17987445 0.08265827 -0.15624672
0.0371882 0.11905458 -0.37227082 -0.014865656 0.042768363 0.04664191 0.17509244 -0.19222921
0.038874973 0.121448986 0.18563645 -0.18058169 0.042661738 -0.15095106 0.11684796 0.1831476
-0.47508883 0.031875152 -0.018873611 0.049135458 0.050940853 -0.074080594 -0.21457636 0.23278336
0.17464784 0.1973027 0.34512445 -0.22874448 0.009707913 0.31760085 0.08568676 0.16408134
-0.09704178 -0.00066032563 0.3283892 -0.10549278 -0.14969307 0.2836886 0.00644896 0.21785276
0.027125556 -0.2664065 -0.110338494 -0.11715083 0.28655353 0.034973107 0.35335213 0.009427438
-0.008418388 -0.044158798 -0.12436258 0.07405406 0.23585594 0.15713836 0.17520252 -0.24419385
0.27688926 0.058677465 0.22001135 0.115879916 0.030741157 -0.042119693 0.21628189 -0.07427333
0.31130978 0.15972434 0.23937175 -0.36362386 0.26289505 -0.14507037 -0.24570262 -0.2898034
-0.08325269 0.02657272 0.12819193 -0.14270182 -0.018854713 -0.14613256 -0.15443742 -0.009485156
-0.073562615 -0.21195865 -0.24191289 0.08087131 -0.02528869 0.21105736 -0.13584921 -0.10357762
0.0043783565 -0.14837606 -0.14429253 0.00882342 0.28887406 -0.0631535 -0.37770954 -0.2557842
0.1788282 -0.13643642 0.10539405 -0.118596956 0.067997016 0.38401133 -0.13195959 0.014050398
0.19339086 0.15162447 0.032535184 -0.12683243 0.07772073 0.0024033259 -0.059500627 0.33249953
-0.07088124 0.06488721 -0.25558016 0.07931558 0.010621248 -0.38914776 -0.36272922 -0.10098005
-0.05322281 0.18774167 0.13631612 0.02656432 -0.09999129 -0.024520034 0.17406362 0.087345004
-0.12717173 0.0046490342 0.16624802 0.041241456 0.05101619 -0.14823657 0.06386589 -0.12375246
-0.1286723 0.12604663 -0.19851607 -0.19845042 -0.16280662 0.20382304 -0.06520044 0.15331869
-0.099080935 0.029556097 -0.3268416 0.18603925 -0.0560997 -0.15205413 -0.04241345 -0.30837673
0.04525369 0.017039863 0.40560243 0.05066232 0.062583916 0.2467561 -0.33975574 0.008666855
-0.13566679 0.047724977 -0.029397406 -0.06941827 -0.08552225 -0.3497405 -0.02715764 -0.05735938
-0.29617146 -0.2732505 -0.1905237 -0.005163588 -0.12133641 0.14494681 -0.055507034 0.18771349
0.016287867 0.40525347 -0.0070119593 -0.20439893 -0.2602785 -0.18600616 0.18896814 -0.25825325
-0.09525546 -0.07230493 -0.16810843 0.078247376 -0.030325565 0.060769577 -0.15128307 0.34552637

base.mlp.fc2.0.0.bias f4 [64]
00000000: ae71 c7bb 02d8 f6bb 9f9b 9c3c ad5d 71bd
00000010: 09da 7eba 037d 8a3c 8ee9 a8bc 8b48 083b
00000020: 866c 2cbc 5dc8 1cba 8425 2fbc e4b7 83bd
00000030: 4272 b03c e5b5 62bd 892d 95bc 8d2a febc
00000040: e4ab c6bc f76b 1dbd 6b67 15bd fced efbc
00000050: fdd1 cfba 6af5 edbc b33a 6c3c 1487 1b3b
00000060: 0fd1 e739 2c5e fdbb e23b 10bc 772c 003d
00000070: e441 86bc 4b05 6abd 503b 183d 0bf0 01bd
00000080: 33f5 32bc 5a0f 24bc be70 bebc 8a2b ba3c
00000090: 5fc3 b0bb efe2 83bc 2a31 c7bc 71d0 cdbc
000000a0: 33bc 4fbc 5e03 14bc 2127 d8bc 3906 793c
000000b0: 063a 6bbc cb5d 84bc 2ae0 32bd 1c73 21bd
000000c0: 7e02 053c 5813 c5bc 5b97 e6bc 4691 82bd
000000d0: 75df 953c f07c 21bd 9411 8e3c 036a 4b3b
000000e0: 38b0 09bd 74ae 8ebc a95e bdbb 86a0 0e3c
000000f0: b01e 5bbc 3d8c 38bd edea a5bc b9d2 deba
-0.0060865497 -0.0075330744 0.019117175 -0.058927227 -0.0009721821 0.016905313 -0.02061918 0.0020795192
-0.010523921 -0.0005980784 -0.010690097 -0.06431559 0.021538857 -0.05534925 -0.01821019 -0.03102615
-0.024251886 -0.03843304 -0.03647558 -0.029288284 -0.0015855428 -0.029047687 0.014418292 0.0023731636
0.00044215514 -0.0077321734 -0.00880334 0.031292405 -0.016388841 -0.057133954 0.03716594 -0.031723063
-0.010922718 -0.010013426 -0.023247119 0.02272584 -0.005394384 -0.016099421 -0.024315435 -0.025123807
-0.0126791475 -0.009034006 -0.026385846 0.0151992375 -0.014357096 -0.016158005 -0.04367081 -0.039416417
0.00811827 -0.024057075 -0.028148344 -0.06375365 0.01829503 -0.03942579 0.017342366 0.003103853
-0.03361532 -0.01741717 -0.0057791066 0.008705264 -0.013374016 -0.045055617 -0.020253623 -0.0017000056

base.mlp.fc2.0.2.weight f4 [64]
00000000: a859 873f cb86 883f 07c8 843f 070f 853f
00000010: 411c 833f 8cb7 883f 7a5d 833f df8f 823f
00000020: a208 893f 7755 8c3f 0c7c 7e3f ea50 843f
00000030: 80f3 8c3f 5f49 883f cb92 813f 06bd 843f
00000040: dfb5 863f 13de 833f f77b 803f e505 903f
00000050: f49d 893f 2821 853f 5819 8e3f d916 8d3f
00000060: 6d08 8a3f 6516 873f c83e 7f3f fc7a 893f
00000070: 6498 823f 2819 833f 86c0 933f 4694 883f
00000080: aa1f 873f 3b13 7f3f 62a4 823f d493 8b3f
00000090: edac 853f 2a4a 893f 1dde 7e3f 81f0 883f
000000a0: 6855 833f 6c4f 8a3f ab52 823f 3b90 8b3f
000000b0: 5ed1 853f 7aa7 843f 2470 893f 6c52 853f
000000c0: ce72 873f 6fd8 813f a19c 873f 8b76 833f
000000d0: e845 883f 26dd 843f 7e18 863f 67c4 863f
000000e0: 7300 823f 68fa 823f eec7 833f ccaf 803f
000000f0: e706 8a3f 3ceb 803f f2e5 853f a0da 8c3f
1.0574236 1.0666136 1.0373544 1.0395211 1.0242997 1.0681014 1.0262902 1.0200156
1.070576 1.0963582 0.9940803 1.0337193 1.101181 1.0647391 1.0122923 1.0370185
1.0524253 1.0302147 1.0037831 1.1251799 1.0751328 1.0400743 1.1101484 1.1022598
1.0783821 1.0553709 0.9970517 1.0740657 1.0202756 1.0242052 1.1543128 1.067025
1.0556538 0.9963872 1.0206416 1.0904489 1.0443398 1.0725758 0.9955767 1.0698396
1.0260439 1.0805488 1.0181478 1.0903391 1.0454519 1.036361 1.0737348 1.0415778
1.0581911 1.0144175 1.0594674 1.0270551 1.0646334 1.0379989 1.0476224 1.0528687
1.0156387 1.0232668 1.0295389 1.0053649 1.0783356 1.0071788 1.0460799 1.1004219

base.mlp.fc2.0.2.bias f4 [64]
00000000: 8fa0 6a3d b842 693d c876 2abd dbd3 80bd
00000010: 63e3 ffbb 8207 703d 05ac 703d caf6 86bc
00000020: 5985 7fbd 5fbb 81bd 19d5 12bd 85e2 80bd
00000030: 5d89 76bd 55e9 373b e49e 473d 424c 6cbd
00000040: adb6 df3b 6e8d 6ebd 3af1 28bd 5d95 78bd
00000050: 06c8 6a3d 9955 61bd 83d0 86bd 4f58 67bd
00000060: 9b40 693d f6ff 523d aea9 35bd 800a 823d
00000070: 0c90 a4bc 6a08 6dbd f2af 033d 1cce 68bd
00000080: c626 803d 9a59 893c f26f 163d 3168 82bd
00000090: c309 2cbc 64ba 69bd a3b5 8f3c 833e 86bd
000000a0: 42dc efbc cede 72bd e9d5 4dbd 43c5 803d
000000b0: 96fe 663d f31c 5ebd ab73 74bd 82a8 58bd
000000c0: 1668 823d d16a 513d f57f 90bc fa98 5bbd
000000d0: f1f1 7a3d fa3b 5ebd 20da 5d3d 6d82 61bd
000000e0: 7af4 4e3d 6e8c 5f3d e97f 683d c710 2e3d
000000f0: 27a3 7bbd e2c0 46bd 5d8f 73bd ff31 6f3d
0.057282027 0.056948394 -0.041617185 -0.06290408 -0.007809089 0.05860091 0.0587578 -0.0164751
-0.06238303 -0.06334566 -0.035847757 -0.06293205 -0.060189594 0.002806266 0.048735514 -0.057689913
0.0068271966 -0.058240347 -0.041245677 -0.06068932 0.057319663 -0.055013273 -0.06582739 -0.056480702
0.05694638 0.051513635 -0.044351272 0.06349659 -0.020088218 -0.057869352 0.032150216 -0.056837186
0.062573954 0.016766358 0.036727853 -0.06367529 -0.010500374 -0.05706252 0.017542666 -0.06554892
-0.029279832 -0.059294514 -0.05025283 0.06287625 0.056395136 -0.054226827 -0.059680622 -0.052895077
0.06367509 0.05112726 -0.01763914 -0.053612687 0.06126589 -0.054256417 0.0541631 -0.055056024
0.05052612 0.054577284 0.05676261 0.04249647 -0.06143489 -0.04852379 -0.059462894 0.05839729

act.action_out.fc_mean.weight f4 [1, 64]
00000000: 9afd 2f3d a3b5 463d 9541 dbbc 3623 f8bc
00000010: 94fa b83c 4bb8 5a3d 3bfe 713c 384f 62bc
00000020: 4c21 5dbd 6964 95bd aae7 91bb 2c03 b7bc
00000030: 7241 9dbd 11e5 4f3d a60e 873b a981 d8bc
00000040: f694 35bd 1919 bbbc fc74 9e3b dc6e cdbd
00000050: fb93 7b3d 4694 07bd f0fb a5bd 74b8 a6bd
00000060: 5209 7e3d 628e 443d cc92 063b 916c 6a3d
00000070: b1b7 793c 89d6 aabc b153 f63d c74f 64bd
00000080: f834 343d 8ddc cbbb 6eb6 b93c 2a5e 8fbd
00000090: 99e3 20bd d216 5bbd 68d9 85bb 01e5 5cbd
000000a0: 5d5f b33c f72f 6fbd 30f3 b1bc e603 8e3d
000000b0: b6fa 153d b008 f5bc 4012 7abd 6ee2 00bd
000000c0: ed46 393d 73ac 813c 7378 353d 5c0b b8bc
000000d0: 8244 513d 57c4 00bd 9556 1a3d 35fa 27bd
000000e0: b6cc 3b3c fe26 903c 3a0c c73c cbf0 f93b
000000f0: 8259 80bd deea c6bb 431c 12bd fea0 993d
0.042966463 0.048513066 -0.02676467 -0.030290227 0.022580422 0.05339841 0.014770086 -0.0138128325
-0.053986832 -0.07294542 -0.0044526653 -0.02234038 -0.07678498 0.050755564 0.0041216193 -0.026429014
-0.044331513 -0.022839116 0.004835723 -0.100309104 0.061420422 -0.03310039 -0.08104694 -0.081406504
0.062020607 0.04798735 0.0020534275 0.057232443 0.015241549 -0.020854251 0.120276816 -0.055740144
0.043995827 -0.00622136 0.022669997 -0.07000382 -0.039279554 -0.05348856 -0.0040847547 -0.053929333
0.021896059 -0.058395352 -0.021722406 0.06934337 0.03661605 -0.02991137 -0.06105256 -0.03146594
0.045233656 0.0158293 0.044304322 -0.022466354 0.051090725 -0.031437244 0.037680227 -0.0410101
0.011462381 0.017596718 0.024297822 0.0076275817 -0.06267072 -0.006070479 -0.035671484 0.0750141
