checkpoint/best_mappo_seed113_run20260211_183208_envmamujoco-ant-2x4d_ep3800_agent0_critic.pt (torch, 58226 bytes, 11 tensors)

base.feature_norm.weight f4 [126]
000000 b2 60 af 3f 46 05 a4 3e 74 00 62 3f bd 5a 84 3f
       1.3701384 0.32035273 0.8828194 1.0340191
000010 65 a5 3c 3f f3 ff 88 3f 5f bd 6b 3f ae 0c 5b 3f
       0.7368987 1.070311 0.9208583 0.8556622
000020 42 90 84 3f bf 02 65 3f e3 8b 73 3f ae 6a 69 3f
       1.0356524 0.89457315 0.95135325 0.91178405
000030 96 16 82 3f 1b ec 61 3f 5f cc 4e 3f 4e 4d 5b 3f
       1.0163143 0.88250893 0.80780596 0.8566483
000040 69 84 61 3f 24 b4 51 3f d6 17 36 3f f4 fe 4a 3f
       0.88092667 0.819155 0.7113012 0.7929528
000050 d4 05 9a 3f cb 81 82 3e d8 82 52 3f 3c 74 61 3f
       1.2033029 0.2548965 0.822309 0.88067985
000060 4c f4 6a 3f 99 e8 55 3f fd 88 61 3f 39 4c 77 3f
       0.9177902 0.8355804 0.8809965 0.9660068
000070 78 43 60 3f 0b 6e 67 3f 21 02 71 3f 98 c9 7f 3f
       0.8760295 0.9040229 0.94143873 0.9991698
000080 e3 67 39 3f 84 77 89 3f 2b ee 6b 3f 70 c5 2b 3f
       0.72424144 1.0739598 0.9216029 0.6709814
000090 78 f6 4b 3f a7 8b 5e 3f d4 b3 2a 3f f8 05 82 3f
       0.79672956 0.8693184 0.66680646 1.0158072
0000a0 c5 39 93 3f ef c1 b7 3e ba 89 4d 3f 88 28 6f 3f
       1.1502005 0.35890147 0.8028828 0.9342122
0000b0 9e 31 69 3f b5 5b 88 3f 82 71 50 3f e7 0b ad 3f
       0.91091335 1.0652987 0.814232 1.3519257
0000c0 ab 8c 8d 3f bf 4b e6 3e ab 68 6b 3f 82 d2 8b 3f
       1.1058553 0.44979665 0.91956586 1.0923617
0000d0 a6 5f ab 3f a3 1c d2 3f 9f 95 0c 40 b6 22 1a 40
       1.3388565 1.6414989 2.1966321 2.4083686
0000e0 eb 5d ed 3f b3 76 9b 3f 0b 20 1f 3f 99 60 75 3f
       1.8544286 1.2145599 0.6215827 0.9585052
0000f0 6c 8a 21 3f 43 27 1b 3f 38 80 05 3f dd 3e ad 3f
       0.6310184 0.60606784 0.5214877 1.3534809
000100 65 67 8f 3e 01 0e 7a 3f e8 ee 2e 3f 1d f3 7a 3f
       0.2800857 0.9767762 0.6833329 0.9802721
000110 cf 2d 8c 3f bf b2 64 3f 33 44 69 3f 65 ef 74 3f
       1.095148 0.89335245 0.9111969 0.9567779
000120 43 c3 86 3f 9e e7 87 3f 6b 5e 7c 3f 0d d0 5e 3f
       1.0528339 1.0617559 0.9858157 0.8703621
000130 40 8a 7a 3f c7 0d 83 3f 66 02 5c 3f 46 fc 8c 3f
       0.978672 1.023858 0.8594116 1.1014488
000140 c8 d1 81 3f cf 7b 13 3f 38 da 66 3f 39 32 94 3f
       1.0142145 0.5761079 0.90176725 1.1577827
000150 dd b7 8a 3e d1 ff 7f 3f 0c 55 6f 3f 27 f6 6f 3f
       0.27093402 0.9999972 0.93489146 0.93734974
000160 32 f3 4c 3f a7 b5 45 3f e9 af 56 3f c0 8c 54 3f
       0.80058587 0.77230304 0.8386217 0.8302727
000170 4f 75 8c 3f 3d d3 71 3f 6d ca 81 3f e3 aa 82 3f
       1.09733 0.9446295 1.01399 1.02084
000180 9c 51 8e 3f 4f 06 58 3f 11 8f 79 3f 3b ab 2b 3f
       1.1118655 0.84384626 0.97483927 0.6705815
000190 ca 2e 6e 3f 89 8a 4d 3f bd b0 69 3f 6c b5 7c 3f
       0.93040144 0.8028951 0.91285306 0.9871433
0001a0 3b 6e 9f 3e 19 7a 30 3f 4b 0e 77 3f 37 53 7d 3f
       0.31138787 0.68936306 0.96506184 0.989551
0001b0 5b c9 84 3f 7a 72 6d 3f 72 23 9b 3f a9 aa 8a 3f
       1.0373949 0.927528 1.2120192 1.0833331
0001c0 66 15 ec 3e f7 3b 82 3f 1f ad 72 3f 7d f3 9f 3f
       0.46110076 1.017455 0.9479541 1.2496182
0001d0 50 d2 c8 3f 59 e2 02 40 24 8c 07 40 70 c8 de 3f
       1.5689182 2.0450652 2.1179285 1.7404919
0001e0 ad a6 9c 3f ba e5 fd 3e 48 a8 71 3f 83 83 23 3f
       1.2238365 0.4958933 0.943974 0.63872546
0001f0 9a a6 25 3f 0c a6 08 3f
       0.6470734 0.5337837

base.feature_norm.bias f4 [126]
000000 55 41 c6 3b fc 39 9c bd 2e 6a fc 3c 7a cf 18 3d
       0.0060502687 -0.07628247 0.03081235 0.03730724
000010 b4 f4 28 3c 30 7c 75 3c 56 f5 a8 3c 66 5c 68 3c
       0.010312248 0.014983222 0.020624798 0.014182186
000020 d6 9a f7 3c ab 59 79 bb 6d 84 4c 3d 81 e4 b8 bc
       0.030225199 -0.003804783 0.04993098 -0.022569897
000030 42 c1 01 bc a1 40 39 3d cc fe 84 bd 78 a3 10 3d
       -0.007919611 0.04522765 -0.06493911 0.035312146
000040 b7 c0 7e bc a6 ce 00 3d c5 73 46 3b d9 39 38 ba
       -0.0155488765 0.031447075 0.0030281406 -0.0007027663
000050 26 76 7b bd ac 73 d5 bd 0b 5b eb 3c 29 34 04 3d
       -0.061391972 -0.10422453 0.028729936 0.032276306
000060 ae 4e ef bc 85 c0 19 3c 0c 15 df 3a ec 9e 2d 3d
       -0.029212322 0.009384279 0.0017019822 0.042387888
000070 bd 2a 2a 3d 72 00 b0 bc 90 6b 38 3d 2d 09 e0 bc
       0.041544665 -0.021484587 0.045024455 -0.027348125
000080 ae e5 76 bc 56 4f 3c 3d 60 fb 72 bc 37 ea 4f bd
       -0.015069408 0.0459741 -0.01483044 -0.050760474
000090 8c f2 5f 3d 0c a2 f7 bc 78 9c 54 bc a6 31 46 3c
       0.05467467 -0.030228637 -0.012976758 0.012096798
0000a0 8a 36 d8 3c 39 9b 2a bd 9a 6e 13 3c 94 d1 9a bb
       0.026393194 -0.041651938 0.008998537 -0.0047246907
0000b0 a0 73 82 3c 6b 28 4f 3c 7c a6 92 3c 9c 1b 01 3d
       0.015924275 0.012643914 0.017901652 0.03152047
0000c0 b9 60 2f 3c ed 4c 80 3d 8d 6b 3d bc ea b2 11 3d
       0.010704213 0.062646724 -0.011561287 0.035571016
0000d0 1d 85 c8 bd 27 ac 3f bc 4e af af bb ef 82 57 3c
       -0.09791014 -0.011698759 -0.005361474 0.013153776
0000e0 fa 36 7a 3d 5e 10 bd bc 56 ae 07 3d 6e 43 c0 3d
       0.061087586 -0.023079094 0.033125244 0.09387861
0000f0 6f 5f d8 3d bb 2d 81 bd 14 6c 64 bd 01 b7 a2 bc
       0.105650775 -0.063075505 -0.055767134 -0.019862654
000100 3e d4 f5 3b 6e 7d 0d 3d 1f 46 8a 3c 54 c1 40 3b
       0.007502108 0.034543447 0.01687914 0.0029412108
000110 35 8c e8 3b 38 b3 ea 3c d8 e8 e5 3c b7 8e 12 3d
       0.007096792 0.028649911 0.02806513 0.035780635
000120 15 75 f5 3c 7a a7 3d 3d d4 bd 0a bd ce cb af 3c
       0.029963056 0.046302296 -0.03387244 0.021459486
000130 7d e6 61 3c e7 ee a7 bd 23 4a dd bd 88 a4 a4 bd
       0.013787863 -0.08199864 -0.10805156 -0.08039194
000140 db b0 38 bd b2 b4 26 3b b2 ff 9b bd d7 b8 d9 3d
       -0.045090538 0.0025437293 -0.076171294 0.106309585
000150 38 5d 1a bd 2d 46 db 3a 9b fb 55 3d f7 05 42 3d
       -0.037686557 0.0016729288 0.052241903 0.04736897
000160 af ee 8e 3c b5 f8 d3 3c 93 58 23 3d 7d 19 59 3c
       0.017447798 0.025875429 0.039879393 0.013250706
000170 9e 02 11 3d a2 0c 59 3b 49 87 47 bd ad e1 80 3c
       0.035402887 0.0033119102 -0.048713002 0.01573261
000180 df 79 4d 3d ba 83 4c 3d fe 5a c4 3c d5 61 97 3c
       0.050165053 0.04993031 0.02396917 0.018479267
000190 f6 68 34 bc 71 d1 1e bd 34 cd da bc 87 19 18 3c
       -0.011011353 -0.038773958 -0.026709177 0.00928343
0001a0 e9 ff f6 bd f7 c8 f6 3c c5 3a 5f 3c ca 02 05 bd
       -0.1206053 0.030125124 0.013624852 -0.032473363
0001b0 a2 60 10 3d 16 23 ee 3c db 57 05 3d b1 7e 8b 3c
       0.035248406 0.029069465 0.03255449 0.017028185
0001c0 1f 86 fa 3d f1 34 e2 bc 3c a8 71 3d 0a cb af bb
       0.12232613 -0.027613135 0.05899833 -0.0053647803
0001d0 52 75 d5 3a ad 47 02 3d a7 53 45 3c 5e 3f dd 3c
       0.0016285575 0.031806637 0.01204387 0.027007755
0001e0 7d 03 97 bc fa 66 51 3d 7d 60 01 3e a8 81 c5 bd
       -0.01843428 0.051123597 0.12634464 -0.096438706
0001f0 df b9 c1 bd 64 bf 02 be
       -0.0945928 -0.12768322

base.mlp.fc1.0.weight f4 [64, 126]
000000 f9 15 11 3e d8 79 30 3d 9e df ad 3e 82 95 29 3d
       0.14168538 0.04308495 0.3395967 0.041402347
000010 26 d4 89 3d e1 e7 7b 3c f5 be 2b bd 30 4a 86 bd
       0.06729917 0.015375108 -0.041930158 -0.06557119
000020 39 ec 73 3e ac 29 6f 3d 8c e8 90 bd eb d4 23 be
       0.2382058 0.05838935 -0.07075605 -0.1599919
000030 6d 45 a3 3d 77 b5 cc 3d 4e 16 de bd 02 a8 90 3e
       0.07972226 0.09995549 -0.10844098 0.2825318
000040 76 23 84 3e ff 03 bd 3d 3f 2d 5a 3e e1 bd 70 3d
       0.25808305 0.09229278 0.21306323 0.058774833
000050 e6 c6 6c bc 04 21 95 3e 12 7f df 3d ce 4e c8 3d
       -0.014451718 0.2912675 0.109129086 0.09780656
000060 00 16 0e 3b 7f 30 ce 3d a2 d0 17 be 25 b5 48 3e
       0.0021680593 0.10067844 -0.14825681 0.19600351
000070 5c 63 6c bd d6 d5 a3 3e 87 6a d4 3d e8 f4 70 3c
       -0.057711944 0.3199908 0.10371881 0.014706828
000080 5b 10 46 bd 6b 08 10 3e 3d 2e 83 3c 6a 19 ff 3d
       -0.04835544 0.14065711 0.016013259 0.12456019
000090 8b cf cd 3d 1b dc e9 3e 74 2e 05 be c4 e8 6c 3e
       0.10049351 0.4567574 -0.13006002 0.23135668
0000a0 68 e1 09 3d bd 0b a8 3d ab 80 27 3e 76 58 ba 3d
       0.03366223 0.08205364 0.16357677 0.09098904
0000b0 af dc 35 3e f5 26 e3 3c 5d 3a d5 3d 27 b5 b1 3d
       0.17759965 0.027728537 0.104115225 0.0867713
0000c0 69 bb c1 bd 81 16 a8 3d 92 da 6d 3c d5 95 10 be
       -0.09459574 0.08207417 0.014517443 -0.14119656
0000d0 ed a7 88 bd 3e 0d 41 be b6 60 d9 3d 60 75 1c bf
       -0.06672654 -0.18852708 0.10614149 -0.611166
0000e0 cd 7c b0 bd 12 2f 9d 3e 95 5f cc be e3 cf 99 3d
       -0.08617554 0.30699974 -0.39916673 0.07510354
0000f0 1b eb c2 bd 1d 98 5e 3e 89 37 9f 3c 12 f8 81 3e
       -0.09517499 0.21737714 0.01943566 0.25384575
000100 7c 9d 18 3d 47 5e af 3d d4 df 8b 3e 86 dc f8 bd
       0.037259564 0.08562904 0.27319205 -0.121514365
000110 d3 3c 93 3e 26 c2 5c 3d 6c 81 fb 3d a9 27 ea 3d
       0.28757343 0.053896092 0.12280545 0.11433346
000120 5e 97 6e 3e 77 53 51 3d 50 d5 91 bc c9 8f 86 3d
       0.2329993 0.05110499 -0.01780191 0.065703936
000130 d1 89 3f 3e 32 9b 7c bd ac 23 53 be 53 28 38 be
       0.18704917 -0.061671443 -0.20619076 -0.17984132
000140 32 62 8c 3e b6 ab fc 3d 85 14 20 be d0 dc c6 bd
       0.27418667 0.12337439 -0.15632828 -0.097100854
000150 03 48 da 3d e9 4e c7 3e b9 da 13 3e 98 7b 5e 3d
       0.106582664 0.3892739 0.14438905 0.054317087
000160 ad c1 32 3e 87 10 57 3e 4a 4c f5 3c c0 df 3a 3e
       0.17456694 0.21002398 0.029943604 0.18249416
000170 91 22 6e 3e 3d dc 13 be 4c f2 48 3e d3 37 b1 38
       0.23255374 -0.14439483 0.19623679 8.450416e-05
000180 9a 1c b9 3c 40 af 68 3e 3f a3 e8 bc 46 af a3 3c
       0.022596646 0.22723103 -0.028398154 0.019981038
000190 2f 09 36 3d 29 46 c0 bd 8a 47 59 be c4 e7 72 be
       0.044442352 -0.09388382 -0.21218696 -0.23721224
0001a0 b2 5b 6a bd 23 85 8f bd 1a 37 5d be f4 dc ec 3b
       -0.057216354 -0.07007816 -0.21603051 0.007228488
0001b0 42 0a 31 3e 36 28 5f 3e b0 da 87 bc df d6 5b 3d
       0.1728907 0.21792683 -0.01658377 0.053671714
0001c0 cd 88 35 3d 8a 70 a4 bc d9 f5 53 be 7b 3f 70 bd
       0.044319917 -0.020073194 -0.20699252 -0.05865429
0001d0 b2 4c a7 bd 07 f5 0d 3e 70 17 07 bf 75 f8 c0 3d
       -0.08168925 0.13863002 -0.5277014 0.094223894
0001e0 3a 95 93 3e 34 cf 4c be 30 70 53 3b 23 43 5a be
       0.28824788 -0.20000917 0.0032262914 -0.21314673
0001f0 47 59 90 3d 9e e8 5c 3d 37 57 3d be db eb 5f 3d
       0.07048278 0.05393278 -0.18490301 0.05466829
000200 5a 83 0e 3e e8 6b 47 be df 3d e7 bd 31 10 af 3d
       0.13917294 -0.19474757 -0.11291098 0.0854801
000210 2a 2c 4b bc 55 b5 71 be 13 99 08 be 19 fb 2a 3c
       -0.012400666 -0.23604329 -0.13339643 0.010435843
000220 92 91 9d 3d e4 4c 21 3c 62 a9 74 be 36 ce 99 be
       0.07693781 0.009844992 -0.2389274 -0.3004014
000230 09 19 6b 3e 29 51 06 3e 5d 8f 36 3d fa 37 57 be
       0.22958769 0.13116898 0.044570316 -0.21017447
000240 94 b2 e7 bc 0b 26 02 3f 65 7c 3e be ab 96 ea bc
       -0.028283395 0.508393 -0.1860214 -0.028636297
000250 bf 05 81 be 9f 14 8f be 53 6b 6c 3d e6 0a b6 3d
       -0.25199696 -0.2794542 0.05771954 0.088887975
000260 a1 8d 0a 3d 3b 57 36 bd 5b 21 01 bd 7a 08 47 bc
       0.033826474 -0.044516783 -0.03152595 -0.012148017
000270 5d 26 92 bd 48 31 5d be 21 1c 46 be ea f2 2c be
       -0.071362235 -0.2160083 -0.19346668 -0.1688954
000280 10 c5 58 be 0f 03 0c be 99 68 0f 3e c1 13 14 be
       -0.21168923 -0.13673042 0.14004745 -0.1446066
000290 80 7e 01 3d 4a 1c 6b bd f1 5d 69 3e 0c b6 c0 bd
       0.03161478 -0.057400025 0.22789742 -0.09409723
0002a0 9e 28 02 bd 10 95 3f be ac 81 05 3d 65 0a 07 bb
       -0.031777017 -0.18709207 0.032594368 -0.002060556
0002b0 7f c3 d3 bd b6 55 81 be 7d 85 e9 bd 4e c0 91 be
       -0.10340022 -0.25260705 -0.11402414 -0.2846703
0002c0 d2 73 7a bd 6e e4 27 3e f6 8b 84 be 50 46 d0 3c
       -0.06114561 0.16395733 -0.25888032 0.025424153
0002d0 d8 c3 fb bc da 21 1e 3d dd ae 29 3e f5 aa 03 3e
       -0.030733034 0.038606502 0.16570611 0.12858184
0002e0 33 61 2a 3d 34 4a fc bc b7 e8 de 3d 1f e0 aa bd
       0.041596603 -0.030797102 0.108842306 -0.08343529
0002f0 ec bf 54 be d9 5e 9f 3d 70 79 32 3e 90 90 38 bd
       -0.20776337 0.07781763 0.17429137 -0.04505974
000300 45 28 88 bd 93 a4 9a bb c8 86 25 be 63 45 36 b8
       -0.06648306 -0.004719326 -0.16164696 -4.3456803e-05
000310 15 79 98 be e1 11 50 be 77 1d a7 be 11 e9 8b be
       -0.29779878 -0.2031932 -0.32639667 -0.27326253
000320 33 9e 7f be 79 68 7c bc f8 c6 19 3d 57 b3 c0 3e
       -0.24962692 -0.015405768 0.037543267 0.37636825
000330 2c 5b 0c 3e 69 f4 cd be 90 24 a8 3e a0 13 39 3e
       0.13706654 -0.40225533 0.32840395 0.18073893
000340 fa b4 0d be 21 40 92 bd eb 7d 35 3d 6b e7 20 be
       -0.13838568 -0.07141138 0.044309538 -0.15713279
000350 75 8a 71 3d 82 25 40 be bc 9f f4 3d 9c c9 de be
       0.058969934 -0.18764308 0.119445294 -0.4351319
000360 35 80 61 be 90 09 b5 be 77 ad 32 be c6 3a b5 be
       -0.22021563 -0.35358858 -0.17448984 -0.35396403
000370 70 3d 1d 3e d6 80 46 be de 0b 89 be 28 9b ae be
       0.15355468 -0.19385085 -0.26766866 -0.3410275
000380 5d 2f 1a bf 7c 8e 0d be d4 f3 69 3e 53 e4 94 be
       -0.6022852 -0.13823885 0.2284692 -0.29080448
000390 ff 65 df bd 41 ea 82 be ac b5 66 3e 29 b1 61 3d
       -0.10908126 -0.25569347 0.2253024 0.055100594
0003a0 91 f6 7f bd ef c2 b2 bd ba a8 90 be e9 f3 31 3c
       -0.062491003 -0.08728587 -0.28253728 0.010861375
0003b0 00 90 c8 be 04 b1 f2 bb 5a 34 de bd 4a 3c fb 3d
       -0.39172363 -0.007406356 -0.10849829 0.122673586
0003c0 c6 bc 9a 3d e5 a6 51 be f1 5e b6 bb 4a 04 82 be
       0.07555537 -0.20473821 -0.005565517 -0.25393897
0003d0 62 1e c7 bd 0b 3d 80 3c 35 0c 75 be 3c 9b 90 3e
       -0.09722592 0.015654108 -0.23930438 0.28243434
0003e0 8c 4c c6 bc 64 f5 00 3e 28 ed 27 bd 7d fb 7d bd
       -0.024206422 0.12593609 -0.040997654 -0.062007416
0003f0 87 97 01 3e 9a 39 b5 3b 28 7b d2 bd f4 8a 3a 3e
       0.1265546 0.0055305483 -0.102773964 0.18217069

base.mlp.fc1.0.bias f4 [64]
000000 05 59 c8 3c d5 ed 9e bd 93 ff 13 be cc 75 96 3d
       0.02445651 -0.077602066 -0.14452963 0.07346687
000010 0c 54 09 bb 28 15 34 3d cf 34 ea bd 69 41 9a bd
       -0.0020954637 0.04396549 -0.11435854 -0.07532007
000020 bf 92 82 3d 58 d3 ca bd 71 7f c5 3d f7 d1 57 bd
       0.06375646 -0.09903592 0.09643448 -0.052690472
000030 67 10 84 bd ae 52 a4 3d b3 80 cc 3d 53 43 9a 3b
       -0.06448441 0.080235824 0.09985485 0.0047077327
000040 fa 36 0e 3b 4f ee 49 3e 13 53 c4 bb 3b ca bd 3d
       0.002170025 0.19719814 -0.0059913485 0.09267088
000050 0c 11 2e 3d 06 1f ef 3d f7 38 1c 3b 14 6c 61 3d
       0.042496726 0.11675839 0.0023837665 0.055034712
000060 17 2c 9f bc 61 22 01 bd 27 d8 c6 3d a2 f6 2f 3e
       -0.019430203 -0.031526927 0.097091965 0.17183927
000070 0d ce 1c bd 16 01 bd bd b9 72 8d 3d e1 9a 0c 3e
       -0.038282443 -0.09228723 0.06906647 0.13730957
000080 da 1d 2c 3d 03 40 bf 3b fb c2 4a 3d cd c8 d8 ba
       0.042020656 0.005836488 0.049502354 -0.0016539335
000090 09 fd 9d 3c b9 67 1b 3d 7a 29 c7 3c 65 5c 89 3c
       0.019285696 0.037940715 0.02431177 0.01676769
0000a0 64 38 d4 bc a8 98 d5 bc 59 9e a7 3c 6e 09 67 bc
       -0.025905795 -0.026073769 0.020461248 -0.014101369
0000b0 4f 0e db 3c 11 5f af 3d 4e 9a 77 3c 73 ec cc 3d
       0.026740221 0.08563054 0.015112473 0.100060366
0000c0 ed 03 3c be 66 39 d3 3c 5c c4 78 bd fb d5 bc bc
       -0.18360873 0.025784206 -0.060734138 -0.023051253
0000d0 90 47 52 3d 08 91 3f ba 28 cb e1 3d 6c dd cd 3d
       0.05133778 -0.0007307683 0.11025077 0.100519985
0000e0 55 11 33 3e 35 0f 0b bd 4c a3 09 bc e1 09 c1 bd
       0.1748708 -0.03395005 -0.008400749 -0.094257124
0000f0 dd bc 2b bd 6d 47 2a 3e 44 ac 43 3e bc 78 d5 bc
       -0.04192816 0.1662881 0.19108683 -0.026058547

base.mlp.fc1.2.weight f4 [64]
000000 b0 bb 55 3f 22 6d 88 3f 52 51 85 3f 50 9d 7c 3f
       0.83489513 1.0658305 1.0415442 0.9867754
000010 66 bb 7b 3f 4e 44 81 3f 9f c2 60 3f 3a 48 57 3f
       0.9833282 1.009897 0.8779697 0.84094584
000020 7c ad ac 3f 23 b3 5c 3f ea 87 7e 3f d7 e6 59 3f
       1.3490443 0.8621084 0.9942614 0.8511786
000030 70 79 62 3f a2 84 a9 3f 6f 3c 8f 3f f6 f2 63 3f
       0.8846655 1.3243601 1.1190318 0.89042604
000040 5f 5e 95 3f 57 6e 8e 3f 6e 34 6f 3f e7 83 95 3f
       1.1669425 1.1127423 0.93439376 1.1680878
000050 7a b5 7f 3f 40 d9 a3 3f ab 61 9f 3f d8 69 9b 3f
       0.99886286 1.2800674 1.2451681 1.2141676
000060 2f b3 72 3f 46 f6 75 3f b1 88 8b 3f 3a 9c 9b 3f
       0.9480466 0.9607891 1.090109 1.2157052
000070 20 52 85 3f 45 f0 6c 3f 47 68 88 3f 70 ad 86 3f
       1.0415688 0.9255412 1.0656823 1.0521679
000080 cc 56 7f 3f ae 34 9c 3f b1 fa 91 3f 5f b5 75 3f
       0.99741817 1.2203577 1.140463 0.95979875
000090 83 75 81 3f 89 06 8c 3f 42 78 6f 3f 2b c0 76 3f
       1.0113987 1.0939494 0.93542874 0.96386975
0000a0 14 3a 6d 3f 15 a7 7a 3f 09 ff 82 3f f6 94 78 3f
       0.92666745 0.97911197 1.023408 0.97102296
0000b0 34 75 63 3f cc 69 6c 3f f0 10 98 3f 4d e6 9d 3f
       0.8885071 0.92348933 1.1880169 1.2335907
0000c0 fd aa 63 3f e6 36 89 3f e4 18 4d 3f 86 08 6d 3f
       0.8893278 1.0719879 0.80116105 0.9259113
0000d0 5b 53 82 3f e8 97 7f 3f ad 17 89 3f c5 f0 67 3f
       1.0181688 0.99841166 1.071035 0.9060176
0000e0 ad d4 6e 3f 8e a7 62 3f 82 27 75 3f 7d 32 85 3f
       0.9329327 0.8853692 0.9576341 1.0406033
0000f0 8a b5 5f 3f ce ba 80 3f f4 99 7a 3f e7 bf 70 3f
       0.8738638 1.0057008 0.97891164 0.9404282

base.mlp.fc1.2.bias f4 [64]
000000 2a 7e 87 bc 1b 6f 74 bd de 1f 77 bb a1 1d 8f bd
       -0.016539652 -0.05967627 -0.0037708203 -0.06988073
000010 52 6c b7 3c 05 79 dd bd 74 0c e5 3d 75 eb 1b 3c
       0.022390518 -0.10814098 0.11184016 0.009516587
000020 f2 1d 95 bb 72 5c 27 3e f9 d7 68 bd 7f 60 90 3d
       -0.004550689 0.16343859 -0.056846593 0.07049655
000030 01 77 4c bd 9d 4e c3 3d d9 d0 7a bd 2d 36 2a 3d
       -0.04991818 0.09536479 -0.06123433 0.041555572
000040 9e 6f 93 bd 77 5a 27 3e 8d 14 8e 3c 4b 01 ab bd
       -0.07199024 0.16343103 0.017343784 -0.08349856
000050 76 a3 2f 3c 1e 7b a2 bd 3a 66 5a 3d e4 8b d0 3d
       0.0107201245 -0.07933639 0.053320147 0.10182932
000060 6f cb 5a 3c 42 44 87 bd 55 c9 72 bc ee 76 d3 bc
       0.013354166 -0.06604816 -0.014818509 -0.025813546
000070 15 89 20 bd db df e0 3d ca 1f c2 ba 41 b3 b2 3d
       -0.03919323 0.10980197 -0.0014810499 0.08725596
000080 27 5b 7c bd ff 03 6a 3d 67 b2 1d bc 06 02 31 bc
       -0.061610367 0.057132717 -0.009625054 -0.010803705
000090 7c 78 6e bd b9 b0 ff bd 20 bf 36 3e a1 28 5b bd
       -0.05822037 -0.12484879 0.17846346 -0.053505544
0000a0 03 64 1e 3d 64 1d d4 bd 5d ca f5 bb a5 79 c6 3d
       0.038669597 -0.10357168 -0.00750093 0.096911706
0000b0 52 82 62 3d d9 6e da 3c 00 be c2 bd a1 6c 0f 3d
       0.055300064 0.026664184 -0.09508896 0.035015706
0000c0 12 35 9d bd 8d e0 0d bc f8 f4 12 3e 5b 9c 17 3d
       -0.07676138 -0.008659494 0.1435126 0.037014347
0000d0 f2 31 d4 3c c8 6c 4e bd f2 aa 99 3d 03 a3 eb 3d
       0.025902722 -0.05039671 0.07503308 0.115057014
0000e0 94 09 cd 3d c3 55 28 bb 58 7b 3a bd 3b fd 8c 3c
       0.100115925 -0.0025685884 -0.045527786 0.017210593
0000f0 99 73 00 bd a3 8f 2c 3c bb 88 8b 3d da 52 08 bd
       -0.031360243 0.010532293 0.06813189 -0.03328214

base.mlp.fc2.0.0.weight f4 [64, 64]
000000 9f 87 21 3e ec 1f 5c 3e ed 89 a1 3e 84 e8 86 3d
       0.15774392 0.21496552 0.31550542 0.065873176
000010 47 33 6f 3c 2a b7 77 bc 5c ba 38 3e f4 1c ba 3d
       0.014599628 -0.015119353 0.1803984 0.090875536
000020 d8 74 9e be a6 82 f0 3d 55 0a 5d bc 8a fa 6f 3e
       -0.3094852 0.11743669 -0.013491233 0.23435417
000030 50 9d 3a 3e 5d 0b c1 bc 4f 59 5a 3d 5a d8 5f 3e
       0.18224072 -0.023564989 0.053307828 0.21859875
000040 96 b3 93 bc 7b e1 8c be 4c 42 1f 3e d1 f0 fb 3c
       -0.01802997 -0.27515778 0.15552634 0.030754479
000050 84 6c 5e bc 51 9d 9f be aa 21 73 3e bb da 14 3e
       -0.013575677 -0.3117471 0.2374331 0.14536564
000060 4a 35 26 3e a8 bd a8 bd d0 05 42 bb a4 02 16 3f
       0.16231266 -0.08239299 -0.0029605515 0.5859778
000070 65 48 74 3e 60 34 84 3e 75 8c b6 bd 0d 07 db 3c
       0.23855741 0.2582121 -0.08913509 0.02673676
000080 0e 8d 35 be d6 28 8c be c0 ce 2e 3e 01 ed 05 be
       -0.1772959 -0.27374905 0.17071056 -0.13078691
000090 f4 fd 41 bd 8d 00 bb bc ad 5f c4 3c 41 f4 00 3f
       -0.04736133 -0.022827411 0.023971403 0.503727
0000a0 05 a1 99 be 34 80 9d be d4 78 27 bd 0a 88 93 bb
       -0.3000566 -0.30761874 -0.040886715 -0.004502301
0000b0 2a c3 6f be 71 c8 5a bd d2 3e 26 bd 9c 9e 57 3d
       -0.23414293 -0.053413812 -0.040587254 0.052641496
0000c0 88 0b 5f 3e 1a fa ce 3c b9 36 14 bd 5f 1b 7b be
       0.21781743 0.025265742 -0.036185 -0.2452216
0000d0 a4 12 51 be 96 d1 27 bb 53 ce c5 bc f8 18 cf be
       -0.20417267 -0.00256071 -0.024146235 -0.40448737
0000e0 4b d5 b4 bc 1f 87 b9 3e bb 3f 8c 3e 44 7c 6b 3e
       -0.022074362 0.36235902 0.27392372 0.22996622
0000f0 29 da 84 3e 65 c6 c3 be 2e 82 da 3d eb be 8e 3e
       0.25947693 -0.382373 0.10669361 0.27880034
000100 ad e7 cc bd 95 0d de bc 79 a9 87 bd f4 d1 4d 3d
       -0.10005126 -0.027106086 -0.06624121 0.050249055
000110 1c dd 5b be 43 b6 0a be fb f6 fe 3d 7f 4a 30 bd
       -0.21471065 -0.1354609 0.124494515 -0.043039795
000120 4d 44 48 3c 56 b7 a9 3d cd 89 40 be dd b5 54 3d
       0.012223315 0.08286922 -0.18802567 0.05193125
000130 49 cc 0f be c8 41 a3 3e be 01 c4 be 08 28 c9 3d
       -0.14042772 0.31886125 -0.3828258 0.098220885
000140 18 9e 87 be 6e d6 a0 bd 52 e5 a9 be e0 a7 28 3d
       -0.26487803 -0.07853399 -0.3318277 0.041175723
000150 28 40 90 3d 9b b2 23 bf 39 13 8a bd 59 42 ad bd
       0.07043487 -0.63944405 -0.06741948 -0.084599204
000160 f4 5d 1e 3e ba e1 c3 3e a4 ed a1 be be b4 7b 3d
       0.15465528 0.38258153 -0.31626618 0.061451666
000170 14 d0 5e bd 41 28 c1 bd ba a6 a7 3c 32 9a 5e bd
       -0.054397658 -0.09431506 0.020465244 -0.05434627
000180 e0 36 8b be 48 8e 98 3c bf b9 8e 3e a2 eb 51 3e
       -0.27190304 0.018622532 0.27876088 0.20500043
000190 55 ad 9d be 70 9a 24 3e ab 01 af 3e b7 b5 0f 3e
       -0.30796304 0.16074538 0.3418096 0.14034162
0001a0 db 6f c6 bd 83 64 bb 3e cc 8b b2 bd 24 a6 86 3d
       -0.096893035 0.36600122 -0.087180704 0.065746576
0001b0 93 f2 9b bd ae 89 87 bd 5b 27 84 bd a4 b0 16 be
       -0.07614627 -0.06618057 -0.06452819 -0.1471582
0001c0 e7 7e 95 bb 98 4a be bd da dd 09 3e ed 65 95 bd
       -0.004562247 -0.092915714 0.13463536 -0.072948314
0001d0 2f 01 07 3e 54 b4 0a 3f 8a 75 55 3e 77 c6 49 be
       0.13184045 0.5418141 0.20845619 -0.19704615
0001e0 b7 14 d8 3d 99 c7 b7 3d b0 35 6b 3d f5 76 8e 3d
       0.10550826 0.08973617 0.057424247 0.06956283
0001f0 6d 98 0c 3e c3 80 9a 3e 3c 64 7c bd f4 e3 de be
       0.13730021 0.30176362 -0.06161903 -0.4353329
000200 5a ab 3e 3e 77 f8 0b 3e 21 06 ad 3e d7 0b 46 3e
       0.18620053 0.13669 0.33793738 0.19340454
000210 b4 e7 43 be 8a b4 6b bd 99 ae 22 3c cc 1f cd bd
       -0.19131356 -0.057545222 0.009929323 -0.100158304
000220 56 b1 bf bd a4 f7 81 3e b4 d9 7c 3e e4 bd 6e 3e
       -0.09359996 0.25384247 0.24692422 0.23314625
000230 dd e9 a5 3d 39 eb 03 bd 91 4a 88 ba 39 0a 95 be
       0.081012465 -0.032206748 -0.0010398199 -0.29109362
000240 7f a1 f9 3d 1f bb ac 3e 30 34 1d bd 47 c7 01 be
       0.12189006 0.33736512 -0.038379848 -0.12673675
000250 6a 21 83 3e 66 85 25 be e0 22 f6 3d 91 61 81 be
       0.2561143 -0.16164169 0.12018371 -0.2526975
000260 68 ad b6 be 6e 5f 12 be 93 c6 fc 3e c6 c8 59 bd
       -0.35679173 -0.14294216 0.4937025 -0.053169988
000270 eb 2e 33 3e 43 11 c8 3e ae c4 4f 3e 63 a4 8f be
       0.17498367 0.3907567 0.20289871 -0.28055105
000280 35 6b 22 3e 30 ae c1 be ed 07 a4 3d 5f 4d b4 bc
       0.15861209 -0.37828207 0.08009324 -0.02200955
000290 fd 72 3a bd 65 ba 60 3d c0 fc dd ba 8b bd 28 3c
       -0.045519818 0.05486526 -0.0016936287 0.010299097
0002a0 98 f2 c0 be 2a f1 0f 3e dd b7 f8 3c d9 74 60 3e
       -0.37685084 0.1405684 0.03036111 0.21919574
0002b0 48 0d c6 3e 76 c3 92 3c 85 ca 1f 3e 81 ea 08 bf
       0.38682008 0.017915469 0.15604599 -0.53482825
0002c0 35 b4 cf 3d 54 1d e0 3e 1c cb 5c be ad b3 95 3d
       0.10141794 0.43772376 -0.21561855 0.07309661
0002d0 5d f5 9a be 8b 56 02 3f ea 86 07 be 0f cc 39 3b
       -0.30265322 0.50913304 -0.1323506 0.0028350388
0002e0 48 90 e6 3d 14 62 bb 3d 12 dd 90 3e 50 56 30 be
       0.11257988 0.09149566 0.28293663 -0.17220426
0002f0 21 e0 a6 bd 16 02 9b 3e fc 9f 66 3e 65 36 08 bc
       -0.08148218 0.3027503 0.22521967 -0.00831375
000300 10 c5 2f 3e 88 13 b1 be 8f 4a 84 be 86 ff 8f 3c
       0.17165017 -0.34585214 -0.25838134 0.017577898
000310 7e f1 21 3e 28 5e 8c be 1c 66 b9 3d 20 44 09 3e
       0.15814778 -0.27415586 0.09052679 0.13404894
000320 61 ec 87 be 51 34 49 3e ab e4 12 3e 92 5d 6a bc
       -0.2654753 0.19648863 0.14345042 -0.014304535
000330 e4 20 39 be aa 34 bf 3e de 5d a9 3e 22 bb 82 be
       -0.18078953 0.37344867 0.33079427 -0.25533396
000340 3b 98 36 be 14 8b 97 3d 3b 4c ba bc 18 ad a0 3d
       -0.17831509 0.07399574 -0.022741428 0.07845515
000350 3a fa 45 3e e1 4b 4b bd e8 b0 9f 3e 3c 45 55 bd
       0.19333735 -0.04963291 0.31189656 -0.05206798
000360 01 fb 95 be 30 b6 57 bd c8 85 35 3d 8a f7 78 bd
       -0.29293063 -0.052663982 0.044317037 -0.060782947
000370 71 a7 b5 3e 85 63 98 3d 89 bf 33 be 84 ac 72 3c
       0.3547931 0.07440857 -0.17553534 0.014811639
000380 ea ed 20 3e 3c 23 d4 3e 13 76 57 3e cb f0 97 3e
       0.15715757 0.41433132 0.21041135 0.29675898
000390 a8 c4 de 3e f1 17 8a 3d 3d 37 08 be 3c 5e e4 bc
       0.43509412 0.06742848 -0.13302322 -0.027876966
0003a0 2c ec 21 be 43 6b 8a 3e 3f 62 af bd 55 6a 74 3e
       -0.15812749 0.2703496 -0.08563661 0.23868687
0003b0 95 ea b8 3e d0 e7 26 3e 62 40 88 bc f7 90 52 be
       0.36116472 0.16299367 -0.016632263 -0.20563112
0003c0 a1 52 95 bd 4b 98 e8 bd 0a 43 d1 be af a1 0e bc
       -0.07291151 -0.113571726 -0.4087146 -0.008705541
0003d0 3e 3b 49 3e f9 cf cf 3d c8 d3 8c 3d 34 cc fe 3d
       0.19651505 0.101470895 0.068763316 0.124412924
0003e0 02 0b 7d be 9a 48 3c 3e 12 fe ad be 58 06 ce 3e
       -0.2471123 0.1838707 -0.33982903 0.40239215
0003f0 99 4c 8f be ea 10 28 3d e6 e3 c1 3d 93 b2 26 be
       -0.27988127 0.041031756 0.09467296 -0.16279058

base.mlp.fc2.0.0.bias f4 [64]
000000 66 1f 90 bd b6 7f d1 3b 15 bb 88 bd 13 29 86 3d
       -0.07037239 0.006393398 -0.06676308 0.06550803
000010 9b 57 cd 3c 79 1c 4a bd 3a 57 c7 bc 4b 34 dd bd
       0.025066188 -0.04934356 -0.024333585 -0.1080099
000020 21 a4 a5 3d 54 54 ab 3e 2d 4b de bd 5d 47 83 bd
       0.08087946 0.33462775 -0.108541824 -0.06410096
000030 70 89 aa 3e fb 1e f7 3c 68 71 30 bd cd 73 2b 3d
       0.33307981 0.03016614 -0.043076903 0.041858483
000040 69 ac 44 bd cc b6 92 3c 0e b2 b4 bd c0 0c dd 3d
       -0.048015986 0.01790943 -0.08823024 0.107934475
000050 c2 55 97 3e a4 c6 c4 bc f7 08 69 3d df 5d 05 3e
       0.29557616 -0.0240205 0.056893315 0.1302409
000060 11 94 a0 3d c5 fb 88 3c 4d 7d 01 be 4d ee c8 3c
       0.078407414 0.016721616 -0.12645455 0.024527693
000070 0e 58 44 3c 33 3d f9 39 8b 65 9f 3e fb 0e 84 bc
       0.0119838845 0.00047538578 0.3113216 -0.016120424
000080 36 bf 10 3e a8 f7 82 bd 70 51 14 b9 18 93 ab 3d
       0.14135441 -0.06394893 -0.00014144718 0.08377665
000090 23 99 25 be 89 fa bd 3c ea e6 c1 bd 72 d7 61 3d
       -0.16171698 0.023190754 -0.094678715 0.055137105
0000a0 5f 43 05 bd 20 30 c1 3c e9 aa c2 bc 09 5b 79 3e
       -0.032534953 0.023582518 -0.023763137 0.24351133
0000b0 e3 8b 4a bd 76 08 3b 3d fa aa 0d bd ae 6b 7c 3d
       -0.049449813 0.045662366 -0.034586884 0.06162613
0000c0 b2 0b 72 3e a6 a4 53 3d ae 12 b3 bc 5d b7 2d bd
       0.23637274 0.051670693 -0.021859493 -0.042411197
0000d0 19 00 81 bb ff 5a a4 3c 59 9d bc bc b4 bb e0 3d
       -0.003936779 0.020062922 -0.023024248 0.109733015
0000e0 6c d1 66 bd 8b f4 04 3e 06 de 11 3d d0 72 e5 bc
       -0.056352064 0.1298391 0.03561213 -0.028008848
0000f0 36 ed b1 bd 4b 36 a2 3e 51 b9 02 3d 77 d8 8d 3b
       -0.086878225 0.31682047 0.031915013 0.004328783

base.mlp.fc2.0.2.weight f4 [64]
000000 e7 34 6f 3f 31 22 65 3f 1a 04 71 3f 7b 63 63 3f
       0.934401 0.89505297 0.94146883 0.8882367
000010 0a 24 5b 3f 2d 57 6f 3f 7b 70 82 3f 98 52 6a 3f
       0.85601866 0.93492395 1.0190576 0.9153228
000020 bc 4f 69 3f 8f 2e 08 3f 9b 6d 79 3f 4d 68 70 3f
       0.9113729 0.5319604 0.9743287 0.9390915
000030 b9 ef 60 3f b2 db 5b 3f 09 e0 1b 3f ac 18 75 3f
       0.8786579 0.85882103 0.60888726 0.9574077
000040 15 b8 72 3f c4 ec 4c 3f 1d 0d 68 3f 24 ec 65 3f
       0.94812137 0.80048776 0.9064501 0.89813447
000050 03 c3 3e 3f ef 00 49 3f 77 31 65 3f 3f c4 69 3f
       0.74516314 0.7851705 0.895286 0.9131507
000060 a9 86 62 3f 3c f3 65 3f 57 97 83 3f d8 27 3d 3f
       0.88486725 0.8982427 1.028056 0.7388892
000070 e1 70 46 3f f9 6d 3d 3f f9 ae 29 3f 10 81 76 3f
       0.7751599 0.7399593 0.6628261 0.96290684
000080 c2 83 79 3f 09 d3 2b 3f b2 55 6d 3f 0c 89 56 3f
       0.9746667 0.6711889 0.92708886 0.83802867
000090 da b9 70 3f 7a 45 6b 3f ac 9d 6f 3f bf df 5a 3f
       0.94033587 0.9190289 0.93599963 0.8549766
0000a0 6c 01 64 3f 73 5e 63 3f 34 f9 64 3f 44 53 11 3f
       0.8906467 0.88815993 0.89442754 0.5676768
0000b0 64 ca 4b 3f cd 85 77 3f 31 42 6a 3f aa 12 5f 3f
       0.796057 0.9668854 0.9150725 0.87137854
0000c0 ab 45 35 3f 7a 6b 79 3f c4 2a 7c 3f 4a 9f 7a 3f
       0.7080943 0.9742962 0.98502755 0.97899306
0000d0 04 56 49 3f 89 20 36 3f b5 14 7c 3f ab 40 5a 3f
       0.78646874 0.71143395 0.98469096 0.85254925
0000e0 4b 4c 6b 3f 88 37 37 3f 56 e1 63 3f c1 ef 6d 3f
       0.9191329 0.7156911 0.8901571 0.9294396
0000f0 c2 63 74 3f e2 55 f7 3e bc af 6c 3f 8c 99 5c 3f
       0.9546472 0.4830771 0.9245565 0.86171794

base.mlp.fc2.0.2.bias f4 [64]
000000 88 a7 40 3c 0d a9 14 3d a9 39 b4 3c 4f 54 c3 bc
       0.011758693 0.036294032 0.02200015 -0.023843912
000010 af 37 2b bc 59 6c 55 3d c4 d3 b4 3d bd da 01 3d
       -0.010450288 0.05210528 0.088294536 0.031702746
000020 8c e4 01 bc fe 79 a1 be 95 25 a2 3b c0 9b a2 3c
       -0.007928025 -0.31538385 0.004948328 0.019849658
000030 c1 67 9f bd a2 95 12 bd 21 cd df 3d bc d4 09 bd
       -0.07783461 -0.035787232 0.10927797 -0.033650145
000040 34 af 39 3d 7a 78 4d bd f2 d5 fe 3c 5b eb 8a bd
       0.045333102 -0.050163724 0.031107876 -0.06783172
000050 d6 a2 d3 bd 9d 7b 90 bc 0c f3 76 bc 8a bb a0 3c
       -0.10333793 -0.017637068 -0.015072595 0.019620676
000060 4f 81 59 3c 78 b7 f9 3b 23 ac 0b 3d ba f5 87 bd
       0.0132754585 0.007620748 0.03409971 -0.066386655
000070 97 9d df bc dd d3 f5 3c c4 97 7a be 93 e7 b9 ba
       -0.027296824 0.03000825 -0.24471956 -0.0014183394
000080 fb 32 9b 3c cf ca 73 3d 54 b4 9e 3b cd 36 5d bc
       0.018945208 0.059519585 0.004843274 -0.013501835
000090 cf b7 ac 3c 49 7b 1a 3c 00 96 e8 3c 06 0c 2f 3b
       0.02108374 0.0094288075 0.028391838 0.0026710047
0000a0 32 75 e6 3c 0e 64 c3 3b 36 27 f8 3b e9 2c b4 bd
       0.028132055 0.005962855 0.0075730337 -0.087976284
0000b0 ed 1d a4 3d b7 be 28 3d 30 09 8a bb 57 62 40 bd
       0.080135204 0.041197505 -0.004212521 -0.046968784
0000c0 7a 4c 49 be 38 59 e9 3b 3c 14 b8 3b b9 b4 fa 3c
       -0.1965808 0.0071212314 0.0056176465 0.030603753
0000d0 bb 85 15 3d 49 88 08 3c cc 92 6a 3d e1 a5 f6 bc
       0.03650449 0.008333274 0.057268903 -0.030108394
0000e0 ac 1a a6 3c 71 71 c4 3d 0d 17 88 bd 15 79 e1 3c
       0.02027639 0.0959195 -0.066450216 0.027523557
0000f0 fb 16 96 3b f3 3f cb bd 7d a6 1a 3c 86 dd da 3b
       0.004580376 -0.09924307 0.009439108 0.0066792397

v_out.weight f4 [1, 64]
000000 3d f2 fd bd 03 a1 ae 3d 1b df 07 be cc 42 88 3c
       -0.12399719 0.08526804 -0.13268702 0.016633414
000010 7b 9d e3 3c dc 59 9b 3d 83 c3 1d 3e 42 00 4d bd
       0.027785053 0.07585499 0.15406613 -0.050049074
000020 88 e9 9e bd 62 bf 90 3c c9 3e 3f be d4 cc b9 bd
       -0.07759386 0.017669383 -0.18676294 -0.09072271
000030 e6 5a bf bd 9b 59 a4 3c b5 03 02 bd 1d 0a d7 bd
       -0.093435094 0.020062258 -0.031741817 -0.10499976
000040 2a 92 c1 3d e0 6b 60 bd 98 51 aa 3d 53 d9 56 3d
       0.09451707 -0.054790378 0.08316344 0.05245335
000050 46 42 7a bd 2e 0f cc 3b a0 0c 07 be b2 cb da bd
       -0.06109836 0.0062273955 -0.1318841 -0.10683383
000060 ae 87 a3 bd ff 96 c7 bd b4 3b 26 3e 74 c4 97 3c
       -0.07984863 -0.09745597 0.16233712 0.018526293
000070 30 92 47 bd f4 c9 94 bc 8f 31 ca bb 26 cc ba bd
       -0.0487234 -0.018162705 -0.0061704586 -0.091209695
000080 90 07 b2 bd b7 9a dd bb 38 03 28 be 10 ea 54 bd
       -0.08692849 -0.006762828 -0.16407478 -0.051981032
000090 b8 e4 db bd 90 d3 18 3e d2 e4 13 3e a6 59 c2 bd
       -0.10736984 0.14924455 0.14442757 -0.09489755
0000a0 1f 28 d9 3d db a4 77 3d 19 b6 23 3e 93 0d 02 bd
       0.106033556 0.060459953 0.15987433 -0.031751227
0000b0 de 24 28 3d 5d 74 f0 3d e8 9b 83 3d 9f 90 92 bd
       0.041050784 0.117409445 0.06426221 -0.071564905
0000c0 7c 8c b1 ba 50 28 61 3e d8 59 20 be b5 47 20 3e
       -0.0013545896 0.21988034 -0.15659273 0.15652354
0000d0 d0 3a c9 3b da 86 a0 bc e4 83 b5 3d 02 5a 9d 3d
       0.006141044 -0.019595552 0.08863047 0.07683183
0000e0 2f b3 08 3e 4b bf b6 bc af 05 48 3d 72 02 d4 3d
       0.13349603 -0.022308012 0.048833545 0.10352029
0000f0 ae bf 2a be 88 14 18 3b 14 59 fd bd f3 03 84 3d
       -0.16674682 0.0023205597 -0.12370506 0.06446066
