checkpoint/best_mappo_seed113_run20260211_112812_envmamujoco-swimmer-2x1_ep1400_actor.pt (torch, 27042 bytes, 11 tensors)

base.feature_norm.weight f4 [6]
000000 3b ff 81 3f 14 62 83 3f 82 1c 68 3f 6d 32 84 3f
       1.0156015 1.0264306 0.906685 1.0327889
000010 1b 8d 84 3f 61 8d 7a 3f
       1.0355562 0.9787198

base.feature_norm.bias f4 [6]
000000 2d 0c e4 3c 33 a2 f9 3b 40 66 94 bd 5c 6b 2d 3d
       0.027837837 0.0076182126 -0.07246065 0.042338714
000010 6c c8 03 bd bb 32 88 3c
       -0.03217356 0.016625753

base.mlp.fc1.0.weight f4 [64, 6]
000000 b9 13 b1 3e fa dc d5 bd e0 5a 63 be 42 9b c4 3d
       0.3458536 -0.104425386 -0.22202635 0.095999256
000010 0b ba 88 bd bf de 13 3e 1e 45 88 3d 32 4f c0 bd
       -0.0667611 0.1444044 0.06653808 -0.09390105
000020 f1 3c 7f bd fd da 32 be 18 b2 81 3d 6b a6 52 3c
       -0.062313978 -0.1746635 0.06332797 0.01285706
000030 6e 76 cc bb a0 68 9f bd ff e3 05 bd 6f a0 a6 3d
       -0.006239704 -0.077836275 -0.032688137 0.08136069
000040 8a c2 c8 3d 83 b1 1f 3e 41 14 3d be 88 f5 de bd
       0.098027304 0.15595059 -0.18464758 -0.10886675
000050 e8 e5 58 3e e2 88 39 be 18 86 a8 bd 0b 0f 4f 3e
       0.21181452 -0.18118623 -0.08228701 0.20220582
000060 db 53 3f be 3f a7 5f 3e 8b f1 94 bd a1 29 62 3e
       -0.18684332 0.21841143 -0.07272633 0.22086193
000070 a6 57 11 3d 5b 16 04 3e b7 c4 bb 3d 75 90 37 bd
       0.03548398 0.12899153 0.0916838 -0.0448155
000080 ce 0b 84 be c7 02 41 bd 88 94 21 bd 03 70 a6 be
       -0.25790256 -0.04712179 -0.03944829 -0.32507333
000090 54 e7 76 be e9 0d 5e 3e 6f b3 4d be 78 90 73 be
       -0.24111682 0.21684994 -0.2008798 -0.23785579
0000a0 ac d0 1f be be fb 84 bd 99 fd 1d bd a2 fe cd 3d
       -0.15606946 -0.064933285 -0.038571928 0.10058333
0000b0 d7 9e 85 3e 68 9c 15 3e b1 34 a1 be 8b 72 28 be
       0.26097748 0.14610445 -0.31485513 -0.16449945
0000c0 50 c9 44 be c8 12 e9 3d 7a 92 1f 3d 06 03 82 be
       -0.1921742 0.11380535 0.03895805 -0.25392932
0000d0 39 b9 3d be 65 9d 6c bd db ec 44 be 85 76 c0 bd
       -0.18527688 -0.05776729 -0.19230978 -0.09397606
0000e0 6c ec 53 be 69 12 84 3d 81 14 0a bd 66 1d b6 bc
       -0.20695657 0.06448824 -0.03371096 -0.022230815
0000f0 50 aa 49 be c8 5a c2 3d 66 8f 1c 3d 31 86 53 be
       -0.19693875 0.094899714 0.038222693 -0.20656659
000100 55 84 ab be bb a2 04 3e 05 ef 32 be 1d 77 9c be
       -0.334994 0.12952702 -0.17473991 -0.30559626
000110 b6 97 07 be 13 87 49 be 54 8c f1 3c 8c 22 cc be
       -0.13241467 -0.19680433 0.029485859 -0.39870107
000120 d2 39 b6 be 2f 79 22 be e8 98 d4 3d ae 4f ff 3d
       -0.35590988 -0.1586654 0.10380727 0.124663696
000130 9c 8d fa bd e1 10 11 3e e3 20 c4 be a2 43 21 3e
       -0.12234041 0.14166595 -0.3830634 0.15748456
000140 28 59 5f 3e 0d 7c a9 bc 38 2f 74 3e d8 98 41 be
       0.21811354 -0.020689035 0.23846138 -0.18905962
000150 94 13 d5 3d 2a 77 66 be e6 17 de 3d 02 ae fa bd
       0.10404125 -0.22506395 0.10844402 -0.122402206
000160 fa 78 f8 bb 86 99 7f 3e 65 e6 2f be 25 0f 3e 3e
       -0.007582781 0.24960908 -0.17177732 0.18560465
000170 77 48 1a bd 56 a4 fe bd f9 3b 60 bd 36 b9 6c bc
       -0.037666764 -0.12433688 -0.054744694 -0.014448455
000180 21 cf b7 bd a8 8b 29 3e b0 ec a7 3b 92 0f 52 be
       -0.089750536 0.16557181 0.005124651 -0.20513752
000190 0d 5f 7c be b7 37 bd 3d 75 5d 39 3e be a5 99 3d
       -0.24645634 0.092391424 0.18102057 0.07502316
0001a0 ee 8c 0f 3d d1 29 14 be 96 4a b4 bd b4 f2 46 bd
       0.03504651 -0.14469077 -0.08803289 -0.048571303
0001b0 b7 be 05 be ee b0 51 3d eb a0 ef bd 34 e1 09 be
       -0.13061033 0.051194124 -0.117006145 -0.13464814
0001c0 7b bf aa ba 7b ed 29 be ee 2c 2c be 5c 50 23 3e
       -0.0013027036 -0.16594498 -0.16814014 0.15948623
0001d0 7d b9 89 3e 6c 19 c0 bd 80 62 87 3d 19 88 cb 3d
       0.2689933 -0.09379849 0.06610584 0.09938068
0001e0 42 e6 42 3e 81 02 d4 bd 59 2d 2c be 7c 2d 70 3e
       0.19033149 -0.1035204 -0.16814174 0.23454851
0001f0 78 3b 62 3d e7 ef a5 3e 59 b3 7f 3d 35 32 9c 3d
       0.055232495 0.32409593 0.0624269 0.07626764
000200 b6 37 3a be 8c f8 79 bc 70 2a 42 bc 2d 91 65 bd
       -0.18185315 -0.015257012 -0.011850938 -0.056046654
000210 9a 8d 90 3e 34 6c 08 be 20 a5 08 3d 81 50 c5 bd
       0.28233033 -0.13322526 0.0333606 -0.096344955
000220 95 b8 83 be a1 f9 b5 bd a4 fb 0a 3e 7f 6a 3a 3e
       -0.25726762 -0.088855036 0.13572556 0.18204688
000230 02 cf 1c 3d ab 96 c1 bb ca c9 3e bd 29 fb c3 3a
       0.038283356 -0.0059078536 -0.04657916 0.0014952171
000240 8e ba f4 bd 71 19 36 3e af 42 00 bd af 25 92 3e
       -0.11949645 0.17783143 -0.031313594 0.28544375
000250 70 d9 ca be b2 dc 39 3e 44 cc fc 3b 9d 31 b9 bc
       -0.39619017 0.18150595 0.00771478 -0.022606665
000260 49 68 a2 be d5 72 08 be 56 78 30 3e 91 79 ac bd
       -0.31720188 -0.13325055 0.17233405 -0.084216245
000270 2f da c7 bc f4 dd 7d bd 1f 8a 17 3e 8a b1 c1 be
       -0.02439603 -0.06197925 0.14798783 -0.37830764
000280 07 78 a5 3d 36 f4 dd 3e be e1 86 be b0 49 c0 be
       0.08079534 0.4335038 -0.26344103 -0.3755622
000290 4c a9 c8 3d 98 f6 3e bd c9 63 88 bd 58 3b c7 3e
       0.09797916 -0.04662189 -0.066596575 0.38912463
0002a0 75 41 18 be 08 37 39 3e 61 18 37 3e 60 82 e2 bc
       -0.1486872 0.18087399 0.17880394 -0.027650058
0002b0 39 e7 b1 3e 51 45 07 bb b6 c0 1c be d9 25 66 be
       0.3474672 -0.002064068 -0.15307888 -0.22475375
0002c0 e9 0d 66 3e 62 8f 01 3f 49 89 e0 3d a0 76 09 3e
       0.22466244 0.5060941 0.10963685 0.13424158
0002d0 3c 59 46 bd 66 1f 0e 3e 61 98 bc bd 01 cd 1f be
       -0.048424944 0.13879165 -0.092087515 -0.15605547
0002e0 d7 c2 fe bd cd 6a b7 3d c5 25 00 3e e6 49 4f 3d
       -0.124395065 0.089559175 0.12514408 0.050607584
0002f0 74 d3 46 3e 0d a7 7b 3e 8d 9c b0 3c 5f cb df bd
       0.194166 0.24575444 0.021559024 -0.10927462
000300 40 d5 4d 3e 0a 3a c0 bd 0e 06 43 be 99 cf 3a bd
       0.2010088 -0.0938607 -0.19045278 -0.045608137
000310 15 56 00 3e 7b 20 76 3d 4f cc 8d bb 17 32 38 be
       0.12532838 0.06008957 -0.004327334 -0.17987858
000320 fc dd 3f 3b 95 f4 07 bd 0c f8 0d be 7c 61 bb bd
       0.00292766 -0.033192236 -0.13864154 -0.09149453
000330 35 e8 66 be 05 ff 73 3c 66 a3 ec 3d 06 1f 59 3e
       -0.22549517 0.014892344 0.11554603 0.21203241
000340 54 10 13 be c4 f6 96 bc 3e 81 17 be 18 92 8c be
       -0.14361697 -0.018428214 -0.14795396 -0.2745521
000350 27 ee 9f be ee a1 0b 3e 77 27 7e bd bb bd b1 3e
       -0.31236383 0.1363599 -0.062049355 0.34715065
000360 87 c2 a1 bd 1f 3d 0e bf c9 05 57 be da 16 18 be
       -0.07898431 -0.55562013 -0.209983 -0.14852467
000370 ec ee 1f be b0 9e 3c be 94 b3 85 3d 0a 87 bb bd
       -0.15618485 -0.1841991 0.065283924 -0.09156616
000380 07 5d 83 3b 2b a8 64 3e ea 4b fd bd 05 ee 1d bd
       0.0040088925 0.22329776 -0.12367995 -0.03855707
000390 b6 5a 31 be 12 c9 ed 3d e4 4d e5 be b4 eb e9 3d
       -0.1731976 0.11610617 -0.44785988 0.1142191
0003a0 0e 72 73 3e 78 d2 9d 3e 4d 18 61 be 67 41 d8 bd
       0.23773977 0.30824637 -0.21981926 -0.105593495
0003b0 de 84 d6 bc c3 20 6e 3b 26 21 d1 3e e9 f9 06 be
       -0.026186403 0.0036335445 0.40845603 -0.1318127
0003c0 03 24 c4 3e 7c ea b8 bc 61 03 f4 3d cf 00 b3 bd
       0.38308725 -0.022572748 0.11914707 -0.087403886
0003d0 c9 58 4c be 74 8f 36 bd ec cc c7 bc da ab 73 3b
       -0.19955744 -0.0445704 -0.024389707 0.003718129
0003e0 b5 76 63 bd 99 be e8 be 80 2d bf bd b5 94 95 3d
       -0.05553313 -0.45457914 -0.0933485 0.07303754
0003f0 32 97 a0 3d a3 06 8a 3d bc dd 3f bd e2 0c 3e be
       0.07841338 0.06739547 -0.04684232 -0.18559602

base.mlp.fc1.0.bias f4 [64]
000000 c1 eb c9 3c 56 93 32 bd c1 78 37 bd 96 67 82 bd
       0.024648549 -0.04359754 -0.044792894 -0.06367414
000010 50 13 01 3b f7 32 bf 3c fd 1f cb 3c 66 fd d7 bc
       0.001969535 0.023339732 0.024795527 -0.026365947
000020 ff f8 42 3a b9 63 dd 3b 83 0f 47 bc ad bd 4c 3c
       0.0007437616 0.0067562726 -0.012149694 0.012496394
000030 56 7f b6 bc d4 57 db bc 5b 99 43 bc ba 72 17 bb
       -0.022277515 -0.026775278 -0.011938418 -0.0023109154
000040 72 a1 0c 3c 55 a2 ac bc 17 4c b9 bc a2 c5 d3 ba
       0.008583413 -0.0210735 -0.02261929 -0.0016156922
000050 6f 65 17 3d 80 a8 d7 3c d5 32 1b 3c fb 04 e1 bc
       0.03696197 0.026325464 0.0094725685 -0.027468195
000060 52 8b e4 3c ca fc d6 bc 5a 13 1c bd 12 ff ec bb
       0.027898464 -0.026243586 -0.038104393 -0.007232555
000070 4d 06 7a bc 00 49 1a bd 7d 55 38 bd 24 14 7d bc
       -0.015260291 -0.037667274 -0.045003403 -0.015446696
000080 08 f8 fb bb f7 c0 02 3c 70 86 71 3c 2b 6c fd 3c
       -0.0076894797 0.007980577 0.014741525 0.030935368
000090 95 6f 6a bd 43 8b a3 3c 22 ea 64 3c 85 e7 1c 3d
       -0.05723532 0.019963866 0.013971837 0.03830673
0000a0 0b 7c 1e 3c 5b 02 d5 bc 57 f3 07 bd 20 9d 4d bc
       0.009673129 -0.0260021 -0.03319105 -0.012549669
0000b0 f8 15 a8 bb 9b 4a 88 3c 0c 08 b8 bc 6e b3 34 bd
       -0.005129572 0.016637137 -0.022464775 -0.04411643
0000c0 40 05 43 3c d1 5d f8 bc fe 01 38 bd 87 cb 88 3c
       0.011903107 -0.030318173 -0.044923775 0.016698612
0000d0 0f 9c 33 3c 31 ef 1e bd 53 48 b5 3d 94 d3 46 3d
       0.0109625 -0.03880233 0.088516854 0.04854162
0000e0 3d 10 7d bd 27 02 a5 bc 6d f6 0f bd f5 47 05 3c
       -0.061783064 -0.020142628 -0.03514712 0.008134832
0000f0 9c b0 b1 bb 76 51 ab 3c 8e 6a ae 3b 92 d3 2b 3c
       -0.005422665 0.020912867 0.005322761 0.010487454

base.mlp.fc1.2.weight f4 [64]
000000 d6 02 76 3f 29 e6 82 3f 31 d6 82 3f ff 75 7c 3f
       0.9609808 1.0226489 1.0221616 0.9861755
000010 2b 67 70 3f 88 00 7e 3f 34 5f 6f 3f fe 39 6d 3f
       0.9390742 0.9921956 0.93504643 0.92666614
000020 38 0f 7b 3f b4 dc 7c 3f 9d 53 81 3f 41 e2 84 3f
       0.98070097 0.98774266 1.0103642 1.0381547
000030 ea cb 76 3f 6b cf 7b 3f 32 9f 84 3f 39 04 7a 3f
       0.964049 0.9836337 1.0361083 0.97662693
000040 a9 61 7c 3f 8a 84 7a 3f ca 1e 86 3f 92 ba 7e 3f
       0.9858652 0.9785849 1.0478146 0.99503434
000050 89 de 82 3f 5d 19 78 3f 30 6c 78 3f 80 bb 83 3f
       1.0224162 0.969137 0.9704008 1.0291595
000060 f8 8c 8a 3f 1d 93 80 3f 8d ac 7c 3f 35 97 7c 3f
       1.082427 1.0044895 0.9870079 0.98668224
000070 6a c5 80 3f ce 64 70 3f 69 22 84 3f 51 d2 74 3f
       1.0060246 0.93903816 1.0323001 0.9563342
000080 af 7e 6c 3f 9d a8 80 3f c9 45 7b 3f 67 10 82 3f
       0.92380804 1.0051457 0.9815336 1.0161256
000090 97 bc 82 3f 1f 70 84 3f 68 a4 78 3f 78 86 81 3f
       1.0213803 1.0346717 0.97125864 1.0119162
0000a0 59 b1 82 3f ec 64 82 3f 5a 32 82 3f f5 db 86 3f
       1.0210372 1.0187049 1.0171616 1.0535876
0000b0 de c9 77 3f 6c d4 80 3f 6e a2 87 3f a7 6f 7b 3f
       0.967924 1.0064826 1.0596445 0.9821724
0000c0 67 4f 77 3f c2 30 70 3f 73 f4 86 3f 2c e4 80 3f
       0.96605533 0.938244 1.054335 1.0069633
0000d0 98 3e 80 3f 0d fd 80 3f 03 fa 87 3f ea ea 77 3f
       1.0019102 1.0077225 1.0623173 0.96842825
0000e0 6f ad 7d 3f d0 20 86 3f e4 2a 84 3f f1 8c 81 3f
       0.99092764 1.0478764 1.0325589 1.0121137
0000f0 6f 5c 85 3f 2a 3c 7c 3f 09 65 74 3f d3 4e 75 3f
       1.0418833 0.98529303 0.9546667 0.958234

base.mlp.fc1.2.bias f4 [64]
000000 4d 4a 26 3d 69 f1 74 bd e1 be 5a bd c6 0c 14 bd
       0.040598202 -0.05980054 -0.053404693 -0.036144994
000010 4e 2a 5e 3d 76 fa 17 3d 3e 90 bc 3c 2f 86 00 3c
       0.054239564 0.037104093 0.023017999 0.007844492
000020 bb e2 5b 3c ec 59 61 3c 2d 32 03 bc 04 6d 44 3b
       0.013420756 0.013754349 -0.008007568 0.0029972205
000030 5e a6 0e bc e1 c4 ae bc 95 10 4e bd 52 c7 1d 3c
       -0.008706657 -0.021334114 -0.050308783 0.009630041
000040 3a 10 7b 3c e9 fe 0c bd 00 05 17 bd 2f f7 e7 3b
       0.015323693 -0.03442279 -0.036870003 0.007079027
000050 a4 2d d0 3c dd 76 3c 3d 1b 10 a9 3d 8b a5 0b bd
       0.025412388 0.046011794 0.08255025 -0.03409342
000060 74 aa 1e 3d eb b2 77 bd 0e 63 1e bd 44 cd f2 bc
       0.038736776 -0.060473364 -0.038668685 -0.029638894
000070 c7 3a 97 bc 62 37 53 3b bd af 83 bd d7 88 af 3b
       -0.018460644 0.0032229056 -0.06430004 0.0053568888
000080 78 84 74 3d 8e 1c b8 3b 18 3a ee 3b f8 2d 11 3d
       0.059696645 0.0056186384 0.007270109 0.03544423
000090 b2 79 38 bd 86 4e 6c 3c e6 32 1e 3d 9d 40 8d 3c
       -0.045037933 0.014423018 0.03862276 0.017242724
0000a0 f8 22 4d 3d 04 6c d0 bc 75 63 18 bd 03 84 d5 bc
       0.050082177 -0.02544213 -0.037204225 -0.026063925
0000b0 de 0d 45 3a 10 3a 99 3c d2 01 71 bd c9 1f 1e bd
       0.000751702 0.018704444 -0.058839627 -0.03860453
0000c0 91 60 18 3d 53 d3 7f 3b fb f5 6d bd a1 75 39 3d
       0.037201468 0.003903587 -0.058095913 0.045278195
0000d0 79 e9 51 3c 12 4d 82 bd a9 a7 6a 3d 8a 01 2b 3d
       0.012812012 -0.06362356 0.0572888 0.041749515
0000e0 cd b3 29 bd a5 35 54 bd 8e 21 47 bd 5b 47 2b bc
       -0.041431237 -0.051808972 -0.048615985 -0.010454024
0000f0 4d 3d f0 bb b2 28 2f 3d 6c 84 3b 3d 3f 33 7d 3c
       -0.0073315264 0.04276342 0.045780584 0.015454113

base.mlp.fc2.0.0.weight f4 [64, 64]
000000 56 e3 e0 3d 45 38 8c 3d 61 52 d9 bc 30 9c 74 bd
       0.10980861 0.0684667 -0.02652854 -0.059719265
000010 82 41 04 be a6 8a 10 bd 2d 49 c4 bd b2 10 7d bd
       -0.12915614 -0.035288475 -0.0958427 -0.0617835
000020 ae 78 d2 be 7b cd 5f bd 68 6a 63 be e0 6c d8 bc
       -0.41107696 -0.05463932 -0.2220856 -0.026419103
000030 4a cc 72 be ae 00 84 bd 01 6d ec 3d f8 93 ba bd
       -0.23710743 -0.06445442 0.11544228 -0.09110254
000040 7f e4 18 be 1c 7a 2f 3c 20 71 86 3e 22 d1 88 3e
       -0.14930914 0.0107102655 0.26258183 0.26722056
000050 25 e8 05 be d1 83 ca be b4 e2 34 bd 33 06 a9 3d
       -0.13076837 -0.39553693 -0.044161513 0.082531355
000060 3d 56 bc bd 56 05 98 3d a0 22 07 bd 37 c4 d6 bb
       -0.09196136 0.07422893 -0.032992005 -0.0065541524
000070 99 bd 60 3e 63 ef b8 bd 45 ad d6 3e 6b f7 74 3d
       0.21947326 -0.090300344 0.4192907 0.05980627
000080 2e c2 1c 3e 1c cf 00 be d5 ab e6 bc fc 93 98 3d
       0.15308449 -0.12579006 -0.028158108 0.07450101
000090 51 bf 21 be 68 a7 9c be 8d 2f 3d be c1 01 2e be
       -0.15795638 -0.3059647 -0.1847517 -0.16992857
0000a0 34 89 76 3e a5 05 25 bd b4 bf 3d 3e 22 f3 9e bd
       0.24075776 -0.040288586 0.1853016 -0.07761218
0000b0 88 7c 88 be b3 0e b6 3e 83 4c 47 be a0 ca 0d be
       -0.2665751 0.3555809 -0.1946278 -0.13846827
0000c0 93 e3 46 bc b6 04 5b be eb 33 53 3d f9 64 69 be
       -0.012139219 -0.21388516 0.051563185 -0.22792424
0000d0 47 81 20 bd 07 60 0e 3d 36 2e 88 bd 4f 6a ae be
       -0.03918579 0.034759548 -0.06649439 -0.34065482
0000e0 a6 b3 17 3d ab 85 45 be ea 1e 4f 3e 0e 75 09 3e
       0.03703656 -0.19289272 0.20226637 0.13423559
0000f0 2c d7 5b 3e 5e 4a e9 bd d6 81 50 bc 1f 0f 82 bd
       0.214688 -0.113911375 -0.012726268 -0.0635054
000100 69 ca 54 3c 86 0d 5b 3e be 15 28 be 44 ca 82 be
       0.0129877115 0.21391878 -0.16414544 -0.2554494
000110 20 e3 28 be 3a a7 e6 bd 76 c9 7c 3d 0d e2 73 bc
       -0.16492891 -0.11262365 0.061715566 -0.014885438
000120 d3 b1 29 3e 18 48 7b bd 09 00 93 bc 79 a0 07 3e
       0.16571741 -0.06134805 -0.017944353 0.13244809
000130 92 47 a5 be 88 fb 3f 3c 5e 42 ad bd 06 40 e5 3c
       -0.32281166 0.011717685 -0.08459924 0.02798463
000140 92 46 d9 be ca 79 d6 3d 49 c8 2c be 7b 6b 1e 3d
       -0.42436653 0.10472448 -0.16873278 0.03867672
000150 2b f8 9f bd ce 75 2c bd 73 c1 e5 bd 96 04 c7 be
       -0.07811006 -0.042104535 -0.11218538 -0.38870686
000160 68 b2 cc 3d 30 6c 91 be 57 23 3b bd 47 a1 01 3e
       0.09994966 -0.28402853 -0.045688 0.12659179
000170 05 a0 8c be 2d fa 09 3e 01 07 33 3d d6 2c e4 3b
       -0.27465835 0.1347434 0.04370785 0.0069633527
000180 1f a6 c2 bd 38 98 80 3d 91 7a 18 3e 56 20 b6 bd
       -0.09504341 0.062790334 0.14890505 -0.08892886
000190 87 d7 e7 3d 57 8c a8 3e a2 00 24 be 14 b5 3e be
       0.113204055 0.3291957 -0.16015866 -0.18623763
0001a0 e6 55 3a 3e 29 02 40 bd 10 3d 64 3e 71 f5 ed bd
       0.1819683 -0.04687706 0.22288918 -0.1161908
0001b0 dd 00 b1 bd fa 8c 63 be 3e 10 02 3e 5d b9 18 3e
       -0.08642743 -0.22221747 0.12701508 0.1491446
0001c0 7e b3 c3 bd 5f cb c5 be a0 d7 e8 3b 8b 0a c0 bd
       -0.0955572 -0.38631722 0.0071057826 -0.09377011
0001d0 6d 0b 3d be 4e 4d a3 be 04 30 81 3e d6 88 c2 3d
       -0.1846139 -0.31894916 0.25231946 0.09498756
0001e0 40 f7 05 3e 1a fe 2c bd dc 8e 72 bb c5 f3 3f be
       0.130826 -0.042234518 -0.003701142 -0.18745334
0001f0 32 0a 49 be 49 30 1d be c5 6d bf 3e 3d 7d 80 be
       -0.19632795 -0.1535045 0.37388435 -0.2509555
000200 ee 1a ad 3d f4 fc b7 3e c9 72 09 3e 3d 05 ca 3b
       0.08452402 0.35935175 0.13422693 0.0061651752
000210 97 5c 2a 3e ab 81 d0 bc 78 c1 04 bd 7f 5b 1f bc
       0.16636883 -0.025452456 -0.03241107 -0.009726404
000220 12 c4 69 be 4c 72 43 be 8e 76 4c 3e b6 c9 6e be
       -0.22828701 -0.1908657 0.199671 -0.23319134
000230 17 be ce bd 0b 64 0f be 26 1d 0a be 3d e9 7f bd
       -0.100948505 -0.14003007 -0.13487682 -0.062478293
000240 66 25 18 bd fc bf 37 3e ff 58 70 3d 4a 5f ba bd
       -0.03714504 0.1794433 0.058678623 -0.09100206
000250 d4 f4 1b be 8d 2f f2 3e 99 b2 a2 3b 1c ff 9e be
       -0.15230113 0.47301903 0.004965138 -0.31054008
000260 7b 12 36 3d 86 a1 07 3e c7 74 28 be c4 5a bc 3d
       0.044451218 0.1324521 -0.16450797 0.09197
000270 bd 32 ab 3d f4 41 7f 3e 0a a9 bb 3d e3 da 4a 3e
       0.08359287 0.24927503 0.09163101 0.19810061
000280 2e b3 a8 bd 9d 92 a5 be d2 43 42 bd 86 9d e8 bd
       -0.08237301 -0.3233842 -0.04742796 -0.1135817
000290 2b eb c7 bc 3b 74 20 be 4e 7e 2b be 87 12 5a bd
       -0.024404129 -0.15669338 -0.167474 -0.053240325
0002a0 03 2d dc bd bc 45 2f 3d 77 48 8d 3d 42 be 95 be
       -0.10750773 0.042791113 0.06898587 -0.29246718
0002b0 ec 4e 6f 3e 54 df 14 bd ac f7 ab 3a 75 6b 87 bb
       0.2336995 -0.036345795 0.0013120077 -0.004132683
0002c0 44 77 2e bd ae 19 0c 3e 24 91 08 bd 8b 96 02 bf
       -0.04259421 0.13681671 -0.033341542 -0.5101096
0002d0 7f d9 03 3d e2 d2 99 3e d4 86 af bc b5 dd 40 3e
       0.032189842 0.30043703 -0.021426596 0.18834575
0002e0 40 17 16 3d c2 cc 87 3e c1 1c b6 bd 3e e6 67 3e
       0.036643267 0.26523405 -0.08892203 0.22646424
0002f0 72 c6 20 be 94 21 c3 3d 4e b4 1c be 55 8b 53 3c
       -0.15700701 0.09527889 -0.15303156 0.012911637
000300 c3 c9 ea 3d 02 6f 06 be 82 c5 56 be 57 85 a1 3d
       0.11464264 -0.13128284 -0.20973781 0.07886761
000310 8f 1b 97 3d 8d 37 6a bd 0e de d1 3d 7b 97 45 3e
       0.07378303 -0.057181884 0.10247432 0.19296066
000320 c2 90 0f 3d 95 0e a1 3e 46 f3 49 3e f3 7c 99 bd
       0.03505016 0.31456438 0.19721708 -0.07494535
000330 44 4c a3 3d 11 d9 df be ff 8b be 3e 4d 7f 20 be
       0.07973531 -0.43720296 0.37216184 -0.15673561
000340 5c 79 78 be 69 11 18 3e bc 14 bd bd 60 c9 01 3d
       -0.24265045 0.14850391 -0.092324704 0.031686187
000350 c3 0e 95 3e 75 8a f9 bd f5 71 92 be 26 d7 83 bd
       0.29112825 -0.12184612 -0.28602567 -0.06437521
000360 f1 33 f4 3c 85 27 14 bd 98 e8 a7 be f7 f3 a4 bd
       0.029809924 -0.0361705 -0.32794642 -0.08054345
000370 65 49 55 bd 12 59 0a be ad 7f fa 3d 00 e2 81 bd
       -0.052071948 -0.1351054 0.122313835 -0.06341934
000380 05 61 50 be 40 2c f3 bc 7d 16 90 bd aa e7 20 be
       -0.2034951 -0.029684186 -0.07035539 -0.15713373
000390 bf 17 27 be d9 44 87 3d 9b 94 8f bd 62 8f 75 be
       -0.16317652 0.066049285 -0.07010766 -0.23980477
0003a0 a6 21 93 bd 37 1f 86 be c0 5e b2 be 4f 11 6c 3a
       -0.07184152 -0.2619569 -0.34837914 0.0009005265
0003b0 7d 9f 3e bd 03 db 2f 3d 94 c9 4a 3e 19 f7 55 3e
       -0.04653882 0.042933475 0.19803458 0.20895042
0003c0 95 50 64 3c b0 45 00 3d 8d 9d b4 3e 0c dd ac bb
       0.013935228 0.03131646 0.35276452 -0.0052753743
0003d0 41 ca 38 3d 64 de 75 3d 90 a3 89 be b4 f4 2c 3e
       0.04511476 0.06002654 -0.268826 0.16890222
0003e0 de e2 65 be ea 87 d8 3b 43 15 d1 bd 4c 58 af 3e
       -0.22449824 0.006607999 -0.102091335 0.34247053
0003f0 e1 fc 85 bd 9f 2e 4f bd 68 18 91 bd cb 55 29 bd
       -0.065423734 -0.05058157 -0.07084733 -0.041341584

base.mlp.fc2.0.0.bias f4 [64]
000000 ba 3d 77 bd cd 31 56 3c 10 cc 65 bd 39 bf 86 bd
       -0.0603616 0.013073397 -0.056102812 -0.065794416
000010 05 d9 31 bd cb 7f 2b bd f3 0f f2 bc 95 22 21 bd
       -0.043419857 -0.04186992 -0.02954862 -0.03933962
000020 bc 6e 04 3d 5f 21 3c bd f9 e2 45 3c da b7 fb 3c
       0.032332167 -0.045930263 0.01207804 0.030727316
000030 96 4e 0f bd ca eb ff 3c c9 ec bf bc 09 c0 1e 3d
       -0.034987055 0.031240363 -0.023428338 0.038757358
000040 de 4c 14 bd a7 80 a8 3c 92 35 44 3c f0 58 33 bd
       -0.03620612 0.020569159 0.011975663 -0.04378599
000050 ce a7 b0 3b e7 41 7f 3c 46 c2 10 3d 57 2c de 3c
       0.0053910976 0.015579677 0.035341524 0.027120752
000060 26 ea 22 bd 0e be 8f bb d6 44 c5 bc c8 cb 65 bd
       -0.039774083 -0.00438667 -0.024080675 -0.056102544
000070 af 6e 18 bc 79 bb d3 bc 70 3c 7f bd dd 69 9e bd
       -0.009303733 -0.02584623 -0.062313497 -0.077350356
000080 d6 c8 ec bc 9c 37 e3 3c 93 95 2a bd 14 35 53 bd
       -0.02890436 0.027736478 -0.04164655 -0.05156429
000090 fd d7 88 bd 9a 38 11 bd 2b 33 7e 3d 90 f8 29 bd
       -0.066818215 -0.03545437 0.062060516 -0.041496813
0000a0 10 fd 2b 3d 13 71 2a bd d8 22 dd bc 2f 5e 70 bd
       0.041989386 -0.041611742 -0.026994154 -0.05868357
0000b0 c6 04 36 bd bd 87 96 3c 52 3d 9c bd 57 19 15 bd
       -0.044438146 0.018375272 -0.076288834 -0.03640112
0000c0 78 47 99 ba 46 ff 0c 3b b8 f0 41 bd 6a 9e a4 bc
       -0.0011694273 0.002151446 -0.047348708 -0.020095069
0000d0 ce 3d 6d bd 3d 45 7c 3d df 66 f3 bb 3a 6e 85 bd
       -0.05792027 0.06158947 -0.0074280347 -0.06515165
0000e0 65 02 5b bd 28 b5 03 bd 99 2e 31 3d ea 0c 30 3c
       -0.05346908 -0.032155186 0.04325733 0.010745266
0000f0 e4 4d e4 bb e7 13 06 3c 2a 86 27 bd 67 16 4a bd
       -0.006967293 0.008183456 -0.040899433 -0.04933777

base.mlp.fc2.0.2.weight f4 [64]
000000 94 50 8c 3f 41 43 83 3f d0 1d 88 3f 1e 61 8b 3f
       1.096209 1.0254899 1.0634098 1.0889013
000010 4e a4 8b 3f bf a9 85 3f 9b dc 8d 3f 00 5d 86 3f
       1.0909517 1.0442427 1.1082948 1.0497131
000020 fc 2f 8b 3f b7 f3 88 3f 73 97 86 3f e2 b2 8e 3f
       1.0874019 1.0699376 1.0514969 1.1148341
000030 8a dd 8b 3f f7 c3 88 3f 6d a8 89 3f 88 39 8c 3f
       1.0926983 1.0684804 1.0754524 1.0955057
000040 52 bd 85 3f 8c 15 8a 3f 9f b0 8a 3f bf bd 8a 3f
       1.0448401 1.0787826 1.083515 1.0839156
000050 11 42 8d 3f 80 75 87 3f fa 49 82 3f d6 7a 8a 3f
       1.1035787 1.0582733 1.0178826 1.0818737
000060 6d c6 84 3f 74 21 7e 3f b6 b3 8a 3f c7 ee 89 3f
       1.0373055 0.99269795 1.0836093 1.0775994
000070 2f 0f 89 3f 1e 38 85 3f ce 77 86 3f 7b be 89 3f
       1.0707759 1.0407751 1.0505311 1.0761255
000080 9e b2 81 3f 22 a7 8c 3f 14 38 88 3f c3 4e 8a 3f
       1.0132635 1.0988505 1.0642114 1.0805286
000090 5a 1c 86 3f 08 77 8b 3f fe b8 86 3f 03 78 8a 3f
       1.0477402 1.08957 1.0525205 1.0817875
0000a0 d6 ed 8a 3f b3 da 85 3f 3e 7d 88 3f 36 b0 8e 3f
       1.0853832 1.0457367 1.0663221 1.1147525
0000b0 54 64 8a 3f 49 87 88 3f 94 8c 87 3f 5e ba 8e 3f
       1.0811868 1.0666286 1.0589776 1.1150625
0000c0 5e b1 7f 3f 12 b2 86 3f 13 8b 8d 3f 85 8f 88 3f
       0.99880016 1.0523093 1.1058067 1.0668799
0000d0 fa e7 85 3f a5 20 8f 3f 3d 64 91 3f 50 c3 85 3f
       1.0461419 1.1181837 1.1358715 1.045023
0000e0 36 e6 86 3f 46 cd 89 3f ef 6e 8a 3f 03 91 88 3f
       1.0539005 1.076577 1.0815104 1.0669254
0000f0 36 4a 8b 3f 59 ff 87 3f ce 32 8e 3f cf 9b 8c 3f
       1.0882022 1.0624801 1.1109254 1.0985049

base.mlp.fc2.0.2.bias f4 [64]
000000 39 a3 c5 bd 67 c9 b3 3d 38 60 b6 bd 50 aa cc bd
       -0.09650273 0.08778649 -0.08905071 -0.09993422
000010 39 a4 b2 bd 28 36 b0 bd 81 73 ac bd 32 7f b2 bd
       -0.08722729 -0.086040795 -0.08420468 -0.08715667
000020 83 ef be 3d 85 3b bb bd 35 38 ae 3d 3c a3 c5 3d
       0.09323027 -0.09142212 0.085068144 0.09650275
000030 18 d8 c7 bd 95 58 be 3d c1 ad 8f bd 1d e7 c7 3d
       -0.097580135 0.092942394 -0.07015563 0.09760878
000040 ab 91 b1 bd 85 06 c2 3d f9 25 bc 3d 55 49 b8 bd
       -0.08670362 0.094739 0.0918693 -0.08998362
000050 bc 7e c3 3d 09 ac b8 3d 42 b5 92 3d 5c 59 43 bd
       0.09545657 0.09017188 0.071634784 -0.04769264
000060 f1 9f b0 bd 6d ee ae 3c bf 55 bd 3d 20 4e b4 bd
       -0.086242564 0.021353925 0.092448704 -0.08803964
000070 43 07 b9 3d b4 36 b5 3d 8d 4b b4 bd e6 5f bf bd
       0.09034588 0.088483244 -0.08803473 -0.09344463
000080 33 ea a5 bd 4e 68 c6 3d 97 7c b6 bd b9 6c b6 bd
       -0.081013106 0.09687863 -0.089104824 -0.08907456
000090 ea 4c af bd 77 ce b1 bd cc c2 b1 3d c2 e9 be bd
       -0.08559592 -0.08681958 0.08679733 -0.093219295
0000a0 87 dc c5 3d 06 dd b0 bd 46 93 b8 bd 78 30 cf bd
       0.09661203 -0.08635907 -0.09012465 -0.101166666
0000b0 81 75 c9 bd ed d6 a5 3d 5f 00 b8 bd 62 e6 c1 bd
       -0.09836865 0.080976345 -0.08984446 -0.0946777
0000c0 35 9b 85 3d 51 96 bb 3a d6 58 bf bd f6 3b bb bd
       0.06523744 0.0014311766 -0.09343116 -0.09142296
0000d0 ea b1 b4 bd 27 76 c6 3d ba 12 a0 bd 0f 8c b6 bd
       -0.08822997 0.096905045 -0.07816072 -0.08913433
0000e0 e3 69 9b bd 73 ee ba bd 8e 36 b4 3d e3 c1 b6 3d
       -0.07588556 -0.09127512 0.08799468 0.089237
0000f0 74 6a be 3d 43 a7 b2 3d 18 e8 9e bd ac 3b bf bd
       0.09297648 0.08723309 -0.07759112 -0.093375534

act.action_out.fc_mean.weight f4 [1, 64]
000000 39 21 95 bd e5 26 b4 3c 0c 88 4d bd 04 ff 83 bd
       -0.07281727 0.021991203 -0.050178573 -0.06445125
000010 80 3d 80 bd 11 26 dc bc 55 ec 9f bd 15 ef 0b bd
       -0.0626173 -0.02687362 -0.07808749 -0.034163553
000020 5d a4 85 3d 31 e9 5d bd bb dc 18 3d f9 6e ae 3d
       0.065254904 -0.054177467 0.03731988 0.0851726
000030 24 8c 8f bd a1 e2 61 3d 37 53 5e bd fc 4f 90 3d
       -0.070091516 0.05514777 -0.05427858 0.07046506
000040 8a 14 01 bd df e0 81 3d 7d 33 80 3d 03 b8 77 bd
       -0.03151373 0.06341719 0.062598206 -0.06047822
000050 34 d2 9f 3d 99 93 1e 3d d2 02 32 bb ba 03 70 bd
       0.07803765 0.03871498 -0.0027162326 -0.058597304
000060 fd ea ba bc 2b 52 64 3a 03 20 7f 3d 35 f4 5a bd
       -0.02281713 0.0008709754 0.062286388 -0.05345555
000070 52 2e 5c 3d c1 93 04 3d 83 7d 26 bd 0b 1a 7b bd
       0.053755112 0.03236747 -0.04064704 -0.061304133
000080 4b c9 48 bc 1b e4 95 3d 49 77 46 bd ba 67 6e bd
       -0.012255023 0.07318898 -0.048453603 -0.05820439
000090 18 99 04 bd c8 c3 84 bd 57 18 3a 3d 34 cd 79 bd
       -0.032372564 -0.06482655 0.04543337 -0.060986713
0000a0 6e b1 85 3d de 70 f6 bc b5 ae 49 bd 8a 1e ac bd
       0.06527983 -0.030083116 -0.04923888 -0.08404262
0000b0 13 0c 7a bd 31 b7 64 3d b4 3c 1b bd 62 37 b3 bd
       -0.06104667 0.055838767 -0.037899688 -0.08750798
0000c0 2b 7d 91 b9 99 ae 0f bd 79 50 9f bd 0c 59 49 bd
       -0.00027749813 -0.03507862 -0.07779021 -0.049157187
0000d0 27 b4 0b bd e1 bd b0 3d 56 6c c4 bd 45 1d 0a bd
       -0.034107354 0.086299665 -0.09590976 -0.03371932
0000e0 c7 f2 28 bd 37 dd 6c bd 3f 66 81 3d 66 88 57 3d
       -0.041247156 -0.057828154 0.0631833 0.052620314
0000f0 dc 07 81 3d b5 86 37 3d ad 69 a1 bd 72 14 99 bd
       0.06300327 0.0448062 -0.07881484 -0.07474603
