checkpoint/best_mappo_seed113_run20260210_234755_envmamujoco-ant-2x4_ep8800_actor.pt (torch, 42142 bytes, 13 tensors)

base.feature_norm.weight f4 [63]
000000 3d 72 95 3f 20 90 70 3f 5e ee 7d 3f 20 14 82 3f
       1.1675488 0.9396992 0.99191844 1.0162392
000010 15 4f 85 3f 06 a6 7a 3f c2 4e 82 3f 34 c1 7b 3f
       1.0414759 0.9790958 1.0180285 0.9834168
000020 0f d2 88 3f 5b f5 79 3f 96 4d 84 3f 45 9c 86 3f
       1.0689105 0.9764001 1.0336177 1.051644
000030 bd ec 8b 3f 9e 6a 79 3f b1 6a 97 3f 43 96 84 3f
       1.0931622 0.9742831 1.1829435 1.0358356
000040 1d b9 82 3f f2 22 8a 3f 7c a1 6e 3f b3 ee 8e 3f
       1.0212742 1.0791914 0.93215156 1.1166595
000050 4e e7 95 3f 4c 7a 59 3f e3 bf 80 3f 6d 9d 83 3f
       1.1711214 0.84952235 1.0058559 1.0282418
000060 16 5f 87 3f 0b 94 77 3f 33 28 87 3f 81 aa 85 3f
       1.0575893 0.9671027 1.0559143 1.0442659
000070 f3 08 7b 3f 54 55 80 3f 29 8d 76 3f 2b f0 81 3f
       0.9806053 1.002604 0.96309143 1.0151418
000080 58 00 61 3f 52 ee 73 3f 37 2f 97 3f ea 6c 79 3f
       0.8789115 0.9528552 1.1811284 0.97431815
000090 bc 60 8c 3f 4a 8a 88 3f d5 b0 76 3f 60 29 94 3f
       1.0967021 1.0667202 0.96363574 1.1575127
0000a0 5b e5 8d 3f f6 e3 60 3f 84 82 83 3f 9d 18 86 3f
       1.1085619 0.8784784 1.0274205 1.0476261
0000b0 c8 87 83 3f ff 58 86 3f a2 4b 83 3f d5 7e 84 3f
       1.0275812 1.049591 1.0257456 1.0351206
0000c0 93 b6 8b 3f aa 80 65 3f 70 eb 89 3f 2c 11 82 3f
       1.0915092 0.8964945 1.0774975 1.016149
0000d0 be c5 7f 3f 8f c6 82 3f 9b f5 89 3f 78 24 8d 3f
       0.99911106 1.0216845 1.0778078 1.1026754
0000e0 dd da a8 3f 0a b8 7c 3f 43 d2 7c 3f 31 cd 88 3f
       1.3191792 0.9871832 0.98758334 1.068762
0000f0 6d 3d 7d 3f 21 04 84 3f 14 bf 7b 3f
       0.98921853 1.031376 0.9833844

base.feature_norm.bias f4 [63]
000000 db 00 1f bd 4c 52 85 3c 84 1b 92 bb ea b6 8a 3d
       -0.038819175 0.016274594 -0.0044588465 0.06773169
000010 a9 bc 10 bd 4b aa 6d 3d 4d 23 ac bb 69 b7 ca 3d
       -0.03533617 0.058023732 -0.0052532316 0.09898264
000020 00 5a be 3c dc 0f 5e 3d e8 e2 21 3c b8 3f d8 3c
       0.023236275 0.054214343 0.009880759 0.026397571
000030 93 78 52 bd 09 02 e7 3c fd 37 81 bd 82 4d 6e bc
       -0.05138452 0.028199213 -0.06309507 -0.0145448465
000040 ab 92 e7 bc f9 d5 21 bb 1d 8d 60 bc 34 09 f1 3c
       -0.028268179 -0.0024694188 -0.013705519 0.029423334
000050 cd 1e fc bb a8 ce 4a bc ef 50 d6 3c 0e 79 dd bc
       -0.0076941014 -0.012378372 0.026161639 -0.027035262
000060 e0 d4 80 bc 68 8c 95 3d 2e 28 61 bc 39 ee 15 bd
       -0.015726507 0.07302171 -0.01374249 -0.03660414
000070 8b 6b f8 3c d9 95 ab 3b d8 bb 4e 3d d7 d0 dd 3c
       0.030324718 0.005236369 0.05047211 0.027077122
000080 8d a6 fc 3c 5a 42 85 3d 10 cf cc 3c 42 94 75 3c
       0.030841136 0.06506796 0.025001079 0.014988961
000090 5d e6 4c 39 37 36 12 3d 2a e8 86 bd 76 51 ce 3c
       0.00019540773 0.035696235 -0.065872505 0.025185328
0000a0 2d 22 b7 3c d2 a8 99 3c 31 ed 02 3d 72 e4 99 bc
       0.022355163 0.018757258 0.031964485 -0.018785689
0000b0 80 36 77 3d b2 86 ca bc 20 6a e6 3c c5 90 29 bc
       0.06035471 -0.02472243 0.028126776 -0.010349457
0000c0 35 b7 97 3d 6e 84 8f 3c 2a 3f 13 3d 6c f8 2f bc
       0.07407991 0.017519202 0.03594891 -0.010740381
0000d0 6f a3 1a bd 02 ba 09 bd 9b f5 14 bd a7 cf 59 bd
       -0.03775352 -0.033624656 -0.03636704 -0.05317655
0000e0 bd 82 89 bd bf 57 57 bc 3b 93 04 bd b9 85 09 3c
       -0.067143895 -0.013143479 -0.032366972 0.008393698
0000f0 b6 2e 8b bb 7c 61 e1 bc a5 8d f3 3c
       -0.0042475117 -0.027512304 0.029730627

base.mlp.fc1.0.weight f4 [64, 63]
000000 61 f0 82 bd 22 29 1a bb 0f ed c2 be 6f f5 f8 bd
       -0.06393505 -0.0023523052 -0.38071486 -0.12156188
000010 bf 05 20 be fe 94 89 be 37 97 ac bd 21 ef 16 be
       -0.15627192 -0.26871485 -0.084272794 -0.14739658
000020 5c 76 74 3d 1a da 32 3e 41 46 4b bc db cf 1b be
       0.05968319 0.17466012 -0.012406887 -0.1521601
000030 93 8b 69 be 1f ba 2e 3c 67 c6 a1 3d 23 b9 24 be
       -0.2280715 0.010664492 0.0789917 -0.16086249
000040 3d 35 5f be e5 f4 94 bd bd e0 eb 3d d2 6b 10 be
       -0.21797653 -0.072732724 0.11517475 -0.1410363
000050 7d 9b 2b 3e 70 aa 65 3d c4 03 cb 3d c2 2f aa bd
       0.16758533 0.056070745 0.099128276 -0.0830989
000060 17 69 38 be d7 b8 c9 bd 4d 8c 20 3e 26 d9 75 3e
       -0.18008839 -0.098497085 0.1567852 0.24008617
000070 18 6a 55 bd 42 c0 14 be c5 76 82 3e fc 03 23 be
       -0.052103132 -0.14526466 0.2548124 -0.15919489
000080 a4 30 25 be 7a 34 41 3b 63 53 8f be 9c 99 66 bc
       -0.16131836 0.0029480741 -0.27993307 -0.014074709
000090 00 7d 76 be 9d c7 11 3a 2d 54 dd be 03 3f f7 3d
       -0.24071121 0.0005561056 -0.43228284 0.120725654
0000a0 84 3d 1d bd 73 27 b9 bd e7 86 27 3e 36 40 89 be
       -0.038388744 -0.090407275 0.16360055 -0.26806802
0000b0 75 1e 03 be 2e a9 71 be a6 35 92 3e c8 d6 c2 3d
       -0.12804587 -0.23599693 0.28556556 0.095136225
0000c0 f3 c5 b5 bd 3e ce 86 3e af 38 c7 bd fb 3e 12 3e
       -0.088756464 0.26329225 -0.097276084 0.14281838
0000d0 a4 57 6a bd 24 6d 89 be be 9f 28 3e bd 65 76 3e
       -0.057212487 -0.2684108 0.16467187 0.24062248
0000e0 6c 30 66 3e 4d cd 05 be cc 57 a7 be d0 9e 08 bf
       0.22479409 -0.13066597 -0.3268417 -0.5336733
0000f0 dc ea 1c 3e c9 8c 84 3e 5d 19 33 bd 63 95 98 3e
       0.15323967 0.2588866 -0.04372536 0.29801473
000100 5a 27 f2 bc 89 4c a2 3e bc 8d 2e 3d c9 d4 9a bd
       -0.02955978 0.31699017 0.042615637 -0.07560117
000110 69 f0 04 bd 5f 22 35 bb 0d 20 92 bd a8 7d de 3a
       -0.032455835 -0.0027638895 -0.071350195 0.0016974704
000120 52 61 9b be 3f 84 b4 bd 08 2f e7 3c 60 b5 0c bc
       -0.30347687 -0.088142864 0.028220668 -0.008588165
000130 5e 05 dd 3e e1 8c df be cf 9d 23 be 50 d1 f3 bd
       0.43168157 -0.4366217 -0.15978168 -0.119051576
000140 b6 5b ff 3d 00 e3 93 bd b1 11 59 3d e0 47 74 be
       0.12468664 -0.07221031 0.052995387 -0.23855543
000150 dc 07 1d be 24 fc 67 be 88 ff 19 3d d2 d2 ff 3c
       -0.1533503 -0.22654778 0.03759721 0.031228457
000160 c7 89 89 3e 86 64 49 3e 69 2b 3a 3d 23 57 1a 3e
       0.26862928 0.19667253 0.045451555 0.15072303
000170 48 e9 02 3e 08 3d be bd 59 c3 50 be 87 7b c7 3d
       0.12784302 -0.092889845 -0.20387019 0.09740358
000180 b5 3d 3b bd 92 fe 9a bd 48 9e f8 bd 04 7f 8c be
       -0.045713145 -0.07568087 -0.12139565 -0.27440655
000190 2a 63 64 3e be 18 95 bb 7c 92 a9 be 19 5d 0b 3e
       0.22303453 -0.0045500686 -0.3311957 0.13609733
0001a0 c8 37 29 bc ed 81 84 be cb d8 86 bd 08 41 7a be
       -0.010328241 -0.25880376 -0.06584319 -0.2443887
0001b0 88 be 2a bd d0 b9 03 bb 2c d5 81 be d8 ea 3b be
       -0.04168561 -0.0020099767 -0.2535795 -0.18351305
0001c0 7d 19 91 3d e8 e5 b6 bc 3b c9 b6 3d ca f2 40 be
       0.0708494 -0.022326425 0.089251004 -0.18842617
0001d0 9e b9 95 3e 66 41 90 3e b5 fa 79 3e ba 66 23 3e
       0.29243177 0.28174895 0.24412043 0.15957156
0001e0 c4 61 0f be ba 9a 17 bd cd 86 81 be 53 b9 8b 3d
       -0.14002138 -0.037012793 -0.25298157 0.06822457
0001f0 9b dc 28 be 57 dd 86 3e 83 a7 7e 3e cb ca ce bd
       -0.16490404 0.26340744 0.24868588 -0.100972734
000200 99 0c 1f bc 70 3e a5 3d ab ea 1e 3e f9 40 a1 bd
       -0.009707593 0.0806855 0.15519206 -0.07873721
000210 3e 7c 55 3d dc 28 84 be 4d e3 33 3e 10 89 b2 3d
       0.05212044 -0.25812423 0.17567177 0.08717549
000220 8e 1c 1f 3e 7b b8 31 be 1b 14 f5 3d e0 6d e0 bd
       0.15538236 -0.1735553 0.119667254 -0.10958457
000230 10 d2 fa be 7b 63 0c 3d 69 45 28 3e 20 fa a4 3d
       -0.4898839 0.03427456 0.16432728 0.0805552
000240 27 eb df 3c ca c9 36 3e e2 83 cd 3e ab 7d 05 3e
       0.027333809 0.17850414 0.4013968 0.1303622
000250 48 1d 9f be fb 43 1b 3e 5a bf a0 3e 7b 66 20 be
       -0.31077027 0.15162651 0.3139599 -0.15664093
000260 49 5d 07 3e 4b d4 9d bd a4 6e 4d bd 2c 6c a3 be
       0.13219179 -0.07706507 -0.050154343 -0.31918466
000270 07 5a 2f 3e c9 28 63 3e 22 53 ff bd ea 40 9f be
       0.17124186 0.22183527 -0.12467028 -0.31104213
000280 57 f3 9b bc f4 bc 37 bc 40 d3 b6 3c f1 9a 73 bd
       -0.019036932 -0.0112144835 0.022317529 -0.059473936
000290 59 33 52 bd 6f 97 3a bd 0f 70 37 3d 93 97 4a bc
       -0.0513185 -0.045554575 0.0447846 -0.01236524
0002a0 4e e1 57 bd 69 df ef 3d 80 2d aa 3d 29 b3 8a 3e
       -0.0527051 0.11712534 0.0830946 0.27089813
0002b0 5e 17 e1 b9 d0 17 1d 3e 98 7e 98 3d 66 c1 85 bd
       -0.00042932754 0.15341115 0.07446021 -0.065310284
0002c0 ec f3 bc bd 82 5b 56 3e a2 6e d1 3e 07 2e 94 3c
       -0.09226212 0.20933345 0.4090472 0.018088354
0002d0 3c d3 ed 3d 66 48 fe 3c 64 24 02 bd 98 81 01 3e
       0.116125554 0.031040382 -0.031772986 0.12647092
0002e0 a8 ec 13 3d 66 1b eb bc 9b 35 3f be 76 2b 4e be
       0.036114365 -0.028699588 -0.18672793 -0.20133767
0002f0 0d 37 d5 3b 6b 41 70 bd d6 28 ad 3e 9a 4b 31 bd
       0.0065068067 -0.058656137 0.33820218 -0.04328499
000300 74 ae 83 bb fb f1 65 3d 26 d3 16 bc 62 33 6e 3e
       -0.004018599 0.056138974 -0.009205615 0.23261788
000310 98 aa a9 bd 3d ca 3a be bf 56 e7 bd f8 77 ba 3d
       -0.08284491 -0.1824121 -0.112958424 0.091049135
000320 b5 bd 25 3e f2 02 e6 3d 13 7c 59 3e b7 30 69 3e
       0.16185649 0.112310305 0.21238737 0.2277249
000330 d9 71 f7 3d 82 2d 7d 3d 3a 11 a0 3d 74 f5 df bb
       0.120822616 0.061810978 0.07815786 -0.00683468
000340 61 19 a3 3d 99 75 b1 3c a4 4a c9 3d 60 cf 0c 3e
       0.07963825 0.02166252 0.0982869 0.13750982
000350 06 c9 64 3a cd f1 9c 3e d6 69 f6 3d 68 6e 7c 3e
       0.00087274646 0.3065323 0.12031905 0.24651492
000360 45 e3 f2 3e 60 31 02 3c cb 20 7f bd e9 fb a0 bc
       0.47439018 0.007946342 -0.062287133 -0.01965137
000370 6b 9d 82 3d c5 2f 17 3d 86 51 97 3d 33 b1 ef 3c
       0.06377681 0.03691079 0.07388596 0.0292593
000380 73 f7 8a be a3 81 da 3e c3 e7 b5 3d a4 be bc 3d
       -0.27141914 0.4267703 0.08882096 0.09216049
000390 32 ec ef bd 20 ab 32 3d 33 df 3c 3d 02 7e a9 3e
       -0.117149726 0.04362023 0.046111297 0.3310395
0003a0 1b 88 45 3d b9 db 0b bd 07 ef 13 bf 8c 96 13 be
       0.048225503 -0.03414509 -0.577866 -0.14412898
0003b0 e1 73 a4 3d 76 ad 78 3d fe 7b 3f 3d 32 ab 00 bd
       0.08029915 0.0607123 0.046749108 -0.031413265
0003c0 0a 1c 77 3d 8b df 48 3e 86 5e cb bd 9e 4f 2b be
       0.060329475 0.19616525 -0.09930138 -0.1672959
0003d0 c4 77 81 3d a1 98 e5 3e b5 53 1c 3e 07 28 ac 3d
       0.063216716 0.4484301 0.15266307 0.08406072
0003e0 78 64 54 bd ac 42 3c be 1c 07 1d be 75 be 6a 3e
       -0.051853627 -0.18384808 -0.15334743 0.22924216
0003f0 d1 a4 78 3d f7 56 78 3e 95 a8 9e bc 02 c4 48 3e
       0.060704056 0.24251924 -0.019367496 0.19606021

base.mlp.fc1.0.bias f4 [64]
000000 b3 44 f0 3c 75 db 22 bc c9 19 68 bd d2 05 1b bd
       0.029329633 -0.009940018 -0.056665216 -0.037847348
000010 1a 86 0a 3d e1 fb 4d bd f1 72 46 3d a2 7a c2 bb
       0.033819295 -0.05028904 0.04844946 -0.005935029
000020 6c 03 3b bd 46 13 c4 3b 3f 1d 7d 3d 26 f1 2a 3d
       -0.04565756 0.005983743 0.06179547 0.041733883
000030 0b 29 e4 3c dc 68 18 ba 74 86 00 3c e1 ce 9b bc
       0.027851602 -0.0005813965 0.007844556 -0.019019546
000040 57 8a a8 bb 50 a0 ed 3c 75 41 62 3c 9a f4 1a bd
       -0.0051434445 0.029007107 0.0138095515 -0.037830926
000050 8c af a7 3a c7 6a 2d 3d ab cf 4f 3c ae 90 8c bc
       0.0012793406 0.04233816 0.012683789 -0.017158832
000060 fb 73 31 3d 39 8d 10 3d fb 22 1b bd 09 5b 55 3c
       0.0433235 0.03529093 -0.037875157 0.013022193
000070 11 ae a1 bb 91 fe d3 3c 3c 83 97 3c 3e e7 a6 bc
       -0.0049340804 0.025878223 0.018495195 -0.020373937
000080 e9 dc c7 3c af 9e c4 3c e9 ad 85 bc 2b 7e 48 bd
       0.02439733 0.024001447 -0.016318278 -0.04894845
000090 e9 42 08 bd 08 54 14 bc 2b 7f 65 3d 21 d7 68 bd
       -0.033266935 -0.009053238 0.05602948 -0.056845788
0000a0 b2 3e 5a bd 1e 9f 2f bd 6a 5c 89 bc 0e 10 3f bd
       -0.053282447 -0.042876355 -0.0167677 -0.04664617
0000b0 50 25 f8 3a 47 4f a6 bb ba a9 4a 3c ff 08 04 3d
       0.0018932018 -0.0050753686 0.0123695675 0.03223514
0000c0 63 e6 06 bd ba 60 9d 3b c6 a7 bc 3d a6 29 c7 bc
       -0.032934558 0.0048027905 0.09211688 -0.024311852
0000d0 ab 21 31 3d 49 5b 2f bd 29 96 da 3c d8 c7 87 3d
       0.043245 -0.042811666 0.02668293 0.06629914
0000e0 a0 70 5a 3c 03 02 a0 3c 0c a4 53 bd 07 bd 90 3c
       0.013332516 0.01953221 -0.05167012 0.01766826
0000f0 a7 15 d0 3b c6 3a e4 3b b1 1a f4 3c bd b9 83 bd
       0.0063502374 0.006965014 0.029797884 -0.06431911

base.mlp.fc1.2.weight f4 [64]
000000 65 a1 82 3f 58 5a 81 3f ac 5a 73 3f 39 e0 7b 3f
       1.0205504 1.0105696 0.9506023 0.9838901
000010 9b bf 78 3f 40 61 80 3f 53 fa 7e 3f f6 35 76 3f
       0.97167367 1.0029678 0.99600714 0.9617609
000020 3c e0 77 3f a6 f3 84 3f 6e 1f 82 3f 44 a3 7c 3f
       0.9682653 1.0386856 1.0165842 0.98686624
000030 93 f1 81 3f 48 36 80 3f 45 37 81 3f d5 0f 7e 3f
       1.0151848 1.0016565 1.0094992 0.9924291
000040 92 67 7e 3f d5 c3 80 3f 42 de 6f 3f be 99 7e 3f
       0.99376786 1.0059763 0.93698514 0.9945334
000050 df 70 85 3f 28 e7 83 3f a4 56 82 3f 61 f2 81 3f
       1.042507 1.0304918 1.0182691 1.0152093
000060 23 53 84 3f ab e5 86 3f c5 22 87 3f 51 67 82 3f
       1.0337871 1.0538839 1.0557486 1.018778
000070 89 3a 76 3f 47 2b 72 3f 0d 5a 85 3f 34 8a 7c 3f
       0.9618307 0.94597286 1.0418106 0.9864838
000080 ed 39 6a 3f b9 44 85 3f 81 3c 86 3f e2 d1 74 3f
       0.9149464 1.0411597 1.0487214 0.95632756
000090 6c a9 8a 3f e5 6e 86 3f d3 f1 82 3f ad 17 84 3f
       1.0832953 1.0502592 1.0230049 1.0319725
0000a0 5b b1 78 3f 0f d3 78 3f 88 3a 81 3f fe 59 80 3f
       0.9714562 0.9719705 1.0095987 1.0027463
0000b0 fd a3 7d 3f f9 c3 82 3f 1c 3e 80 3f 97 ba 7c 3f
       0.9907835 1.0216056 1.0018954 0.98722214
0000c0 6f 48 7d 3f 31 f7 83 3f 21 c1 88 3f 1d aa 85 3f
       0.9893865 1.0309812 1.0683938 1.044254
0000d0 b8 c1 83 3f e8 19 6f 3f 1b 48 82 3f 19 ff 80 3f
       1.0293493 0.93398905 1.0178255 1.007785
0000e0 f3 6b 7b 3f f3 cb 84 3f d1 4b 80 3f 85 d3 7e 3f
       0.9821159 1.037474 1.0023137 0.99541503
0000f0 31 dc 81 3f d7 39 84 3f 7e 41 7b 3f 3f 7c 7b 3f
       1.0145322 1.0330151 0.9814681 0.9823646

base.mlp.fc1.2.bias f4 [64]
000000 20 fd 7a 3d c1 96 1f 3c 4d cb 5d bd 48 a6 8c bb
       0.061276555 0.009740532 -0.05414896 -0.004292283
000010 a5 49 22 3d 46 51 69 bd 1e 6c 59 3d 35 39 78 bc
       0.039621014 -0.056962274 0.053081624 -0.015150358
000020 93 02 94 bc c0 22 20 bc 34 26 db 3c 18 09 13 3d
       -0.018067634 -0.00977391 0.026751615 0.035897344
000030 7f 07 8f 3b 0b d5 2a 3c 7c c1 1a 3d 91 05 53 3c
       0.0043649073 0.01042677 0.037782177 0.012879745
000040 f0 5f 94 bc 37 40 f7 bc 8d 54 e5 3c 90 58 1a bb
       -0.018112153 -0.030181987 0.027994419 -0.0023551323
000050 2d 67 d5 bc a5 1d da 3a 91 89 0f 3d f2 e8 68 bd
       -0.026050175 0.0016640915 0.035043303 -0.05686278
000060 6e 5b 0a 3d aa 16 a6 bc e7 60 a4 bc 7e 11 ac bb
       0.0337786 -0.020274479 -0.020065738 -0.0052511087
000070 ca 4b e0 3c d8 8b 37 3d 7e 39 84 3b 6f bb d0 3c
       0.027379889 0.0448111 0.004035174 0.02548
000080 8f f7 13 3d a2 8f 11 3d 5e f8 20 3d ec 59 a2 3c
       0.036124762 0.03553737 0.03929936 0.019818269
000090 af ed 82 3c 9e bf cc 3c d5 83 8c 3d 59 12 01 bd
       0.015982477 0.024993714 0.068610825 -0.03151164
0000a0 fa 59 6f bd 2f d3 3d bb 84 5f 04 bd 00 79 9b bd
       -0.058435418 -0.0028964987 -0.032317653 -0.07591438
0000b0 80 1a 16 bc 3c e6 ad 3c 28 7c 31 3c 80 97 fe 3b
       -0.0091615915 0.021227948 0.010832824 0.007769525
0000c0 9b ee f5 bb a0 a2 c8 3c 35 84 20 3b c0 a8 ef bc
       -0.0075052506 0.024491608 0.0024492864 -0.029255271
0000d0 7f 36 2c 3d a7 42 99 bc a7 3e 51 3d b2 16 a6 3d
       0.04204416 -0.01870854 0.05108514 0.081097975
0000e0 6b 47 e3 3c 09 8f c0 3c 42 10 72 bd 8c b6 9c 3b
       0.027744016 0.023505704 -0.059097536 0.0047825035
0000f0 16 fe 41 3c 17 2d 91 3b 3e 4b 84 3d 88 0b 70 bb
       0.011840364 0.004430424 0.06459664 -0.0036627967

base.mlp.fc2.0.0.weight f4 [64, 64]
000000 78 11 4a 3d 60 14 7c 3d 79 c9 3b 3e 9b 35 94 bd
       0.049333066 0.06154287 0.18338574 -0.07236787
000010 40 4f 27 3e 9d 91 68 be 78 f5 06 be 3c f4 89 bd
       0.16338825 -0.22711797 -0.13179576 -0.06736037
000020 d0 dc 39 3e 77 03 33 be 1d fb 36 3e 66 1a 71 bd
       0.1815064 -0.1748179 0.1786923 -0.058863066
000030 30 97 22 3d f9 26 4c be 02 ae 5a 3d 6e 5c 89 bc
       0.039694965 -0.19936742 0.053388603 -0.016767707
000040 b6 d4 83 be 2c 7f 3d 3e 8b 82 f0 3d 35 88 ba 3e
       -0.25748223 0.18505543 0.11743649 0.36432043
000050 10 b5 05 be 7c b6 b4 3d ac 8d 0b 3e f5 f5 5f 3b
       -0.13057351 0.08823869 0.13628262 0.0034173701
000060 8a cc 86 be 76 d9 c3 3e e5 f8 8b be 68 1b ad bd
       -0.26327926 0.38251847 -0.2733833 -0.08452493
000070 05 da 99 3d 05 15 66 be e7 b0 4a 3e 38 57 d3 bc
       0.07512287 -0.22468956 0.19794045 -0.025798425
000080 61 92 11 bd bc ae 32 be 53 0a 7c be ed 2c 3b be
       -0.03553999 -0.17449468 -0.24613313 -0.18278857
000090 47 f3 f6 bd 66 ab 88 3d 3b 92 c6 3d 64 e2 09 bd
       -0.1205812 0.06673317 0.0969586 -0.03366317
0000a0 e3 89 bf bd 28 17 06 3e 2c 88 9e 3e 66 d4 ee 3c
       -0.09352472 0.13094771 0.30963266 0.029154014
0000b0 4b 08 38 3e 44 0a f4 be 11 cc a2 bd b3 db b9 3d
       0.17971914 -0.47664082 -0.07949079 0.090751074
0000c0 fc f9 27 be 8b 55 98 3a 17 67 8a 3d cd 29 ee bd
       -0.16403955 0.0011622173 0.06757944 -0.116290666
0000d0 3c bb b3 bc ae 5a 41 be 1f 9f 82 be 6d 92 32 bd
       -0.021939866 -0.18882248 -0.25512025 -0.043596674
0000e0 48 5b 72 bd 3b 49 a4 3e 08 c7 42 be 74 3b bf 3d
       -0.059169084 0.3208712 -0.19021237 0.09337512
0000f0 97 7c f9 3e 81 6e 09 bc 37 82 cd bd 6b 14 03 3d
       0.48727867 -0.008388163 -0.10034602 0.032001894
000100 6c b5 1b be 37 b0 f3 bd 46 e3 49 bd 8c 8c b6 3d
       -0.15205926 -0.11898845 -0.04928901 0.08913526
000110 c3 92 f4 bd ce a8 02 3e ac 4f a5 be 2b 3a e0 bd
       -0.11942055 0.12759706 -0.32287347 -0.10948595
000120 10 cc 8c be b7 19 81 be c1 48 95 3e db 98 3b be
       -0.27499437 -0.2521493 0.2915707 -0.18320028
000130 48 ce 46 be fc d6 66 3d 10 4a 25 be a1 bd 99 3e
       -0.19414628 0.05635737 -0.16141534 0.30027488
000140 9f 41 5b 3e f5 b3 af bd a4 47 a6 3d b8 25 13 bd
       0.21411751 -0.08579246 0.08119133 -0.035924643
000150 88 31 37 be 0b bc f7 be 78 8f a1 3e 8e e6 83 3d
       -0.17889988 -0.48385653 0.3155477 0.06440459
000160 7b a7 fd bd bc 94 22 3e c9 a5 50 3e 6d e9 82 bd
       -0.1238546 0.1587705 0.20375742 -0.06392179
000170 66 ee 83 3e 37 73 b6 bd fa 9b f9 3d 18 ae 2d 3e
       0.2576782 -0.08908694 0.12187953 0.16960943
000180 54 40 95 bc a7 ee b0 3c bb 37 97 be 6b 1b bb bd
       -0.01821915 0.021598173 -0.29534706 -0.09136089
000190 d7 87 18 be da f0 7f 3d 67 f2 13 be 9c 80 40 3e
       -0.14895569 0.062485553 -0.14447938 0.1879906
0001a0 95 54 d6 bd 35 71 c6 bd d9 50 84 3d 7d ea 50 3e
       -0.104653515 -0.09689561 0.06460733 0.2040195
0001b0 17 12 72 3e c9 3b 6e bc 1b b8 32 3e 53 af f6 3a
       0.23639713 -0.014540621 0.17453043 0.0018820561
0001c0 df e7 d0 bc e6 f0 93 bd 9d 10 96 bd 3c cb 4a be
       -0.02550119 -0.07223682 -0.073273875 -0.1980409
0001d0 a6 7d 10 be 6d 5c e7 3d 48 9e c4 3e b6 8e 1f 3e
       -0.14110431 0.11296926 0.3840201 0.15581784
0001e0 37 3f 38 be d4 67 f8 3d cd 52 87 3d af e9 1f bd
       -0.17992865 0.12129179 0.0660759 -0.039041217
0001f0 06 86 a1 3c 84 7c 67 3d e1 c6 e4 3e c4 13 8c bd
       0.019717228 0.05651523 0.44682983 -0.068397075
000200 b5 8c 98 3d db 41 89 3e c6 ff 65 3e bd 4f 7a 3e
       0.07448713 0.26808056 0.22460851 0.2444448
000210 81 f4 9a 3e 2a fd 81 be 66 ae 05 3e d5 70 18 bd
       0.30264667 -0.2538846 0.13054809 -0.03721698
000220 e2 74 ed bd d0 83 d3 bd 42 29 e2 bd bf d1 7d 3d
       -0.11594559 -0.103278756 -0.110430256 0.061967608
000230 a3 a4 84 be 11 0c ed bd 61 b2 07 bd 83 dc 49 3d
       -0.25906858 -0.11574567 -0.0331291 0.049282562
000240 79 40 30 be c7 da 78 3d 9e 16 02 bd ba e3 70 bd
       -0.17212094 0.060755517 -0.03175985 -0.058810927
000250 e5 1f 7f be 4f 6b 66 bd 31 98 90 3e 10 8d 7b 3e
       -0.2491451 -0.05625468 0.28241113 0.2456553
000260 c5 dd c7 3e 40 35 00 be 75 a2 34 bc ef 31 84 3e
       0.39036384 -0.12520313 -0.011025061 0.25819346
000270 99 31 34 3e 05 9a 20 3e 34 c0 4c be 0b 1d 27 3e
       0.17597045 0.15683754 -0.19995195 0.16319673
000280 8d 07 64 3e 98 3e 85 3e 5f fc f3 3d 97 e9 4e 3e
       0.22268505 0.26024318 0.1191337 0.20206295
000290 60 af 36 3d 3f db 8e bd 8a dd 50 3d 57 e8 e0 bd
       0.044600844 -0.069754116 0.050992526 -0.10981815
0002a0 5a 63 fb 3c a3 99 4e be 2f 9d 7d 3b 21 5a 6c be
       0.030687023 -0.20175795 0.0038698425 -0.23081256
0002b0 81 19 65 3e da f8 39 3e d6 3f 93 3e 03 91 82 3d
       0.2237301 0.18161336 0.2875964 0.06375315
0002c0 e9 04 86 3e b4 d8 9c be 2f 13 22 be 8e de d0 bd
       0.2617562 -0.3063408 -0.1582763 -0.10198699
0002d0 16 5d 75 be 3f d1 a4 bd a4 65 d4 be ab 55 57 3e
       -0.2396129 -0.08047723 -0.41483796 0.21028773
0002e0 36 71 3f be 80 7b ee 3d 61 5b 29 3e a7 41 a2 3d
       -0.1869553 0.116446495 0.16538765 0.079226784
0002f0 31 7a 05 be 56 59 0c 3e 67 6a bf bd 66 07 cd 3d
       -0.13034894 0.13705954 -0.093464665 0.10011177
000300 ed b0 46 bd 3c 92 87 3b 6d 94 6f bd a4 ad 06 bd
       -0.048508573 0.0041373055 -0.05849116 -0.03288044
000310 a1 24 22 be 1e 17 06 bd 6c ec 3b be e3 1d 12 3e
       -0.15834285 -0.03273689 -0.18351907 0.14269213
000320 81 fd 6f be 61 d7 51 3e 48 69 29 3e 90 0c a5 3e
       -0.23436548 0.20492317 0.16544068 0.32236147
000330 46 dc 6f 3e 49 88 80 3d 2a f1 fb bd 9f 6e 71 be
       0.23423871 0.06275994 -0.12301858 -0.23577355
000340 0c 14 f8 bd 16 0f 99 3d cf d1 55 3e e5 b9 9b 3e
       -0.12113199 0.074735805 0.20880817 0.30415264
000350 38 50 fa bd c1 50 f5 3c 19 2f e3 bb 3b c7 29 3e
       -0.12222332 0.029945733 -0.0069331047 0.16579907
000360 93 f5 a9 b9 f5 bf 0b 3c c2 58 c3 bb f7 c9 88 be
       -0.0003241716 0.008529653 -0.0059615085 -0.26716587
000370 2c dc 7c be 63 8a 9d be 5c 3f 2b bb 03 a9 eb 3d
       -0.24693364 -0.30769643 -0.0026130294 0.11506846
000380 0e cf e1 3d 29 6f 11 3d 63 3a 21 3d 71 b3 90 be
       0.11025821 0.0355064 0.039362323 -0.28261903
000390 76 0b ab be e2 e8 70 3d af 35 69 bc c2 87 96 3e
       -0.33407182 0.058815844 -0.014233991 0.2940045
0003a0 c0 1f 60 bc 07 ea cd 3d 34 d7 25 be 7e 05 78 be
       -0.013679445 0.10054403 -0.16195375 -0.24220845
0003b0 1f 27 44 bd 6b 7f d6 3d c1 6b aa 3e c7 a2 97 be
       -0.04788887 0.10473522 0.33285335 -0.29616377
0003c0 d1 aa 50 3e 0a a4 c8 39 e0 25 be bc 1b 41 1b 3e
       0.20377661 0.0003826919 -0.02321142 0.15161555
0003d0 5d 67 6d 3e a0 94 04 be 0f 99 48 be 32 0b 38 bc
       0.23183961 -0.12947321 -0.19589637 -0.011233138
0003e0 c2 cb 15 be e1 f5 b3 bc 9e 6d b0 3e 69 19 d7 3e
       -0.14628509 -0.02196783 0.3445863 0.42011574
0003f0 d6 26 b1 bd 7c 7f 1b 3d 29 8a d4 bc 53 f2 e6 bd
       -0.086499855 0.037963375 -0.025944786 -0.112766884

base.mlp.fc2.0.0.bias f4 [64]
000000 d1 4c 9c bc 77 14 04 bc 9b 0f e7 3c 13 53 45 bc
       -0.019079598 -0.00806152 0.028205683 -0.012043732
000010 f1 22 bb 3c be 65 08 3d 7c 67 c9 3b ae ea e2 3c
       0.02284381 0.033300154 0.0061463695 0.027699795
000020 83 66 4d bd a3 15 c7 bb 03 95 04 bd a1 44 55 bd
       -0.05014659 -0.0060755773 -0.03236867 -0.052067403
000030 60 0b 53 bd 4a da 67 bc 37 66 b9 3c 17 e7 fb 3b
       -0.05152452 -0.014151165 0.022631748 0.00768746
000040 0d 37 c4 bd c1 00 b2 bc b8 83 2f bc 6d 14 84 bd
       -0.095808126 -0.021728875 -0.010712557 -0.064492084
000050 e0 d8 fa 3a e6 82 4d bd 9e 98 dc 3c 35 36 ab 3c
       0.001913812 -0.050173663 0.026928242 0.020899871
000060 13 06 1c bd 94 cd 4f bd a3 c2 73 3c 69 92 6c 3d
       -0.03809173 -0.050733164 0.014877948 0.057756815
000070 37 08 d0 bc c5 0b 3d bb 53 cb fa 3c d3 d9 9c bb
       -0.025394542 -0.0028846127 0.03061453 -0.004786709
000080 13 6c 40 bd 53 f1 42 3d ac 93 4e bd 82 ae b7 bc
       -0.046978068 0.047593426 -0.0504338 -0.022422079
000090 79 4a 19 3c 3c 70 55 bd d8 3f 89 bd 3a 23 3c 3c
       0.009356135 -0.05210899 -0.0670163 0.011483008
0000a0 20 b5 e3 3b 46 4e e9 bb 02 b3 ef bc 0f fe 38 bd
       0.006949082 -0.0071199266 -0.029260162 -0.045164164
0000b0 db 71 2e bd d4 a1 ea b8 75 bf 08 bd 02 b6 a2 3c
       -0.04258905 -0.00011188132 -0.033385713 0.019862179
0000c0 2c eb fa bb ea 65 10 bd e5 73 41 3d 75 a6 cc 3c
       -0.007657429 -0.035253443 0.047229666 0.024981717
0000d0 8e da da 3c 76 3b 40 3d 71 71 0b 3c 44 40 b4 3b
       0.026715543 0.046931706 0.008510933 0.005500825
0000e0 4b 15 56 b9 c5 61 7d 3d 03 39 bf bc 67 f2 9b bb
       -0.00020416563 0.06186082 -0.023342615 -0.004759121
0000f0 3f a1 83 3b f3 3f e3 3c 63 5b f3 3a f3 34 b6 3c
       0.0040170248 0.027740454 0.0018566664 0.022242045

base.mlp.fc2.0.2.weight f4 [64]
000000 4a 6e 89 3f d8 5a 84 3f 9b 71 88 3f 8e ea 87 3f
       1.0736783 1.0340223 1.065967 1.0618455
000010 6d 65 82 3f 62 86 84 3f 49 a0 87 3f 2f db 8a 3f
       1.0187203 1.035351 1.059579 1.084814
000020 d7 d8 81 3f 66 a9 82 3f 85 de 84 3f 76 02 85 3f
       1.0144299 1.0207946 1.0380408 1.0391376
000030 40 4f 8a 3f da a2 83 3f f4 35 8c 3f 02 4a 8d 3f
       1.0805435 1.0284073 1.0953965 1.103821
000040 25 da 85 3f e4 c9 87 3f 93 26 84 3f d6 5e 85 3f
       1.0457197 1.0608487 1.0324272 1.0419567
000050 52 36 81 3f 85 34 90 3f b6 cc 85 3f 4c 8e 84 3f
       1.0094702 1.1266028 1.0453098 1.0355926
000060 a9 20 8a 3f b2 80 86 3f 85 da 86 3f c6 6a 8c 3f
       1.0791217 1.0508025 1.0535437 1.0970085
000070 67 4c 86 3f ff a2 83 3f fd ee 85 3f 07 0a 7f 3f
       1.0492066 1.0284117 1.0463558 0.99624676
000080 f3 80 7e 3f 16 b5 87 3f 97 51 89 3f e0 28 87 3f
       0.9941551 1.0602138 1.0728024 1.0559349
000090 eb b4 86 3f 3b 0e 86 3f 34 6f 8c 3f fb 8f 83 3f
       1.0523962 1.0473093 1.0971437 1.0278314
0000a0 ae ac 85 3f 14 fd 85 3f 86 2d 82 3f 9e 16 83 3f
       1.0443323 1.0467858 1.0170143 1.0241277
0000b0 ed 65 8c 3f 2e 16 83 3f 49 e2 87 3f b8 94 82 3f
       1.0968605 1.0241144 1.0615932 1.0201635
0000c0 6a f6 8c 3f 31 8e 86 3f 74 8d 85 3f 91 04 82 3f
       1.10127 1.0512143 1.0433793 1.0157644
0000d0 90 33 8b 3f 0f 29 85 3f 76 0f 89 3f ee 0f 80 3f
       1.0875111 1.0403155 1.0707843 1.0004861
0000e0 9d 87 88 3f 8b c5 8b 3f ac 51 81 3f 09 2c 8a 3f
       1.0666386 1.091966 1.0103049 1.0794688
0000f0 43 2e 89 3f 5b 70 85 3f ca 6a 7e 3f 12 68 87 3f
       1.0717243 1.0424913 0.993817 1.0578635

base.mlp.fc2.0.2.bias f4 [64]
000000 8d c2 9f bc 6d 70 35 bc f8 0c a8 3c bf 55 9d bc
       -0.019501949 -0.011074168 0.020513996 -0.019205926
000010 6b 7e 99 bb f1 24 3d 3d ba d0 54 3d 28 1d 98 bc
       -0.0046842596 0.04617781 0.05195687 -0.01856859
000020 10 8e d7 3c df 42 66 bc 70 d7 8e bb 0b dd a7 bc
       0.026312858 -0.014054029 -0.0043591782 -0.020491144
000030 29 01 ef 3b 51 55 ee bc df ce e8 bc 67 80 14 bd
       0.0072938395 -0.029093416 -0.028418956 -0.036255267
000040 10 ae be bb dd a4 9a bd b5 6f 1e 3d fb d7 3d 3b
       -0.0058190897 -0.075509764 0.03868075 0.0028967846
000050 95 bb 5d 3c a1 95 33 bd f7 f0 19 3d 60 52 10 3d
       0.013533493 -0.04384387 0.037583318 0.03523481
000060 06 ce 33 bd 4d 6d af 3c af c2 94 bb d1 68 3c bd
       -0.04389765 0.021414423 -0.0045398097 -0.0459984
000070 a4 46 fb bc 70 44 42 bc c3 56 4d bb 8d 63 1a 3d
       -0.030673333 -0.011857137 -0.0031332232 0.037692595
000080 53 62 d3 3b c3 e7 ad 3b a6 78 9a bc 93 1f d1 bc
       0.00645093 0.005307169 -0.018856358 -0.025527751
000090 0c a7 ac ba a4 ba e0 bc 2d 73 10 3b 6f 6a 0e bc
       -0.0013172342 -0.027432747 0.0022041306 -0.008692368
0000a0 10 f9 01 bd 81 2c e6 bc c0 19 e0 bc c8 a2 07 3b
       -0.031731665 -0.028097393 -0.027356029 0.002069639
0000b0 29 d5 d4 bc 43 c2 55 ba 93 1b 11 bd da cd b9 3c
       -0.025980549 -0.00081542524 -0.035426687 0.022681165
0000c0 94 3e 08 3d ff 39 d0 bc 31 12 ea 3c 1b d8 e1 3b
       0.033262804 -0.02541828 0.028573127 0.006892217
0000d0 77 16 87 3c f2 82 8f 3b e0 c8 d1 3c c5 61 0f 3a
       0.016490204 0.0043796236 0.02560848 0.0005469586
0000e0 76 b2 fc 3b 58 9e 1b 3d a7 8d db bb 3a d7 49 3b
       0.007711704 0.037992805 -0.006700236 0.003079845
0000f0 a9 60 06 3c f3 63 33 3d ea ad b6 3b 98 af 04 bc
       0.0082017565 0.04379649 0.0055749314 -0.008098505

act.action_out.fc_mean.weight f4 [4, 64]
000000 92 64 5a bd 65 9c 0b bd 19 3e 0f bd 08 7f b9 3c
       -0.053318568 -0.034084696 -0.03497133 0.022643581
000010 c1 d2 d5 3b 75 4f 4d bd fa 7c 0c bd b2 ee 28 bd
       0.006525368 -0.050124604 -0.034298874 -0.041243263
000020 1a f2 61 3c 91 e2 27 3d e9 d5 5e 3c 8a 21 4a 3d
       0.013790632 0.040987555 0.013600805 0.04934839
000030 5c d4 9f 3d ce 12 57 3c c7 7b dd 3d 72 2d 89 bd
       0.07804176 0.013127042 0.10814624 -0.06698121
000040 4a 07 1c bd 46 76 01 bc db 5d 8d bb 13 40 84 3c
       -0.03809289 -0.007901734 -0.004314167 0.016143834
000050 7d cd 76 3c d8 8b 76 3d 1a 44 ea bc 44 92 aa 3c
       0.015063641 0.06019196 -0.028596926 0.020821698
000060 37 15 8b bd 5b 88 18 bd b8 f7 41 3d 02 1a a3 bd
       -0.06791156 -0.037239414 0.047355384 -0.07963945
000070 b7 1e 45 3d 87 51 62 3c 4d 2f 11 bc 4c 37 b6 bc
       0.048124995 0.013813383 -0.008861375 -0.022243164
000080 92 e0 a1 bc c7 dc a2 3c 0e 05 36 bd 77 94 d5 bb
       -0.019760404 0.019880665 -0.044438414 -0.0065179425
000090 e4 7a 34 3c ba 72 ce bc fd d5 1a bb 0d 24 bd 3a
       0.0110156275 -0.02520119 -0.0023626082 0.00144303
0000a0 67 a9 c8 bc ce ee 4b bc 28 0f 3f bc 1d e9 ba bc
       -0.02449484 -0.012447072 -0.011661328 -0.022816235
0000b0 2f 7b 49 3d 6d 76 82 3c f3 f7 7e bd 53 0e 2f 3d
       0.049189743 0.01592561 -0.06224818 0.04273827
0000c0 b0 b5 cc 3c 8e c0 86 bc e2 7c 40 bd f7 32 d9 3c
       0.02498898 -0.01644924 -0.046994098 0.02651356
0000d0 af f8 68 3d 3e ea a6 3a bc 91 0e 3d d9 98 92 bb
       0.05687779 0.0012734605 0.034806952 -0.0044737873
0000e0 57 fa 99 3b 3f f3 47 bd 28 32 4c 3c ec e1 d7 3b
       0.0046990323 -0.048815962 0.01246313 0.0065882113
0000f0 22 75 a4 3c 29 0c 37 39 72 24 d0 3c 57 2f 90 bc
       0.020075385 0.0001745677 0.025408003 -0.017600698
000100 99 11 5a 3d 5b da a8 bc 4d 49 32 bd a0 0a 89 bb
       0.05323944 -0.020611933 -0.043526936 -0.004182175
000110 94 94 17 3d fb fd 9e bb 34 59 2a 3d 6a a5 b7 bc
       0.03700693 -0.004852054 0.041588977 -0.022417743
000120 53 b0 0f 3b ba f8 58 3c 33 09 7f bc 0d 44 23 bd
       0.0021925166 0.013242895 -0.015566158 -0.03985982
000130 bf c9 20 bd c9 1a de 3c 59 57 ef bb 9e 6c 2c bd
       -0.0392549 0.027112382 -0.007304114 -0.042095773
000140 5a 78 36 3d 08 40 09 bd d8 bf 77 bc 30 00 ed 3c
       0.04454837 -0.03350833 -0.015121423 0.028930753
000150 4e 9d c9 3c 55 11 31 3c c4 e5 01 bc 58 96 07 3d
       0.024611142 0.010807355 -0.007928316 0.033102363
000160 2b 28 fe bc 4b 33 93 bc bb 0b 0d bd 9d 44 44 bd
       -0.031025013 -0.017968794 -0.034435015 -0.047916997
000170 f7 c0 e6 bc 6b 30 26 3d ef 70 54 bd ab 38 c0 3c
       -0.028168185 0.04057352 -0.051865514 0.023464521
000180 c6 a3 27 3c 88 bf 77 bd 61 df 69 bb da 8d 58 bc
       0.010231918 -0.060485393 -0.0035686123 -0.013217414
000190 88 fe 10 bd b1 0c 48 bd b2 3b cf 3d af 3c c6 3c
       -0.03539899 -0.04884023 0.10118808 0.024198858
0001a0 29 22 31 ba ec cb c2 3c b0 89 6d bc 9a ac 2f ba
       -0.00067571044 0.023778878 -0.014498159 -0.000670144
0001b0 27 43 a6 bc 8b ae dc bc ea f5 17 bc 6f 40 80 bc
       -0.020295693 -0.026938697 -0.009274939 -0.015655724
0001c0 0a f5 3e 3d e9 10 1f bd 9d 84 bd bb 5c a4 51 bc
       0.046620406 -0.038834486 -0.005783631 -0.012795534
0001d0 bc 5a 7f 3d e4 63 44 bd 9f 7a 92 bb 38 a6 bd 3c
       0.06234239 -0.047946826 -0.004470184 0.023150548
0001e0 c6 aa 90 3d 9c 28 cd bb 50 30 8f bb 49 6d a8 3c
       0.070638224 -0.0062609445 -0.004369773 0.020559924
0001f0 31 d6 85 3d f7 b0 96 bc 54 b9 02 ba f8 cb 76 bd
       0.065349944 -0.01839493 -0.00049867225 -0.060253114
000200 08 76 88 bc de f0 fd 3c bf d7 4e 3d 2f a0 72 bb
       -0.016657844 0.030998643 0.05049872 -0.0037021746
000210 6f 5c 13 bd f1 47 18 3d 8d ac a8 3c 2e 45 80 bd
       -0.035976823 0.037177984 0.020590091 -0.06263195
000220 fb 8d a1 bc a7 aa f6 bb 45 5f e4 bc 61 f8 a4 3c
       -0.019721022 -0.0075276676 -0.02787746 0.020137968
000230 18 e5 e4 3a fe 0f db bc 94 1e 49 3d 03 5d e8 3c
       0.0017463295 -0.026741024 0.049101427 0.028364664
000240 30 85 42 39 8a 58 83 3c 6a 5f b7 3c 29 1c 1d bd
       0.00018550898 0.01603343 0.022384364 -0.038356934
000250 ff cd 41 3c a6 b5 f0 3d 09 7c 00 bd 71 b7 d0 bc
       0.011828898 0.11753397 -0.03136829 -0.025478097
000260 20 48 19 3c b5 0b 82 3d 25 a5 0a 3d e3 fc d1 3c
       0.009355575 0.06349889 0.0338489 0.025633281
000270 a0 28 d9 3c 31 3f 19 3c f1 e3 00 bd 0f 97 e4 bb
       0.02650863 0.009353445 -0.031467382 -0.0069760154
000280 5f b6 72 bc df fa ae bc b5 37 84 bd 61 df a3 bd
       -0.0148139885 -0.021359859 -0.06455938 -0.080015905
000290 29 98 8c 3d 6b ab 93 bc 97 32 da bb 3e 6f 8c bc
       0.0686496 -0.018026074 -0.006658863 -0.017142888
0002a0 65 e6 02 bd 95 53 12 3d 55 81 d3 bc ee 58 32 3d
       -0.031958003 0.03572424 -0.025818506 0.04354184
0002b0 00 cb 84 3d 96 90 86 bc 56 ce 31 bc ca fd e4 3a
       0.06484032 -0.016426366 -0.010852417 0.0017470655
0002c0 88 12 0b 3d 19 76 20 bd a7 16 ba bc a7 3b c3 3b
       0.03395322 -0.039175127 -0.02271588 0.005958039
0002d0 e3 39 02 bd 5f 99 d5 3b 40 b7 27 bd 8c 17 41 3c
       -0.031793486 0.0065185274 -0.040946245 0.011785399
0002e0 04 36 42 bd cb 65 63 3d e5 3b 27 bd 33 71 a5 3d
       -0.047414795 0.055517 -0.040828604 0.08078232
0002f0 51 10 4b bd cc 03 4a bd e6 4d 8b bc 00 63 1b 3c
       -0.049576107 -0.049320027 -0.017004918 0.009484053
000300 09 da 3b bd 7e 77 1e bc 6d 90 9d 3c 45 8b 8a 3d
       -0.04586223 -0.009672044 0.019233907 0.06764845
000310 fc d4 c4 bb fd 38 a7 bb 3f e6 2c 3d 69 78 3d bd
       -0.006006835 -0.005103229 0.042211767 -0.04625741
000320 f9 c7 ba 3c a6 db a7 bc 59 7c 00 3d 85 5c 47 bc
       0.022800433 -0.020490479 0.031368587 -0.0121680545
000330 7b 8b 85 3c 15 75 f3 bc 4d a8 0a 3c ab f9 93 bd
       0.016301861 -0.029718915 0.008462978 -0.07225355
000340 e1 79 ac bc e1 90 5e bd 99 11 3f 3d 14 5d 37 3c
       -0.02105421 -0.054337386 0.04664764 0.011191625
000350 df 8a ca 3c b1 27 95 ba 39 28 27 3d 97 4f 09 bc
       0.024724422 -0.0011379627 0.040809844 -0.008380792
000360 eb 3a 3c bd 24 9b 85 ba c2 1c ee bc 6a 5f 83 3b
       -0.045954626 -0.001019333 -0.029066447 0.004009177
000370 dd 28 b3 bc 53 2f b9 bc f0 9a 24 bb 3b d1 d8 3a
       -0.021870071 -0.022605574 -0.0025116764 0.0016541848
000380 ad 91 4b 3b 76 43 7a bc e1 25 08 bd 62 6f 8a bc
       0.0031062171 -0.015274873 -0.03323925 -0.016898815
000390 49 98 5e bc 7b d2 f3 3b b0 11 6f 3c 6c 6a 28 3d
       -0.013586112 0.0074408627 0.014591619 0.041117117
0003a0 d1 7a 07 bd 52 55 32 bd 9b 36 8e bc 3a 6e 9d 3c
       -0.03307611 -0.0435384 -0.017360022 0.0192176
0003b0 61 d8 4f bd 4e fc ff bc d8 68 58 bd 01 06 40 bc
       -0.050743464 -0.031248238 -0.05283436 -0.011720181
0003c0 99 91 a3 3d 97 ba cd bc e4 9f 31 3d 11 87 c0 3c
       0.07986755 -0.025113387 0.043365374 0.023501905
0003d0 9e e3 c0 3b d3 33 02 3c 72 54 82 3d 85 e6 bb b8
       0.005886509 0.007946926 0.06363763 -8.9597925e-05
0003e0 96 b0 12 bc 56 ac 64 3d 9c 79 1e 3c 5e 77 6d 3c
       -0.008953234 0.055828415 0.009672549 0.014493791
0003f0 06 c6 1d 3c 73 1d fa 3c 06 5e ae bb 62 d0 17 bd
       0.009629732 0.03053162 -0.005321267 -0.037063964

act.action_out.fc_mean.bias f4 [4]
000000 2f 37 63 bb 0f f9 cb 3c 21 87 02 bc fd a5 24 3d
       -0.0034670343 0.024899034 -0.007966788 0.04019736

act.action_out.logstd._bias f4 [4, 1]
000000 00 c2 5e bf bc d3 81 bf b7 69 6d bf dd f4 7e bf
       -0.8701477 -1.0142741 -0.92739433 -0.9959238
