checkpoint/best_mappo_seed111_run20260210_234755_envmamujoco-ant-4x2_ep9000_actor.pt (torch, 36126 bytes, 13 tensors)

base.feature_norm.weight f4 [42]
000000 7b 25 96 3f d1 01 62 3f 8f 79 83 3f 35 ce 7f 3f
       1.1730188 0.8828402 1.0271472 0.9992402
000010 7a 4a 85 3f 75 38 82 3f e8 eb 82 3f a0 15 8b 3f
       1.0413353 1.0173479 1.0228243 1.0865974
000020 44 91 7e 3f a9 23 79 3f 6a 41 83 3f ba 24 84 3f
       0.9944041 0.9732004 1.0254338 1.0323708
000030 1a e1 83 3f 3f e9 84 3f 1e 02 a1 3f b7 1c 84 3f
       1.030307 1.0383681 1.2578771 1.0321263
000040 00 4b 5d 3f 29 49 82 3f d6 ab 69 3f f6 d5 9a 3f
       0.86442566 1.0178577 0.91277826 1.2096546
000050 8b c9 8f 3f b4 6f 65 3f de b7 7b 3f 92 ec 83 3f
       1.1233381 0.8962357 0.98327434 1.030657
000060 ce 35 81 3f c3 07 82 3f 1c d2 82 3f 5f fc 7b 3f
       1.0094545 1.0158619 1.022037 0.9843196
000070 80 3a 72 3f 42 4c 80 3f 45 2e 8a 3f a1 c4 88 3f
       0.94620514 1.0023272 1.079537 1.0685006
000080 aa ee 88 3f f8 fc 82 3f 03 8a 8a 3f c2 b5 92 3f
       1.0697834 1.023345 1.0823368 1.1461718
000090 26 62 7b 3f 8c 61 7a 3f 53 18 7f 3f ae be 64 3f
       0.9819664 0.97805095 0.9964649 0.89353454
0000a0 e9 7d 71 3f b8 12 75 3f
       0.9433275 0.9573169

base.feature_norm.bias f4 [42]
000000 e2 17 9f 3c 43 79 d9 bc 2e 6f 85 3c 7c 0e 15 3c
       0.019420568 -0.02654708 0.016288366 0.009097692
000010 d6 6c 5c 3c 3e f2 3b 3b e4 de 35 bd a2 d9 2e bc
       0.013453683 0.0028678323 -0.04440202 -0.010672005
000020 a7 19 e4 bc 22 14 f6 bb 13 07 42 3d db 8b ec 3c
       -0.027844263 -0.0075097242 0.047370028 0.028875282
000030 6c 92 bd 3c f0 8c 4a 3c 74 1f 9b 3c 90 6b 1d bd
       0.023141108 0.012362704 0.018935896 -0.038432658
000040 0f ed 90 3d cf e2 81 3a a0 6d 46 3a ef 45 21 bc
       0.07076465 0.0009909513 0.0007569436 -0.009843334
000050 31 e4 1a bd 40 c1 9c bc 6f e6 21 3c ae bb ae bc
       -0.037815277 -0.019135118 0.0098816 -0.021329727
000060 ca 39 9c 3a a9 90 72 bd 6b 46 56 bc 41 5a 02 bd
       0.0011919078 -0.05921999 -0.013078312 -0.031824354
000070 8c ae 69 bd 43 17 64 bd 61 bf 31 3d 14 5f 73 3c
       -0.057051226 -0.055686247 0.043395404 0.014854211
000080 8b 82 7d bc c6 97 38 3d 9e d3 4e bd 07 14 c0 bc
       -0.015473018 0.045066617 -0.050494783 -0.02344705
000090 ca 7d a6 bc 29 cb 9a 3c 7b 5c 18 3d d9 cc 23 bd
       -0.020323653 0.018895702 0.03719757 -0.03999028
0000a0 19 24 55 3c 0c fa 16 bc
       0.013009095 -0.009214889

base.mlp.fc1.0.weight f4 [64, 42]
000000 19 7d 84 be f8 e8 34 bd 42 18 60 bd c7 d4 c8 3d
       -0.25876692 -0.04416749 -0.054710634 0.09806209
000010 66 0b 28 3e 64 33 60 be c0 e1 88 be ca 5f 83 be
       0.16410598 -0.21894604 -0.26734734 -0.2565902
000020 f8 8a 6a 3d 65 e6 1b 3e 3b 51 4c bd 85 a8 68 be
       0.057261437 0.15224607 -0.049882155 -0.22720535
000030 2e cd 4a 3d cd aa 1f be eb ac 25 3e 5b 51 06 3d
       0.04951208 -0.15592499 0.16179244 0.03279243
000040 f8 38 3d 3e ca 3c 00 be ee b8 14 3e eb 27 c6 3d
       0.18478763 -0.12523189 0.1452367 0.096755825
000050 70 c7 b3 3d e6 d7 d2 3d 2f cc f4 3d 40 cd 43 be
       0.08778274 0.102950856 0.119530074 -0.19121265
000060 61 a2 34 3e 43 e0 94 3c b3 fe 5a bd 96 25 fd 3d
       0.17640068 0.018173343 -0.053465556 0.123606846
000070 ab fe 02 3e e2 58 8e 3e 8c ff 90 be 01 3f b0 3d
       0.1279246 0.27802187 -0.28319967 0.08605767
000080 11 f6 31 3d 29 a5 e6 be ea 4f 64 be d4 ce 8a 3e
       0.043447558 -0.45047882 -0.2229611 0.27110922
000090 8c 87 4e 3e 04 71 ed 3d c3 fc 5c 3e 06 82 06 bd
       0.20168895 0.11593822 0.21580796 -0.032838844
0000a0 13 62 1c 3e b3 a3 58 3d 55 c4 dd 3c 30 01 ae be
       0.15271787 0.05289049 0.027071157 -0.3398528
0000b0 db 7f b5 3d 34 33 bc 3d 43 48 46 be b9 91 65 be
       0.08862277 0.09189454 -0.19363503 -0.2241887
0000c0 be 61 ee 3d a0 86 21 3e 8b 18 81 3e 22 13 9c bd
       0.116397366 0.15774012 0.25214037 -0.07620837
0000d0 72 79 15 bc 03 35 7a 3e 2d c3 4d 3c 50 2a 9e 3e
       -0.009123193 0.24434285 0.012558741 0.30891657
0000e0 a7 ee 0e be 10 43 80 bc 74 2c 48 3e 10 e3 1e be
       -0.13958226 -0.015656978 0.19548208 -0.15516305
0000f0 fe a5 b3 bd 49 bb 60 be 4f 4b 03 3e 67 62 34 3e
       -0.08771895 -0.21946444 0.12821697 0.17615663
000100 35 6a ee bd d5 b0 3e 3e a3 67 d8 3d db af 4d 3c
       -0.11641351 0.18622144 0.10566642 0.012554134
000110 9f b7 87 be 60 5c 1c 3d 30 9d 0f 3e 9e c6 a4 3c
       -0.2650728 0.038174033 0.14024806 0.02011424
000120 61 28 8e 3c d1 53 be be fb a2 d1 be 26 6c 10 be
       0.017353239 -0.37173322 -0.40944657 -0.14103755
000130 e1 ce 3b bd 53 8b 7b 3d 95 33 4c 3e 18 6c e6 3d
       -0.045851592 0.061412167 0.19941552 0.11251086
000140 c3 ee e2 3e 1c b7 ea bd 34 16 69 3e e2 27 16 bd
       0.44322786 -0.114607066 0.22762376 -0.03665913
000150 78 a2 6d be 87 de 96 bd 3f 3e a1 3e 30 f6 5e 3c
       -0.23206508 -0.073666625 0.31492803 0.0136085
000160 3d ca 62 be 60 8b 5b 3c d4 aa 8e 3d 0e 7f 1c bc
       -0.2214746 0.013399929 0.06966177 -0.009551777
000170 ab f0 3a 3e a7 65 ec bd 2e b2 4f bc cd 81 1f 3d
       0.1825587 -0.11542826 -0.012676759 0.038942147
000180 53 00 9b be 73 d3 8b bd 3a 62 38 3e 5c a1 56 bd
       -0.30273685 -0.0682744 0.1800622 -0.052399978
000190 03 78 4e 3d da 9e 29 bd b5 bc 16 3d 13 42 d6 bc
       0.05040742 -0.04141126 0.03680106 -0.026154554
0001a0 1a 32 d6 bd 74 cc b5 3d 00 7d 15 3e 06 a5 b1 bc
       -0.10458775 0.08876887 0.14598465 -0.021685135
0001b0 42 33 f9 bd dd 57 e4 3d e9 28 e8 bd 05 0d 6b 3e
       -0.1216798 0.11149571 -0.11335928 0.22954185
0001c0 01 4a 77 be 69 e4 9b bd ab 49 29 be 8a 97 16 be
       -0.24149324 -0.07611925 -0.16532008 -0.14706245
0001d0 c5 7f 5b be d0 5c 70 be ac 97 00 be 69 c6 62 be
       -0.21435459 -0.23472905 -0.12557858 -0.22146
0001e0 78 93 e4 3e 71 23 1e be 72 de 8a bd 5e c1 26 be
       0.4464376 -0.15443207 -0.06780709 -0.16284701
0001f0 91 35 47 be c4 38 71 3d 86 ac b2 3e 44 4e 59 be
       -0.19454028 0.058892027 0.3489725 -0.21221262
000200 dc b0 36 3e 2f 6e 87 3d cc a5 40 bd 95 c9 3a bd
       0.17840904 0.06612813 -0.047033116 -0.0456024
000210 70 af 0d 3e b1 cf a8 bc 25 d2 2c bd e6 64 43 be
       0.13836455 -0.020606847 -0.042192597 -0.19081458
000220 8c cc 38 be 70 88 94 3c a4 a6 dd be f3 32 62 bd
       -0.18046778 0.018131465 -0.432912 -0.05522437
000230 3d b6 6b be 8d 9a 2e bd 60 85 4b 3e d3 ba 20 3d
       -0.23018737 -0.04262786 0.19875097 0.03924067
000240 a0 af 1c 3d dc bf 74 bd 94 ee 49 3e 9b 92 18 3d
       0.038253427 -0.059753284 0.19719917 0.03724919
000250 3f bc ef 3e fd 44 82 3d cf e4 b7 be 6e 93 b5 bd
       0.46823308 0.06360815 -0.35916755 -0.088660106
000260 61 c0 96 3d 59 18 ce bc f5 b4 1d be 7f 15 03 bc
       0.07360912 -0.025158094 -0.15401061 -0.008000731
000270 a4 d3 80 bc f5 6f 30 3e c4 8d ea 3d 81 bb 1b be
       -0.015725918 0.17230208 0.11452821 -0.15208246
000280 1f c8 92 bd ba 23 64 3c b5 1c 5e 3c d4 5f 8e bd
       -0.07167076 0.0139245335 0.013556649 -0.069518715
000290 33 72 ce 3d d8 5c d2 bd 84 07 01 be b3 2c 32 bd
       0.100803755 -0.10271615 -0.12600523 -0.04349966
0002a0 74 0f 1b bf 66 dc c4 bd 98 cb 88 be fb 11 6e 3c
       -0.60570455 -0.0961235 -0.2671783 0.014530654
0002b0 97 35 c5 3d 4c d7 97 3d 80 10 43 bc a4 4c be bd
       0.09629362 0.074141115 -0.011905789 -0.09291962
0002c0 0a 5c 8d 3e 23 36 60 be 3c 77 60 3e 05 98 f7 bb
       0.27609283 -0.21895652 0.21920484 -0.007555964
0002d0 41 6f 2d bd 9b 72 60 be 4c 94 35 be c6 81 83 3d
       -0.042342428 -0.21918719 -0.17732352 0.06421237
0002e0 a4 cc 20 bd ca f2 a8 bd 5b 78 bd 3d c2 f6 09 3f
       -0.03925766 -0.08249433 0.092514716 0.5389215
0002f0 e1 66 c4 3d 14 6d 42 be e7 0f d4 bd a2 1c d9 3d
       0.09589935 -0.18986923 -0.10354596 0.106011644
000300 db 68 7e be 2b 6f 86 be f4 5d f0 3c 22 93 3e be
       -0.24844687 -0.2625669 0.029341675 -0.18610814
000310 43 95 5f be 82 64 bd be 56 11 1a bd c0 8e 2d 3e
       -0.21834283 -0.36990744 -0.03761419 0.16948986
000320 c7 c2 de bd 5c 6b 77 3e b5 f1 5f 3b f0 8c 29 be
       -0.108769946 0.24162048 0.0034171168 -0.1655767
000330 83 c8 b5 3d 8b 9e bd bd a3 70 03 3e da 00 17 be
       0.08876135 -0.09258755 0.12835936 -0.14746419
000340 d2 72 a6 bd c3 6c bf bc ed 75 88 bd a1 77 a8 3e
       -0.08127369 -0.023367291 -0.066631176 0.3290377
000350 c1 b6 97 be c0 7e 60 3d f1 b7 c1 be 5c 60 0d be
       -0.29631618 0.05480838 -0.3783565 -0.1380629
000360 b9 22 05 3e a6 e5 99 be 64 59 45 3e 19 fd 27 3e
       0.13001527 -0.3005802 0.19272381 0.16405143
000370 eb b6 a4 bc 7b 6d 16 3d f2 45 05 3e 65 83 75 3e
       -0.020106753 0.036725502 0.13014963 0.23975904
000380 35 da 43 3e 98 c1 1d 3e 2b a2 2b be 54 ed 30 bd
       0.19126208 0.15405881 -0.16761081 -0.043195084
000390 91 17 0d 3d 39 d8 a9 bc ce 33 31 3e a5 5e 5a 3d
       0.034446303 -0.020732986 0.17304918 0.053312916
0003a0 0f d4 83 3e 5e d0 1a bd 54 85 10 be c4 f7 c8 3d
       0.25747725 -0.03779637 -0.1411336 0.098128825
0003b0 b4 8b 9c bd c9 3b 54 3e 74 a7 7b 3d 3e 2e 2c 3e
       -0.07643834 0.20725931 0.061438993 0.16814515
0003c0 4c 71 1d be ce ac 98 3c f5 38 2c 3d 01 63 a8 3e
       -0.1537525 0.018637087 0.042046506 0.32888034
0003d0 69 8b e5 be 78 b4 9d bd 62 d5 7e be 15 5f 11 3e
       -0.44832924 -0.07700437 -0.24886087 0.14196427
0003e0 6b 76 b1 be fb a4 c2 bc aa 14 56 3e 1b c0 39 bc
       -0.34660658 -0.02376031 0.2090632 -0.011337305
0003f0 7d c5 9c bd a6 2b 4c bc 5d ae 78 bd de 1d 45 3e
       -0.076548554 -0.0124615785 -0.06071316 0.19249675

base.mlp.fc1.0.bias f4 [64]
000000 96 d2 89 bc b8 a5 d8 3a 92 77 e1 3c 3f cb a4 bc
       -0.016824048 0.001652888 0.027522836 -0.020116447
000010 f2 77 3e 3c b6 9f c8 bb ef ef 60 3c f8 c2 ca bb
       0.011625277 -0.0061225547 0.01372908 -0.006187793
000020 39 72 df bc 43 23 9d bb 12 0c 50 bd 57 f4 50 bd
       -0.027276145 -0.0047954633 -0.05079276 -0.05101427
000030 be 84 11 bd 14 7d ab bc 95 f2 c9 bc 54 e4 c1 bc
       -0.035526983 -0.020933665 -0.024651805 -0.023668446
000040 e3 16 10 3c 6a 73 4b 3d 8a a8 13 bd 1a 2d b3 3d
       0.008794519 0.049670614 -0.036049403 0.08748837
000050 56 4e 46 bd 34 41 a9 ba c8 a8 47 3c 55 50 0d bd
       -0.04841455 -0.0012913109 0.012186237 -0.03450044
000060 1d 0e 20 3d 74 6c 4a bc 8e 84 7e ba 9e 35 d9 bc
       0.03907596 -0.012354959 -0.0009709083 -0.026514824
000070 fc d3 10 bd 3e 8b 6f 3b 6e 6d 65 3d 52 f9 5c 3c
       -0.035358414 0.00365515 0.056012563 0.013487177
000080 23 58 18 3a c4 76 c7 bb ac 83 af 3d 73 55 81 bc
       0.0005811473 -0.006087156 0.08570036 -0.015787816
000090 14 24 a2 bc a0 af 4b 3c 9f ad 93 3c 98 68 90 3c
       -0.019792594 0.012432009 0.018027125 0.017628
0000a0 ff 39 ee bc cb b4 81 3c f2 00 e6 3c 02 63 70 3c
       -0.029080389 0.01583328 0.028076623 0.014672043
0000b0 b4 10 1f 3d 40 90 35 bb 91 c3 ec 3c a5 92 c9 3b
       0.03883429 -0.0027704388 0.028901847 0.0061515146
0000c0 17 5f f2 3a 44 cf c8 bc bb 23 a8 3c 32 3b 69 bc
       0.0018491474 -0.024512894 0.02052485 -0.014235305
0000d0 30 76 27 3c 71 48 a3 bc 89 f1 9d 3c 48 83 38 3d
       0.010221049 -0.019932004 0.019280212 0.045047075
0000e0 54 e6 ac bc 05 00 a6 bc ba af 0f bd ff 8b 07 3c
       -0.021105923 -0.020263681 -0.035079695 0.008273124
0000f0 58 7b 61 3d ab d5 a5 bb 50 ec 40 bc 58 bf 17 3d
       0.05504927 -0.0050608716 -0.011775091 0.037047714

base.mlp.fc1.2.weight f4 [64]
000000 76 de 80 3f 43 8e 80 3f 82 c7 7c 3f a9 15 79 3f
       1.006789 1.0043415 0.98741925 0.97298676
000010 0e c3 8a 3f e6 f3 7a 3f 58 b3 81 3f ea 6c 7d 3f
       1.0840776 0.9802841 1.0132856 0.98994315
000020 40 80 87 3f 77 ac 75 3f 02 d9 7f 3f eb fc 66 3f
       1.0586014 0.95966285 0.999405 0.9022967
000030 f5 91 79 3f 61 5b 7e 3f 5b d7 81 3f f8 cd 7d 3f
       0.9748834 0.99358183 1.0143846 0.9914241
000040 f1 b1 84 3f 14 e2 8a 3f 2b 57 7e 3f 41 9d 83 3f
       1.0366803 1.0850244 0.9935176 1.0282365
000050 71 2b 77 3f 23 53 81 3f 8e bc 84 3f 06 6a 75 3f
       0.9655066 1.0103496 1.0370042 0.95864904
000060 33 78 8c 3f 70 75 83 3f 26 81 81 3f f9 65 83 3f
       1.0974182 1.0270214 1.0117538 1.0265495
000070 48 e0 6c 3f 3c a1 81 3f ba f3 84 3f 34 2c 83 3f
       0.92529726 1.012733 1.038688 1.0247865
000080 3d f6 76 3f ba 7d 81 3f c8 18 80 3f 9c 7f 76 3f
       0.9646948 1.0116494 1.0007563 0.96288466
000090 a0 d6 77 3f f4 bf 7f 3f 3c a3 84 3f 7a 85 80 3f
       0.96811867 0.9990227 1.0362315 1.0040734
0000a0 4a c3 8c 3f d2 e0 7c 3f 31 00 7f 3f 2e 7f 83 3f
       1.0997097 0.9878055 0.9960967 1.0273187
0000b0 df 57 89 3f fa 0f 87 3f fa 63 83 3f 04 bf 89 3f
       1.0729941 1.0551751 1.0264885 1.0761418
0000c0 b5 5e 72 3f 5b f3 83 3f 40 6d 80 3f b5 75 7f 3f
       0.9467576 1.0308641 1.003334 0.9978898
0000d0 6b 81 82 3f ec 37 79 3f 93 57 81 3f b2 45 82 3f
       1.0195745 0.97350955 1.010485 1.0177519
0000e0 5e 47 7d 3f 42 cf 7e 3f 28 98 87 3f 18 54 86 3f
       0.9893702 0.99535 1.0593309 1.0494413
0000f0 ae 8a 72 3f 1d 1c 73 3f 0f ae 82 3f fe 92 83 3f
       0.9474286 0.9496477 1.0209368 1.0279233

base.mlp.fc1.2.bias f4 [64]
000000 6a 17 80 bc 66 95 69 3c 63 47 52 3b ef 11 c2 3c
       -0.015636165 0.014256811 0.0032086007 0.023690192
000010 e1 35 a3 3c 89 ce 83 3d 30 06 16 3c 41 55 65 3a
       0.019923152 0.06435878 0.009156749 0.00087483606
000020 de 36 81 bc 73 ac da 3c cf 2d 60 3c 75 23 fd 3c
       -0.015773233 0.026693558 0.013682797 0.030900696
000030 2d 90 16 bd 22 70 46 bc 25 56 40 bd d0 ff cb ba
       -0.03675859 -0.0121116955 -0.046957154 -0.0015563909
000040 9d a5 26 bd f4 7d 9d 3c 34 4a f0 bc bf 73 6b 3c
       -0.040685285 0.019225098 -0.029332258 0.014370858
000050 f9 0c bc bc cb 18 16 3d 60 84 fc 3c a4 c7 11 bd
       -0.022955405 0.03664474 0.03082484 -0.035590783
000060 2d 7d 34 bb 4d 40 3b bc 0d 2f c1 bc 3e b7 64 bc
       -0.002754043 -0.011428905 -0.023582006 -0.013959704
000070 d6 f0 cf 3b 51 65 b0 bc b0 1a ba bc b4 85 9f bb
       0.0063458486 -0.021532686 -0.022717804 -0.0048682336
000080 bb 43 5f 3c 7c d2 61 bc f8 df 29 3d 8b d8 ac bb
       0.013626988 -0.013783094 0.04147336 -0.0052748374
000090 35 13 39 bd a7 2d 45 bc ee 0b 78 bb d9 3c 23 3b
       -0.045184333 -0.01203481 -0.0037848908 0.0024908094
0000a0 27 2b ff bb 2b f0 a6 3c 88 0b f4 3c 8b 7f 0f bd
       -0.0077871266 0.020378193 0.029790655 -0.035033744
0000b0 fa 27 e6 bb 2b 7f a4 bc 2e 79 4f 3d 24 00 6b bd
       -0.0070238085 -0.02008017 0.050652675 -0.05737318
0000c0 11 c2 aa 3c ae 48 c6 bc 2c da 9e 3c 81 2b fd bb
       0.020844491 -0.024204578 0.019391142 -0.0077261333
0000d0 92 f6 9b bb b9 9f 1a bc ef 4e 1d 3c 34 fd e0 3c
       -0.004759618 -0.009437495 0.009601339 0.027464487
0000e0 88 66 42 3b 8a 51 47 3c 6c f7 b4 bc 09 1a 6d 3b
       0.0029663164 0.0121654365 -0.022090636 0.0036178848
0000f0 47 a2 5a 3d 7a 92 50 3c 6b e2 02 3c cc f7 3f 3c
       0.053377416 0.012730235 0.007988553 0.011716794

base.mlp.fc2.0.0.weight f4 [64, 64]
000000 d3 e6 53 be 74 27 b2 bd 74 cd d0 3d f2 4b 38 bd
       -0.20693521 -0.08698931 0.10195437 -0.044994302
000010 ec 17 9a be c1 d1 90 be 66 b9 e4 3d 6d 00 38 be
       -0.30096376 -0.2828503 0.111681744 -0.17968912
000020 53 dc 4e bd 9e ad 29 be 40 36 0c be d1 08 b9 3d
       -0.050503086 -0.16570136 -0.1369257 0.09034885
000030 46 76 02 be dc a6 be bd 89 40 54 bd ab b0 41 3e
       -0.1274043 -0.0930917 -0.051819358 0.1891505
000040 39 35 9a be 55 27 4b be 8f 0f 12 3e d4 a6 a1 3e
       -0.3011873 -0.19839223 0.14263748 0.31572592
000050 88 28 1c 3e ce 0f 0f bd ad 88 b8 be ad e1 88 3e
       0.15249836 -0.034927182 -0.36041775 0.26734677
000060 52 d1 fc bd 33 03 d1 3e a5 bf 43 be 5a 0b 02 3e
       -0.12344612 0.40822753 -0.19116075 0.12699643
000070 7c 3f a1 bd df c4 35 3e 92 94 02 be 28 f2 24 be
       -0.07873437 0.17750882 -0.12751988 -0.16108
000080 1e e4 70 be 26 9f 43 bc 3f 8a eb 3d 62 24 96 3e
       -0.2352452 -0.011939799 0.11500978 0.29324633
000090 41 db 03 be 51 75 9d be d8 44 84 3d 91 b6 be 3d
       -0.12876607 -0.30753568 0.064584434 0.093121655
0000a0 28 09 5a 3e 34 2b 8d be fe 07 ee bd 3a 76 fe 3b
       0.21292555 -0.27572024 -0.11622618 0.0077655585
0000b0 c7 3c b9 3c ce be 20 3e d3 19 95 3d 13 c3 15 3e
       0.022611989 0.15697786 0.07280316 0.14625196
0000c0 e9 8e a2 bd b8 20 9a 3d 79 0a 05 be 38 09 7f be
       -0.07937414 0.07525772 -0.12992276 -0.2490586
0000d0 bf 85 1b be e4 06 6f bd f3 03 39 bd f7 4a bb be
       -0.15187739 -0.05835618 -0.045169782 -0.3658063
0000e0 fc 1d 94 3d 67 39 a1 bd 69 ab 68 be 09 16 15 be
       0.072322816 -0.07872277 -0.22721638 -0.14559187
0000f0 fc 53 75 bd 53 e3 e3 3e ab d5 24 bd 1b 88 47 3e
       -0.059894547 0.44509372 -0.040242832 0.19485514
000100 7f c2 90 3e f9 b8 1c bd aa f6 3a bd 9b 17 8f 3e
       0.2827339 -0.03826234 -0.045645393 0.27947697
000110 ce 1d 33 3e d7 3e 68 bd 23 d6 f6 bd f7 e3 f9 be
       0.17491838 -0.056700554 -0.12052562 -0.48806736
000120 1a d0 78 be 13 e4 53 be ab 10 49 3e 9f 44 2e 3d
       -0.24298134 -0.20692472 0.19635265 0.04254591
000130 a5 06 ce bc f6 36 79 be 90 15 86 3d 4e 6a 94 3d
       -0.025149653 -0.24337372 0.065470815 0.072468385
000140 6c c5 21 3d 53 b2 c0 bd b8 09 51 3d 2a 32 6a be
       0.039494917 -0.09409013 0.05103466 -0.22870699
000150 91 1a 84 3e d4 c3 c7 be d3 96 d5 be 69 28 4e 3e
       0.2580152 -0.39016593 -0.41716632 0.20132603
000160 67 aa 3e 3d 16 47 f4 bd 62 11 41 3d 9c 8a 63 be
       0.046549227 -0.11927621 0.04713572 -0.22220844
000170 32 a2 58 3e 2c 5a 1b bd 36 7c b1 bd 38 dc 2e be
       0.21155623 -0.03792779 -0.086662695 -0.17076194
000180 b3 dc ac bd ef 43 56 3d 89 eb 9e be bc 3c 1b 3c
       -0.084405325 0.05231088 -0.31039074 0.009474929
000190 17 70 3f bd 06 c2 92 3e af 69 83 3d 31 49 08 3e
       -0.046737757 0.28663653 0.06416642 0.1330917
0001a0 01 0b e6 3d c6 01 25 be af a3 99 3d b0 38 e2 bc
       0.112325676 -0.16113958 0.07501923 -0.027614921
0001b0 5d e0 38 3e d3 22 ee 3d f2 e9 f1 bd 34 09 78 be
       0.18054338 0.11627736 -0.118122 -0.2422226
0001c0 72 3b 27 3e ea a6 84 be bd d5 d5 3d 34 37 5d 3d
       0.1633127 -0.25908595 0.10441158 0.054007724
0001d0 97 73 36 bd 1c 86 a0 3e 09 04 12 be fe 4b 04 be
       -0.04454383 0.31352317 -0.14259352 -0.12919614
0001e0 98 6b 93 ba 30 0c 8f bd b1 f2 01 3c e0 4f bc bd
       -0.0011247275 -0.069847465 0.007931397 -0.091949224
0001f0 64 5f d8 bd 2f 56 3f bd 55 ec 88 bd 07 a6 ab be
       -0.10565069 -0.04671305 -0.06685702 -0.33525106
000200 1d 77 0f 3e f9 b2 e8 bd ee d7 a4 3d 74 a0 11 be
       0.14010282 -0.11362261 0.08048998 -0.14221364
000210 fd 8e 03 3e 51 7d e1 3c 01 79 77 3e 6b 74 06 be
       0.12847514 0.027525576 0.24167253 -0.13130347
000220 16 1f 32 3e 8c f0 94 3d 9d 53 36 3c c3 5c b5 bd
       0.17394671 0.07272443 0.011128333 -0.088555835
000230 ef de 88 3e 70 c3 9b bc c2 da 3f 3c 28 15 2c 3e
       0.26732585 -0.01901409 0.011709871 0.16804945
000240 7b 78 c4 3d 6a 9c f6 3d 52 97 d5 3c f7 c1 aa 3e
       0.09593292 0.12041552 0.026073132 0.33351108
000250 c5 a0 54 be 62 fd cd be 11 d0 d5 bd d4 b1 4d 3d
       -0.20764454 -0.40232378 -0.10440076 0.05021842
000260 7a 0f 55 3e da ab 8d be 6e 5f 82 3d 72 96 56 3c
       0.20806685 -0.27670175 0.06365858 0.013097392
000270 02 69 08 be 83 7d 94 bd f7 88 09 bf 67 7e bf bc
       -0.13321307 -0.07250502 -0.53724617 -0.023375703
000280 22 e2 c8 3d d3 ad 9c be a4 0f b9 3d db 74 cc 3d
       0.098087564 -0.30601367 0.09036186 0.09983226
000290 0e 60 20 bd 59 08 76 bd 59 6c 54 bd c7 bf ba 3d
       -0.039154105 -0.060066555 -0.05186114 0.0911861
0002a0 76 07 9e be 43 32 49 3d 96 78 7c be 6a bf bd bd
       -0.30865067 0.0491202 -0.24655375 -0.09265025
0002b0 1d 0a fc 3d 6b c9 b1 3d de e1 ca 3d 68 94 a4 3e
       0.123066165 0.086809956 0.09906362 0.32144475
0002c0 29 c6 86 3e 6e 22 5c 3e 1c a5 ae bd 85 26 92 bd
       0.2632306 0.21497509 -0.08527586 -0.07136253
0002d0 14 49 e4 3c ed 86 0d 3e 9d 99 86 3e 48 67 54 be
       0.027866878 0.13821001 0.26289073 -0.20742524
0002e0 45 13 2b 3d 10 c5 ba 3e c7 73 76 3e b6 95 17 bd
       0.041766424 0.36478472 0.24067603 -0.03700801
0002f0 40 0d 3d 3e 8b 25 f8 bc 5c 29 28 3d 7b 76 18 be
       0.18462086 -0.03029134 0.04105507 -0.14888947
000300 38 dd ba 3e 82 cd b1 3d 10 98 b0 be 2b 4d 67 bd
       0.36496902 0.08681776 -0.34491014 -0.056470077
000310 7d 38 16 be 48 c0 9e 3d 1d 94 6c 3e 7a 27 6f be
       -0.14669986 0.077515185 0.23103376 -0.23354903
000320 45 a9 18 3e 8a 2e f1 be 9f ee 8b bd 4d 73 0e 3d
       0.14908321 -0.4710582 -0.06832623 0.03477793
000330 4c 61 2f be e2 38 a0 3d 7f 01 a1 3e 87 da 82 bd
       -0.1712696 0.078233495 0.31446454 -0.06389337
000340 40 0a 3b be bd 38 52 3d 79 6f 9d 3d a4 5f 24 bd
       -0.18265629 0.05132364 0.07687277 -0.040130273
000350 ce 11 35 3e e9 5b fe 3d a0 9f 10 3e 02 c5 98 3d
       0.17682573 0.12419874 0.14123392 0.07459451
000360 41 a2 ea bd b4 1b 69 be 14 35 f7 bd f9 06 2d 3e
       -0.11456729 -0.22764474 -0.12070671 0.16897191
000370 3e da 8c 3e 20 d7 89 3c 49 06 57 bd 72 c4 97 3e
       0.27510256 0.016826212 -0.05249623 0.29642063
000380 86 2f c2 bd fe e5 d4 b7 36 94 e3 3d 63 cf e7 3c
       -0.094817206 -2.5379468e-05 0.11112253 0.028297132
000390 3e de 5b bd b6 b7 6b be 51 50 47 3e 14 ad 6f 3e
       -0.053678744 -0.23019299 0.19464232 0.23405868
0003a0 d4 42 aa bd a1 a3 33 3e e2 ef 12 bc c2 49 cc 3c
       -0.08313528 0.17542888 -0.008968325 0.024937514
0003b0 d8 aa 52 3c d1 54 ca be cd 59 77 3d 5e 0d 73 3e
       0.012858115 -0.39517835 0.060388375 0.23735568
0003c0 8a d8 71 3d 59 e1 ab be e6 d3 8e bd d5 56 9b 3d
       0.0590444 -0.33570364 -0.0697401 0.07584921
0003d0 c8 cf 1f bc 94 43 41 bd bd 2f ff 3c 73 a1 3d bd
       -0.009754129 -0.04718359 0.031150693 -0.046296548
0003e0 a2 c4 0a 3e fc d1 02 be d6 c2 cd 3c 36 47 cb be
       0.13551572 -0.12775415 0.02511732 -0.39702767
0003f0 34 93 5b 3e 07 a6 82 be 82 8c 2d 3e 6d 91 d8 3d
       0.21442872 -0.25517294 0.1694813 0.10574613

base.mlp.fc2.0.0.bias f4 [64]
000000 06 ef 2e bc eb 64 18 3b a0 79 1f 3c 38 de 35 bb
       -0.010677105 0.0023253511 0.0097335875 -0.002775086
000010 87 a5 70 bc 88 ee 59 37 4e 53 d9 bb ae c2 ca bc
       -0.014687902 1.2989745e-05 -0.006632245 -0.024751034
000020 a3 65 6d bc fe 63 4a bd d9 db da bb 65 52 07 bd
       -0.014489564 -0.049411766 -0.00667904 -0.033037562
000030 28 12 c8 bb 0b fb db bb 98 44 10 bd b9 0b 30 ba
       -0.00610568 -0.0067132763 -0.035221666 -0.0006715614
000040 66 db 11 bb 38 d8 18 bd 1c 27 c0 ba f4 c6 bb bc
       -0.0022256016 -0.037315577 -0.0014660093 -0.022922017
000050 d9 e9 83 bc 69 5f 96 bc b5 e2 5e bc 63 b8 88 bc
       -0.016102718 -0.018356042 -0.013603856 -0.016689485
000060 38 5c d5 bb 18 1e 03 bd a2 8e ae bc 36 b4 a0 bc
       -0.0065112375 -0.03201112 -0.021308247 -0.019617181
000070 77 91 f3 bb 9e 8a 8e bc 9a 55 12 bb f3 fb ac bb
       -0.0074331122 -0.017400082 -0.0022328855 -0.005279058
000080 03 23 e2 3b 06 dd 7f bc 00 df 55 bc 4c 73 8b bb
       0.0069011464 -0.015616661 -0.013053656 -0.004255688
000090 02 65 03 bd fc 83 60 3c 00 2a 53 bd 5a af e6 3c
       -0.03207875 0.0137033425 -0.051553726 0.028159786
0000a0 c2 a0 9d bb 2e ac 30 3c 78 41 73 bd d6 3c f8 bc
       -0.0048104236 0.010783238 -0.059388608 -0.030302446
0000b0 58 ee 40 bd 9b 79 0d bd 08 ee d1 bc ff 0a 44 3b
       -0.047102302 -0.0345398 -0.025626197 0.002991378
0000c0 0f 0a d0 bd d6 b3 41 bd 81 e7 83 bd 36 8a b0 bc
       -0.101581685 -0.047290646 -0.0644064 -0.02155028
0000d0 2c 5a 5a 3c 9d bf 5c bb db 31 f1 3b 42 4a c7 bc
       0.013327163 -0.0033683546 0.0073606796 -0.024327401
0000e0 1e 49 6a bc 85 db 40 3c ab e2 53 bc 2d bf 13 bc
       -0.014299659 0.011771088 -0.01293246 -0.009017748
0000f0 f3 a6 fe ba 5b 24 32 3b 0a 6c 2f 3c c2 01 95 3c
       -0.0019428417 0.0027182314 0.010706911 0.018189315

base.mlp.fc2.0.2.weight f4 [64]
000000 aa d5 8c 3f 5c c5 87 3f 72 29 82 3f 47 fe 84 3f
       1.1002705 1.0607104 1.0168898 1.0390099
000010 17 8b 81 3f d9 b3 84 3f f0 b9 82 3f 76 4d 89 3f
       1.0120572 1.0367385 1.0212994 1.0726764
000020 2e 28 85 3f be e5 7a 3f 4a 27 84 3f 3b 1e 81 3f
       1.0402887 0.9800681 1.032449 1.0087351
000030 0a 4d 89 3f ed 42 7d 3f b7 4b 7c 3f 89 43 88 3f
       1.0726635 0.98930246 0.9855303 1.064561
000040 25 3b 82 3f bf 56 7c 3f 74 9c 83 3f d7 8c 84 3f
       1.01743 0.98569864 1.0282121 1.0355481
000050 70 98 87 3f 1a 75 87 3f c5 8d 8b 3f 33 a5 87 3f
       1.0593395 1.0582612 1.090264 1.059729
000060 28 a9 88 3f 5a df 86 3f 8d 35 8d 3f e2 be 82 3f
       1.0676622 1.0536911 1.1031967 1.0214503
000070 20 77 83 3f b4 05 7e 3f 9f a6 87 3f 8e 43 89 3f
       1.0270729 0.9922745 1.0597724 1.0723741
000080 d2 b3 86 3f f9 3a 83 3f ec d5 89 3f ad 74 85 3f
       1.0523627 1.0252372 1.0768409 1.0426232
000090 06 f8 78 3f 7d 25 85 3f 62 c0 7d 3f b9 18 88 3f
       0.97253454 1.0402066 0.9912168 1.0632545
0000a0 59 e0 8b 3f 22 67 85 3f 2a 55 88 3f 74 ba 81 3f
       1.092784 1.0422099 1.065099 1.0135026
0000b0 96 41 86 3f d4 d3 80 3f fa 2f 81 3f 6f 15 83 3f
       1.0488765 1.0064645 1.0092766 1.0240916
0000c0 31 c3 85 3f 3e ba 88 3f 1a 1e 82 3f 2c df 7e 3f
       1.0450193 1.0681837 1.0165436 0.99559283
0000d0 74 87 85 3f 1c 7e 88 3f 88 77 85 3f 1a 9f 7d 3f
       1.0431962 1.0663486 1.0427103 0.99070895
0000e0 7b 34 88 3f 95 cd 86 3f 97 9f 82 3f 29 fe 81 3f
       1.0641016 1.0531489 1.0204953 1.0155689
0000f0 94 36 86 3f 2c ee 89 3f 67 b5 80 3f 12 02 86 3f
       1.0485406 1.0775809 1.005536 1.0469382

base.mlp.fc2.0.2.bias f4 [64]
000000 18 c1 83 3c 76 0c bb bc 9b 5e 81 3d a7 ea 8d 3c
       0.016083285 -0.02283309 0.06316873 0.017323805
000010 24 11 09 3d 91 ef 00 bd c9 33 2e 3b aa 2c 06 3c
       0.033463612 -0.03147847 0.002658116 0.00818936
000020 a3 c5 3e bc c2 d6 f3 3c fa 6a 51 3c ab 01 0f bc
       -0.0116438 0.02976549 0.012781853 -0.008728425
000030 8e 13 51 ba 34 2c da 3b d9 3c 4e bc 01 58 e8 bc
       -0.0007975631 0.0066581015 -0.012587749 -0.028362276
000040 08 49 cf bc 84 12 44 3d d4 0e 26 3c 87 fb dc bc
       -0.025303379 0.04786922 0.010135371 -0.026975406
000050 de ee 19 3c cf 72 99 bc 47 f8 0e 3d fd 2c 28 bc
       0.009395329 -0.018731503 0.034904744 -0.010264632
000060 fb c0 49 3c da 1c f6 bc bc 0c e7 bc 24 f5 09 bd
       0.012314077 -0.030043054 -0.028204314 -0.03368105
000070 85 bb 48 bc 6f cd e7 3c 69 67 ee 3c e3 57 9f 3c
       -0.012251739 0.0282962 0.029102044 0.019451087
000080 bb a1 ea 3c 52 8b 31 bc e7 34 a9 3c 2b 65 1c bd
       0.028641572 -0.010836439 0.020655109 -0.03818242
000090 4c d1 b9 3c 1d 41 ce 3c d2 07 a0 bb ef fb 68 3c
       0.022682808 0.025177533 -0.0048837448 0.014220222
0000a0 6c 02 9a 3c 06 d8 13 3d c6 71 26 bd fa 95 1e 3d
       0.018799983 0.036094688 -0.040635847 0.038717248
0000b0 3e 5c 84 3c 08 ad 25 3c 82 7f 9a 3c 6d 3c 99 bb
       0.016157266 0.010112055 0.018859629 -0.004676393
0000c0 01 b8 24 bd 22 28 13 bb 32 0a ff bc 82 8b af bc
       -0.040214542 -0.002245434 -0.031132791 -0.021428827
0000d0 90 51 87 bc 27 08 09 3d f2 ca d2 3c 9a b7 bd 3c
       -0.016518384 0.03345504 0.025731537 0.023158837
0000e0 ce e4 cd bb d7 46 bc bc 87 9f bb 3c 84 5d 99 bc
       -0.006283379 -0.022982998 0.022903217 -0.01872135
0000f0 51 b6 c4 bc c9 76 54 3b c5 9d 88 3b c9 88 ad 3c
       -0.024012716 0.0032419434 0.004169198 0.021183388

act.action_out.fc_mean.weight f4 [2, 64]
000000 2c 88 c3 3d 2a c4 32 bd d2 2b e5 3b 36 96 e3 3a
       0.09547457 -0.043644108 0.006993749 0.0017363492
000010 82 19 64 3c d4 41 ca 3c 29 98 96 3c 3e d8 b4 3d
       0.013922097 0.024689592 0.018383102 0.088303074
000020 de 03 62 3d da 85 13 bc e4 07 21 3d 74 85 c7 3c
       0.05517947 -0.009004081 0.039314166 0.024355628
000030 3c 69 84 bd c7 e7 05 3c dd ab 67 3b e7 5b e2 3b
       -0.06465384 0.008172936 0.0035350241 0.0069079283
000040 1e 7c f8 3b fe 5a 58 bb a2 77 1f 3d 94 f0 ef bc
       0.0075831553 -0.003301322 0.03893245 -0.029289521
000050 df e7 3a 3d d7 35 62 bd 07 07 b1 3d 6c 08 81 3d
       0.045631286 -0.055227127 0.086439185 0.063004345
000060 b1 bf 9e 3c 94 ab 59 bd 63 61 c7 3d a4 c9 cf 3c
       0.019378515 -0.053142145 0.09735372 0.025364704
000070 7a cd e4 bc 41 bf fb bb 02 e6 eb 3c 70 00 32 bd
       -0.02793001 -0.0076827114 0.0287962 -0.04345745
000080 96 c2 d9 bc da d1 8e bc e2 e2 44 bc 84 7a 1e bd
       -0.026582044 -0.01743405 -0.012016984 -0.03869106
000090 b6 93 0c b9 b4 d0 07 3d ec d0 e6 3b 4b c5 83 3d
       -0.00013406467 0.03315802 0.0070439484 0.06434115
0000a0 5d a4 c0 bd 15 12 3b 3d 1f 98 5a bd e4 e2 a3 3c
       -0.0940635 0.04567154 -0.05336773 0.02000565
0000b0 d2 05 be 3b 60 13 40 3c 2f f3 ce bb d6 07 e3 bb
       0.0057990337 0.011723369 -0.006315611 -0.0069284244
0000c0 c0 fb 8a bc 12 dc 9e 3d 31 c9 0f bd 75 16 17 3b
       -0.016965747 0.07756819 -0.03510398 0.0023054157
0000d0 64 bb 18 bd 56 2d f2 bc 65 eb 49 bd b1 13 29 bb
       -0.037288085 -0.029562633 -0.049296755 -0.002579909
0000e0 0c c1 7b bd b4 6e 49 bc 46 8f 6f 3a 8b 1b 98 bc
       -0.0614634 -0.01229446 0.0009138476 -0.018567821
0000f0 8e f3 31 bd 04 55 95 bd 04 e0 fa bc f2 23 4c 3a
       -0.043445162 -0.07291606 -0.030624397 0.00077873387
000100 fa 1f dc 3b 6e ba 8f bc a7 e7 09 3d c7 81 48 3d
       0.006717679 -0.017544951 0.033668187 0.04895189
000110 31 f1 4f 3c 6b 2d 0b bd d1 28 2e bd 7a 34 3b 3c
       0.012691782 -0.03397886 -0.042519394 0.011426086
000120 23 4e a9 bb 65 44 08 bb 98 06 b2 3c 28 f6 b2 bc
       -0.0051667853 -0.002079272 0.02173166 -0.021845892
000130 de ab ce bc 7a 3d b1 3b 5c 20 9e 3c c6 a6 80 bd
       -0.025228437 0.00540894 0.01930254 -0.062818095
000140 52 95 77 bc 66 73 0d bc 9a 68 e6 3b 54 f0 c4 bc
       -0.015111284 -0.00863347 0.0070315124 -0.024040379
000150 c6 74 eb bc 74 a0 97 bc e9 0f a2 3c 39 e0 75 bc
       -0.028742205 -0.018509127 0.019782977 -0.015007072
000160 67 36 7a 3d 64 9f 0e bd e1 ec c8 bc 77 7a 05 bc
       0.06108704 -0.034819975 -0.024527015 -0.008146874
000170 b6 84 c9 3c 46 02 35 bc b6 e7 55 3d 50 2a 62 3d
       0.024599414 -0.011047905 0.05222293 0.055216134
000180 3e 01 31 3d 71 62 f7 bc 23 39 93 3d da ff 10 bc
       0.043214075 -0.030198308 0.07188632 -0.008850062
000190 40 92 19 3b f9 5f 35 3d 7a e9 7d 3c e4 40 69 bc
       0.002343312 0.04428098 0.01549756 -0.014236663
0001a0 aa 5d 97 3b ce c3 d7 3c 11 4c 97 bc f4 bb 08 3c
       0.00461932 0.026338484 -0.018468888 0.008345593
0001b0 8f 48 3c bd 24 0c 8d bc 67 0c cd 3b b2 36 17 3d
       -0.045967635 -0.017217703 0.006257582 0.036917396
0001c0 0b 8a 4a bd 82 3a 04 3d e7 05 27 3c a1 19 11 bc
       -0.049448054 0.03228236 0.010194278 -0.008856208
0001d0 23 0a d5 3c 6f e2 69 3d 61 89 d6 bc 3a 4b 35 bc
       0.02600581 0.05710071 -0.026188554 -0.011065299
0001e0 c6 8c 18 bd 5a 76 5a bd 0a bb b9 bc 9b 30 27 bc
       -0.037243627 -0.053335525 -0.022672195 -0.01020446
0001f0 7a eb 33 3b 2d 5c 2f bc 94 1c 73 bc 7a b0 4d bd
       0.0027453587 -0.010703129 -0.0148383565 -0.05021713

act.action_out.fc_mean.bias f4 [2]
000000 bd 55 4b 3b 42 f8 eb 3c
       0.0031026446 0.028804902

act.action_out.logstd._bias f4 [2, 1]
000000 f4 26 96 bf 6c 3d a1 bf
       -1.1730638 -1.259687
