checkpoint/best_mappo_seed114_run20260211_113852_envmamujoco-halfcheetah-6x1_ep400_actor.pt (torch, 27861 bytes, 11 tensors)

base.feature_norm.weight f4 [9]
00000000: 2ca4 7d3f c319 803f b116 813f f7f4 783f
00000010: 427a 823f 7211 803f 3fa5 793f ce6c 823f
00000020: 4b1c 7e3f
0.9907863 1.0007862 1.008505 0.97248787 1.019356 1.0005324 0.9751777 1.0189455
0.9926192

base.feature_norm.bias f4 [9]
00000000: cb41 853c 8bd5 d93c af8e 94bb aa4e 763c
00000010: 6f6a a7bc 6099 15bb 0a48 a9ba 05e3 aabc
00000020: 1b95 1bba
0.016266724 0.026591083 -0.004533611 0.015033403 -0.020436494 -0.0022827014 -0.0012915146 -0.020860204
-0.0005934999

base.mlp.fc1.0.weight f4 [64, 9]
00000000: 1e7a 8cbe af36 913d 0e06 893d 6bdf 12be
00000010: df6f 99bd 6bd4 d73e 0549 853e 4a29 e33e
00000020: 8a52 7a3c ef8b 8b3e 66c8 cdbd c689 63bd
00000030: df68 ad3d 1150 b23d 9237 c03e d613 cc3d
00000040: 0381 063e e741 023e fa99 7d3e d35b 07be
00000050: 026b 89bd 743b 9d3e eb29 8c3e 0331 59be
00000060: 80d6 acbe 36f7 6d3c 65f4 67bd 52df 6e3e
00000070: ab52 62bd e4c6 7dbb 5311 2b3e ec2b b1bd
00000080: aaa0 1abe 4ad0 403e f014 1b3e bd0c 23bc
00000090: e6eb 5ebd 0105 c8bd d84b 8dbd 9947 31be
000000a0: e642 a9bd 4b00 07be 58fe c93d 4d47 a0bd
000000b0: 43eb 993d 73ac 6dbc f966 743c d876 fdbd
000000c0: 5818 74bd 97fe f4bd bf4e 3a3e b851 e6bd
000000d0: 10ea 663c 6a7b 693e c5f0 313d 675a 473e
000000e0: 6c0a d73e 18d5 823e a609 1bbe 5152 eebd
000000f0: 781e 563e 1ea4 1bbe b829 1cbd 4c10 4f3e
00000100: 5c58 65be 28c8 403e 0df1 7dbd fa99 34bd
00000110: a06e a73d 128e 89be f3f1 22be 9da6 03bd
00000120: ce69 82bd 05c3 58bc 423f 503c 608a f13d
00000130: 3e3b 933c cd1c c93d 1e0e a5bd 1948 b6bd
00000140: 9c7a 13be 9b5c 38bd b0c1 6abe f938 1d3d
00000150: df0a fc3d 33db c53c 96bf 7d3e 4a9b fdbd
00000160: 02e6 95bd 7696 1dbe 1af2 19bd 109e e63c
00000170: f2a2 cfbd b7eb ffbd b6df 9a3e cc6d 3cbe
00000180: 7be3 aebc 50a9 e9bd 4c52 46be e3b8 9b3d
00000190: 4a68 cd3e 2b3b b2bd 1f97 03be 8179 7abe
000001a0: ab18 4e3c ff4e 53bd 28c0 043e 96a7 1f3e
000001b0: beb9 cbbd f785 55be becc 6bbe 88a7 e03a
000001c0: 7212 a13e 04f7 c73d 512d 873d 1f63 023d
000001d0: 4183 bdbc f858 08be b1ec 4a3e 6aaa 56be
000001e0: 6bc3 823e dda5 8d3d 40e2 113e 7b1d d6be
000001f0: c3be 293e afd4 0dbd 4486 c33e a1b1 b73b
00000200: cd26 c43d 5132 a83e 95e4 7f3e a693 0fbd
00000210: 4b99 d43e a127 c5bd 9487 f13b 1c2c f3bd
00000220: e161 eb3c 2a9b 87be 511e e1bd 28da e33d
00000230: cbd4 1bbe 44e9 663e af67 673d e0c8 09be
00000240: c6d0 b33e 65c1 a1bd 639a 9bbe 806a 143d
00000250: aa0b 9cbe 8c01 f83d 1a3f dd3e 0df3 89be
00000260: ebdd fc3e 9c76 923e 999d 663b 0ef1 513e
00000270: b329 dbbd b2ec dcbd 9b08 7a3e 2b9d 013e
00000280: bfad 8d3e 6d89 9fbe 5fa2 05be bd9e b8bd
00000290: c747 903e 8805 4fbe c64b 12bc ce60 903e
000002a0: 8e28 fbba d63f e6be c62e dbbc 1c47 9b3d
000002b0: 2f42 dcbe e123 44be 7d6c b1bd de86 babe
000002c0: 7d8e b53e b583 3ebe 1cb0 9abe 2611 89bd
000002d0: 39d2 333d 3d14 263e ff48 313d 5d83 98bd
000002e0: 862c a83c 4e69 e73c c721 72bd 0ead af3c
000002f0: 9850 75bd a622 06be c597 c93d 33cb 4a3d
00000300: bb62 473e 6438 693e 6928 123e ded5 6fbd
00000310: 778b b9be 28a0 5f3e 7580 343e e17f 3f3e
00000320: f208 243e cd4a 8cbe b277 f43d b4a5 0d3e
00000330: ccb0 94be a3e7 493e 76cf 893e bb57 803d
00000340: a708 1b3e 0728 573e 8c75 13bd f049 be3c
00000350: 0920 283e fc49 a3bd fd33 e8bc 653a 5e3e
00000360: 2ccc fabd 7a2f 25be 339c 033e 5849 1abe
00000370: a1f1 d03c 09f9 dfbd d3de 783c 0a65 d13d
00000380: a517 663d 410c 43be 4ea8 2bbe 085d 5e3d
00000390: 36d6 963e 1a73 783c 0c3f ae3e 7e3f 433e
000003a0: e52f 22bd e6b4 333e d356 82be feec d4bd
000003b0: 9198 d13d 153e 6c3d 360b 04bd b817 e3bd
000003c0: c6db 3dbe 7084 82bd 0bfc bb3c c26b 103e
000003d0: a07f ae3d 6ec8 573e 7dd0 14be 1464 523e
000003e0: 63a7 33be 6d22 843d 69c0 edbc ab31 333e
000003f0: aac1 f03a 0651 0bbe 742c c03d f4da 91be
-0.27436918 0.07090508 0.06690608 -0.1434304 -0.07492041 0.4215425 0.26032272 0.4436744
0.015278468 0.27255198 -0.100479886 -0.055551313 0.08467268 0.08706678 0.37542397 0.09964721
0.13135152 0.12720452 0.24765769 -0.13218622 -0.06709863 0.30709422 0.2737573 -0.21210103
-0.337574 0.014524272 -0.056629557 0.23327377 -0.05525462 -0.0038723284 0.16705827 -0.086509556
-0.15100351 0.18829456 0.15144706 -0.0099517675 -0.05442419 -0.097665794 -0.06899232 -0.17312469
-0.08264713 -0.13183706 0.09862965 -0.078260995 0.07515576 -0.014506447 0.014917129 -0.12376183
-0.05959353 -0.11962622 0.18194102 -0.11246055 0.014093891 0.22800985 0.043442506 0.1946808
0.4200014 0.25553203 -0.151404 -0.11636794 0.2091006 -0.15199324 -0.038125724 0.2022106
-0.22396988 0.18826354 -0.061997462 -0.044092156 0.08175397 -0.26866204 -0.15912609 -0.032141317
-0.06367837 -0.01323009 0.012710394 0.11793971 0.017972585 0.098199464 -0.08059333 -0.0890047
-0.1440224 -0.04501019 -0.22925448 0.03838441 0.12306761 0.024152374 0.24780115 -0.12383135
-0.07319261 -0.15389428 -0.0375844 0.028151542 -0.10138501 -0.12496131 0.30248803 -0.18401259
-0.021348706 -0.11409247 -0.19367331 0.07603624 0.4011863 -0.08702692 -0.12850617 -0.24460413
0.0125791235 -0.05158901 0.12963927 0.15591273 -0.09947537 -0.20851885 -0.23027322 0.0017139772
0.31459385 0.09763911 0.0660044 0.03183281 -0.023133876 -0.13315189 0.19816853 -0.20963445
0.25539717 0.069164015 0.14246464 -0.41819367 0.16576676 -0.03462666 0.38188374 0.005605892
0.09577713 0.32850888 0.24989541 -0.035052918 0.41523203 -0.09626699 0.0073708985 -0.118736476
0.028733196 -0.26485568 -0.109921105 0.111255944 -0.15217893 0.22549921 0.056495365 -0.13455534
0.3512022 -0.07898215 -0.30391225 0.03623438 -0.3047765 0.1210967 0.43212205 -0.26943246
0.4938806 0.28606117 0.003518915 0.20502111 -0.10701313 -0.107873335 0.24417345 0.12657611
0.2767162 -0.31159535 -0.13050221 -0.09014652 0.28179762 -0.20216954 -0.008929199 0.28198856
-0.0019161867 -0.44970578 -0.026755702 0.075819224 -0.43019244 -0.19154312 -0.086632706 -0.3643102
0.35460272 -0.1860493 -0.30212486 -0.06692724 0.043901656 0.16218658 0.043282505 -0.074469306
0.020529043 0.028248455 -0.059114244 0.021444824 -0.059891313 -0.13099155 0.09843401 0.049510192
0.19471256 0.22775418 0.14273228 -0.05855357 -0.36239216 0.21838439 0.17627127 0.18701126
0.16019037 -0.27400818 0.119368926 0.13832742 -0.29041135 0.19717269 0.26916093 0.06266733
0.1514002 0.21011363 -0.036000773 0.023228616 0.1641847 -0.07973096 -0.028345102 0.21701963
-0.12245974 -0.16131392 0.12852554 -0.15067041 0.025505843 -0.109361716 0.015189844 0.1022435
0.056174893 -0.19047643 -0.16763422 0.05428794 0.29460305 0.015164161 0.34032476 0.19067189
-0.039596457 0.17549476 -0.25456867 -0.10396765 0.10234178 0.057676394 -0.032237254 -0.11088508
-0.18540868 -0.06372917 0.022947332 0.14103606 0.08520436 0.21072552 -0.14532657 0.2054599
-0.17544322 0.06451879 -0.029022412 0.17499416 0.0018368263 -0.13605127 0.09383479 -0.2848736

base.mlp.fc1.0.bias f4 [64]
00000000: df07 693b 4e0c 80bb e2c6 1e3c e496 37bc
00000010: ac8c 7f3c e606 88bc ec49 d13c db79 973c
00000020: 70eb fdbb 51df 0c3b 288b a0bb 0f88 eb3c
00000030: b68e a8bb f84b 41bc 373f 3aba 6549 10bc
00000040: ceb1 573c fb03 c8b9 d062 303c 3e20 d13b
00000050: 94f6 fb3a 72ee 363b d02e 853c 664e 7f3b
00000060: ee65 83bc 43a8 9abb fc85 c83b 9908 0bbd
00000070: 8791 99b9 1ffb 8bbc 7754 93bc 9f31 93bc
00000080: aa67 06bd 4170 263b aa48 e5bb 9ee3 09bc
00000090: 98fb 823c ad45 043c f285 4bbc a42c 15bb
000000a0: cad4 61bb 8dc0 85ba 952e 033c 0147 11bc
000000b0: ea2a 0b3d 0554 e13b 7443 50bc 9c83 933c
000000c0: 6f60 f43b c18d 2f3a f55d 97bb 1703 96bb
000000d0: 3566 97bb 83ed 733c 1d97 c73b 571f 22bc
000000e0: 94db acbc 7148 98bc 3f70 bebb c66a 3bbb
000000f0: bac6 bb3c 87cd 23bc a1b6 613b bb99 bd3b
0.003555767 -0.003907717 0.009690972 -0.011205409 0.015597504 -0.016604852 0.025547944 0.018490722
-0.0077490136 0.0021495412 -0.004899401 0.028751401 -0.0051439656 -0.0117978975 -0.00071047567 -0.008806561
0.013164951 -0.00038149938 0.010765746 0.0063820174 0.0019223266 0.002791312 0.016257674 0.0038956641
-0.016039815 -0.0047197654 0.006119488 -0.033943746 -0.0002929086 -0.017087517 -0.017984612 -0.017967997
-0.032813706 0.0025396498 -0.0069971876 -0.008416085 0.01598911 0.008073253 -0.012422072 -0.0022762204
-0.0034459108 -0.0010204479 0.0080067115 -0.008867026 0.033976473 0.006876471 -0.012711395 0.018007092
0.007457785 0.0006696843 -0.004619355 -0.004578005 -0.0046203383 0.01488817 0.006091012 -0.009895167
-0.021100797 -0.01858923 -0.0058117206 -0.0028597577 0.022921909 -0.009997732 0.003444113 0.0057861484

base.mlp.fc1.2.weight f4 [64]
00000000: a9bf 7e3f ac3d 803f 4948 813f ab99 7f3f
00000010: 1633 803f 23df 803f 106d 813f 5c4b 803f
00000020: b3e4 7b3f ef47 7f3f 5f2d 803f 86fc 813f
00000030: c54f 803f 63f2 7e3f ad8f 7e3f 2a61 7f3f
00000040: 831f 833f 74d3 7b3f 29a8 813f 3629 7f3f
00000050: ffb3 803f 6660 803f 77fc 7c3f 63d9 833f
00000060: cd31 833f e958 7f3f 65b5 803f 4a92 7e3f
00000070: 4eae 7c3f d4a4 7c3f 9014 823f dbac 783f
00000080: 33f5 7d3f ced8 7c3f 3536 803f fe68 813f
00000090: bee2 803f 8c89 823f e320 7d3f 034e 7e3f
000000a0: 3199 823f 802b 823f 1ec7 7f3f aaa9 7d3f
000000b0: 27d1 7e3f a063 813f 1843 7f3f d1ad 7f3f
000000c0: 5024 7e3f 1a92 7f3f 3180 7c3f 40a7 813f
000000d0: 10cd 7c3f 3496 7e3f 3fbd 7d3f 9cd1 7a3f
000000e0: b060 7b3f 7544 823f f8c1 7d3f 7c3c 833f
000000f0: 55e1 803f 37de 7a3f 8158 7e3f 85b7 7d3f
0.995112 1.0018821 1.0100185 0.99843854 1.001559 1.0068096 1.0111408 1.0022998
0.9839584 0.99719137 1.0013846 1.0155189 1.0024344 0.995886 0.9943798 0.99757636
1.0243992 0.98369527 1.0129443 0.9967226 1.005493 1.0029418 0.9882273 1.0300716
1.0249573 0.9974504 1.0055357 0.9944197 0.9870347 0.9868901 1.0162525 0.97138757
0.9920227 0.9876832 1.0016543 1.0110166 1.0069196 1.0198226 0.98878306 0.99337786
1.0203 1.0169525 0.99913204 0.9908701 0.9953789 1.0108528 0.9971175 0.998746
0.9927416 0.9983231 0.98633105 1.0129166 0.987504 0.9944794 0.9911689 0.9797609
0.9819441 1.0177141 0.991241 1.0252833 1.0068766 0.9799532 0.99353796 0.99108154

base.mlp.fc1.2.bias f4 [64]
00000000: 95f2 503b a66a 35bc a99a b63a 4f0f 27bc
00000010: 35c9 bbbb 9e7f c1bc ceb9 8e3c 23e9 c03b
00000020: 1687 c0bb 6fd9 1fbb 4a03 a6bb 04a7 cd3c
00000030: 63df c4bb b58b a2bc c354 54bb 9091 2ebc
00000040: 9501 8a3c 0e2a bc3c 0616 0ebc a67e a33c
00000050: 9267 0fbc 9aba ddbb 605e 3e3c a9ea eebb
00000060: 1e1a c5bc 2e8b 3fbc d9f9 95ba 123c fdbc
00000070: 8f04 ba3b da03 d0bb ed88 e3bc 00fc a0bb
00000080: 84cf 42bd 296f 3b3c 6a21 48bc d26d 4bbc
00000090: ed21 a73c cf62 73bc c95a 22bc b845 3abc
000000a0: 01a4 d1bc b077 97bc b65a 513c 3461 2d3b
000000b0: 5329 063d 7ab1 733b aacd 98bc 9a4f 323c
000000c0: abd1 753c cafe 71bc 382b 22ba 8d9c c4bc
000000d0: 69a2 feba e7c5 393c 225d b7bb 11aa dbbb
000000e0: e15c 9cbc 6038 e3bc 1fd3 28bc baa1 03bd
000000f0: 67cc 793c e809 54bb 7653 47bb b82b 923b
0.0031882871 -0.01107279 0.001393159 -0.010196521 -0.005730773 -0.023620423 0.017422583 0.005887167
-0.0058754785 -0.0024391075 -0.00506631 0.025104053 -0.006008075 -0.019842008 -0.0032399155 -0.010654822
0.016846457 0.022969272 -0.008672243 0.019957852 -0.00875272 -0.0067666294 0.01161918 -0.0072911573
-0.024060305 -0.011690898 -0.0011442258 -0.030912433 0.005676813 -0.0063481154 -0.027775252 -0.0049128532
-0.047561184 0.011440077 -0.012214998 -0.01241632 0.02040192 -0.014855101 -0.00990934 -0.011369161
-0.025590898 -0.018489689 0.012777975 0.0026455643 0.032754254 0.0037184642 -0.018652756 0.010883236
0.015003602 -0.014770219 -0.00061862497 -0.02400043 -0.0019427064 0.0113386875 -0.005595819 -0.006703623
-0.019087257 -0.027736843 -0.010304241 -0.032136656 0.015246487 -0.0032354537 -0.0030414737 0.004460778

base.mlp.fc2.0.0.weight f4 [64, 64]
00000000: 5c21 5d3d ccb5 80bc e4b5 8dbc 8eb2 3e3e
00000010: 6bdb bfbd 8d3a 6d3c 1f00 92be bc40 1bbe
00000020: 19f9 09bd 1420 05bd e3d3 863d 04b5 eebb
00000030: f742 533b ed94 ce3c bcf2 913e b2da 10be
00000040: 0c6b 07be 5291 26be 0153 b93d e65e 3abe
00000050: 1388 09be d0b8 1e3e d4f2 45bd 098a efbd
00000060: 23af 7b3e c971 6ebe 878c cbbe eec1 113e
00000070: 31c8 0ebe 56aa 1f3a 1a13 eb3e 1419 cc3d
00000080: 7ce3 6ebe a821 543e 9fb9 b23d 2832 753d
00000090: aa3a 003e ffc4 9a3e a4d0 783d d6f2 48be
000000a0: a745 e3bc 7754 3ebe 1c7c 9c3d af6a 803e
000000b0: 4417 d73d b0c0 b3bd 9199 f53d 53dd 0c3e
000000c0: 01ce c23e a21c 5a3d 5006 a13d 3a9b 603e
000000d0: 5b8b abbb 9e89 3b3e 146b c8bc 855e 4c3e
000000e0: e771 873c 558d 7cbd b43e 0c3e b2aa e2bd
000000f0: 3066 a4bd d95e 09bf ab6e 1bbd e561 efbd
00000100: 9098 a53d 2cc4 613e 66db c0bd 3935 c63d
00000110: ddc5 8ebd b8f9 73be 41b6 f8be 6d8f f7bc
00000120: f001 27be 459f 743e 7732 0abe b27c fa3c
00000130: 832e 4f3e fe13 84be e259 c13d d6d9 9e3e
00000140: 1790 80be 1448 0abe 700e 7ebe c0aa 66be
00000150: 70b3 c33d 09aa 4d3d b4f3 5dbe 2a14 d73e
00000160: 224e 90bd 88c2 3b3e 10ae 6d3e 28ba 74bd
00000170: 9a1c 6f3e df4d d33b 5f78 fc3d b477 4f3c
00000180: 2532 06bd cdc4 883e 3fe1 753d da83 bfbd
00000190: 4af6 71be b4ac 33be 8ff5 f2bc 8cd9 ebbd
000001a0: a68e 4e3e 9ecf 1d3d 3da5 06be 4ae2 ffbc
000001b0: 8a2a 4f3d 7f9a 8d3e cd84 f53d c628 0abe
000001c0: 54de 863e fe5a 003e 4e6b eebd 81a8 33bd
000001d0: 0268 3a3e 6841 5e3d bc04 26bd 2d91 e0bd
000001e0: 6f21 1b3e 4bd6 99bc 8851 0cbc 5d9c 703e
000001f0: b052 6e3e a615 103d c4d0 9d3c 18f0 7dbe
00000200: a189 ca3d 30eb c2bd 7819 0bbe 895d 023e
00000210: 65f0 933c 2c9a cbbc ff55 a73d 39e5 953d
00000220: d1bd 57be 8c16 6abd 192d aebd 0ab8 9d3b
00000230: 6b68 f13e a7f4 ee3c a638 333e 58ff 273d
00000240: 4b8a bebc bd20 0d3c de61 22be 812a 513e
00000250: bae8 6e3d 9d56 dcbc 5d6a b5bd 7879 96bd
00000260: 4e39 12be 5d6c eabd 157a 7d3c 5058 ddbe
00000270: 0107 a5be 8816 cfbd b460 d9bd 9f37 4dbe
00000280: 1202 e93c bd4f b53c ff2a 1ebe de8f 113e
00000290: 86a9 9f3e 9912 7fbe c69c 30bd 6166 22bc
000002a0: 2aec 8fbc 19e0 18be 0a0c 853e 1458 903b
000002b0: e9cc 163e eaf8 0fbe b684 cfbe f3e7 eb3e
000002c0: 4425 4a3e e876 d73e 5523 323e 54ce 183d
000002d0: 9f48 523e 447b a73e dc2e 1c3d 005c f7bd
000002e0: 8937 c23c a33b 81bc d8eb cdbd fbef afbd
000002f0: 0762 013d f4eb 2a3e 1cff 423e aaee 893d
00000300: 4e56 a93c 172f 763d 6934 3ebe fa33 9fbe
00000310: 53d5 5abe 15a9 7ebd a52b e13d a4c7 12be
00000320: f0d1 123e 12b5 dcbc 47c0 0e3e 51f7 5cbe
00000330: c31b e13d 0166 e73d 724a ed3d 3c1b 033e
00000340: b3a7 2abe c3c0 96be 156a 99bd 696b 43be
00000350: a52e 473d c3ba 473e cbac 0c3d 4dfc 9c3d
00000360: db8a 84be 3509 063e 14af f73c f8fe dc3c
00000370: ccfd 60bd 653a a3bd 0e5e afbc 868e 3a3d
00000380: 60af b5bd f99c 6a3e 0b03 a93e f8c4 09be
00000390: a439 04bf 7a7f 0c3e e695 31be 6038 383d
000003a0: f099 ebbd 55a3 d8bc 2186 ed3d 7875 ceba
000003b0: b4b5 2fbe e1d6 03be 6bcc 6abe cb2b 823e
000003c0: 18c0 07be be72 6fbd d215 9d3d e602 0bbe
000003d0: 5ab8 90be 7464 fc3d e80e 92bd 2a41 383e
000003e0: f2cd 6d3e 7f3d be3e 2f0f 34bd e451 c7be
000003f0: b8fd f4bc 999c 313c 5882 893e d609 493e
0.053986892 -0.015711688 -0.017298646 0.186228 -0.093680225 0.014479292 -0.28515717 -0.15161413
-0.033684824 -0.032501295 0.06583383 -0.0072847623 0.003223596 0.025217498 0.28505504 -0.14145926
-0.13224429 -0.16266373 0.09049035 -0.18200263 -0.13430814 0.15500188 -0.048327282 -0.1169625
0.24578528 -0.23285593 -0.3975565 0.14234135 -0.13943554 0.00060907507 0.4591301 0.09965721
-0.23328966 0.20715964 0.08726811 0.059862286 0.12522379 0.3022842 0.06074585 -0.19623885
-0.027743174 -0.18586908 0.076408595 0.25081393 0.105024844 -0.087769866 0.11992181 0.13756303
0.38047794 0.053249963 0.07862532 0.21934214 -0.0052351183 0.18314216 -0.024465121 0.19957931
0.016533805 -0.061658222 0.13695794 -0.11067714 -0.08027303 -0.5366035 -0.037947338 -0.11688594
0.080857396 0.2204749 -0.09416847 0.0967812 -0.06971333 -0.23825729 -0.4857655 -0.030219758
-0.16309333 0.23888882 -0.13495813 0.030577037 0.20232587 -0.25796503 0.09440972 0.3102557
-0.25109932 -0.13504058 -0.24810195 -0.22526073 0.09555709 0.050210986 -0.21674997 0.4200757
-0.07046153 0.18335927 0.23210931 -0.059747845 0.23350754 0.006448492 0.123276465 0.012662817
-0.032762665 0.26712647 0.060029265 -0.093513206 -0.23629108 -0.1754635 -0.029658107 -0.11516103
0.20171604 0.038528077 -0.13148971 -0.031235833 0.050577678 0.27656934 0.1198822 -0.13492116
0.26341498 0.12534711 -0.116415605 -0.04386187 0.18203738 0.054261595 -0.04053186 -0.1096519
0.15149473 -0.01877894 -0.00856436 0.23497148 0.2327373 0.035176896 0.019264586 -0.2479862
0.09889532 -0.09517515 -0.13583934 0.12730993 0.018058965 -0.024853788 0.08170699 0.073191114
-0.21068503 -0.05715041 -0.085046954 0.004813199 0.47149977 0.029169394 0.17502078 0.041015
-0.023259303 0.008613762 -0.15857646 0.2042637 0.058327414 -0.02689677 -0.08858178 -0.07347387
-0.14279673 -0.1144645 0.015471001 -0.4323144 -0.32231906 -0.10111719 -0.10614148 -0.20040749
0.02844337 0.022132749 -0.15446089 0.14215037 0.31184024 -0.24909438 -0.04311826 -0.009912104
-0.017568666 -0.14929236 0.25985748 0.004405031 0.14726605 -0.14059797 -0.40530938 0.460754
0.19740778 0.42082906 0.1739629 0.037306145 0.20535515 0.32711232 0.038130626 -0.120780945
0.023708122 -0.015775507 -0.10054749 -0.085906945 0.031587627 0.16691571 0.19042629 0.06734975
0.020671036 0.060103502 -0.1857468 -0.31094342 -0.21370439 -0.062172968 0.10994653 -0.1433397
0.14337897 -0.02694181 0.13940535 -0.21578719 0.10991623 0.112987526 0.11586465 0.12803358
-0.16665535 -0.2944394 -0.07490937 -0.19083942 0.048628468 0.19504838 0.034344476 0.0766531
-0.25887188 0.1308945 0.030234851 0.026977047 -0.05492954 -0.07970122 -0.021407153 0.045546077
-0.08871341 0.22911443 0.33010134 -0.13454044 -0.5165045 0.13720503 -0.17342338 0.04497564
-0.115039706 -0.02644507 0.11597849 -0.0015751561 -0.17159158 -0.12874939 -0.22929542 0.25424036
-0.13256872 -0.058459036 0.076701775 -0.13575324 -0.2826565 0.123238474 -0.071317494 0.17993608
0.23223093 0.37156293 -0.043959793 -0.38929665 -0.029906139 0.010840558 0.26857257 0.19632658

base.mlp.fc2.0.0.bias f4 [64]
00000000: 212b e1bb e98e 94bc 6717 ef3c f33f 4ebc
00000010: 893e 89ba 780c bbbb 5be5 b8ba b8ea 703c
00000020: 6e91 66bc 902a 103b a98c a13c 3224 e4bb
00000030: f0a8 ab3b 334e 4dbc 9c37 e53b 3706 67bc
00000040: 7dee fa3c 48e2 27bc 9f78 ad3c 285e 003c
00000050: eac9 21bc 4577 a6bc a398 d5bc 859a 7ebc
00000060: 6601 0d3c b624 b93c 92c6 08bb c388 beba
00000070: cb2a 033d 4a5b 6abc 3f64 4c3c e5f2 deb9
00000080: 5297 e7ba 4a85 533b 87c7 d73b cb41 dc3c
00000090: 555c 3abb 9edf c0bc 3e8d 40bc f600 82bc
000000a0: 5c50 6e3c 499f ab3c 62ee 3cbc f547 1dbc
000000b0: 6c8d e6bc e508 1fbc 19b4 eabb 78c2 453b
000000c0: 1a27 97bc 45e6 18bb f4d1 f5bb 48dc d5bc
000000d0: 6a33 fabc f5f6 53bc 3089 a0bc 14ea 80bb
000000e0: f564 08bc 1c47 963c 850d 96bc 83ba 43bc
000000f0: 4eda e8ba 6a8a 1dbc c4e8 8d3b 0c2c e6ba
-0.0068715964 -0.018134551 0.029185964 -0.012588489 -0.0010470907 -0.0057082735 -0.0014106439 0.014704399
-0.014072759 0.0021998025 0.019720392 -0.0069623226 0.005238645 -0.012530851 0.0069951545 -0.014100603
0.030631298 -0.010246821 0.02117568 0.007834949 -0.0098748 -0.020320544 -0.02607376 -0.01553977
0.00860629 0.022600513 -0.002087031 -0.0014536608 0.032023232 -0.014303992 0.012475072 -0.0004252411
-0.0017668998 0.0032275491 0.006585065 0.026886841 -0.0028436382 -0.023544129 -0.011752425 -0.015869599
0.014545526 0.020949977 -0.011531444 -0.009599675 -0.028143607 -0.00970671 -0.0071625826 0.0030175727
-0.018451262 -0.002333061 -0.007501835 -0.026106015 -0.030542094 -0.012937297 -0.019596666 -0.0039341543
-0.008324851 0.018344454 -0.018316993 -0.011946323 -0.0017765255 -0.00961552 0.0043307263 -0.0017560734

base.mlp.fc2.0.2.weight f4 [64]
00000000: 2d3d 823f 5350 833f 7aa0 823f 8d1b 803f
00000010: 47ef 813f 6f7f 813f 1782 813f fab8 823f
00000020: bee1 803f d9b4 813f 4e13 823f ca49 803f
00000030: b610 7f3f 2f19 803f dbc6 803f 0cd7 823f
00000040: e2be 843f 7395 823f c0f2 803f d4af 813f
00000050: 9f46 813f 8ed7 803f ec76 813f d760 823f
00000060: 8ca8 823f b172 803f ec63 803f 5435 813f
00000070: 19b1 833f 7c02 813f f9b5 823f f96e 813f
00000080: 68f8 7e3f 3598 813f 9703 833f b2a6 813f
00000090: 7986 823f 1460 803f c355 813f 41b8 7f3f
000000a0: bf70 813f d581 813f bc6a 803f 637a 7f3f
000000b0: f875 7f3f 03b7 813f 1788 833f 9e27 813f
000000c0: da59 803f 474a 853f e54a 813f 161d 7f3f
000000d0: 718c 813f bdf4 813f 45ac 803f 42c5 803f
000000e0: 15f6 7f3f 821b 833f 0a98 833f 5263 813f
000000f0: e8aa 833f b6c8 843f 02ef 823f 68fc 813f
1.0174919 1.0258888 1.0205224 1.0008408 1.0151147 1.0117015 1.0117825 1.02127
1.0068891 1.0133315 1.0162141 1.0022519 0.99634874 1.0007685 1.0060686 1.0221877
1.0370753 1.0201858 1.0074081 1.0131783 1.0099677 1.0065782 1.0114417 1.0185803
1.0207686 1.0035001 1.0030494 1.00944 1.0288421 1.0078883 1.0211784 1.0111991
0.9959779 1.0124575 1.023547 1.0128996 1.0197288 1.0029321 1.0104297 0.99890524
1.0112532 1.0117747 1.0032573 0.9979612 0.9978938 1.0133976 1.0275906 1.0090215
1.002742 1.0413293 1.0100981 0.99653757 1.0120984 1.0152813 1.0052572 1.0060198
0.99984866 1.024277 1.0280774 1.0108435 1.0286531 1.0373752 1.0229189 1.0155153

base.mlp.fc2.0.2.bias f4 [64]
00000000: 9e68 9bbc 22e5 d0bc 8553 b93c 0b8e 7ebc
00000010: 514f 53bc 4dbb 1cbc b3db 77bc 8816 c23c
00000020: c547 9bbc 539e a83c 1cdd 803c 901e e53b
00000030: 3110 0b3c 8420 8dbc 0642 823c d9ce b5bc
00000040: 4a9d c73c 9445 80bc b29a b93c 15ff af3c
00000050: 2bce 9ebc e6b5 6fbc 8105 96bc 2962 bfbc
00000060: 3063 b23c db43 5a3c 0bca 2abc 01aa 90bc
00000070: 2597 cb3c 2f17 bebc b884 ba3c 71b5 2bbc
00000080: 87e3 7a3c c326 9dbc dfbe a43c bd39 8b3c
00000090: 50bf 81bc 3a37 84bc 1a25 9fbc 19b8 6abc
000000a0: b8c4 7f3c b1bf 9d3c ad4e 0fbc 9f81 52bc
000000b0: eec6 36bc a92c 40bc 5b35 d7bc bbaf 803c
000000c0: a8d5 94bc ece6 9cbc 3596 99bc ea79 1dbc
000000d0: e75e 95bc a3f9 b1bc 959a adbc 4f48 953b
000000e0: a509 23bb 9fa9 a13c 9a8a cb3c 6eaf 94bc
000000f0: 906b babc 2f8c d8bc 2b40 5bbc d41e bd3c
-0.018970784 -0.025499884 0.022622833 -0.015536795 -0.0128973285 -0.00956614 -0.015128064 0.023692384
-0.01895512 0.020583307 0.015730433 0.0069921687 0.008487747 -0.017227419 0.015900623 -0.02219336
0.024366993 -0.015658177 0.022656772 0.021483937 -0.019385418 -0.01463077 -0.018313171 -0.023362236
0.021775812 0.013321842 -0.010424147 -0.01765919 0.024852345 -0.023204414 0.022768363 -0.010480271
0.015313036 -0.019183522 0.020110546 0.016995305 -0.015838295 -0.016139615 -0.019426871 -0.014326119
0.015610866 0.019256445 -0.008746785 -0.012848287 -0.011155827 -0.011729398 -0.026270559 0.015708795
-0.018168285 -0.01915308 -0.018748382 -0.009611586 -0.01823373 -0.021725481 -0.021191875 0.004555739
-0.0024877575 0.019734202 0.024846364 -0.018150058 -0.022756368 -0.026434032 -0.013381998 0.023085989

act.action_out.fc_mean.weight f4 [1, 64]
00000000: 5687 50bc f46d a0bc cc7d 6f3c 93ef 86bb
00000010: 9f31 56bc 04b9 29bc 3bb6 3bbc 1712 8d3c
00000020: 1a46 c8bb 4b90 4a3c 21da 633c b539 a63b
00000030: a510 7b3a 1426 3739 0d5f ed3b dad7 97bc
00000040: 43d7 ea3c 22b2 4ebc 620f 083c ea76 213c
00000050: 97aa 21bc d2d3 46bb 3427 2dbc 0a1e 74bc
00000060: 452f 893c dc1f 733b 36d4 c43b bd09 24bc
00000070: 896e ad3c 5941 eebb fe97 8e3c 0e38 37bc
00000080: 2139 88ba a12d 36bc e524 853c 0bf9 483c
00000090: 3ee4 87bc 2981 b1bb 2b2f 34bc 3909 40bb
000000a0: c134 2c3c abf9 3e3c bea1 fa3a 0593 1c3b
000000b0: f9f5 f339 61b7 3bbc 921a 9ebc c075 033c
000000c0: 90b0 31bb 1f6d edbc aed0 c0bb 5787 45bb
000000d0: e1d0 14bc b9d2 5bbc 6384 0bbc 8dc1 fa3b
000000e0: 72bf 78bb 141f 943c 9c14 973c d91b 17bc
000000f0: 26d5 bcbc 0e88 d9bc 2402 8fbc 559d 523c
-0.012727579 -0.01958368 0.014617395 -0.004117915 -0.013073354 -0.010359053 -0.011457021 0.01722054
-0.0061118724 0.012363504 0.013906986 0.005072797 0.00095773704 0.00017466425 0.007243997 -0.018535543
0.028667098 -0.012615712 0.008304449 0.0098550115 -0.009867332 -0.0030338657 -0.010568429 -0.01489974
0.016746173 0.0037097847 0.006006743 -0.010012087 0.021170871 -0.0072709736 0.01740646 -0.011182798
-0.0010393002 -0.011119277 0.016252944 0.012266408 -0.016588327 -0.0054170084 -0.010997574 -0.0029302372
0.010510624 0.011656205 0.0019121689 0.0023891341 0.00046531836 -0.011457295 -0.01929978 0.008023679
-0.0027113296 -0.028982697 -0.0058842516 -0.0030140483 -0.009083004 -0.013416939 -0.00851545 0.0076524676
-0.0037955907 0.018081225 0.018442445 -0.009222948 -0.023050856 -0.026554134 -0.017457075 0.012854894
