checkpoint/best_mappo_seed111_run20260211_183208_envmamujoco-halfcheetah-6x1_ep1000_agent4_actor.pt (torch, 27997 bytes, 11 tensors)

base.feature_norm.weight f4 [9]
0.9960337 0.9746707 0.98805046 1.0299236 1.0001589 1.0631425 0.9644639 0.99238783
0.98192304
00000000: 11fc 7e3f 0584 793f e0f0 7c3f 89d4 833f
00000010: 3505 803f 0e15 883f 1be7 763f 210d 7e3f
00000020: 4f5f 7b3f

base.feature_norm.bias f4 [9]
-0.0116083715 -0.025055258 -0.008981521 0.019693235 -0.020252317 -0.018703422 0.024941059 -0.029449683
0.039244253
00000000: 0a31 3ebc af40 cdbc 3b27 13bc b553 a13c
00000010: 30e8 a5bc eb37 99bc 3151 cc3c 7640 f1bc
00000020: 95be 203d

base.mlp.fc1.0.weight f4 [64, 9]
0.20396903 0.24634047 0.33447754 -0.090534836 -0.045938544 0.13900724 0.120523766 -0.07230934
0.13780332 -0.11006177 0.16840047 -0.34854978 0.11531491 0.038201265 0.10737369 -0.119533874
0.1993119 -0.2793826 0.024725802 0.13023393 -0.13120608 -0.13712652 -0.05143686 0.21508573
-0.15274587 -0.4881413 0.056457177 -0.14957671 -0.15050262 -0.15124054 0.04471435 -0.18548739
-0.2228297 0.0067082183 -0.11279172 -0.119236894 -0.13752295 -0.15610002 -0.12193609 -0.40858826
0.11472576 0.11670313 -0.43253043 0.12121903 0.056295805 0.1327998 -0.028885895 0.20763332
-0.27602184 0.022282515 -0.2354118 -0.029971903 0.026131023 -0.052034657 0.008472591 0.18003178
0.2879349 0.36505622 0.37071803 -0.13726246 -0.2981344 -0.100527585 0.05830904 -0.039605808
-0.16935705 -0.2989883 0.0642903 0.17657252 -0.030422157 0.11690768 -0.20134804 -0.10650589
0.010246141 0.14214416 -0.064942375 -0.06475421 0.18734556 0.043324437 0.19862702 -0.07386874
0.1119572 0.23544437 0.03321024 0.19285725 0.25871217 -0.13206537 0.06490465 -0.17896987
0.18706399 -0.3371209 0.00038010057 -0.09364648 0.048889246 -0.32698143 0.27332878 0.15861085
0.18442856 0.04821668 0.3884906 -0.18748923 -0.05644993 0.19028623 -0.003773954 -0.17205784
-0.15860201 0.085024655 0.0107413465 0.06670729 -0.00050906674 0.08439426 0.010272902 0.42593113
-0.24273877 -0.12522034 -0.20649652 -0.112588435 0.30311275 -0.0061714626 -0.41404122 0.06758368
-0.06430393 -0.061519697 -0.16059881 0.031925485 0.19634348 0.1832041 0.17360066 -0.20288347
-0.026231878 -0.059367996 0.04797062 0.2933441 -0.020512663 -0.122204676 0.13720134 -0.17995453
0.014837248 0.07005334 -0.14567424 -0.11159652 0.14005333 -0.1318175 0.19209777 -0.13435565
-0.05442759 0.11640706 0.39756316 0.2526836 -0.16899824 0.16918118 -0.042391825 -0.15641074
-0.06450428 -0.22048762 0.055688165 0.300533 -0.1412518 0.34363124 -0.015479344 -0.07561566
-0.17676002 -0.0026855713 0.29089785 0.009162204 0.059988674 -0.05708936 0.06538308 0.19722307
0.4179039 0.015253798 0.010759091 0.26635778 -0.19564822 0.06652074 -0.028602278 0.30141997
-0.18514913 0.14508311 -0.052269775 -0.055389173 0.19057973 -0.118264675 -0.0972817 0.31538904
0.03149755 -0.03634724 0.12107242 -0.15453744 -0.12428095 0.1474974 -0.09164332 0.10367102
-0.12615128 0.15072142 -0.12919015 -0.041533567 0.15277113 -0.2885548 -0.109063074 0.14867955
-0.18329471 0.104463145 0.27070323 -0.21748339 0.22623512 0.045220166 0.07861954 0.27123418
0.022418467 0.0055944575 0.03287647 -0.31499967 0.17547543 -0.12871712 -0.08032225 0.046500903
-0.073471084 -0.19675857 -0.27289852 -0.13760471 0.043799415 -0.3376547 0.0566849 -0.08981215
0.06651372 0.20502777 0.051343545 -0.07078492 -0.14124234 -0.271576 0.22687766 -0.020422503
-0.049577765 -0.010816278 0.19507425 0.24635093 0.082805455 -0.09302931 -0.22011954 -0.4295437
-0.016693104 -0.2770416 -0.11198535 0.0069792494 0.117888264 0.124341026 -0.025783053 0.17285465
0.01285223 0.10092243 -0.32067108 -0.3320918 0.34532136 -0.011515404 0.14265834 0.10827584
00000000: 42dd 503e ad40 7c3e a440 ab3e 546a b9bd
00000010: 0e2a 3cbd ea57 0e3e 2ad5 f63d eb16 94bd
00000020: 501c 0d3e 1168 e1bd 2c71 2c3e 1e75 b2be
00000030: 392a ec3d ee78 1c3d bde6 db3d 2dce f4bd
00000040: 6b18 4c3e 3c0b 8fbe c48d ca3c 0b5c 053e
00000050: e35a 06be e56a 0cbe 75af 52bd 6f3f 5c3e
00000060: 6a69 1cbe a8ed f9be a43f 673d a32a 19be
00000070: 5c1d 1abe cdde 1abe 6526 373d 68f0 3dbe
00000080: 782d 64be 9dd0 db3b 58ff e6bd 7932 f4bd
00000090: d1d2 0cbe afd8 1fbe a1b9 f9bd 7b32 d1be
000000a0: 57f5 ea3d 0d02 ef3d a174 ddbe af41 f83d
000000b0: 6e96 663d acfc 073e 1da2 ecbc d49d 543e
000000c0: bc52 8dbe d289 b63c ca0f 71be a387 f5bc
000000d0: ba10 d63c 4b22 55bd 9fd0 0a3c 405a 383e
000000e0: 346c 933e a6e8 ba3e c1ce bd3e 888e 0cbe
000000f0: 12a5 98be 68e1 cdbd 76d5 6e3d b339 22bd
00000100: ef6b 2dbe ff14 99be a2aa 833d 6dcf 343e
00000110: e337 f9bc 4b6d ef3d 2e2e 4ebe c31f dabd
00000120: 6edf 273c 3d8e 113e 8200 85bd db9d 84bd
00000130: 84d7 3f3e f774 313d e264 4b3e 7e48 97bd
00000140: d149 e53d 5418 713e 7607 083d 5f7c 453e
00000150: ec75 843e 253c 07be bbec 843d e143 37be
00000160: b48d 3f3e 1c9b acbe 3c48 c739 bac9 bfbd
00000170: 1740 483d 1c6a a7be c0f1 8b3e e26a 223e
00000180: d7da 3c3e da7e 453d 3de8 c63e 2dfd 3fbe
00000190: 0b38 67bd 65da 423e 7154 77bb ee2f 30be
000001a0: 9168 22be 6821 ae3d 79fc 2f3c d59d 883d
000001b0: e472 05ba e6d6 ac3d ad4f 283c a513 da3e
000001c0: 8390 78be c339 00be d373 53be c494 e6bd
000001d0: 9831 9b3e fb39 cabb 36fd d3be 5069 8a3d
000001e0: c7b1 83bd 14fc 7bbd 0474 24be 4cc4 023d
000001f0: 440e 493e db99 3b3e 5fc4 313e afc0 4fbe
00000200: 3ce4 d6bc db2b 73bd d77c 443d 3331 963e
00000210: 2c0a a8bc 7246 fabd 827e 0c3e 0046 38be
00000220: ee17 733c 2078 8f3d a12b 15be b78c e4bd
00000230: 246a 0f3e 2bfb 06be 47b5 443e 8794 09be
00000240: 77ef 5ebd d366 ee3d 668d cb3e bf5f 813e
00000250: e00d 2dbe d53d 2d3e 0da3 2dbd 232a 20be
00000260: d21a 84bd 82c7 61be 4619 643d 76df 993e
00000270: 50a4 10be 6ff0 af3e 139d 7dbc 62dc 9abd
00000280: 9400 35be 6900 30bb 90f0 943e 121d 163c
00000290: afb6 753d 88d6 69bd 90e7 853d d8f4 493e
000002a0: 80f7 d53e 11eb 793c e646 303c 0c60 883e
000002b0: 0258 48be 073c 883d 534f eabc b853 9a3e
000002c0: bc97 3dbe ab90 143e d518 56bd c2df 62bd
000002d0: 5527 433e c034 f2bd a13b c7bd ac7a a13e
000002e0: 9303 013d d8e0 14bd d1f4 f73d 103f 1ebe
000002f0: 0387 febd 8f09 173e 7eaf bbbd 7951 d43d
00000300: cd2d 01be b756 1a3e 6c4a 04be 1a1f 2abd
00000310: 0970 1c3e 74bd 93be 765c dfbd 743f 183e
00000320: 9cb1 3bbe c6f0 d53d 9d99 8a3e f7b3 5ebe
00000330: 2eaa 673e c838 393d 4803 a13d 35df 8a3e
00000340: efa6 b73c b651 b73b 7aa9 063d a347 a1be
00000350: d5af 333e 6cce 03be fe7f a4bd bb77 3e3d
00000360: 0278 96bd 147b 49be 5bb9 8bbe 40e8 0cbe
00000370: 0467 333d 14e1 acbe 6d2e 683d 6fef b7bd
00000380: 5838 883d cdf2 513e 9c4d 523d aff7 90bd
00000390: d5a1 10be 020c 8bbe 9e52 683e 184d a7bc
000003a0: 0e12 4bbd c236 31bc 8bc1 473e 6b43 7c3e
000003b0: e895 a93d 2786 bebd 0467 61be 27ed dbbe
000003c0: fabf 88bc 66d8 8dbe 9358 e5bd 30b2 e43b
000003d0: 676f f13d 82a6 fe3d fb36 d3bc cf00 313e
000003e0: 2992 523c 6bb0 ce3d 002f a4be f007 aabe
000003f0: f6cd b03e 1bab 3cbc 0715 123e b9bf dd3d

base.mlp.fc1.0.bias f4 [64]
-0.021106426 -0.05648229 -0.022798602 0.021470232 -0.0007709883 -0.032987736 -0.007150073 -0.048451968
0.04145646 -0.0054070987 0.004265669 -0.0134991305 0.01488089 -0.0009396124 0.0076204366 -0.009691867
-0.0297805 -0.034580573 -0.0046779704 -0.0044750595 0.014721007 0.0084250625 0.01839592 -0.0036772368
0.021998493 0.010600923 0.010361464 -0.009397547 0.013381326 0.016490093 0.007920453 -0.0036401725
0.0032998004 -0.025254121 -0.020245902 -0.012547277 -0.0077650137 0.017276378 0.00055184664 -0.01960555
0.028367212 -0.011930215 -0.027745847 0.0358339 -0.010620236 0.010761064 0.013735988 -0.0073151286
0.014428658 -0.044612527 0.04064469 -0.006640269 0.03265548 -0.0001224507 -0.018742457 -0.0130225085
-0.0001580947 -0.01591595 0.022015665 -0.0104149645 -0.002832892 0.019375246 -0.04896842 -0.017020972
00000000: 62e7 acbc f959 67bd 22c4 babc 57e2 af3c
00000010: 261c 4aba 261e 07bd 294b eabb 9275 46bd
00000020: 40ce 293d 082e b1bb 06c7 8b3b 752b 5dbc
00000030: face 733c 5250 76ba dbb4 f93b a3ca 1ebc
00000040: 3cf6 f3bc 5ca4 0dbd a949 99bb 85a3 92bb
00000050: 6130 713c 4609 0a3c 0ab3 963c ccfd 70bb
00000060: 2f36 b43c 7eaf 2d3c 21c3 293c 2bf8 19bc
00000070: 593d 5b3c 3b16 873c cac4 013c f68f 6ebb
00000080: 7741 583b bbe1 cebc bcda a5bc 1893 4dbc
00000090: a871 febb 3187 8d3c cda9 103a d29b a0bc
000000a0: 5b62 e83c f376 43bc 424b e3bc 91c6 123d
000000b0: 8000 2ebc 2c4f 303c e90c 613c bfb3 efbb
000000c0: 2e66 6c3c a0bb 36bd 0c7b 263d 9d96 d9bb
000000d0: c1c1 053d 1c66 00b9 c889 99bc 5c5c 55bc
000000e0: 39c6 25b9 2b62 82bc 325a b43c 87a3 2abc
000000f0: 0aa8 39bb d6b8 9e3c 1c93 48bd 916f 8bbc

base.mlp.fc1.2.weight f4 [64]
1.024514 0.95228624 0.9853572 0.99138695 0.99858934 1.0179036 0.9884277 0.9864613
0.9976553 1.0058182 0.9821409 0.9919133 0.98817796 0.9933486 1.0009897 1.0295902
0.99223346 1.0019978 0.97319865 1.0093355 0.9884671 0.977478 0.9950752 1.0454758
0.98500454 1.0309013 1.0188594 0.9542691 1.0156275 1.0164162 0.975761 1.0125433
0.98792344 0.9752819 0.9990496 0.96966183 1.022976 1.0304842 1.0181435 1.021744
1.1117679 0.9730226 0.9877593 1.0115778 0.9959137 1.0097486 1.0284024 0.9644425
1.068191 0.9706745 0.9998416 0.98918086 1.0025929 0.9692874 0.9832954 0.9870761
0.9885091 1.0019033 0.9531614 1.0330585 0.98074675 0.9822969 0.9835832 0.9884923
00000000: 4623 833f 08c9 733f 5f40 7c3f 89cb 7d3f
00000010: 8da3 7f3f aa4a 823f 9909 7d3f ba88 7c3f
00000020: 5666 7f3f a7be 803f 966d 7b3f 08ee 7d3f
00000030: 3bf9 7c3f 184c 7e3f 6e20 803f 9dc9 833f
00000040: 0303 7e3f 7741 803f 8c23 793f e831 813f
00000050: 2e0c 7d3f 003c 7a3f 40bd 7e3f 27d2 853f
00000060: 4229 7c3f 93f4 833f fc69 823f fb4a 743f
00000070: 1500 823f ed19 823f 79cb 793f 059b 813f
00000080: 8de8 7c3f 13ac 793f b7c1 7f3f c23b 783f
00000090: e1f0 823f e8e6 833f 8752 823f 82c8 823f
000000a0: 694e 8e3f 0218 793f cbdd 7c3f 627b 813f
000000b0: 33f4 7e3f 713f 813f b1a2 833f b4e5 763f
000000c0: 7cba 883f 207e 783f 9ef5 7f3f f53a 7d3f
000000d0: f754 803f 3823 783f 3fb9 7b3f 05b1 7c3f
000000e0: ef0e 7d3f 5e3e 803f 6302 743f 433b 843f
000000f0: 3812 7b3f cf77 7b3f 1ccc 7b3f d50d 7d3f

base.mlp.fc1.2.bias f4 [64]
-0.04341485 -0.036490377 -0.010400701 0.019258197 -0.014665794 -0.021193614 0.00038674232 -0.040372003
0.014907933 -0.032186884 0.006545255 -0.009621599 0.03356551 0.016049143 0.017763471 -0.035218112
-0.036776885 -0.020844266 0.014680337 -0.0154547775 0.009970276 0.017965676 0.029634597 -0.0125043895
0.026185345 0.010709663 0.0041512246 0.0062218313 0.0032664419 0.022458704 0.015233751 -0.0046262485
-0.0049963975 0.000870889 -0.024142455 0.008058497 -0.018312244 -0.001926445 -0.018631384 -0.028068116
-0.016495716 0.00081807096 -0.03978033 0.029048534 0.0077556795 0.025847552 -0.009010194 0.00973533
-0.01892511 -0.02918858 0.037757684 0.0034282184 0.032479804 0.0028060977 -0.015263375 -0.007180276
0.021219257 -0.016514124 0.037982713 -0.028054848 -0.008104355 0.03526544 -0.04155884 0.0043538497
00000000: c5d3 31bd ef76 15bd b467 2abc 5ec3 9d3c
00000010: cc48 70bc 3b9e adbc adc3 ca39 1d5d 25bd
00000020: 6740 743c 65d6 03bd 9479 d63b e9a3 1dbc
00000030: fd7b 093d 7e79 833c b384 913c de40 10bd
00000040: 5ca3 16bd 98c1 aabc cc85 703c 0936 7dbc
00000050: 5e5a 233c c12c 933c 41c4 f23c 36df 4cbc
00000060: a682 d63c 9577 2f3c ff06 883b 81e0 cb3b
00000070: cd11 563b 51fb b73c fc96 793c c997 97bb
00000080: d2b8 a3bb 5f4c 643a 66c6 c5bc c907 043c
00000090: 8f03 96bc c580 fcba d8a0 98bc 1bef e5bc
000000a0: 0622 87bc d073 563a b3f0 22bd 31f7 ed3c
000000b0: 5b23 fe3b 3fbe d33c 7e9f 13bc ef80 1f3c
000000c0: d508 9bbc e41c efbc cda7 1a3d f6ab 603b
000000d0: 8b09 053d 82e6 373b 3c13 7abc 8548 ebbb
000000e0: 02d4 ad3c a148 87bc c393 1b3d 48d3 e5bc
000000f0: 21c8 04bc 7e72 103d 9a39 2abd bdaa 8e3b

base.mlp.fc2.0.0.weight f4 [64, 64]
-0.0376002 -0.28713968 -0.1476825 -0.03498166 0.16355547 0.03724568 0.108818114 0.093461536
-0.19810855 -0.16171013 0.13525471 0.024475861 0.09060215 -0.0915825 0.0058446545 0.033676036
0.19261196 0.40495217 -0.14180939 -0.3042949 0.021730922 -0.21340014 -0.37751302 0.06874686
0.20672329 0.036469772 -0.0001902917 0.1461577 0.0193659 0.061337974 -0.32589728 0.30832887
0.018908927 0.3262847 0.1439634 -0.12738714 -0.05813325 0.41029543 0.07134521 -0.264777
0.17847596 0.19192307 -0.24333641 0.1145249 -0.1045836 -0.09015113 0.074424125 -0.11606378
-0.2819952 0.016744716 -0.36623755 0.19477583 -0.12529948 0.09297046 -0.08070411 0.07819552
0.0529565 0.109338336 -0.2727636 -0.021719899 0.010808476 0.16634977 0.113982186 -0.06927281
0.11169383 -0.41166243 -0.050410185 -0.20683238 0.23148428 -0.17520319 0.10570675 -0.27248132
-0.27775243 -0.15356998 -0.087630235 0.0011493185 0.21525481 0.16590802 -0.20269924 -0.0381229
-0.078308865 -0.29980296 0.28064212 -0.011783861 0.12553306 0.0057111382 0.14045088 0.15793493
0.049140885 -0.118995264 0.08203647 -0.017751887 0.16625805 -0.2045047 -0.26887563 -0.27116555
-0.08804066 0.07602939 0.054568797 0.016668731 -0.19154853 -0.0049281856 -0.12764494 0.17215544
-0.0176039 -0.0029738115 -0.08157903 0.067734644 0.29029676 -0.059737016 -0.15949468 0.58109933
-0.17630683 0.056023605 0.09921301 -0.037408523 0.16555606 -0.12730157 -0.17583929 0.18554193
0.31943586 0.22698727 -0.094555385 -0.2835607 0.10740479 -0.041644722 -0.07275182 0.050372392
-0.095110305 -0.0071872845 0.057462696 -0.07745542 0.07159255 0.100969836 0.13409188 -0.10308334
0.04210993 0.2844868 0.4166007 -0.058339484 0.082191326 0.027687237 -0.21182592 0.13300888
-0.06333304 0.08212308 -0.033163585 0.055187985 -0.0057738055 -0.07539465 -0.21593976 -0.2048684
0.15414543 0.068475015 0.018891184 -0.18082501 0.07596044 -0.13549101 -0.028615389 0.39473647
0.0066732215 -0.15924159 -0.09855428 0.19737527 -0.05782723 -0.027139578 0.02418319 0.17214039
0.24073656 0.46126428 -0.038207356 0.08849982 0.3664362 0.24581033 0.31239453 0.07577407
0.28404593 -0.050525285 -0.010455483 0.19168396 -0.035594452 -0.22484334 -0.36557573 0.04224776
-0.19754413 -0.21098982 0.06503931 -0.033154957 0.032938063 -0.32601044 0.16189408 0.09542372
-0.11829878 -0.09686014 0.016857954 -0.21442486 -0.22827114 0.39080557 0.18911485 0.12683985
-0.11800922 -0.36193743 -0.090208285 0.057843883 -0.17771359 -0.025296167 -0.1949096 -0.1071716
-0.2671134 0.17493486 0.22571853 0.40317994 0.18134044 -0.0562733 0.007788036 0.13222454
0.08168854 0.29953942 0.2677325 0.17077368 -0.19926853 -0.0721431 0.1657582 -0.032378875
0.03885816 -0.11491552 -0.0055201952 0.107385024 -0.16351797 -0.007994261 -0.06366438 0.107736304
0.20362042 -0.22684953 -0.044357955 -0.2261351 -0.14784339 -0.006037557 -0.10695381 -0.22868972
0.22877437 -0.08872631 -0.0016126178 0.29100314 -0.24778134 -0.14665271 -0.2337094 0.12366961
-0.14270104 0.2228596 -0.26944074 -0.078719705 -0.17046557 0.05285744 -0.21972586 0.13194124
00000000: ab02 1abd f903 93be 153a 17be ee48 0fbd
00000010: 167b 273e ed8e 183d 08dc de3d c368 bf3d
00000020: f8dc 4abe 5797 25be 3680 0a3e 9a81 c83c
00000030: 9f8d b93d 9b8f bbbd 8484 bf3b e2ef 093d
00000040: 123c 453e e455 cf3e 7b36 11be 8bcc 9bbe
00000050: 0c05 b23c 9185 5abe 6349 c1be 27cb 8c3d
00000060: 45af 533e 5461 153d 0a89 47b9 5daa 153e
00000070: 3ca5 9e3c 873d 7b3d 02dc a6be 48dd 9d3e
00000080: e5e6 9a3c ca0e a73e 246b 133e c671 02be
00000090: 211d 6ebd 3e12 d23e 701d 923d da90 87be
000000a0: 67c2 363e 7b87 443e 2e2d 79be 088c ea3d
000000b0: ed2f d6bd 28a1 b8bd ad6b 983d d9b2 edbd
000000c0: ad61 90be 372c 893c 7d83 bbbe 5173 473e
000000d0: 824e 00be 4c67 be3d 3248 a5bd f924 a03d
000000e0: eae8 583d c7ec df3d aca7 8bbe eeed b1bc
000000f0: 0916 313c 9857 2a3e 7e6f e93d e7de 8dbd
00000100: bcbf e43d 6bc5 d2be e97a 4ebd decb 53be
00000110: 370a 6d3e 7768 33be c87c d83d ac82 8bbe
00000120: 9135 8ebe 7341 1dbe 7b77 b3bd bba4 963a
00000130: c26b 5c3e cbe3 293e 6490 4fbe c226 1cbd
00000140: 6660 a0bd c67f 99be 53b0 8f3e 1811 41bc
00000150: bd8b 003e 8024 bb3b 5bd2 0f3e b2b9 213e
00000160: f447 493d cab3 f3bd bd02 a83d 686c 91bc
00000170: 8d3f 2a3e ae69 51be 11aa 89be 36d6 8abe
00000180: a94e b4bd 4cb5 9b3d 8883 5f3d dd8c 883c
00000190: 4c25 44be 9e7c a1bb 5bb5 02be 8449 303e
000001a0: 0e36 90bc 47e4 42bb e812 a7bd 76b8 8a3d
000001b0: c7a1 943e cdae 74bd 9352 23be edc2 143f
000001c0: c789 34be 0279 653d 3130 cb3d ae39 19bd
000001d0: 8787 293e 585b 02be 370f 34be b4fe 3d3e
000001e0: 198d a33e 5a6f 683e 41a6 c1bd de2e 91be
000001f0: 0bf7 db3d a893 2abd e8fe 94bd 4853 4e3d
00000200: 31c9 c2bd 5083 ebbb 015e 6b3d f2a0 9ebd
00000210: 1d9f 923d 46c9 ce3d 624f 093e 5c1d d3bd
00000220: 767b 2c3d 41a8 913e b04c d53e 62f5 6ebd
00000230: ed53 a83d 58d0 e23c e5e8 58be 7b33 083e
00000240: c1b4 81bd 2530 a83d 8ad6 07bd cc0c 623d
00000250: 3132 bdbb 8368 9abd 501f 5dbe 06c9 51be
00000260: 4dd8 1d3e a13c 8c3d afc1 9a3c 312a 39be
00000270: 2691 9b3d 28be 0abe d26a eabc e61a ca3e
00000280: 0aab da3b 3a10 23be d4d6 c9bd be1c 4a3e
00000290: 3fdc 6cbd d253 debc d31b c63c 9245 303e
000002a0: a583 763e d52a ec3e 517f 1cbd 653f b53d
000002b0: 879d bb3e b4b5 7b3e 2df2 9f3e 702f 9b3d
000002c0: 786e 913e 9af3 4ebd 794d 2bbc cd48 443e
000002d0: 7dcb 11bd 553d 66be be2c bbbe fd0b 2d3d
000002e0: 0249 4abe b70d 58be 5433 853d 7ecd 07bd
000002f0: 10ea 063d d7ea a6be 90c7 253e 836d c33d
00000300: a146 f2bd 9c5e c6bd b119 8a3c 3192 5bbe
00000310: e9bf 69be ab17 c83e 53a7 413e 4ee2 013e
00000320: d1ae f1bd dd4f b9be 1fbf b8bd b5ed 6c3d
00000330: 8dfa 35be e839 cfbc 6296 47be c97c dbbd
00000340: 16c3 88be 2022 333e c222 673e 9a6d ce3e
00000350: 4fb1 393e d57e 66bd c832 ff3b df65 073e
00000360: 524c a73d 3b5d 993e 3c14 893e 4cdf 2e3e
00000370: 0d0d 4cbe c3bf 93bd 85bc 293e b69f 04bd
00000380: bc29 1f3d d458 ebbd c1e2 b4bb aeec db3d
00000390: 4171 27be 5cfa 02bc 7862 82bd daa4 dc3d
000003a0: df81 503e 3e4b 68be b0b0 35bd f68f 67be
000003b0: 4264 17be b3d6 c5bb 990a dbbd a32d 6abe
000003c0: d443 6a3e 24b6 b5bd 795e d3ba 5dfe 943e
000003d0: 64ba 7dbe 212c 16be 8451 6fbe 7e46 fd3d
000003e0: 3920 12be 4f35 643e 23f4 89be cc37 a1bd
000003f0: 878e 2ebe 0b81 583d d1ff 60be 9b1b 073e

base.mlp.fc2.0.0.bias f4 [64]
-0.007204882 0.036216646 -0.01524704 0.008076965 -0.026144184 -0.014012259 -0.035680167 -0.01945498
0.025651783 0.009294473 -0.008398433 -0.018109312 0.01247666 -0.030752912 -0.04134253 -0.0026676129
-0.0024517863 -0.0276914 -0.002372844 -0.0022454564 0.004476148 0.024423104 -0.005119466 0.009709649
0.03005705 -0.012652281 -0.0056639286 0.010558605 -0.0021841268 -0.010237206 -0.015075969 -0.018054161
-0.014645177 -0.0026232472 -0.0096824765 -0.02801159 -0.024800984 -0.01921063 -0.03442982 -0.047662273
-0.029783476 0.0037093626 0.043176867 -0.0010294705 -0.025776455 -0.009920479 0.01322724 -0.009671264
0.01763227 -0.011256506 -0.02244644 0.022290234 -0.015366467 0.026053159 -0.030986667 0.00032068838
0.012873952 0.01021459 0.0091051245 0.0026640638 0.02955122 -0.029795438 -0.01448163 -0.028473428
00000000: ee16 ecbb e857 143d b9ce 79bc 3f55 043c
00000010: 542c d6bc ad93 65bc 5e25 12bd 0d60 9fbc
00000020: b023 d23c d847 183c 9599 09bc fb59 94bc
00000030: e86a 4c3c 88ed fbbc c956 29bd 1ed3 2ebb
00000040: 26ae 20bb 13d9 e2bc b781 1bbb 8228 13bb
00000050: a7ac 923b f612 c83c 32c1 a7bb 3815 1f3c
00000060: 343a f63c 834b 4fbc 7a98 b9bb 00fe 2c3c
00000070: 9123 0fbb f4b9 27bc 3201 77bc 52e6 93bc
00000080: 53f2 6fbc c9ea 2bbb 40a3 1ebc 9078 e5bc
00000090: 6f2b cbbc 9c5f 9dbc 4806 0dbd 8439 43bd
000000a0: 7afc f3bc c718 733b 3ada 303d 4cef 86ba
000000b0: 2529 d3bc 8189 22bc 11b7 583c 3974 1ebc
000000c0: 8d71 903c 356d 38bc 99e1 b7bc 029a b63c
000000d0: a2c3 7bbc 6f6d d53c c0d7 fdbc 1122 a839
000000e0: 45ed 523c 185b 273c a92d 153c 9397 2e3b
000000f0: 6615 f23c 9015 f4bc 5c44 6dbc 1b41 e9bc

base.mlp.fc2.0.2.weight f4 [64]
1.04666 1.0608925 1.0145016 1.0505996 1.0150803 1.0435698 1.0326849 0.99094236
1.030392 1.0210243 1.0454957 1.0120723 1.0427898 1.0258448 1.0045729 1.0077035
1.0274533 1.0062337 1.0402095 1.0213206 1.0312117 1.0743787 1.0533776 1.0208064
1.0049714 1.0492464 1.0355835 1.0600791 1.0087222 1.055961 1.0201057 1.0303713
1.0627154 1.0076425 1.0391208 1.0364588 1.006162 1.0366708 1.008631 1.0231036
1.0068818 1.0510553 1.10749 1.0536189 1.0282066 1.0142193 1.0325989 1.0477693
1.0438503 1.0393764 1.0164765 1.062701 1.0346553 1.0700938 1.0257245 1.0458783
1.0570645 1.0451839 1.0931094 1.0282222 1.0304856 1.0124186 1.0460122 1.0212619
00000000: f4f8 853f 53cb 873f 30db 813f 0c7a 863f
00000010: 27ee 813f b293 853f 052f 843f 66ae 7d3f
00000020: e3e3 833f edb0 823f ced2 853f 968b 813f
00000030: 237a 853f e24e 833f d895 803f 6efc 803f
00000040: 9783 833f 44cc 803f 9625 853f a2ba 823f
00000050: bffe 833f 3e85 893f 14d5 863f c9a9 823f
00000060: e7a2 803f b54d 863f 008e 843f acb0 873f
00000070: cf1d 813f bb29 873f d392 823f 35e3 833f
00000080: 0f07 883f 6efa 803f e901 853f afaa 843f
00000090: ebc9 803f a1b1 843f d21a 813f 0ff5 823f
000000a0: 81e1 803f fb88 863f 3bc2 8d3f fcdc 863f
000000b0: 469c 833f f0d1 813f 332c 843f 4e1d 863f
000000c0: e39c 853f 490a 853f e71b 823f 9606 883f
000000d0: 966f 843f d5f8 883f f14a 833f 57df 853f
000000e0: e44d 873f 96c8 853f 02eb 8b3f c99c 833f
000000f0: f4e6 833f ef96 813f bae3 853f b6b8 823f

base.mlp.fc2.0.2.bias f4 [64]
-0.046834383 0.042516213 -0.001868769 -0.03958129 0.0368275 -0.04367887 -0.039744165 -0.0047190017
0.04012949 0.03650657 -0.041980058 -0.037138775 0.024711782 -0.039595492 0.018513832 -0.006807572
0.04147422 -0.034619126 -0.04438061 0.018224254 -0.030101249 0.045741506 -0.046170264 0.03974953
0.03381298 -0.045410346 0.041483812 -0.044803623 0.034560334 -0.042851675 -0.04077433 -0.04303404
-0.04064568 0.030224435 -0.042634916 -0.041039597 0.0021880253 -0.042398944 -0.015281127 0.0146298
-0.033791278 0.018680163 0.046312217 -0.04306256 0.040423084 0.03769505 0.040445816 -0.029819451
0.04201125 -0.035316736 -0.032951668 -0.026852556 -0.03591237 0.04527253 -0.04039239 -0.041589733
0.044726 0.046304937 -0.04612536 0.042718004 0.03737769 -0.011626201 -0.036525153 -0.040497348
00000000: 69d5 3fbd 7b25 2e3d 7bf1 f4ba fe1f 22bd
00000010: 6fd8 163d 9de8 32bd c7ca 22bd dba1 9abb
00000020: d25e 243d ea87 153d 48f3 2bbd d41e 18bd
00000030: 5d70 ca3c e22e 22bd 52aa 973c 0e12 dfbb
00000040: dfe0 293d c9cc 0dbd 71c8 35bd 084b 953c
00000050: e596 f6bc 725b 3b3d 081d 3dbd 67d0 223d
00000060: 7b7f 0a3d 3300 3abd eeea 293d 0184 37bd
00000070: 238f 0d3d 3d85 2fbd fc02 27bd 7644 30bd
00000080: 167c 26bd 3c99 f73c f3a1 2ebd 2319 28bd
00000090: f964 0f3b 84aa 2dbd b15d 7abc d4b1 6f3c
000000a0: b968 0abd 2407 993c e1b1 3d3d 5e62 30bd
000000b0: ad92 253d 2066 1a3d 83aa 253d ec47 f4bc
000000c0: fd13 2c3d 48a8 10bd 54f8 06bd e4f9 dbbc
000000d0: d918 13bd b06f 393d 7e72 25bd ff59 2abd
000000e0: 9c32 373d 3faa 3d3d f2ed 3cbd 13f9 2e3d
000000f0: 5919 193d d27b 3ebc 669b 15bd 8ce0 25bd

act.action_out.fc_mean.weight f4 [1, 64]
-0.032973144 0.044913728 -0.010349232 -0.03792149 0.012559774 -0.034126215 -0.024845665 -0.0015642773
0.02842132 0.014776729 -0.03203337 -0.012490116 0.030102728 -0.017864363 0.008483752 0.0035889198
0.019685777 -0.0031453364 -0.029946873 0.01938144 -0.02399566 0.057241328 -0.040209536 0.014003387
0.004301538 -0.03511856 0.02657292 -0.042961042 -0.0019054459 -0.044041168 -0.009422539 -0.019889483
-0.045212608 0.00467637 -0.03240233 -0.030130964 0.009623799 -0.028375674 -0.010218819 0.01768728
-0.0065845144 0.03520792 0.08140664 -0.038091835 0.022930227 0.012260467 0.028160652 -0.032853547
0.03559209 -0.027576616 -0.00077999645 -0.042740963 -0.029146606 0.054853823 -0.01857756 -0.03677245
0.04264181 0.034345303 -0.06950867 0.024939923 0.02493082 -0.012675096 -0.035564743 -0.018199028
00000000: d90e 07bd 75f7 373d d38f 29bc 9053 1bbd
00000010: 83c7 4d3c eec7 0bbd 2389 cbbc 7008 cdba
00000020: d4d3 e83c 181a 723c 6c35 03bd 58a3 4cbc
00000030: ff99 f63c 4958 92bc 6fff 0a3c 1534 6b3b
00000040: 1144 a13c fd21 4ebb 2553 f5bc d3c5 9e3c
00000050: 8c92 c4bc e275 6a3d c1b2 24bd 766e 653c
00000060: ebf3 8c3b 7bd8 0fbd 74af d93c ebf7 2fbd
00000070: 28c0 f9ba 8364 34bd fe60 1abc 45ef a2bc
00000080: db30 39bd 3c3c 993b 4eb8 04bd 36d5 f6bc
00000090: 23ad 1d3c 1a74 e8bc d56c 27bc eae4 903c
000000a0: e9c2 d7bb 2e36 103d 86b8 a63d 2f06 1cbd
000000b0: 2cd8 bb3c 20e0 483c 2bb1 e63c 7191 06bd
000000c0: 03c9 113d 5be8 e1bc ad78 4cba 2611 2fbd
000000d0: ddc4 eebc 67ae 603d f82f 98bc b59e 16bd
000000e0: 2ea9 2e3d a9ad 0c3d 905a 8ebd cf4e cc3c
000000f0: b83b cc3c 35ab 4fbc 56ac 11bd 2116 95bc
