checkpoint/best_mappo_seed114_run20260211_185546_envmamujoco-ant-2x4_ep7200_agent0_actor.pt (torch, 42965 bytes, 13 tensors)

base.feature_norm.weight f4 [63]
000000 0b 58 7b 3f b7 77 64 3f ba 05 84 3f e1 40 80 3f
       0.9818122 0.8924517 1.0314248 1.00198
000010 23 d2 7c 3f 1c ea 81 3f c9 01 71 3f d6 86 75 3f
       0.98758143 1.014957 0.9414335 0.9590887
000020 24 81 81 3f 69 3b 7d 3f 82 95 85 3f 47 23 79 3f
       1.0117536 0.9891878 1.0436251 0.97319454
000030 38 70 89 3f 4a 71 85 3f d5 84 8f 3f 04 37 95 3f
       1.0737371 1.0425198 1.1212412 1.1657414
000040 29 0f 80 3f 79 55 95 3f 6a c8 82 3f 00 af 91 3f
       1.0004627 1.1666709 1.0217412 1.1381531
000050 92 d2 84 3f 6b dd 6c 3f 40 0d 81 3f 37 a4 81 3f
       1.0376761 0.92525357 1.0082169 1.0128239
000060 66 2a 71 3f 55 69 84 3f f7 22 8b 3f 98 7e 83 3f
       0.9420532 1.0344645 1.0870045 1.0273008
000070 15 a0 83 3f f2 26 7c 3f 7a c0 82 3f 57 25 86 3f
       1.0283228 0.98496926 1.0214989 1.0480145
000080 54 c8 86 3f d0 28 84 3f 59 9c 98 3f c9 12 8a 3f
       1.0529885 1.0324955 1.1922714 1.0786983
000090 17 68 80 3f 7d cc 85 3f 69 98 7a 3f 66 f9 90 3f
       1.0031766 1.045303 0.9788881 1.132611
0000a0 23 c4 80 3f e5 6a 70 3f ba ef 76 3f 71 e7 84 3f
       1.0059856 0.9391311 0.96459544 1.038313
0000b0 f8 08 81 3f 37 08 85 3f aa e5 80 3f 51 10 86 3f
       1.0080862 1.0393132 1.0070088 1.0473729
0000c0 8b 11 93 3f 42 c7 76 3f 80 68 86 3f 76 a6 8e 3f
       1.1489729 0.96397793 1.0500641 1.114455
0000d0 80 c6 81 3f f9 3b 7a 3f 59 d8 8f 3f fe 85 86 3f
       1.0138702 0.9774776 1.1237899 1.0509641
0000e0 de 7b 91 3f 63 c7 89 3f 27 cc 81 3f 6f 7d 89 3f
       1.1365926 1.0763973 1.0140427 1.0741404
0000f0 e1 28 78 3f 99 f3 83 3f 68 d4 80 3f
       0.96937376 1.0308715 1.0064821

base.feature_norm.bias f4 [63]
000000 c7 59 68 bd df 47 d1 ba 73 74 4c 3b 44 f9 59 3d
       -0.056726243 -0.0015966854 0.0031197339 0.053216234
000010 ba 9a bf 3b 3f dc f0 3c 57 47 43 3d a3 4b 57 3d
       0.0058473023 0.029401897 0.047675457 0.052562367
000020 23 3d 3a bb c4 1c 36 3c 20 ae d3 bc e0 8f cf bd
       -0.0028417788 0.011115257 -0.025839865 -0.10134864
000030 45 75 18 3a 6d e0 35 3c f4 46 99 bc be 60 ac bc
       0.00058158144 0.011100871 -0.01871059 -0.021042224
000040 7d ff 90 bc 66 c4 6a 3c ed f4 8d 3b d1 7a 00 3c
       -0.017699951 0.014329052 0.004332176 0.007841782
000050 b8 1b 75 3b 11 15 6f 3d f5 ea 57 3c f3 14 fa bc
       0.0037400555 0.0583697 0.013178577 -0.030527567
000060 b1 1c 93 bb 36 2c ff 3c 31 70 38 3c f1 c2 0e bb
       -0.0044895043 0.031149011 0.011257217 -0.0021783675
000070 7b 75 46 bc 5e b0 3b 3c 7a da 9d bd 1f 8f e4 3d
       -0.01211297 0.011455623 -0.07707687 0.11160111
000080 9b 27 69 bd 97 71 b8 3c 25 34 92 3c d5 b2 b5 bc
       -0.056922536 0.022515101 0.01784713 -0.02218
000090 94 41 41 bc 4b 25 7c 3d ba 1c 5e bd a4 9a 1e 3c
       -0.01179542 0.061559003 -0.054226615 0.009680424
0000a0 6a 11 fb 3c b3 2b 1a bd 38 43 ba bc 4a a3 c8 bc
       0.030647952 -0.03763933 -0.02273713 -0.024491925
0000b0 6a 31 f9 3b e1 66 80 3b 77 c4 17 3d 31 ef 9b bd
       0.0076047676 0.003918514 0.037052598 -0.076139815
0000c0 d5 44 9b 3c 68 c6 dd bc 09 8f be bb 4a 6b f6 bc
       0.01895372 -0.027072147 -0.005815391 -0.030080456
0000d0 6a 84 d2 bc ec 16 8a bd 91 3e 0d 3d 94 88 ce 3c
       -0.025697906 -0.06742653 0.034483496 0.02521161
0000e0 5f 78 76 3c ed a5 82 3d 03 f9 d5 bc 65 92 3d 3d
       0.015043347 0.06379304 -0.026119715 0.04628219
0000f0 fa 02 82 3c 0b 7b c4 3c ad 74 88 bd
       0.01587056 0.023984453 -0.06662879

base.mlp.fc1.0.weight f4 [64, 63]
000000 63 2b 6e 3e c1 c1 d7 3d 50 84 9c 3d 6f a7 a7 bd
       0.23258738 0.105350025 0.07642424 -0.08186232
000010 21 43 f2 bc c6 f7 a7 3d ce 66 06 be 91 1a bf bd
       -0.029573025 0.08201556 -0.13125154 -0.09331239
000020 80 7d 0b be c6 75 05 be 4d 67 d6 be c7 0a cc bd
       -0.13622093 -0.13033208 -0.41875687 -0.09962993
000030 2b 27 9a 3d 86 dd 4f be c3 d3 f4 bb d0 c4 7c be
       0.07527002 -0.20299348 -0.007471533 -0.24684453
000040 05 6f fc 3b c7 27 26 be b1 d5 2b 3e 5a ab 06 3e
       0.0077036642 -0.16226111 0.16780736 0.13151303
000050 77 3a a0 bd 3f c7 27 3c ab 27 8d be 1d b1 8f 3e
       -0.07823651 0.010240375 -0.27569327 0.28064814
000060 13 25 b2 bb 6f cc fc 3c 88 bd 07 bd 18 f2 f6 3e
       -0.0054365485 0.0308592 -0.033139735 0.48231578
000070 86 fd 85 3e 52 07 f9 3d b1 fa 9a 3e f8 c2 98 3d
       0.26169986 0.12159599 0.30269387 0.07459062
000080 90 6f f8 be 4f 57 4a be b2 1d 83 3d e1 d0 5e 3e
       -0.48522615 -0.19759868 0.06402148 0.21759368
000090 38 e8 de bd f1 7f af bd eb 2d 60 3e 17 1e ae 3d
       -0.10884136 -0.08569325 0.21892516 0.08501833
0000a0 4f 27 e5 bd 60 05 bd 3e 50 cc 62 3d 0b f3 dc bd
       -0.11189138 0.36918163 0.05537063 -0.10788544
0000b0 64 af 03 3e e9 c4 c2 bd ec fa 6c 3b 42 bc 6c 3d
       0.12859875 -0.09510214 0.0036160303 0.057796724
0000c0 13 d8 02 3e 12 b8 d5 bd fe a8 8b 3e 58 8b 19 bd
       0.12777738 -0.10435499 0.27277368 -0.037486404
0000d0 75 7e f8 3d f6 da 59 be 1f 5f 82 3d bf 12 38 3e
       0.12133495 -0.21274933 0.06365799 0.17975901
0000e0 d3 d9 21 bc 0f 6a 8a 3d 04 25 9d be 5e 27 90 3d
       -0.0098785935 0.0675851 -0.30692303 0.07038759
0000f0 23 b0 ae 3d ff 8c 18 be 2e 9e 0d bc b1 37 b8 bd
       0.08529689 -0.14897536 -0.00864367 -0.08994997
000100 3f f0 84 be 87 a8 93 bd 04 03 3e bd ce 03 73 be
       -0.25964543 -0.072098784 -0.046389595 -0.2373192
000110 4e cf bf 3d 9b 92 17 bd ff 15 49 be dc c5 64 3d
       0.09365712 -0.03700505 -0.19637297 0.055852756
000120 51 67 2a 3d 82 46 93 bd 61 62 8c 3e 1e 30 b3 3e
       0.041602436 -0.07191183 0.27418807 0.34997648
000130 bf 05 9d 3a 93 12 a9 bd 7d 86 c2 bd dc e0 86 3e
       0.0011979862 -0.08255496 -0.09498308 0.2634343
000140 49 18 dc be 8c ee 45 bc 8d f1 49 3d 92 3b 23 3e
       -0.42987278 -0.0120808 0.049302626 0.15940693
000150 5d b0 a8 bd 37 34 46 bd 46 06 72 bd 81 96 8b bd
       -0.082367636 -0.04838964 -0.059088014 -0.06815816
000160 19 88 6e 3d 06 fb 34 be e8 90 30 3d 29 2a a4 bd
       0.05823526 -0.17673883 0.043106943 -0.08015854
000170 1c bd 19 bd f6 7d 3c 3e 59 b1 a0 bd b5 46 66 3e
       -0.037533864 0.18407425 -0.078463264 0.2248791
000180 70 04 74 3e 83 e0 7a 3e 15 43 30 3e 54 02 50 be
       0.23829818 0.24499707 0.1721309 -0.20313388
000190 a5 60 93 be 08 5f 7c be 13 54 a7 be 84 3f e8 bd
       -0.2878467 -0.24645627 -0.3268133 -0.1134024
0001a0 3d 52 85 3e a3 7d f7 3d 48 44 c0 3d f1 8e 6e be
       0.26039305 0.1208451 0.093880236 -0.23296715
0001b0 de 4d 68 3e 17 99 b7 bb 2b 9c 68 3e f7 b1 23 3c
       0.22685954 -0.0056029665 0.22715823 0.009991161
0001c0 12 c4 aa bd 6c 10 8a be df c3 5a 3e de a1 86 3e
       -0.08338179 -0.26965654 0.21363781 0.2629537
0001d0 28 84 31 be e9 97 c5 be 47 13 9b 3d 91 49 2b 3d
       -0.1733557 -0.3859246 0.07572036 0.041818205
0001e0 b3 62 42 be 54 90 b8 bc 55 d2 a6 3d ab 01 9c be
       -0.18982963 -0.022529759 0.081455864 -0.30470023
0001f0 ed 5b c6 bd 6b ac 09 be 6b f3 4d 3e 90 72 96 3d
       -0.09685502 -0.13444678 0.20112388 0.0734607
000200 49 95 01 be 3b 2d 15 be 51 15 7c 3e c7 2c 89 bd
       -0.12654604 -0.14568035 0.24617507 -0.06697994
000210 32 28 b1 bc a1 c2 93 3e fd cc 93 3e ad 98 2c 3d
       -0.021625612 0.28859428 0.2886733 0.04213779
000220 b8 69 e2 3d 7a ef 73 3e 48 86 f9 bd 55 e0 a6 be
       0.110553205 0.23821822 -0.12183815 -0.32593027
000230 fc 97 ae bd af 5b 2a 3e a0 89 13 3d 25 fb cf 3d
       -0.085250825 0.16636537 0.03601992 0.10155324
000240 33 20 aa 3d 70 85 b5 3c 99 49 b4 3d 03 22 1a 3d
       0.08306923 0.022158355 0.088031 0.037630092
000250 0d 3c fd 3d 28 c3 7d 3e 73 9c 0c 3e e9 6f b2 3d
       0.123649694 0.24781477 0.13731556 0.087127514
000260 41 62 60 3e 9d 89 cd 3d 64 6e bd be 4a 6d bc 3d
       0.21912481 0.10036013 -0.36998284 0.09200533
000270 a5 1e e0 3d 59 cb 84 bc db 96 13 3e 6a d2 0c 3e
       0.10943345 -0.016210245 0.14413016 0.13752142
000280 10 df d2 3e de bf c8 3d df 87 11 bc c9 5e c6 3c
       0.41185808 0.09802221 -0.008882492 0.024215119
000290 37 d7 d2 bd b4 9f 0e 3e 8c 1f 08 3c c2 0d 09 3e
       -0.10294955 0.1392811 0.008308303 0.13384154
0002a0 f7 76 ff bd e5 d3 92 be 36 89 25 3e a7 63 35 be
       -0.124738626 -0.28677288 0.16165623 -0.17713796
0002b0 4e ed 82 be 99 27 a6 be ee 93 ae bd 72 5d a4 3d
       -0.25571674 -0.32452086 -0.08524309 0.08025636
0002c0 67 ca 8e 3e 9a c6 a5 3e ce 8d bb bd cf bc 25 3e
       0.27888796 0.32378083 -0.091579065 0.16185306
0002d0 be a9 96 3d 4a f5 e8 3d 7e 63 61 bd f4 27 a6 be
       0.073565945 0.1137491 -0.055026524 -0.32452357
0002e0 33 d0 4f be 32 c9 80 ba 0c 17 36 bd 58 ac 02 be
       -0.20294265 -0.0009825586 -0.044455573 -0.12761056
0002f0 2d fd 0b bf 1d d9 7f bc b7 f3 e9 bb 4a 4f 2e 3e
       -0.5468319 -0.015615729 -0.007139649 0.17022434
000300 65 b5 a8 3e 95 06 08 be 24 6b 8d bd 68 43 30 3d
       0.32950893 -0.13283761 -0.06905201 0.043033034
000310 11 a8 32 bd 4e d5 b0 3e a9 32 8f bd e0 73 19 bc
       -0.043617312 0.3453774 -0.069920845 -0.009366006
000320 d8 5a a3 3d d7 68 96 bc 48 4f a8 3e 42 93 bd 3e
       0.079763114 -0.018360538 0.32872987 0.3702641
000330 6d 65 e8 bb cb a3 a6 bd 00 be 94 bd 84 d7 58 be
       -0.007092169 -0.0813671 -0.07262802 -0.21175963
000340 96 15 5f bd fd e3 77 bb cd f0 5b 3d 83 81 85 be
       -0.054463945 -0.00378251 0.053696442 -0.26075372
000350 ee f7 52 be f7 cc 34 3e 89 e2 50 3e 1b 08 59 be
       -0.2060239 0.17656313 0.20398916 -0.21194498
000360 67 d5 c8 3e 8a 70 37 3e b6 f2 6c bd a9 13 02 3e
       0.39225313 0.17914024 -0.057848655 0.12702812
000370 54 d1 36 3d 01 ef 06 bd f9 ca 0f 3e 1e f6 1d 3e
       0.044633225 -0.032942776 0.14042272 0.15425918
000380 4c 20 60 3e 82 72 84 be 75 83 4f 3d 42 e8 4d 3e
       0.2188732 -0.25868613 0.050662477 0.2010813
000390 9d ea 13 ba e2 1a 05 be 6d 42 5f be 8f 07 1f be
       -0.0005642565 -0.12998536 -0.21802683 -0.15530227
0003a0 5f d9 c4 bd fd f6 20 3d 8b f8 d1 3d ae 15 20 3d
       -0.09611773 0.039298046 0.10252484 0.039083175
0003b0 6f 7d 08 bf 0c 6c 59 3e 01 53 87 3d 24 f3 7b 3c
       -0.53316396 0.21232623 0.066076286 0.015377793
0003c0 d4 81 4f be 27 1a d6 3c 61 a3 15 3d 0c a0 86 3e
       -0.20264369 0.026135517 0.036532763 0.2629398
0003d0 fb a0 b4 bd 41 86 f2 bd cc 77 c5 be ae 62 99 3e
       -0.08819767 -0.11842013 -0.3856796 0.299581
0003e0 91 f8 2e 3e 01 ea 8b bd ec 63 18 3d 3c f3 d6 bd
       0.17087008 -0.06831742 0.037204668 -0.10495612
0003f0 6c fc 33 3e 5e 1f 03 be ce 0a 30 be ff 87 f6 be
       0.1757676 -0.12804934 -0.17191622 -0.48150632

base.mlp.fc1.0.bias f4 [64]
000000 c1 e2 73 bc 81 06 82 bd 09 ce da bb a1 0b 20 3d
       -0.014885605 -0.06348897 -0.0066773933 0.03907359
000010 6d 1c 33 bd 2e cc 99 bb d9 c0 84 bc b4 e2 8f 3c
       -0.04372828 -0.0046935296 -0.016205238 0.017564155
000020 73 51 68 3c 46 39 29 bb d4 d9 7c bd 87 01 34 bd
       0.014179575 -0.002582149 -0.061731175 -0.04394677
000030 ee 8b a8 3c b7 c6 54 bb ba 04 ad 3b b3 60 3f 3d
       0.020574536 -0.0032467076 0.0052801045 0.04672308
000040 3d 3b a7 3c cd 3a 9e 3c 37 89 58 3c e7 a7 48 3d
       0.02041399 0.019315148 0.013216308 0.04898825
000050 c1 e3 14 bc 3a 18 6c bb 43 a9 e8 bc b1 17 8e 3c
       -0.009087504 -0.0036025182 -0.028401023 0.017345281
000060 dd b1 df 3c e1 d4 aa 3c 68 0c 38 3c ed 10 a3 bd
       0.027306492 0.020853462 0.011233427 -0.07962213
000070 89 4c 17 bd 93 b4 4b bc 3c a5 0c 3c ff 59 7b 3b
       -0.036938224 -0.012433189 0.008584317 0.0038353202
000080 82 e0 81 3c a2 91 4b 3b 5e c9 71 3d 11 47 c8 bb
       0.015854124 0.0031062146 0.05902993 -0.0061119874
000090 4a 51 88 bd 13 03 af 3c 73 85 be bb 7e d0 26 bd
       -0.0665613 0.02136377 -0.005814248 -0.040726177
0000a0 5d 82 69 bc dc 3b b0 bc de 9f fd bd 33 84 c0 bd
       -0.014252272 -0.021512918 -0.12384008 -0.09400215
0000b0 e2 b5 22 3d b0 0a 30 bc 9e 13 47 3d 27 1b e8 3c
       0.03972424 -0.010744736 0.048602693 0.02833326
0000c0 7b 60 b5 3c fb 94 ce 3c bd db 00 3d b5 1c 04 3d
       0.022140732 0.025217524 0.03145956 0.03225394
0000d0 04 29 2e 3d 68 11 d2 bc e1 ea a0 bd fd 55 ca bd
       0.042519584 -0.025643066 -0.078572996 -0.09879682
0000e0 cf ee 9a bc 76 1d a8 3c 76 0c da 3c a6 5f 81 3d
       -0.018912701 0.02052186 0.02661727 0.063170716
0000f0 55 41 28 bd 14 0c a4 3b 59 32 95 3d 17 16 b2 bb
       -0.04107793 0.0050063226 0.07284994 -0.005434762

base.mlp.fc1.2.weight f4 [64]
000000 19 62 77 3f 68 fc 80 3f 72 f1 81 3f fb 19 82 3f
       0.9663406 1.0077028 1.0151808 1.0164179
000010 1f f5 7b 3f ab d1 79 3f ff 02 7a 3f be d4 80 3f
       0.984209 0.9758555 0.9766082 1.0064924
000020 7c 75 86 3f bc 7c 78 3f 31 e4 6e 3f 57 e6 74 3f
       1.0504603 0.9706533 0.9331694 0.9566397
000030 f0 4f 86 3f f7 0e 81 3f 27 12 84 3f 66 4d 86 3f
       1.0493145 1.0082692 1.031804 1.049237
000040 71 fc 81 3f b4 90 85 3f e7 69 7b 3f e1 0c 82 3f
       1.0155164 1.0434785 0.9820847 1.016018
000050 59 6c 7c 3f 6f ba 88 3f 87 c2 81 3f 2b 0f 86 3f
       0.98602825 1.0681895 1.013749 1.0473379
000060 df af 85 3f b0 44 84 3f ba 09 80 3f 0f 4e 82 3f
       1.0444297 1.0333462 1.0002968 1.0180072
000070 3e 6b 78 3f 31 53 7a 3f 1b ed 75 3f 94 78 81 3f
       0.9703864 0.9778319 0.9606492 1.0114923
000080 55 2e 75 3f 24 88 85 3f e0 08 8a 3f f0 0e 81 3f
       0.9577382 1.0432172 1.0783958 1.0082684
000090 76 39 67 3f 70 f9 8b 3f 0d 92 81 3f d5 51 7f 3f
       0.90322053 1.0935497 1.0122696 0.9973424
0000a0 86 b6 84 3f 4b 4a 7f 3f f2 07 6c 3f cf ca 75 3f
       1.0368202 0.9972274 0.92199624 0.96012586
0000b0 bc 8b 82 3f 9d 15 77 3f 3d 9a 78 3f 4b b6 83 3f
       1.0198894 0.96517354 0.9711035 1.0290006
0000c0 96 f2 7f 3f 7f c5 86 3f 2d f5 75 3f 56 df 83 3f
       0.9997953 1.0529021 0.96077234 1.0302532
0000d0 31 6f 7e 3f 92 c2 7a 3f 33 ff 70 3f 8c c5 6c 3f
       0.99388415 0.9795314 0.94139403 0.9248893
0000e0 3b da 77 3f 7a 1b 89 3f 90 07 81 3f b6 4b 84 3f
       0.9681737 1.071151 1.0080433 1.0335605
0000f0 37 0d 83 3f 06 4a 88 3f e9 5a 87 3f d3 df 82 3f
       1.0238408 1.064759 1.0574619 1.0224556

base.mlp.fc1.2.bias f4 [64]
000000 20 94 73 3a f1 06 15 bd d6 18 6d 3c 7a 9a d3 39
       0.00092917867 -0.036383573 0.014471253 0.0004036015
000010 a9 16 0c bb a6 9c 2e bb 1e ce 66 3c 5e 31 ce 3b
       -0.0021375811 -0.0026643663 0.014087228 0.006292506
000020 1d e6 a5 ba 44 a4 af bb a0 90 54 bd 30 43 5b 3c
       -0.001265708 -0.005360158 -0.051895738 0.013382718
000030 a7 10 98 3c cc 30 43 bc 98 21 56 3c fc 82 32 3c
       0.018562628 -0.01191349 0.013069533 0.010895487
000040 42 7a 75 3d 68 50 1d 3c 30 ba c8 3c 3b 99 c4 3c
       0.059931047 0.00960169 0.024502844 0.023998847
000050 ef 1e a4 3a 75 8b dd 3c 82 e1 22 bd 7c 41 22 3c
       0.0012521426 0.027044037 -0.039765842 0.009903308
000060 42 26 a4 3a d1 2d a4 bb 1f 3a 19 bd 80 43 cd bc
       0.0012523609 -0.0050103446 -0.037408944 -0.0250566
000070 7f 16 1b bd 3b 0c a7 3c 00 e5 46 3d e5 ef ad 3c
       -0.03786325 0.020391574 0.048558235 0.021232555
000080 ee 12 06 3c 51 0b 13 bd 6c a4 d9 3c 63 cc 78 bc
       0.008183224 -0.035899464 0.02656766 -0.015185448
000090 75 43 98 3c 2f 24 c1 ba e2 2e 89 bc 6e 4a 4c bd
       0.018586854 -0.0014735515 -0.016745988 -0.04987567
0000a0 76 b4 b9 bb c3 21 c0 bc 0b 39 15 bd 57 f6 07 bd
       -0.0056672646 -0.023453599 -0.036431354 -0.033193912
0000b0 d1 72 0c 3d 43 48 47 3c 47 ed 85 3d 93 eb 16 3d
       0.034289185 0.012163225 0.06539398 0.036845755
0000c0 bc 4e ee 3c 04 75 b0 3c cf 1d 10 3d f8 8c 52 3c
       0.029090278 0.021540172 0.035184678 0.012850992
0000d0 e0 ee 83 3c 01 c3 4b bd 33 78 9f bc 66 ad fc bc
       0.016105115 -0.049746517 -0.019466495 -0.030844402
0000e0 ae 9a a0 3c 1b 8b 0a bd 8a 4a fd 3c be d5 23 3d
       0.019605007 -0.033824068 0.030919332 0.039998762
0000f0 fd 01 c7 bc 11 58 60 bb 74 3f 7a 3d 02 7c 89 bc
       -0.02429294 -0.003423218 0.06109567 -0.016782764

base.mlp.fc2.0.0.weight f4 [64, 64]
000000 b3 41 6d 3e 34 0c 62 3d bf 20 56 be 41 8a 4e 3c
       0.23169594 0.05518742 -0.20910929 0.0126062045
000010 fa a7 08 3e 0c de 33 be 02 0d 45 3e 87 ac d0 3d
       0.13345328 -0.17565173 0.19243243 0.10189157
000020 e1 6d 5b bd f3 44 0e 3e 95 cc b0 3d 8b 61 99 3c
       -0.053571586 0.1389349 0.08632771 0.01872327
000030 c6 be 67 3d 50 2f 57 bd f5 dd 10 3e a5 a4 f9 3d
       0.05657842 -0.052535355 0.1414717 0.121896066
000040 92 74 40 3d 93 6e 06 be 34 16 c9 3c f5 ff c3 bd
       0.04698617 -0.13128118 0.02454672 -0.09570304
000050 f1 dd 9e 3e 76 0b 86 3e 5b 8d 34 3e db 5c 97 be
       0.31028703 0.2618062 0.17632048 -0.2956303
000060 12 68 35 be fe 6d e5 3d e5 ff 9a 3d 36 f3 f4 bd
       -0.17715481 0.1120262 0.07568339 -0.11960451
000070 43 be b2 be cc 2f 80 bd 15 13 68 be 5a a3 2c 3e
       -0.34910783 -0.062591165 -0.22663529 0.16859189
000080 92 17 11 3e 17 6a 0b be 4e 38 95 be 3f 2d ab bd
       0.14169148 -0.13614689 -0.2914452 -0.083582394
000090 85 db 72 3d a3 9c 80 3e fe d9 eb 3c a3 ca 68 3e
       0.05929138 0.25119504 0.02879047 0.2273355
0000a0 73 e6 ab 3e a2 41 1f bd 64 dd 39 3e 70 6d da bd
       0.33574256 -0.03888095 0.1815086 -0.10665405
0000b0 b2 12 48 3d 4a 3b 0e 3e ea 11 1b 3e 15 04 27 be
       0.048845954 0.13889804 0.15143552 -0.16310151
0000c0 56 2d c4 3d d4 d8 36 3c c3 b2 bf bd 01 27 51 be
       0.0957896 0.011160094 -0.09360268 -0.20425035
0000d0 f4 8c 11 3e da 80 d0 3e d5 8e 90 3a 06 b0 9c bd
       0.14213926 0.40723306 0.0011028895 -0.07650761
0000e0 ef 43 ae 3e 51 2b 3f 3e 28 2f 97 3e 39 8d 3f 3e
       0.34036204 0.18668868 0.29528165 0.18706216
0000f0 9b 40 fc 3d 11 6c d1 3d 8b 06 93 be 3d e0 0d 3d
       0.1231701 0.1022569 -0.2871593 0.03463768
000100 7c 57 80 bd be 62 56 3c f7 21 1b be f0 d6 b4 bd
       -0.06266686 0.013085065 -0.15149675 -0.088300586
000110 19 44 17 bc a1 d9 9d bd c2 1a 40 3e 65 cd 42 3d
       -0.009232544 -0.07707525 0.18760207 0.04755916
000120 7a 99 f3 3d 61 87 96 3c 05 10 04 3e 65 74 8a 3e
       0.11894508 0.0183751 0.12896736 0.27041927
000130 50 5f 4e 3d 65 13 15 3e 6c c5 ae bd c5 9f 9d bc
       0.050383866 0.1455818 -0.08533749 -0.019241223
000140 07 b5 48 be 99 d4 ab 3e c2 ee d7 3e 40 47 8c 3e
       -0.19600306 0.33560637 0.42174345 0.2739811
000150 18 ac 40 3c 0d 54 35 3e 62 b1 47 be bb 5d 8d 3d
       0.01175978 0.17707844 -0.1950126 0.06902643
000160 51 3d e6 3b 10 66 8e bd 50 69 ba be 93 c2 90 3d
       0.0070263525 -0.069530606 -0.36408472 0.07068362
000170 d4 d4 9a bc 8e fa 91 bb 1f ce c3 bd b0 65 96 3e
       -0.018900312 -0.0044549173 -0.09560799 0.29374456
000180 bc 6c 1a be d9 4d 63 be 7c 1e 2d be 8a 68 23 3e
       -0.15080541 -0.22197665 -0.1690616 0.15957847
000190 1d 4b 4c 3d 9a 74 76 3d 11 00 25 be 30 5f 6c 3c
       0.04987632 0.060169794 -0.16113307 0.014426991
0001a0 f2 bc b6 be c4 c8 a0 3d 87 4d 3b be dc 68 9c be
       -0.3569103 0.07850793 -0.18291293 -0.3054875
0001b0 a2 b7 c9 bd 67 71 3a be 18 11 dd bc b0 4f ce 3d
       -0.09849478 -0.18207322 -0.02698569 0.10073793
0001c0 af 63 0d 3f 10 50 3b 3d 8c 2b 8a be 2f 51 02 3e
       0.5523023 0.04573065 -0.2698635 0.12726282
0001d0 8f 3b 84 bc de 8a 6a 3c f2 32 ab 3d 6d aa 82 bd
       -0.016141681 0.014315335 0.083593264 -0.063801624
0001e0 9f fc 0a 3e 4c eb 3b be 06 36 3b 3e df 21 25 be
       0.1357293 -0.18351477 0.18282327 -0.16126202
0001f0 3e e2 16 be 7f 2d a9 3b d8 ed ae be 15 22 55 be
       -0.14734742 0.0051628943 -0.34165835 -0.20813783
000200 3d d5 00 3e dd 52 08 3e 9f 88 09 be 9b 2e af 3d
       0.12581344 0.1331286 -0.13431023 0.08553811
000210 11 ec 63 bd 34 e8 b5 be d8 eb 74 3e bc 58 82 3e
       -0.055645052 -0.3552872 0.23918092 0.25458324
000220 2a 8d 43 be a0 c7 a4 be 7e 71 cc 3a 97 f9 29 be
       -0.19096819 -0.32183552 0.0015597788 -0.16599117
000230 30 84 af 3b cc 21 79 be 97 6d 7e be a2 6d 44 bd
       0.005356334 -0.24329299 -0.24846493 -0.047956116
000240 f7 21 68 bd 8a 2e 27 3d b0 62 08 bb 24 02 98 3d
       -0.056673016 0.040815867 -0.0020810775 0.07422283
000250 fd f3 1d be 78 a8 c5 3e cf 9d 95 bd e4 7c 8b 3c
       -0.15425105 0.38605094 -0.0730549 0.017027326
000260 e7 7c c7 3d 7d c7 38 3d f3 54 01 be c4 e0 80 be
       0.0974062 0.04511212 -0.12630062 -0.25171483
000270 5e 1e d8 3e 54 04 00 be 0f bc 65 be 89 41 46 3d
       0.42210668 -0.12501651 -0.2243502 0.048402343
000280 43 8c 23 be b6 5a a2 be c3 ed 94 3e 29 2e 97 3d
       -0.15971474 -0.31709832 0.29087648 0.07381851
000290 38 3f aa 3d d0 33 b0 bd 6b 9f 06 3e d7 31 8e bb
       0.08312839 -0.086036325 0.1314675 -0.0043394375
0002a0 e0 d8 aa be 53 f4 07 bd 06 6d 71 3e 11 c9 2c be
       -0.33368587 -0.03319199 0.23576745 -0.16873576
0002b0 11 c7 80 3e d9 27 3d bd 80 a4 45 be ad b8 61 3e
       0.25151876 -0.04618058 -0.19301033 0.22043104
0002c0 64 54 ca be 86 21 6e 3d ad 0c 80 bd 3f fc 86 bd
       -0.3951751 0.05813744 -0.06252418 -0.06591081
0002d0 42 16 16 3e 7f 8b 20 bd 27 98 06 bd c3 42 1c bc
       0.14656928 -0.039195534 -0.032859948 -0.009537402
0002e0 e2 cf 89 3d 62 b2 d3 bc fb 98 fa 3d 83 e4 f6 bc
       0.067291036 -0.025841895 0.1223621 -0.03013826
0002f0 1e c7 c4 bd d0 f9 2f be 47 4f 11 3e a5 81 a9 3e
       -0.09608291 -0.1718514 0.14190398 0.33106723
000300 1c af fd bd f3 95 3f 3e 6b 22 0f 3e 83 df 70 be
       -0.12386915 0.18709545 0.13977973 -0.23522763
000310 da 96 0e be 47 cd 12 bd ce b0 58 be 3d 70 78 be
       -0.13924733 -0.0358403 -0.21161196 -0.24261566
000320 ce 59 ca bc e5 3e a8 3d c2 1b 9d bd df 63 8f 3e
       -0.024701025 0.08215121 -0.0767131 0.28005883
000330 aa a5 85 3d 52 0e 94 3d 6f ed fa bc 66 5f 1b 3e
       0.065257385 0.07229294 -0.030630795 0.1517311
000340 29 19 55 3d f8 d8 50 be 9d 1e 00 bd 19 7d 52 3e
       0.052025948 -0.20395267 -0.031279195 0.20555533
000350 f6 72 3e 3e 7e d3 e4 3e 81 48 e6 be 5b a0 a7 bd
       0.18598542 0.44692606 -0.4497719 -0.08184882
000360 de 39 6a 3d 3b 7f 9a bd e4 06 0b 3d a5 7c 2d be
       0.057184093 -0.075437985 0.03394212 -0.1694208
000370 3a 33 de bc af b4 34 3d 16 5b 62 3b eb 46 1f bd
       -0.027124036 0.044117626 0.0034539155 -0.038885992
000380 53 69 85 be ea 92 4b 3e 9a 15 00 3e b4 d9 c9 3d
       -0.26056919 0.19880262 0.1250824 0.09855977
000390 f8 ce 50 3e 9d ae 8f 3e 51 47 a1 bc 61 e2 de 3e
       0.20391452 0.28062907 -0.019687327 0.43532088
0003a0 04 a7 78 3e 79 cb e9 bc ef 05 64 3e b7 d9 21 3d
       0.24282461 -0.028539406 0.22267888 0.03951427
0003b0 41 46 26 be 66 34 11 3d 56 e5 ac 3d 0d b0 b0 3e
       -0.16237737 0.03545036 0.0844218 0.34509316
0003c0 65 5a 14 bc 04 d9 c3 3e 64 30 ae bd 5b e6 7c be
       -0.009054755 0.38251507 -0.085053235 -0.24697249
0003d0 a2 e1 7c bd 54 ea 88 bd c0 79 98 3e f7 a1 7f bc
       -0.061738618 -0.066853195 0.29780388 -0.01560258
0003e0 20 5b 6a bd 8b 50 9e be 02 13 b4 bd e1 cc c1 bd
       -0.05721581 -0.30920824 -0.08792688 -0.09462906
0003f0 5e 03 e6 bc b7 54 23 bd b6 14 7d bc e4 25 f8 bd
       -0.028077777 -0.039875712 -0.015446832 -0.12116602

base.mlp.fc2.0.0.bias f4 [64]
000000 17 42 a8 bc 2e 3b f6 3c 02 95 2c ba d5 6d c4 3c
       -0.020539327 0.030057516 -0.0006583483 0.023978153
000010 63 85 3f 3c 27 f3 21 bc cb 86 1e bd f6 5e 9f bc
       0.011689517 -0.009884632 -0.038702767 -0.01945446
000020 67 50 90 3c 71 a3 d6 3c 57 b7 19 bd 02 23 0a 3c
       0.017616464 0.026200982 -0.037528362 0.008431198
000030 48 99 97 3d ec 31 11 3d 5c a2 c9 3b 5b f5 81 3c
       0.07402283 0.035448 0.006153388 0.015864065
000040 20 d5 98 3c ec 4a a9 bc 85 83 14 bd 10 88 59 bc
       0.018656313 -0.020665608 -0.03625824 -0.013277069
000050 0f 9a 6b bb 4d e1 89 bd a5 54 14 3d 75 bb 1b bd
       -0.003594998 -0.06732426 0.036213536 -0.03802057
000060 0c 40 04 bd f2 46 30 bd f8 f1 c5 bc bf c9 42 bd
       -0.032287642 -0.04303641 -0.024163231 -0.04755568
000070 05 04 4f bd 4a a2 8a 3c 43 20 1a bd 6f aa 6e bc
       -0.050540943 0.016923089 -0.037628423 -0.014567002
000080 4d 19 83 39 0b f5 0d bd 91 e5 b3 bc da 7f ee bb
       0.00025005118 -0.03465752 -0.021960052 -0.0072784247
000090 0d 55 63 bd 69 e4 dc bc c9 1e d1 3a f9 a2 35 3d
       -0.055501033 -0.026964383 0.0015954609 0.044344876
0000a0 8e 09 46 3b 01 e5 9d 3b 37 48 da 3c bb b4 04 bd
       0.0030218097 0.004818559 0.026645763 -0.03239892
0000b0 74 49 41 bd 1f d1 41 3c bc ab 08 3d ff df c1 bc
       -0.04718919 0.0118296435 0.033366904 -0.02366638
0000c0 dd e1 11 bd d8 da 1d bd 76 26 2f 3c 7f 63 9e bc
       -0.03561579 -0.038538784 0.010690322 -0.019334553
0000d0 4b f7 24 3d c2 89 c9 bb 84 1c 35 3c 8b 69 9a 3c
       0.0402749 -0.006150455 0.011054162 0.018849155
0000e0 eb 38 8b 3c ff 20 13 3b 07 58 dd 3c 2a ac 2c 3d
       0.016994914 0.0022450087 0.027019514 0.042156376
0000f0 c4 3f 4e bc 5f 58 d7 bb 64 3d 7a 3c 18 c8 f3 bc
       -0.012588445 -0.006571814 0.015273426 -0.029758498

base.mlp.fc2.0.2.weight f4 [64]
000000 21 96 80 3f c1 d9 82 3f 61 21 82 3f e0 05 8b 3f
       1.0045816 1.0222703 1.0166436 1.0861168
000010 89 5b 8d 3f c0 bc 88 3f 27 40 86 3f e2 4a 86 3f
       1.1043559 1.0682602 1.0488328 1.0491602
000020 d4 d4 88 3f 61 46 8d 3f 55 a5 8a 3f e3 31 88 3f
       1.068995 1.1037103 1.0831705 1.0640224
000030 f4 2e 83 3f 0e 26 82 3f 60 55 84 3f 1d 52 85 3f
       1.0248704 1.0167863 1.0338554 1.0415684
000040 58 8d 81 3f 96 8b 88 3f 38 02 83 3f 76 e8 86 3f
       1.012126 1.0667598 1.0235052 1.0539691
000050 c9 c2 87 3f 9f 61 84 3f da 61 8e 3f c2 89 86 3f
       1.0606319 1.0342292 1.1123612 1.051079
000060 ba 0f 85 3f a7 a7 82 3f 1f 49 8a 3f d0 ed 85 3f
       1.0395424 1.0207413 1.0803565 1.04632
000070 e5 96 8c 3f 30 47 89 3f b9 b4 83 3f 5e c3 86 3f
       1.0983549 1.072485 1.0289527 1.0528371
000080 7e 9c 85 3f 68 29 89 3f 31 34 85 3f 30 1a 88 3f
       1.0438383 1.0715761 1.0406553 1.0632992
000090 aa ea 88 3f 35 97 88 3f be 78 83 3f 80 ce 88 3f
       1.0696614 1.0671145 1.0271223 1.0688019
0000a0 25 bc 89 3f 73 93 87 3f 35 34 8c 3f 28 e1 85 3f
       1.0760542 1.0591873 1.0953432 1.0459337
0000b0 a5 6a 85 3f 84 d7 81 3f 19 48 82 3f 82 21 7f 3f
       1.042317 1.0143895 1.0178252 0.99660504
0000c0 a5 81 86 3f 7c 24 8a 3f e3 3d 83 3f a2 e7 83 3f
       1.0508314 1.0792384 1.0253261 1.0305064
0000d0 32 c0 83 3f 1d 64 86 3f e5 b8 92 3f 7b ce 87 3f
       1.0293028 1.0499302 1.1462675 1.0609888
0000e0 20 2d 87 3f 5b d4 83 3f 23 ed 8c 3f 1d 88 83 3f
       1.0560646 1.0299181 1.1009868 1.0275913
0000f0 9d 28 83 3f 05 4b 87 3f 5d f9 84 3f dc 54 85 3f
       1.0246769 1.0569769 1.03886 1.0416522

base.mlp.fc2.0.2.bias f4 [64]
000000 f0 bd 63 3c 10 2a 8e 3c f9 da b7 3c d2 17 8e bb
       0.013900265 0.017354041 0.022443281 -0.0043363357
000010 08 69 36 3c 5d 7c c0 3b 59 be 34 bd ed 01 4f bd
       0.01113344 0.0058742003 -0.044126842 -0.050538946
000020 60 45 87 bc f1 cf 11 3c eb 35 d9 bb ff 15 f8 3c
       -0.016512573 0.008899675 -0.006628742 0.030283926
000030 7f c5 e9 b8 4a 83 f6 3c f3 b9 42 bc 5e 8f bc bb
       -0.00011147092 0.0300919 -0.011885154 -0.0057543954
000040 40 74 a9 bc 27 e8 61 3b 85 96 c6 3c 4c ae b2 bc
       -0.020685315 0.003447065 0.024241695 -0.021811627
000050 f1 8b d7 b9 59 55 51 bb 00 c0 a3 b9 e9 c1 6a 3c
       -0.0004111226 -0.003194174 -0.00031232834 0.014328458
000060 03 a1 c8 bc d6 6c da bc f8 cb f4 bc df ff 06 bb
       -0.024490839 -0.026663225 -0.029882416 -0.0020599288
000070 75 b6 15 3b 24 f8 b8 ba 3c 96 71 bc 3f b1 06 bd
       0.0022844349 -0.0014112038 -0.014745291 -0.03288388
000080 7f 59 06 ba 6c 19 90 3c e0 1f 72 3c 3b a7 0a 3c
       -0.00051250303 0.017590247 0.014778107 0.008462722
000090 f6 44 d0 bb 69 a8 76 3b 3e 14 e4 3c 8e 94 b7 3c
       -0.006355877 0.0037637001 0.027841683 0.022409704
0000a0 dc f5 09 3d 3d f2 a1 bc 89 b3 2e bc 53 56 54 3b
       0.033681735 -0.019768829 -0.010662922 0.0032400086
0000b0 77 4b 02 3c 63 81 46 bc d6 17 33 bd 91 b9 82 3c
       0.0079525625 -0.012115809 -0.043723904 0.015957626
0000c0 f7 41 9d bc 6c 25 eb 3b 37 ac ba 3c e1 73 0b 3c
       -0.019196494 0.007176092 0.022787197 0.008511514
0000d0 dc 8f 88 3c 48 30 70 bc e0 7d e1 3c 09 91 1e bc
       0.01667016 -0.014659949 0.027525842 -0.009678134
0000e0 93 06 a6 bb 18 99 82 bc bf 8d cc 3c 74 9d 49 3a
       -0.0050667017 -0.015942141 0.024969934 0.0007691004
0000f0 3f c7 c6 3c 43 62 ee bc fa 58 5b 3c 65 6b 0f bd
       0.02426493 -0.02909959 0.013387913 -0.03501453

act.action_out.fc_mean.weight f4 [4, 64]
000000 2b 24 8a 3a ec d9 83 bc ab 88 65 3b 3d ea 23 3c
       0.0010539343 -0.016095124 0.0035024087 0.010004577
000010 d3 62 30 bd 6e a6 79 bc e8 53 40 bc 42 97 a5 bb
       -0.043062996 -0.015237434 -0.011738755 -0.0050534317
000020 22 b6 13 3c 88 20 3c 3d 95 05 1a bc 4c e1 62 3b
       0.009015592 0.04592946 -0.009400745 0.003461915
000030 88 a4 96 3c b2 b4 21 3d 65 21 80 3b 29 93 34 3d
       0.018389001 0.039478965 0.003910231 0.044085655
000040 d8 fe 50 3a 78 39 62 3a 2b 9b 07 3d be 2a b3 bc
       0.0007972545 0.00086297793 0.033106964 -0.021870967
000050 38 8d 6c 3d 16 68 4a bc bc 10 9e bd bc c3 14 3c
       0.057751864 -0.012353918 -0.077180356 0.00907987
000060 9f da 69 3c 2b 69 82 bc e2 f4 2d bd 63 ca 41 bb
       0.014273315 -0.015919289 -0.042469867 -0.0029570095
000070 e8 e4 24 bd 65 28 54 3c 8f 53 eb 3b bd d9 0d bd
       -0.040257365 0.012949084 0.007181592 -0.03463148
000080 b5 23 2a bd 48 bc ab bc f7 4c 00 3d 4f 4e 98 3c
       -0.04153796 -0.020963803 0.0313234 0.018592028
000090 b0 78 13 3c 16 63 03 bc 46 88 eb 3c 96 d5 44 3d
       0.009000942 -0.008019229 0.028751504 0.048055254
0000a0 e4 0f ea 39 77 46 0e bd ef 1f ee 3c f8 ab 72 bc
       0.00044643797 -0.03473517 0.029067961 -0.014811508
0000b0 9c f5 19 3c c9 d6 87 bc 97 32 1b bd 2e b6 4f bc
       0.009396937 -0.01658191 -0.037890043 -0.012677712
0000c0 ad af 37 3c 06 7f 28 bd 70 5c aa bc f9 25 bb 3c
       0.011211318 -0.041136764 -0.02079603 0.022845255
0000d0 92 82 04 3d 7f b7 12 bc c8 99 bb 3c bf f6 ff bc
       0.032351084 -0.008954882 0.022900477 -0.031245587
0000e0 bc e8 8a 3c 90 ab 8b 3c 52 72 4d 3d e6 9c ac 3c
       0.01695668 0.01704958 0.050157852 0.021070909
0000f0 49 b0 01 3d 93 25 b1 bc ad 29 cd 3c f3 d1 bc bc
       0.03166226 -0.021624362 0.025044287 -0.02304933
000100 f1 44 9f bc f0 4d 15 3d d9 be f7 3b 5c 1d bf bc
       -0.019442054 0.03645128 0.0075605926 -0.02332943
000110 2c 2e 11 bd 04 d5 67 39 f2 84 42 3c 74 26 2d bd
       -0.035444424 0.00022109231 0.011872517 -0.042273
000120 96 bd 86 bd 9a 7c ad 3d f1 92 b9 bc 7d 80 09 bc
       -0.065791294 0.084710315 -0.022653075 -0.00839245
000130 4b fa ae bc dc 68 40 3b c5 26 1e 3b d5 c6 ad 3c
       -0.021359583 0.0029359376 0.0024131995 0.021212975
000140 77 1b 6f bc 8e f2 2c 3d f7 86 82 bb 61 84 0f 3d
       -0.0145939505 0.042223506 -0.003983374 0.035038356
000150 59 49 ac bc 28 72 08 3c 9d fa 2d bd a1 70 02 3c
       -0.021031069 0.008327998 -0.04247533 0.007961423
000160 3f ed 39 bd d6 96 4e bc 4f 46 54 bc da 0c 54 bd
       -0.04539227 -0.012609204 -0.012956216 -0.05177007
000170 b8 f6 37 bc 47 9d 26 bd 21 47 1b bc c7 9c 08 bd
       -0.011228256 -0.040677335 -0.009477408 -0.03335264
000180 8b 5f bd 3b cd 9a 84 3d 57 85 f2 3c b7 70 54 bd
       0.005779212 0.064748384 0.029604597 -0.051865306
000190 6e d3 31 bd ad da 4a bc 42 c4 7b 3c 50 78 f7 bc
       -0.043414526 -0.012381238 0.015366616 -0.030208737
0001a0 49 7c 8f 3c 78 61 46 3d f1 56 60 bd 81 80 96 3c
       0.017515318 0.048432797 -0.054770414 0.018371822
0001b0 87 fc ab bc dc 21 9b 3b ec df 74 39 c5 8f 72 3c
       -0.020994438 0.004734261 0.0002335307 0.014804785
0001c0 27 db a2 bc 1f ca ff 3c 88 f5 d8 3b 3d af f1 3c
       -0.01987989 0.031224309 0.0066210665 0.029502505
0001d0 25 38 d3 b9 f6 c8 c2 3c a5 b6 a5 3b 8d 17 12 3d
       -0.00040286887 0.023777466 0.0050571733 0.03566699
0001e0 3b 02 7c 3d 5b ac 8c 3a b9 60 17 3d 49 5a 29 3a
       0.061525565 0.0010732518 0.036957476 0.0006460292
0001f0 ed 63 60 bc 0e c9 24 3d 6a b1 38 3d bd 15 70 bc
       -0.013695699 0.040230803 0.04509107 -0.01465362
000200 e8 be be 3c f7 88 7b bc 8b dd 80 bb 20 44 aa bd
       0.02328439 -0.015352479 -0.00393266 -0.08313775
000210 1b 7d 90 bd 26 f0 9f 3d d4 49 1a bc ab e7 df 3b
       -0.07055112 0.078094766 -0.009417016 0.006833037
000220 b6 ac 8b 3c b7 2b 6a 3c 41 92 9e bd bc b9 82 3d
       0.017050128 0.014292649 -0.077427395 0.06383082
000230 88 18 68 bc 1a 2d 28 bc b7 78 ec bc 11 ac 7e bc
       -0.014166005 -0.010264659 -0.028866155 -0.0155439535
000240 ab c6 7d bc 1d dc 9f 3c bd 76 87 3c 39 bc af 3c
       -0.015489261 0.019514138 0.016536111 0.021452056
000250 b9 6f 4d 3b 4b 74 2d bd 10 52 8e 3d a9 18 15 bd
       0.003134711 -0.042347234 0.06949246 -0.03640047
000260 46 33 56 bc c1 a7 3e bb 34 27 95 bd f2 68 14 3d
       -0.013073748 -0.0029091688 -0.07282868 0.036232896
000270 33 d2 ba bd 94 c4 54 bd 1a 30 8c 3c 91 9a a7 3c
       -0.091221236 -0.051945284 0.01711278 0.020459445
000280 a4 10 03 bd bf bf 01 bc a6 0b ac 3b ab b3 5a 3d
       -0.03199829 -0.007919251 0.005250412 0.053394
000290 7b 34 51 3c c0 d1 1a bd 1b cf a4 bc 07 aa dc 3a
       0.01276886 -0.03779769 -0.020118287 0.001683534
0002a0 e4 39 83 3d 17 bc 22 3d af 87 e9 3c fe b3 49 3d
       0.06407526 0.039730158 0.028507082 0.04924392
0002b0 ed 60 47 3d 6a 3a 09 3c 3d 39 d7 3b cc 75 8e 3c
       0.04867642 0.008375743 0.0065681026 0.017390154
0002c0 44 84 3f bd 17 f1 26 3d 13 62 ca 3c 12 c4 02 bd
       -0.046756998 0.040757265 0.024704969 -0.03192527
0002d0 c1 68 e6 3c fa 58 c1 3b 07 83 c3 3d 1e dd 07 bd
       0.028126122 0.0059004994 0.09546476 -0.03316986
0002e0 f3 dd 76 3c fb 28 03 bd 13 1d 2e bd 0e 26 9a bc
       0.015067565 -0.032021504 -0.042508196 -0.018816974
0002f0 5f 02 4e 3c 4d 10 ea bc 33 3e c1 bc 34 2a 8a bb
       0.0125738075 -0.028572226 -0.02358923 -0.004216457
000300 5e 46 8a 3b 49 a8 e2 3c ad e1 2e 3d b8 1e e8 3c
       0.004219814 0.027668135 0.04269569 0.02833496
000310 40 66 3d 3d 78 4a 62 3c b0 45 54 bd 81 20 b2 bc
       0.04624009 0.0138117 -0.05182427 -0.021744015
000320 d8 b2 5d bd ef d4 9d bb 50 a2 ff 3c e5 a4 d3 3c
       -0.054125637 -0.0048166434 0.031205326 0.025835464
000330 83 24 74 bc c9 c8 10 3c 47 8a 2d bd 8b d5 7e bb
       -0.014901283 0.008836933 -0.0423682 -0.0038884606
000340 f0 6b 38 bc 10 46 41 3d f7 09 22 bc 5d eb 48 bd
       -0.011256203 0.047185957 -0.009890071 -0.049052585
000350 f7 4f 08 bd 8e f7 14 3c e2 7f 32 3c 79 0a 1e 3d
       -0.033279385 0.009092225 0.010894747 0.038584206
000360 7a 62 f5 bc 41 ab 07 bd dd c2 13 3b b7 08 56 bb
       -0.029954184 -0.033122305 0.0022546567 -0.0032659003
000370 26 5c 30 3c 03 13 eb bc 40 50 25 bd 0e e9 2b bd
       0.010764157 -0.028695589 -0.040359735 -0.041970305
000380 ba 31 d4 bc b7 6b 13 3d f8 1b 3c 3c d4 0f 9a bb
       -0.025902618 0.035991397 0.011481278 -0.004701594
000390 49 e6 64 bd ec 4e 90 3d 59 87 62 bc 02 0e 41 3d
       -0.05588368 0.07046303 -0.013826215 0.0471325
0003a0 fa 45 40 3d 48 b6 f3 bc bc 1c 78 bd ee 6b 18 3c
       0.046941735 -0.029750004 -0.06057428 0.009303076
0003b0 8b 00 a0 bb 16 bd c5 bc 3d 17 8e bc ba 88 0c bc
       -0.004882877 -0.024138015 -0.017345065 -0.00857752
0003c0 87 a4 27 bd c5 00 67 3d e8 c4 10 3d 27 84 bf 3c
       -0.04092839 0.05639722 0.035344034 0.023378445
0003d0 27 b9 95 bc 4c b3 30 bd 6e 83 c3 3d 60 f0 4c 3b
       -0.018276764 -0.04313974 0.095465526 0.0031271204
0003e0 ee 8a 7f bc a6 ea 11 bc 65 15 87 3d 0d 67 9b bc
       -0.015597088 -0.008906042 0.065958776 -0.018970037
0003f0 6e 21 32 bc a4 d7 2d 3b 36 41 e5 3b 14 16 66 bd
       -0.010872228 0.0026526237 0.006996299 -0.0561734

act.action_out.fc_mean.bias f4 [4]
000000 ac 92 4e 3c 5f 8f cd 3b 1b 10 80 3c 96 cb bd 3c
       0.0126082115 0.0062731947 0.01563268 0.023168366

act.action_out.logstd._bias f4 [4, 1]
000000 7b f1 19 bf de bb 12 bf ed 50 01 bf cc e6 1c bf
       -0.60134095 -0.5731791 -0.5051411 -0.6128967
