checkpoint/best_mappo_seed111_run20260211_183208_envmamujoco-walker2d-2x3_ep5400_agent1_critic.pt (torch, 31346 bytes, 11 tensors)

base.feature_norm.weight f4 [24]
00000000: 1ca6 9d3f 0ccd c33e ae41 933f 5b55 383f
00000010: d785 8a3f 6b8b 7d3f 8e29 803f c949 8d3f
00000020: 572c 903f aa2f a03f 1a8e 963f 92e6 7c3f
00000030: 630a 9b3f 0d44 d43e 0c51 8f3f a340 423f
00000040: 6195 8e3f d2d4 773f 8e3b 8c3f 0d35 a33f
00000050: 0e74 983f 3c85 a53f 9fa9 963f ee3b 753f
1.2316318 0.38242376 1.1504419 0.7200524 1.0822095 0.9904086 1.0012681 1.1038142
1.1263531 1.2514546 1.1762116 0.9878932 1.2112545 0.4145817 1.1196609 0.7587988
1.1139337 0.96809113 1.0955675 1.2750565 1.1910417 1.2931285 1.1770514 0.9579457

base.feature_norm.bias f4 [24]
00000000: 8b27 63bd 98eb 113d d381 333c b406 b03b
00000010: a322 1dbc 9f7e 47bd f12e 363b b647 2c3c
00000020: 30c6 ed3c dc84 eebc cceb e2bb 57a1 0e3c
00000030: 360b 3b3d c7ba 90bc 1aa5 8f3c cf4b 433d
00000040: 0863 27bc e610 c13c b9da e7bc aa64 263c
00000050: 3d02 893a 159f 9bbc 0f13 883c f080 713c
-0.055457633 0.03562507 0.0109562455 0.005371893 -0.009590778 -0.04870474 0.0027798975 0.010515144
0.029025167 -0.029116087 -0.006925082 0.008705459 0.04566499 -0.017667187 0.017534781 0.04767972
-0.010216482 0.023567628 -0.028302537 0.010155836 0.0010452938 -0.018996755 0.01661065 0.014740214

base.mlp.fc1.0.weight f4 [64, 24]
00000000: d91c 713d 0cb4 dc3d b27f 83be 5646 123e
00000010: 27e1 3dbe 8022 00bd f5f6 64bd e624 5f3e
00000020: 8a05 223e 7ed9 023f b872 22be 6675 873e
00000030: c411 693d c6a9 f93d 3141 aebe d04f 69be
00000040: bc6a 93be a3c6 d0bd 8031 b8be d862 c83e
00000050: 49d6 173f 805a 363f 41a1 1ebd 0533 8c3e
00000060: d9db 52be 214a ffbd a13c 3c3e e0b3 793e
00000070: 2901 9cbd d9d5 2d3e 7b9b 34be 0eed 11be
00000080: 9454 b7be 0062 85be 9fd6 193e 1c83 3f3d
00000090: 17c8 b6bc 0fac 5a3e 315f 84be 18b8 803d
000000a0: 4662 e13e 8b72 f4bc 8986 1f3d d1b6 3ebe
000000b0: d457 08be d90e 5bbe 77f9 2f3e 8f71 5abe
000000c0: fbd0 9b3e 646c 8cbe e3f3 59be 0b61 c3bd
000000d0: 1d99 7dbe e6e0 b2bd 0c85 133d d1f2 87bd
000000e0: cad3 7b3c 6f79 0e3b afd4 bbbd 8884 ef3d
000000f0: ba42 15be f768 8bbe d0f9 31be 945c 93bd
00000100: 5ece ef3d a99f 8d3c 097e 6f3c a357 a43c
00000110: 5dc2 d0bc 28dd 2b3f 899c 4cbe b77d 833e
00000120: 0aa3 d3bd eb0a 1b3e a191 34be 80ce d13d
00000130: e10d ebbd dd6e f1bc f90f 02bf 7427 bd3c
00000140: 0b82 473e 1352 ab3e c9c2 ab3d 4417 253e
00000150: 8543 7f3e d605 243d 2452 06be 0f7a f33d
00000160: 861d b4bd c6c7 be3d 1a77 0bbe 4e08 cf3d
00000170: baf2 da3e 457e 593d 0092 cc3d e40e 27be
00000180: 4239 e2bd 5b27 03be ac28 a13e 94b5 babd
00000190: 41fa 2cbe 10e2 98be 1d6e 58be c82d 7abd
000001a0: 9f24 e7bd a83a 013e 6143 7abd ad42 1dbe
000001b0: ac9b 133e fe00 843c e35b 3c3e 990c 06be
000001c0: 5175 76bd 0ac5 31bc 5156 1c3d 711e 733e
000001d0: 418e b63e 1926 e23d 32e3 0bbf a03a a03e
000001e0: 56f2 8d3a 38d0 c83d f2a3 98bc 6349 073d
000001f0: e73d 2abe 8aad 573e 925f 3cbe 0da2 553e
00000200: bdab ae3e 9ba6 d3bd 260b 9cbe f4c5 b6bd
00000210: a1b7 a73d 312a 04be 6d53 9dbe f1a4 b7bd
00000220: 6493 0c3d 95e7 d0bc 87cc 3e3e 4924 163e
00000230: 66ce b03e 51ce 803e e453 aebe d138 d8be
00000240: bb74 90be fc6c bebc c804 e93d 4ad0 2bbe
00000250: 73f8 a8bc 0164 c43c fa08 28bd aabc 893c
00000260: da5a a2be 5784 91bc 25a2 36be 87fa 9fbe
00000270: b4f4 4fbd fe78 ab3d 51ff c93e e0c2 503e
00000280: edc5 063f ff83 b73e b137 3bbd 4e48 62bd
00000290: 671b c0be 8f03 be3d df88 1c3e 5b74 003d
000002a0: 452f 6dbe b6e2 1cbe ce23 e23e 5106 76bd
000002b0: fc50 a93d 2d5c b73e abe8 22bd b629 15be
000002c0: 6887 8bbd 507b 0cbe ee95 8abd a6c4 33bd
000002d0: 633a 89ba 1c57 5abe 371c c7bb e845 9dba
000002e0: f485 043e 0d8c e3be 32be 883e 45dd 9a3e
000002f0: 268c 33bd 6b14 1dbf 1207 09bf d948 fabd
00000300: 474f 98be 7830 6f3d 302a bebd 9c62 013e
00000310: 86d0 5dbc d17e 0d3e 39a4 d8bd fe98 ca3d
00000320: 58a0 b4bc 9da1 1fbd 3489 98be 233e 92be
00000330: 2f7d 94bd 4457 0dbe 89bc 893d d876 aa3c
00000340: ca8e 5dbe 04b1 1bbe 4fc9 9f3d 41b2 df3d
00000350: 03fb 1f3e 5d52 da3a 7e7b aebd c7f1 2f3e
00000360: 1e5e 853e 6f53 6bbe 8e6a 22be 3e4a febd
00000370: 5828 8abe 542c 0bbe 38d8 013e e022 223e
00000380: 22d5 acbd 1272 dfbd 6ffb e3be 7f55 dd3d
00000390: 2852 2d3e ca63 24be 73cf 8e3b fcda dfbb
000003a0: 5bf9 0dbe 4760 11be d69c b23d f002 c9bd
000003b0: 75ef c7be a0a6 79be 8f3b 6abe 47d9 80bd
000003c0: 12ab 61be 109a 47be b304 34be 0755 66be
000003d0: 396f eebd a781 1abe 0e85 cbbd e40e 633e
000003e0: 466a 993e 4564 3c3e d3aa a1be 2409 7cbe
000003f0: 13b2 9f3e 84c1 53bd 6db9 aebd 49ba d8bd
0.058865402 0.10776529 -0.2568336 0.14284644 -0.1854292 -0.0312829 -0.05589958 0.2179142
0.15822425 0.51113117 -0.15864074 0.26456755 0.05690171 0.12190585 -0.34034112 -0.22784352
-0.2879237 -0.10194137 -0.35975266 0.39137912 0.5931135 0.7123184 -0.038728002 0.27382675
-0.20591678 -0.12465311 0.18382503 0.24385023 -0.07617409 0.16976108 -0.17637436 -0.14250585
-0.35806715 -0.2605133 0.15023278 0.046755895 -0.022312207 0.21354698 -0.25853875 0.06285113
0.4402029 -0.029839775 0.038946662 -0.18624426 -0.13314754 -0.21392383 0.17185007 -0.21332382
0.30432877 -0.27426445 -0.21284442 -0.09539994 -0.2476544 -0.08734302 0.036015555 -0.066381104
0.015370319 0.002173986 -0.091714256 0.116952 -0.14576235 -0.2722852 -0.17380452 -0.07195392
0.11709283 0.017288046 0.0146174515 0.02006132 -0.025483305 0.6713433 -0.19981588 0.2568185
-0.103338316 0.15140884 -0.17633678 0.10244465 -0.114772566 -0.029471809 -0.5080562 0.023090102
0.19483201 0.33461055 0.08386762 0.16122156 0.249281 0.040044628 -0.13117272 0.11888515
-0.08794694 0.093154475 -0.13619652 0.10109006 0.4276331 0.053098936 0.09988785 -0.16314274
-0.11046077 -0.12807982 0.31476343 -0.091166645 -0.1689234 -0.29859972 -0.21135755 -0.061078817
-0.11286282 0.12620032 -0.061099414 -0.15357466 0.14414853 0.016113754 0.18394427 -0.13090743
-0.060170475 -0.0108502 0.038168255 0.23742081 0.35655406 0.11042423 -0.5464355 0.31294727
0.0010829668 0.098053396 -0.018632863 0.03302897 -0.16625176 0.21062294 -0.18395832 0.20862599
0.341154 -0.10334512 -0.30477256 -0.08924475 0.08189321 -0.1290672 -0.3072771 -0.08967007
0.03432025 -0.025501052 0.18632708 0.14662279 0.3453247 0.25157407 -0.34048378 -0.42230847
-0.28214058 -0.023245327 0.11377865 -0.16778675 -0.020626282 0.023973467 -0.041024186 0.016813595
-0.3170994 -0.0177633 -0.1783529 -0.31245825 -0.050770476 0.08372687 0.39452603 0.20386839
0.5264576 0.35842893 -0.04570741 -0.055244736 -0.37520906 0.092780225 0.15286587 0.031360965
-0.23162563 -0.15320858 0.44167942 -0.060064618 0.082674 0.35812512 -0.03977267 -0.14566693
-0.06812936 -0.13718915 -0.06766878 -0.04388871 -0.0010469671 -0.21322292 -0.0060763615 -0.0011998983
0.12941724 -0.44442788 0.26707608 0.3024694 -0.043834828 -0.6135928 -0.53526413 -0.12220926
-0.29747984 0.058395833 -0.092853904 0.12635273 -0.013538485 0.13817908 -0.10578198 0.09892462
-0.022049114 -0.038972486 -0.29792178 -0.28563032 -0.072504394 -0.1380282 0.06725413 0.020808622
-0.21636501 -0.15204245 0.078020684 0.10922671 0.15623097 0.0016656626 -0.08519648 0.17182074
0.26048368 -0.22981046 -0.1586096 -0.12416504 -0.26983905 -0.13591129 0.12680137 0.15833616
-0.08439089 -0.10910429 -0.44527766 0.10807323 0.16925871 -0.16053692 0.004358226 -0.006831525
-0.13864653 -0.14196883 0.0872132 -0.098150134 -0.3904988 -0.24379969 -0.22874282 -0.06291442
-0.22037914 -0.19492364 -0.17579918 -0.22493373 -0.11642308 -0.15088521 -0.099374875 0.22173649
0.29963893 0.18397625 -0.3157564 -0.24612862 0.31190547 -0.051698223 -0.08531461 -0.10582406

base.mlp.fc1.0.bias f4 [64]
00000000: 9640 443d c3bb 96bd 5332 a6bd 16b7 0abb
00000010: 65ca 5a3d 9c8b 823d 59e2 933d d125 5ebc
00000020: 15af 933c 816a 9d3b fb39 453b 8b34 dd3c
00000030: bf71 21bd 8621 183d 8238 0abd a98e ce3c
00000040: 271d 33bd 43e6 8c3d 76bb 9dbd d2fa c8bb
00000050: 8d57 80bc bbae c03b a44d 5cba 9872 96bd
00000060: 7ac3 513d 8041 8d3d f681 d6bc 4a5d 393d
00000070: 629f 21bc 91c8 29bd e506 44bb 7264 23bd
00000080: eeda 04bd 18ee b53d c343 51bd 9ec4 b13d
00000090: e00e c3bc 2367 333d 4d93 783d 1aaf 0bbc
000000a0: ad58 31bd 6076 bebd 6f1f 713b b0ba 7fbd
000000b0: 68d5 bfbd 3912 1cbc bc0c b7bc 554a 153d
000000c0: 6873 85bd 7cf1 903d 613a 5ebc 7db3 813d
000000d0: 17c1 a8bb c529 bfbb b56c d1bd 858e 883d
000000e0: f3f0 5dbd 374f 41bb bf69 df3d 7e3c 8cbc
000000f0: e99e bcbd 03a8 5bbd 75a3 1f3c cf4c 523a
0.047913156 -0.073600315 -0.08115067 -0.0021166257 0.053415675 0.063742846 0.07220907 -0.013558821
0.018027822 0.004803956 0.0030094374 0.027002594 -0.039415117 0.037141345 -0.033745296 0.02521451
-0.043728974 0.068798564 -0.07701771 -0.0061334157 -0.015666747 0.0058802045 -0.00084039033 -0.07346076
0.05121181 0.06897259 -0.026185017 0.045254983 -0.00986466 -0.04145104 -0.0029911336 -0.039890714
-0.03243535 0.088833034 -0.051090013 0.0868008 -0.023810804 0.04379953 0.060687352 -0.008525634
-0.04329746 -0.09299922 0.0036792418 -0.0624339 -0.09366876 -0.009525829 -0.02234494 0.03644784
-0.065161526 0.070773095 -0.013563723 0.06333063 -0.005149971 -0.0058338367 -0.10225812 0.066678084
-0.054184865 -0.0029496679 0.10908841 -0.017118689 -0.09209997 -0.053627025 0.009743561 0.00080223096

base.mlp.fc1.2.weight f4 [64]
00000000: 76e8 9e3f 8141 6c3f c774 4b3f c6e1 843f
00000010: ed1f 423f 6433 7d3f 86e9 943f 3853 793f
00000020: d6f2 543f 3c30 663f f201 6a3f 0995 513f
00000030: 5b67 4c3f d8f8 603f 9956 773f 3d88 8a3f
00000040: 8beb 903f ce8e b93f e03f 883f 19b8 733f
00000050: 68ef 823f 9d61 803f 5f68 6e3f 7846 843f
00000060: 22a2 9a3f d1e9 8b3f 83d8 7a3f 7914 703f
00000070: c7b6 b13f 24d0 853f 06b8 803f 99c0 583f
00000080: 8397 7a3f b0c0 753f 09d7 613f ed79 813f
00000090: 5d15 813f c2d4 8c3f af6b 7c3f b555 753f
000000a0: d8c3 853f 5304 6e3f ced3 703f 5fc2 6f3f
000000b0: 54d1 823f 3f6e 853f fb49 643f b0b9 7d3f
000000c0: dbf4 813f 75e3 4f3f 12b6 6a3f 9b63 893f
000000d0: e6e7 673f fe08 7e3f 443e 733f 2155 8f3f
000000e0: 08c4 833f 4d0d 823f 0a9a 763f bbc6 733f
000000f0: fd99 783f d27a 813f 28f6 7e3f 792c 7a3f
1.2414691 0.9228745 0.79475063 1.03814 0.75829965 0.9890654 1.1633766 0.97392607
0.8318304 0.8991735 0.9140922 0.81868035 0.7984521 0.87879705 0.9661651 1.0822827
1.1321882 1.4496706 1.0644493 0.95202786 1.0229311 1.0029789 0.9312801 1.0334005
1.2080729 1.093073 0.9798662 0.9378124 1.3883904 1.0454144 1.005616 0.8466888
0.9788744 0.9599714 0.8821874 1.0115334 1.0084645 1.1002429 0.9860181 0.95833904
1.0450392 0.9297535 0.9407319 0.9365596 1.0220132 1.042427 0.89175385 0.9911146
1.0152849 0.81206447 0.9168407 1.0733522 0.90588224 0.9923247 0.95016885 1.1197854
1.0294199 1.0160309 0.96328795 0.95225114 0.9710997 1.0115607 0.99594355 0.9772411

base.mlp.fc1.2.bias f4 [64]
00000000: 58e6 c53c 3c10 0cbc 8953 9c3d 5523 b23b
00000010: 78ed f4ba 1bcf 9d3d 7320 2d3b c6ee 8e3d
00000020: 9a3b 043e a559 fb3c b859 6a3c 1fa4 493d
00000030: 0762 26bc 6a8d 753d 907d b83b 1097 a8bc
00000040: dfb5 bb3a 2a29 473d a371 55bc 3e32 da3d
00000050: f412 0dbc 6271 e2bc f7fd 1f3c ec26 ab3c
00000060: d475 4f3c 4197 16bd ed7e 20bd 180f ab3b
00000070: eb1b 47bd fd16 37bc edfb 77bb 3d19 353d
00000080: 1506 8739 3e9e 923d bdc7 78ba f26f df3d
00000090: 1d54 73bc de26 77bd 463a 253d d286 883d
000000a0: 821e e6bc 390d 7a3c 8209 aa3b bc6e c93c
000000b0: b4d9 b43d 1723 743c 1216 993c c307 ba3c
000000c0: 1a1a 4ebc 3672 6b3d e455 9dbd c7d7 223d
000000d0: 6586 393d 8e2a 303d 488a d7bd 0b5a 9ebb
000000e0: cee7 c0bc 965c 98bb 15d1 bc3d 7ece a73c
000000f0: dc09 d8bc 8c54 ecb9 7af3 9ebd 0d14 32bc
0.024157688 -0.008548792 0.076331206 0.005436341 -0.0018686494 0.07705518 0.0026417046 0.06979136
0.12913361 0.030682394 0.014303617 0.049228784 -0.0101552075 0.059949316 0.0056302026 -0.020579845
0.001432117 0.04862324 -0.013027581 0.10654114 -0.008610476 -0.027641956 0.00976514 0.020892583
0.01266237 -0.03676534 -0.039183546 0.005220305 -0.04861061 -0.011174914 -0.0037839368 0.044213522
0.00025753738 0.071590886 -0.00094902125 0.10910024 -0.014851597 -0.0603398 0.040338777 0.0666634
-0.02809072 0.015261942 0.0051891217 0.024588935 0.08830586 0.014900944 0.018687282 0.02270878
-0.012579465 0.057481967 -0.07682398 0.039756563 0.045294184 0.043009333 -0.10524422 -0.0048325113
-0.023548033 -0.004649709 0.09219567 0.020484205 -0.026371889 -0.0004507642 -0.07761283 -0.010869038

base.mlp.fc2.0.0.weight f4 [64, 64]
00000000: d794 693e 5702 803e 6ee9 fbbc fbab f5bd
00000010: 962c 753e 893f 953d 147e d3bd fd7c 443e
00000020: 2693 55bd 4b5c e33b 6b68 dfbd ab40 183d
00000030: 974d f33d 1ffc 2e3e b51f 793c 7516 793e
00000040: 0f66 b93e 712c 4a3e fb05 4e3e 4349 0e3d
00000050: c945 5d3e 694a 283d b818 e8be 39c3 60be
00000060: 730c 85be 5360 c13e b616 863e 64fc 8fbe
00000070: 7acb 43bc 4a95 dcbe 8e8c 10bd 5032 a8bd
00000080: 46ab 26bc da9f 35be e631 44bd 1813 733d
00000090: b954 8ebc 855b 9c3c c818 723e d1a6 023e
000000a0: 2f43 ca3c a12e 8e3c 3c38 923e 1c59 cc3b
000000b0: 4f8a b83e 3348 173e 48ae dbbd 9611 11bf
000000c0: 339c 9f3e 4a6f 6dbc b5d5 7abd d4ba 913b
000000d0: 1bc9 033e 8970 9f3c 4502 4a3e 0205 4dbe
000000e0: 36cb 643e a7cc 80bd e4f6 ccbc 28e5 483e
000000f0: af92 873e 1d4e 0dbd 0907 47bc 3868 cabe
00000100: 7cdd babe 1cdf 40be 3091 523e 6343 263e
00000110: a0b9 613e ed21 c93c a69c 4cbe 5e14 a2bd
00000120: aca5 86bb e8a6 383e 9e7a 9d3d 9237 043f
00000130: c21e b4bd ca8a fbbc 4a66 0f3d 75a5 c53e
00000140: ecca 993d 6dcc a03e ae03 8b3e 34f3 e23c
00000150: 7291 b1bd 6465 823d 2e3d e9bd f0a3 d5be
00000160: cbbc 383e 5923 2ebe 1f82 04be 6b93 a3bc
00000170: 2e15 e8bd 5e74 d4bc e8ef 513d 3407 713e
00000180: e89e 80be 92e7 b03b 3e11 60be dff1 4ebe
00000190: 43d4 283e ffd7 c83e cac5 313e e19d c4bb
000001a0: 90f7 0bbe 925c f93e 8942 e43d cda3 a93c
000001b0: c9cc b93d 94ce 9fbd dd8a 2ebe 0656 21be
000001c0: fa68 3fbd 91ed 99be fed2 fc3c 3856 74be
000001d0: 41c5 f4bd 90a0 62bd de96 a4be f9f4 87be
000001e0: 294b 2bbe 2fb1 313e f17c 493b 2954 a03e
000001f0: 531a eebd 4751 ba3e 6ee5 723e 5da4 4e3d
00000200: 9bd8 003e 48f4 8a3d 5243 2cbe cbaf 133e
00000210: 10ee 81be a698 d3be 98d6 b53d 4921 78be
00000220: 055f dbbd a89f 0dbe ea1b 78be e0f1 dcbd
00000230: f3c7 3b3e d307 48be e3ab c43e bb72 77bd
00000240: e159 46be 1ae0 84bd bf13 53bc 0b92 90be
00000250: c761 103e 09cd 5d3d e515 773c ad4b 94be
00000260: 2f10 c43e 4f7d fbbd 3d07 173e 8606 6dbd
00000270: fbce 7e3e 9aba 02be 986c e03e 2e0d 22be
00000280: 2a68 f53d 700a bbbd 8d4d ccbc d599 cebd
00000290: 1540 683d 6a98 01be c791 2e3e d0e5 003e
000002a0: 01db 50bd 773c c73d 14cb 43be 3ee7 e33c
000002b0: 3bdc 01be 5b90 173e b87b c53e 8a3f 443e
000002c0: a8f0 273e e873 c9bc ff6f 293d e42d 39bc
000002d0: db0b 5cbd 846d fb3d 4acb 32be 4ece a33c
000002e0: 1cb8 3dbe 92e0 c13d adc2 83be 09f6 0b3d
000002f0: 2e2f 9b3e 15c3 c2bc 292f b2bd d4ee 00be
00000300: b91a b7be 38bf 2e3d 4807 53bd b94a b1bd
00000310: c6fe 193e 5c34 423c 28c0 fb3e 3991 59be
00000320: 0f80 8abe 41ed 74bd 40f5 bfbd e222 073e
00000330: a7bd f23a 703d 08be 2f31 9b3e 456d 82bd
00000340: c54b c7be f191 6dbe 12c9 823e 0cd7 8a3e
00000350: 3fd6 373d 4269 6b3e c27d 29be 3114 743e
00000360: 4111 e2bd f007 db3d 3214 823e 36e2 023e
00000370: 4232 50be 57bf 10be 2063 453e 1272 6b3e
00000380: eaaa 6ebd 03ec 3a3d 3273 7c3d ac5b 72be
00000390: 876e 0ebd 8a1b 463e 548d c4bc 2a1b 39be
000003a0: 8454 793e 58ab 503e 9d81 113d 5cfb c9bd
000003b0: ff47 1e3d 8ed0 14bc 54bb f93d 5cb8 e13c
000003c0: 1df3 a83c a1f7 a03c 861e 56bd 28fb c63c
000003d0: 82d8 7d3e 96a8 04be ffec a5be 6139 ddbc
000003e0: 6ff1 c8be deaf 1fbe 116a 1e3d d8b4 3cbe
000003f0: 5289 8bbd 2ce6 43be ae8a 06be 233b 803d
0.22810684 0.25001785 -0.030750956 -0.11995693 0.2394279 0.07287509 -0.10326782 0.19188304
-0.052142285 0.0069384924 -0.10908588 0.037171047 0.118800335 0.17088364 0.015205313 0.24324973
0.36210677 0.19743516 0.20119469 0.034737837 0.21608652 0.041086588 -0.4533136 -0.21949472
-0.2598606 0.37768802 0.26189202 -0.28122246 -0.011950368 -0.4308265 -0.035290293 -0.08212721
-0.010172671 -0.1773676 -0.04789915 0.05934438 -0.017374383 0.019086609 0.23642266 0.12758948
0.024690239 0.017356219 0.28558528 0.0062362086 0.3604302 0.14773636 -0.10726601 -0.5666746
0.31173858 -0.014491865 -0.061238963 0.0044473205 0.12869684 0.01946284 0.19727428 -0.20021442
0.22343144 -0.06289034 -0.02502007 0.19618666 0.26479098 -0.034498323 -0.012147673 -0.39532638
-0.36497104 -0.1883511 0.20563197 0.16236643 0.22043467 0.02455231 -0.19981632 -0.07914041
-0.004109105 0.1803242 0.07689403 0.51647294 -0.08794929 -0.030705828 0.03500966 0.38602796
0.075094074 0.31405964 0.27151245 0.027703859 -0.086703196 0.06366995 -0.11388622 -0.41726637
0.18040769 -0.17005672 -0.12940262 -0.019967755 -0.11332165 -0.025934394 0.051254183 0.23537904
-0.25121236 0.005398699 -0.21881577 -0.20209454 0.16487221 0.39227292 0.17360607 -0.006000266
-0.13668656 0.48703438 0.11145503 0.02070799 0.09072263 -0.078030735 -0.1704516 -0.15755472
-0.046730973 -0.3006406 0.030862328 -0.23861015 -0.11951686 -0.055328906 -0.32146353 -0.26554087
-0.1672789 0.17352746 0.0030744637 0.3131421 -0.11626115 0.36390135 0.23720333 0.050449718
0.12582628 0.06784874 -0.16822556 0.14422528 -0.2537694 -0.413274 0.08878821 -0.24231447
-0.10711483 -0.13830435 -0.24229398 -0.107883215 0.18337993 -0.19534235 0.3841239 -0.06041215
-0.19370224 -0.064880565 -0.012883126 -0.28236422 0.14099799 0.054150615 0.015080904 -0.28963986
0.38293597 -0.1227976 0.14748855 -0.05786755 0.24883644 -0.12766495 0.4383285 -0.1582534
0.11982758 -0.0913285 -0.024939323 -0.10087935 0.05670174 -0.12655798 0.17047797 0.12587667
-0.05099011 0.0972833 -0.19120437 0.027820226 -0.12681668 0.14801161 0.38570952 0.19164863
0.16400397 -0.024591401 0.041366573 -0.011302445 -0.053722244 0.12276748 -0.17460361 0.019995835
-0.18527263 0.094666615 -0.25734463 0.034170184 0.30309433 -0.023774663 -0.08700401 -0.12591106
-0.35762575 0.04266283 -0.051520616 -0.0865683 0.15038595 0.011853304 0.4917004 -0.21246804
-0.27050826 -0.059796575 -0.093729496 0.131969 0.0018519656 -0.13304687 0.30310962 -0.06368498
-0.38924995 -0.23200203 0.2554403 0.27117193 0.044882055 0.22989371 -0.16551879 0.23835827
-0.11038447 0.10694873 0.25406033 0.12781605 -0.20331672 -0.1413549 0.19276094 0.22992733
-0.058268465 0.045635235 0.061633296 -0.23667783 -0.034773376 0.19346443 -0.023993172 -0.18076769
0.24348646 0.20377862 0.035524 -0.09862396 0.03864288 -0.009082926 0.12193933 0.02755373
0.020623738 0.019649329 -0.052275203 0.024289683 0.24789622 -0.12954935 -0.32407376 -0.0270049
-0.392467 -0.15594432 0.03867537 -0.18428361 -0.06813301 -0.19130772 -0.1313884 0.062612794

base.mlp.fc2.0.0.bias f4 [64]
00000000: 4871 32bc 4b13 9e3d f5d6 a2bd 01d7 78bc
00000010: edd2 9cbd a226 d7bc 19d0 cabc a6e1 aabc
00000020: 6c61 493b 8965 af3d 3a99 5ebd c708 663c
00000030: b9fc 9fbb 9d51 00bd a839 b2bd f274 28bd
00000040: c939 31bd bbb9 2ebb 5904 c1bc 199b 9abd
00000050: 89a0 1c3d f547 3b3d bb86 083c cb7c 803d
00000060: 11ae eabc 855a 85bc f335 3ebc 236a 53bd
00000070: 1420 84bd d246 903a b5d8 62bd fd2d 883d
00000080: 71ec 81bd dfce 9d3d ca08 9ebd 6dcf 87bd
00000090: 56e4 3cbd 5166 903c 641f 47bd 27a4 a33c
000000a0: 9552 b3bd 8be2 4e3c f3c8 843d 52d5 d73b
000000b0: 7bad 3e3c 2e7d 943d 8a7f 883d a6a9 c93c
000000c0: 93eb 0abc 1733 143d 808f 06bd 3a1b 033c
000000d0: 5f52 d7bc b6f0 e93d 901d c13c 023e b53c
000000e0: 53d1 5c3c f732 6ebd 5277 9fbd 4db7 24bd
000000f0: cc2a 17bd a746 7c3d 42ff 853e 7ffe 0fbd
-0.010891266 0.077185236 -0.07951156 -0.01518798 -0.076574184 -0.026263539 -0.024757432 -0.02085955
0.0030728234 0.08564288 -0.054345347 0.014040179 -0.004882422 -0.031327832 -0.08702403 -0.041127153
-0.043268 -0.0026660997 -0.023561643 -0.07549114 0.038239036 0.04572292 0.0083329035 0.06273802
-0.028647454 -0.016278515 -0.011609542 -0.05161489 -0.06451431 0.0011007434 -0.05538245 0.066493966
-0.06343926 0.07705473 -0.0771652 -0.0663136 -0.046116196 0.017626913 -0.04861392 0.019975735
-0.08755986 0.012627254 0.064836405 0.006586709 0.011638041 0.07250439 0.06664951 0.024617027
-0.008479017 0.036181536 -0.032851696 0.008002097 -0.026284395 0.11422865 0.023573667 0.022124294
0.013477641 -0.058154073 -0.077864304 -0.04021387 -0.03690605 0.061590817 0.2617131 -0.035154816

base.mlp.fc2.0.2.weight f4 [64]
00000000: 8281 7e3f d36a 7e3f 7fba 6d3f ff8c 863f
00000010: 52e0 6f3f eabe 7b3f 72e9 703f a088 803f
00000020: af00 813f a4d6 6b3f 4ff5 5f3f 033f 893f
00000030: 4a33 653f e4ac 663f 393f 6b3f f800 7a3f
00000040: 56d7 7b3f 04a4 7b3f d1a0 603f e548 6f3f
00000050: b970 773f 6bc7 803f 4e14 7c3f 4f1c 503f
00000060: 933b 6b3f bb44 693f 989f 5a3f 5a7e 933f
00000070: 8a56 7b3f 7242 793f 7015 633f 9975 853f
00000080: 4dba 943f 40f8 6f3f f392 643f b8b6 6c3f
00000090: 36d2 723f 0718 793f 9e45 833f 158b 7c3f
000000a0: 2167 6f3f 8816 7a3f f7e0 4f3f 5916 6b3f
000000b0: 580e 6e3f 00dd 773f 330d 883f bfff 803f
000000c0: 314a 7f3f 1629 833f 2552 763f 891d 863f
000000d0: c43b 873f f04c 693f 6c41 833f d1a4 9b3f
000000e0: a1c2 853f 93f9 5c3f fb1d 7d3f 3621 6f3f
000000f0: 6f2c 8b3f 49d4 5f3f 0722 7f3f 5392 873f
0.99416363 0.9938175 0.92862695 1.0511779 0.9370166 0.98338187 0.9410621 1.0041695
1.0078334 0.9212439 0.87483686 1.0722355 0.89531386 0.9010756 0.91893345 0.9765773
0.9837545 0.98297143 0.87745386 0.93470603 0.96656376 1.0060858 0.9846848 0.81293195
0.9188778 0.911205 0.8539977 1.1522934 0.98178923 0.9736701 0.88704586 1.0426513
1.1619354 0.93738174 0.89286727 0.92466307 0.94852006 0.9730229 1.025562 0.9864972
0.9351674 0.9769063 0.81202644 0.91830975 0.92990637 0.96821594 1.0629028 1.0078048
0.9972258 1.0246913 0.9621909 1.0477763 1.0565114 0.9113302 1.025434 1.2159673
1.0450021 0.8631832 0.9887387 0.9341005 1.0872935 0.87433296 0.99661297 1.059153

base.mlp.fc2.0.2.bias f4 [64]
00000000: e087 86bc 5083 923c 59ba c53a a2ee c93b
00000010: 910e 153c c11f acbb d59a a83c 50a9 3a3c
00000020: 799c 7a3b b4ab 86bd b688 2b3d 3cf5 0a3c
00000030: ef51 163c 25bb 3e3b ce60 47bc 245f ab3b
00000040: 4c22 7f3b 7615 babb 0807 75b9 1342 e43c
00000050: 3891 c0bb 24b3 eebb 1f3b 843c 22f2 84bd
00000060: fd77 733c 9556 cf3a cc4f 5ebc 9325 513c
00000070: 89f9 4e3b 6bc5 8c3c 77ab c63b c6a7 26bc
00000080: 2ac4 0a3d dd09 11bd de01 a2bc b300 0e3d
00000090: 274f 1a3c cc39 40bc d432 0f3c e03f 303c
000000a0: a030 0f3c c626 b1bb d5a7 a9bd fab2 1a3d
000000b0: 63e4 f9bb f1a1 1dbc 40b1 37bd eb28 59bc
000000c0: e41d 8f3c 8f4c 92bb f923 963c 8c39 a93b
000000d0: cb63 2fbb c21f 13bb caf0 e7bb ef55 cfbb
000000e0: 07ff 3fbd b2d7 a93c 45d9 883c 7f99 9f3a
000000f0: 79cd 813c e214 f63b f5a3 8bbc dc00 97b9
-0.016422212 0.01788488 0.0015085443 0.0061624805 0.009097711 -0.005252809 0.020581642 0.011392906
0.0038240238 -0.065757185 0.041878425 0.00848132 0.009174808 0.0029103246 -0.012169076 0.0052298475
0.0038930355 -0.005678828 -0.0002336764 0.027863538 -0.0058766864 -0.007284539 0.016141472 -0.06491496
0.01486015 0.001581865 -0.01356883 0.012765306 0.003158184 0.01718398 0.0060629207 -0.010171836
0.033878483 -0.035409797 -0.019776281 0.034668636 0.009418285 -0.01173253 0.008740146 0.0107574165
0.00873962 -0.0054062335 -0.082839645 0.03776834 -0.007626103 -0.009621129 -0.044846773 -0.0132543845
0.017470308 -0.004464693 0.0183277 0.005164331 -0.0026762362 -0.002244935 -0.007078265 -0.0063273828
-0.046874072 0.020732734 0.016705165 0.0012176483 0.015845047 0.0075098136 -0.017045954 -0.00028801605

v_out.weight f4 [1, 64]
00000000: 32f4 1cbd 61df 73bd 5088 ea3d b968 e3bd
00000010: a072 46be 9306 5a3e d969 33bd a3b7 b2bc
00000020: 7625 d03d dde0 15bd 6b5d c43c bed3 d3bd
00000030: aad7 76bd 690a f63d 283f 363d 351c 193e
00000040: c5a3 e03d 6256 e63d 3790 1f3e 9a62 eabc
00000050: cfda c13d be5a d83d 4887 8cbd 8eef 253c
00000060: e060 83bd 08cd e83d 6bc7 473b bc7b 26be
00000070: c081 a93d 2476 72bd f9f3 6cbe e7be a93d
00000080: 5c43 2abe 10b7 f13c b6a6 a53c 346c 3ebd
00000090: 6784 25be 3c49 033e 6d26 37bd fb36 49be
000000a0: 4161 22be 79c1 463e 516d 2dbc 3d5f a2bc
000000b0: 2dc2 5f3d eafc fe3c 62a6 fe3d 0ebb 033e
000000c0: ceb0 83bd 16c1 603d d820 92bd 5ac3 05be
000000d0: 8fc5 633e bd08 42bc 16b8 fd3d 51cd 14be
000000e0: bcb7 e33d ca38 f339 4e64 c1bd e968 f63d
000000f0: d7f7 b7bd a1f3 143c e564 8b3d 8d0f 5b3e
-0.03831882 -0.059539203 0.11451781 -0.11103959 -0.19379663 0.2129157 -0.043802116 -0.02181608
0.10163395 -0.0365914 0.023970326 -0.10343121 -0.060264267 0.12013704 0.044493824 0.14952166
0.109687366 0.11246945 0.15582357 -0.02861147 0.094655626 0.10564183 -0.0686174 0.010127915
-0.06414962 0.113672316 0.0030483853 -0.16258138 0.08276701 -0.0591947 -0.23139943 0.08288365
-0.16627258 0.029506236 0.020221096 -0.04648991 -0.16163789 0.12820905 -0.04471438 -0.1964988
-0.15857412 0.19409741 -0.010585145 -0.019820804 0.05462854 0.031126458 0.12434079 0.12864324
-0.06430207 0.05487164 -0.07135171 -0.13062802 0.22243331 -0.011842904 0.12388627 -0.14531447
0.11119029 0.00046390883 -0.0944296 0.12031729 -0.089828186 0.009091289 0.068063535 0.21392651
