checkpoint/best_mappo_seed112_run20260211_190306_envmpe-cooperative_navigation_ep5200_agent1_actor.pt (torch, 31551 bytes, 13 tensors)

base.feature_norm.weight f4 [18]
0	0x3f82c4f6	1.0216358
1	0x3f85a41a	1.0440705
2	0x3f802a82	1.0012972
3	0x3f7cf0ac	0.98804736
4	0x3f8b3bcb	1.0877622
5	0x3f835401	1.0260011
6	0x3f78d5a5	0.97200996
7	0x3f7abed6	0.9794744
8	0x3f81ca1d	1.0139805
9	0x3f811b00	1.0086365
10	0x3f7a5681	0.97788244
11	0x3f6952f0	0.9114218
12	0x3f6b67fa	0.9195553
13	0x3f7e75cc	0.99398494
14	0x3f83d6ab	1.0299886
15	0x3f7ac666	0.9795898
16	0x3f7c865b	0.9864251
17	0x3f74e928	0.9566827

base.feature_norm.bias f4 [18]
0	0xbd9f28af	-0.07771432
1	0xbd730d7d	-0.059339035
2	0x3ced07d3	0.028934395
3	0xbd143d18	-0.036191076
4	0x3c7299d9	0.014807188
5	0x3ce6a05e	0.02815264
6	0x3c96cc33	0.018407917
7	0xbc572021	-0.013130219
8	0x3cd935d0	0.026514918
9	0x3ccd563d	0.025065536
10	0x3c8ab75a	0.016933132
11	0x3cfe84db	0.03106921
12	0x3c5bb533	0.0134099005
13	0x3c9b6366	0.018968295
14	0x3d6c3fcc	0.05767803
15	0x3c44d0bf	0.01201266
16	0xbd0e3e32	-0.034727283
17	0xbcf32ce7	-0.029684497

base.mlp.fc1.0.weight f4 [64, 18]
0	0xbdc061dd	-0.09393666
1	0xbe32a88f	-0.17447113
2	0x3cb5da2d	0.02219876
3	0x3dda5e19	0.10662479
4	0xbe096bf3	-0.13420086
5	0xbdaadab5	-0.08342496
6	0xbd59d95b	-0.053185802
7	0x3c831000	0.01599884
8	0xbe91c297	-0.28468773
9	0xbe5c7b98	-0.21531522
10	0xbd9003a0	-0.070319414
11	0x3e4d9176	0.2007502
12	0x3ee3d035	0.44494787
13	0xbe538644	-0.20656687
14	0x3d860d48	0.06545502
15	0x3c7286cd	0.014802647
16	0x3d92dc9c	0.07170984
17	0xbcd3e433	-0.02586565
18	0xbd24b02b	-0.04020707
19	0x3e7044b9	0.23463716
20	0x3ccd705d	0.025077993
21	0xbd55a8b3	-0.052162837
22	0x3eef3ef3	0.46727714
23	0xbddb64d7	-0.10712593
24	0x3e2f8a3e	0.17142579
25	0x3e553edf	0.20824765
26	0xbe27933a	-0.16364756
27	0x3e8ddc4b	0.27707133
28	0xbe7f5424	-0.24934441
29	0xbe5cbbdf	-0.21556042
30	0xbe821a3e	-0.25410646
31	0xbd0ae931	-0.033913795
32	0xbd7f3976	-0.06231066
33	0xbdd03ad2	-0.10167469
34	0xbd5c627e	-0.053804867
35	0xbd363771	-0.044486467
36	0x3c874d39	0.016516315
37	0x3de5c74d	0.11219654
38	0x3d3c4d5b	0.04597221
39	0x3e22ac21	0.15885974
40	0xbe321df8	-0.17394245
41	0xbceb4060	-0.02871722
42	0xbe1ba15e	-0.15198275
43	0xbe03c017	-0.12866245
44	0xbd9d1ba2	-0.07671286
45	0x3daeabba	0.08528848
46	0xbd9363d7	-0.07196777
47	0x3e0373a5	0.12837084
48	0xbd7a1c8a	-0.061062373
49	0xbcf6b01e	-0.030113276
50	0xbecfafd8	-0.40563846
51	0xbe25e619	-0.16201057
52	0x3c7e8c18	0.015536331
53	0xbe33ab9c	-0.17545933
54	0xbe0d77cd	-0.13815232
55	0xbd2d24bb	-0.042271357
56	0x3e52ddc6	0.20592412
57	0x3da65475	0.08121578
58	0xbe289815	-0.16464265
59	0x3e742227	0.23841153
60	0x3dce3dd5	0.10070387
61	0xbe4715c0	-0.1944189
62	0x3e2afb29	0.16697372
63	0x3cbf9211	0.02338508
64	0x3dbc1262	0.09183194
65	0xbe4b5c60	-0.19859457
66	0x3dfc2b72	0.12312974
67	0xbdf9a472	-0.121895686
68	0xbda23a05	-0.079212226
69	0xbe333063	-0.17498927
70	0x3d01d133	0.03169365
71	0xbca76910	-0.02043584
72	0xbe5503f6	-0.20802292
73	0xbcb7368c	-0.022364877
74	0x3e330360	0.17481756
75	0x3dd0d77a	0.10197349
76	0xbe95ab3b	-0.292322
77	0xbe0e9cb1	-0.1392696
78	0xbcbe4ebf	-0.023230908
79	0xbc803c5a	-0.015653778
80	0xbe3095a1	-0.17244579
81	0x3d9546ee	0.072889194
82	0xbdf525d5	-0.119701065
83	0xbd97f90f	-0.07420551
84	0xbd32369f	-0.043509122
85	0xbedd2b26	-0.43196982
86	0x3e6591a7	0.22418843
87	0xbe3e6cfc	-0.18596262
88	0xbdd38c79	-0.103295274
89	0xbcaa1d1c	-0.020765834
90	0x3d6b197c	0.05739735
91	0xbe840bea	-0.2579034
92	0xbe51ac2b	-0.20475833
93	0x3e68c527	0.22731458
94	0xbda5c8a3	-0.08094909
95	0x3d9938aa	0.07481511
96	0x3d7b2dfa	0.061323144
97	0x3d5d2b94	0.053996637
98	0x3dcdcb76	0.10048573
99	0xbee363d5	-0.44412103
100	0xbd77466d	-0.060369898
101	0xbe74b2aa	-0.2389628
102	0x3e6c644f	0.2308514
103	0xbe206086	-0.15661821
104	0x3dcca5d7	0.09992569
105	0x3de8dd16	0.11370294
106	0x3ed0031d	0.40627375
107	0xbe15d663	-0.14632563
108	0x3e66312c	0.22479695
109	0xbe20d010	-0.1570437
110	0x3d56bdb9	0.052427027
111	0x3ca110fa	0.019661415
112	0xbc286f99	-0.010280513
113	0x3d485e11	0.048917834
114	0xbe4d15c5	-0.20027836
115	0xbd61e3f4	-0.055149034
116	0xbbeb6de0	-0.007184729
117	0x3d9d8c81	0.076928146
118	0xbeaaa752	-0.3333078
119	0x3e35e144	0.17761713
120	0x3e9ff482	0.31241232
121	0xbe39ddd1	-0.18151022
122	0xbd654ee7	-0.05598345
123	0xbd89115c	-0.06692764
124	0x3dd6936c	0.10477337
125	0x3e070339	0.13184823
126	0xbe990f2d	-0.2989439
127	0x3e3a8a26	0.18216762
128	0xbe6096b3	-0.21932487
129	0xbd9b1698	-0.07572669
130	0xbed29d3b	-0.41135582
131	0xbc65213b	-0.013984974
132	0x3d82b786	0.063826606
133	0x3e304bfe	0.17216489
134	0xbd607796	-0.054801546
135	0xbd847933	-0.064684294
136	0xbd81a60f	-0.06330501
137	0x3e6e25e3	0.2325664
138	0x3deae9ab	0.1147035
139	0x3cf29e03	0.029616361
140	0xbddb9d2e	-0.10723339
141	0xbe1a7a40	-0.15085697
142	0xbe218768	-0.1577431
143	0x3eac6b19	0.3367546
144	0xbe458092	-0.19287327
145	0x3ee113e1	0.4396048
146	0xbdb4adb6	-0.08822195
147	0x3e09f1d1	0.13471152
148	0x3e8c927c	0.2745551
149	0x3d427a86	0.04748013
150	0xbd00a010	-0.031402647
151	0xbe1768b7	-0.1478604
152	0x3db56893	0.088578366
153	0xbe54f288	-0.20795643
154	0x3e2caf27	0.1686369
155	0x3e9f7bb4	0.31149065
156	0xbe89b01f	-0.26892182
157	0xbd816d72	-0.06319703
158	0x3ef18395	0.47170702
159	0xbdbf7b11	-0.09349645
160	0xbdb0c7e3	-0.08631875
161	0x3df13875	0.117783464
162	0xbcd3b054	-0.025840916
163	0x3ddda9b5	0.10823385
164	0xbdb411d8	-0.08792466
165	0x3d724b36	0.059153758
166	0x3e2d2b72	0.16911104
167	0xbd7e0957	-0.062020626
168	0xbe1f54b9	-0.15559663
169	0x3e062ee1	0.1310382
170	0x3ec47f8c	0.3837856
171	0xbe37e5f9	-0.17958821
172	0x3df7feda	0.12109156
173	0x3e9b8ccd	0.3038086
174	0xbe010632	-0.1260002
175	0xbeaf3d24	-0.34226334
176	0x3cf08b53	0.02936331
177	0x3e9d6cf0	0.30747175
178	0x3d3035b6	0.043019973
179	0xbe055962	-0.13022378
180	0xbe26b174	-0.1627863
181	0xbc4e41b6	-0.012588909
182	0x3e6fc0fc	0.23413461
183	0x3dc197d4	0.09452787
184	0x3df7abd2	0.12093319
185	0x3eb43c6a	0.35202342
186	0xbccf709f	-0.025322257
187	0x3de937c4	0.113875896
188	0x3eb36f6e	0.35045952
189	0x3cf5e2a4	0.030015297
190	0xbc609fa6	-0.013709938
191	0xbdb1c044	-0.0867925
192	0xbd5699e5	-0.05239286
193	0x3d573f1d	0.052550424
194	0x3c8e518b	0.017372867
195	0x3a100200	0.0005493462
196	0xbe618099	-0.22021712
197	0x3c18be94	0.009322781
198	0xbd77dd6b	-0.060513895
199	0xbe8ba096	-0.27270955
200	0x3d222c2a	0.0395929
201	0x3e8d1f17	0.27562782
202	0x3d0a21e0	0.033723712
203	0xbc3da0bb	-0.011573966
204	0xbe5ce2bb	-0.21570866
205	0xbe0c27bc	-0.13687032
206	0xbcf6c9be	-0.030125495
207	0x3e558eac	0.20855206
208	0x3dc5276b	0.09626659
209	0x3dd00698	0.10157508
210	0xbea10dbd	-0.31455794
211	0xbe953ec1	-0.2914944
212	0x3e46b4a2	0.19404843
213	0x3e53c116	0.20679125
214	0xbd12c19c	-0.03582917
215	0x3e3f7692	0.18697575
216	0xbe19f17d	-0.15033527
217	0xbd900201	-0.07031632
218	0x3eb22015	0.34790102
219	0xbe59d3ad	-0.21272154
220	0x3eeb81a0	0.45997334
221	0xbd9643aa	-0.07337125
222	0x3dedd6c5	0.1161323
223	0xbe48f366	-0.19624099
224	0x3ccc676b	0.024951657
225	0xbdaca42f	-0.08429753
226	0xbbf53d42	-0.007484109
227	0xbd91967c	-0.07108781
228	0x3e0d2593	0.13783865
229	0x3e54f7e9	0.20797695
230	0xbe13ab74	-0.14420873
231	0xbdcf2215	-0.101139225
232	0x3ea825fe	0.32841486
233	0xbe168593	-0.14699392
234	0x3de6a795	0.112624325
235	0xbea6bbac	-0.32565057
236	0x3e10467f	0.14089392
237	0xbccd6802	-0.025074009
238	0xbe4b9d91	-0.19884326
239	0x3e602c1f	0.21891831
240	0x3e045454	0.12922794
241	0x3d70f731	0.05882949
242	0xbd35bd06	-0.04436972
243	0x3d9c9c6e	0.07647024
244	0x3e18f620	0.14937639
245	0x3dc8f61c	0.09812567
246	0xbe47191f	-0.19443177
247	0xbe68bf19	-0.22729148
248	0x3dedd064	0.11612013
249	0xbd5879e9	-0.052850638
250	0x3ece2252	0.4026056
251	0xbddd9faf	-0.10821473
252	0xbd671328	-0.056414753
253	0x3d7c8040	0.061645746
254	0xbd9e8528	-0.07740241
255	0xbc85a011	-0.016311677

base.mlp.fc1.0.bias f4 [64]
0	0xbc1d5993	-0.009603876
1	0xbcdca63e	-0.02693474
2	0xbc392949	-0.011301347
3	0x3c3c3ec4	0.011489574
4	0x3b927b02	0.00447023
5	0x3b5d20dc	0.003374151
6	0x3a96f394	0.0011516684
7	0x3d789c89	0.06069616
8	0x3d0a6f47	0.03379753
9	0x3c851b9f	0.016248522
10	0x3ccba130	0.024857134
11	0xbba0b073	-0.004903847
12	0x3d1f8036	0.03894063
13	0x3d7407c8	0.059577733
14	0xbc76bd54	-0.015059788
15	0xbd34497b	-0.04401539
16	0xbbacc7a8	-0.0052728243
17	0x3d49e8b9	0.049294207
18	0x3d7e62ad	0.062105823
19	0x3c67ae89	0.0141407335
20	0xbcfdd5f5	-0.030985812
21	0xbc6b4728	-0.014360227
22	0xbdb19f07	-0.0867291
23	0xbc5bb104	-0.013408903
24	0xba5d4004	-0.000844002
25	0x3b5e26db	0.0033897671
26	0x3c8d8a24	0.017277785
27	0x3d3ebdc1	0.046567682
28	0xbca9934c	-0.02070012
29	0xbd533cbd	-0.051571596
30	0x3d4a8777	0.049445596
31	0x3d7f9494	0.062397555
32	0xbae4b090	-0.0017447639
33	0xbc414db5	-0.011798312
34	0xbc773867	-0.015089131
35	0xbd205ee4	-0.039152995
36	0x3c6a1636	0.014287522
37	0xbcdb398c	-0.026760839
38	0xbceb7de2	-0.028746549
39	0xbd4445be	-0.047918074
40	0x3ce55512	0.027994666
41	0x3c2864ff	0.010277986
42	0xbd4e99e4	-0.05043973
43	0x3ca65262	0.020302955
44	0xbd62530f	-0.055254992
45	0xbc965af3	-0.018353915
46	0xbc809043	-0.01569379
47	0x3db8166a	0.0898865
48	0x3d90ede7	0.07076626
49	0x3cea8e40	0.028632283
50	0xbd127cc1	-0.035763506
51	0xbd2ae786	-0.041724704
52	0xbdafca29	-0.08583481
53	0x3c8a04e0	0.016848028
54	0xbcdee745	-0.027209887
55	0x3c0768d9	0.008264744
56	0xbc82e059	-0.015976118
57	0x3c951037	0.018196208
58	0xbd447b7b	-0.047969323
59	0x3d2121d4	0.0393389
60	0x3abbbfd7	0.001432414
61	0xbcb50736	-0.022098165
62	0x3ca77747	0.020442618
63	0xbbbdd80a	-0.005793576

base.mlp.fc1.2.weight f4 [64]
0	0x3f7e9bcd	0.99456483
1	0x3f801c77	1.0008687
2	0x3f81fdd0	1.0155582
3	0x3f74facd	0.9569519
4	0x3f81ce51	1.0141088
5	0x3f812d9a	1.0092041
6	0x3f74d1f3	0.9563286
7	0x3f7d843d	0.99029905
8	0x3f886eb4	1.0658784
9	0x3f84c448	1.03724
10	0x3f824235	1.0176455
11	0x3f7143a8	0.9424386
12	0x3f82f895	1.0232111
13	0x3f866fe6	1.0502899
14	0x3f7e551b	0.9934861
15	0x3f8120ed	1.0088173
16	0x3f818b68	1.0120668
17	0x3f83b5c1	1.0289842
18	0x3f8bfeec	1.0937171
19	0x3f7bf26b	0.98416775
20	0x3f80a6bc	1.0050883
21	0x3f7b0177	0.9804911
22	0x3f702ba3	0.93816584
23	0x3f7f7c26	0.9979881
24	0x3f83deae	1.0302331
25	0x3f78245a	0.9693047
26	0x3f797ecd	0.9745911
27	0x3f8176da	1.0114396
28	0x3f7df4ae	0.99201477
29	0x3f83ec57	1.03065
30	0x3f7a8c66	0.9787048
31	0x3f875c6c	1.057508
32	0x3f7a69d0	0.9781771
33	0x3f805bbc	1.0027995
34	0x3f8679f2	1.0505965
35	0x3f7c6adb	0.9860055
36	0x3f7d834b	0.9902846
37	0x3f728dae	0.94747436
38	0x3f7913d8	0.97295904
39	0x3f846ca4	1.0345654
40	0x3f8a505d	1.0805775
41	0x3f809abc	1.0047221
42	0x3f68fc88	0.9101033
43	0x3f7f843d	0.99811155
44	0x3f7db378	0.9910197
45	0x3f7c62dd	0.98588353
46	0x3f84944b	1.0357755
47	0x3f8593c1	1.0435716
48	0x3f8a13f6	1.0787342
49	0x3f829074	1.0200334
50	0x3f7555f6	0.9583429
51	0x3f8469ed	1.0344826
52	0x3f6edc63	0.93305033
53	0x3f7bf01c	0.9841325
54	0x3f7c165e	0.9847163
55	0x3f7bfd45	0.98433334
56	0x3f7a5516	0.9778608
57	0x3f812c75	1.0091692
58	0x3f6f0447	0.933659
59	0x3f8039f7	1.001769
60	0x3f821e5a	1.0165513
61	0x3f77f529	0.9685846
62	0x3f834c94	1.0257745
63	0x3f817b50	1.0115757

base.mlp.fc1.2.bias f4 [64]
0	0x3cb7f9df	0.022458015
1	0xbcfeab4e	-0.031087544
2	0xbd14f3e6	-0.036365412
3	0x3be8d5cc	0.0071055647
4	0xbd0a576e	-0.033774786
5	0xbd21c3a3	-0.039493214
6	0x3c406fb6	0.011745384
7	0x3ccb8a69	0.024846273
8	0xbcbc1843	-0.022960788
9	0xba946783	-0.0011322353
10	0x3d44c1b2	0.048036285
11	0x3c66dc1e	0.014090566
12	0x3c3d56be	0.0115563255
13	0x3bb0ad7e	0.0053917756
14	0xbd015573	-0.03157563
15	0xbd3f0060	-0.046631217
16	0xbc50edd6	-0.012752017
17	0x3d08959e	0.03334581
18	0xbc20655b	-0.00978979
19	0x3ae64331	0.0017567632
20	0xbcea844d	-0.028627539
21	0xbcea4bf3	-0.028600669
22	0xbc024cc0	-0.007952869
23	0xbd001c93	-0.03127725
24	0xbbf15a15	-0.007365475
25	0xbc7cc9e3	-0.015428993
26	0x3ce78461	0.028261365
27	0x3d3e9c75	0.046535928
28	0x3a9975c1	0.0011708067
29	0xbd369ea9	-0.044584904
30	0x3cba2760	0.022723854
31	0xbb89a8eb	-0.004201045
32	0x3b0d2789	0.0021538457
33	0xbcc3c411	-0.023897203
34	0xbc800d37	-0.015631301
35	0xbd8210a9	-0.06350834
36	0x3bf52a73	0.007481867
37	0x3c982a03	0.01857472
38	0x3d1696bd	0.03676485
39	0xbd58b11f	-0.05290329
40	0x3cafaed3	0.021445667
41	0x3d078cc0	0.033093214
42	0x3c57a2ed	0.013161403
43	0x3c8020c7	0.01564063
44	0xbd6a2e58	-0.057173103
45	0xbd3482b6	-0.04406997
46	0xbd4f3c0b	-0.05059437
47	0x3d44558d	0.04793315
48	0x3cef5ea6	0.029219937
49	0x3ab03e5f	0.0013446322
50	0x3b8a4949	0.004220162
51	0xbd5ba47d	-0.053623665
52	0xbdbdbdad	-0.092646934
53	0x3d9b9ca6	0.07598238
54	0x3befbf7f	0.0073165293
55	0x3d12f3f4	0.035877183
56	0xba95c5b3	-0.0011426717
57	0x3cbad73a	0.022807706
58	0xbd64ebe5	-0.05588903
59	0xbc501872	-0.012701141
60	0xbd3cf4c0	-0.04613185
61	0xbcdc2239	-0.026871787
62	0x3d01a321	0.031649712
63	0xbbe42db2	-0.006963455

base.mlp.fc2.0.0.weight f4 [64, 64]
0	0xbe48dff6	-0.19616684
1	0xbe7cb387	-0.24677859
2	0x3e9a5841	0.30145457
3	0xbbc820b9	-0.0061074165
4	0x3e0ac1ea	0.13550535
5	0x3eb49169	0.3526719
6	0x3d461c89	0.048367057
7	0x3d238ecc	0.039931104
8	0x3e0665fa	0.13124838
9	0x3d6f0166	0.058350943
10	0xbdf937b6	-0.12168829
11	0x3da1e717	0.07905405
12	0xbdf2a6e4	-0.11848238
13	0xbe4f8220	-0.20264482
14	0xbe26e052	-0.16296509
15	0xbd9205a0	-0.07129979
16	0xbe854b3e	-0.26033968
17	0x3cc0c1e2	0.02352995
18	0x3ecfbd19	0.40573958
19	0x3e89e3d4	0.26931632
20	0xbe0906da	-0.1338152
21	0x3d08827d	0.03332757
22	0xbdc501fe	-0.096195206
23	0x3d0d1fc7	0.034454133
24	0xbe37d105	-0.17950828
25	0xbe5b3b1d	-0.21409269
26	0xbd7cf7c4	-0.061759725
27	0x3e331980	0.17490196
28	0xbea84edf	-0.32872674
29	0xbe01d7b2	-0.12679937
30	0x3e390107	0.18066798
31	0x3d1efc76	0.038814984
32	0xbd221c94	-0.039578035
33	0x3e1c9548	0.15291321
34	0x3e3fc11f	0.18726014
35	0x3db5c62e	0.088756904
36	0xbd2c74cc	-0.042103574
37	0x3cc4c273	0.024018502
38	0x3e1071dd	0.14105935
39	0xbe088b4f	-0.13334392
40	0x3d9dbd63	0.07702138
41	0x3e866d55	0.2625529
42	0x3d21382b	0.039360207
43	0x3dbde58c	0.09272298
44	0x3d640076	0.055664502
45	0x3dba1d82	0.090876594
46	0xbe879773	-0.26482734
47	0x3d03ff02	0.032225616
48	0xbe7d3fd6	-0.24731383
49	0x3e0aa5b5	0.13539775
50	0x3e2f9971	0.17148377
51	0xbdf4e0fc	-0.11956975
52	0x3c22e2a0	0.009941727
53	0xbdf913d2	-0.121619835
54	0xbd2b6034	-0.041839793
55	0x3d95f85a	0.0732276
56	0x3e18cbff	0.14921568
57	0x3e815632	0.25261074
58	0xbebd8e67	-0.37022707
59	0xbe6812dc	-0.22663444
60	0x3e18fc26	0.14939937
61	0x3e9a5c97	0.30148765
62	0x3e64a76c	0.22329491
63	0x3c68778b	0.0141886575
64	0x3d9fa616	0.0779535
65	0x3c5fc4ae	0.013657732
66	0x3dc76500	0.09736061
67	0xbc8232d9	-0.015893387
68	0xbe2cf64c	-0.1689083
69	0xbece1246	-0.40248317
70	0x3d272bc8	0.040813237
71	0x3e3d7585	0.18501861
72	0xbe13bc0a	-0.144272
73	0xbe02eae6	-0.12784919
74	0x3e562cf2	0.20915583
75	0x3e9217fb	0.2853392
76	0x3eaf8f4e	0.3428902
77	0x3e100173	0.14063053
78	0x3d952674	0.07282725
79	0x3e7a8902	0.24466327
80	0xbe27c37e	-0.16383168
81	0x3ea98488	0.33108926
82	0xbd291c3c	-0.041286692
83	0x3e290392	0.16505268
84	0xbe0253c3	-0.12727265
85	0x3e849167	0.25892183
86	0x3dc767ce	0.09736596
87	0x3d239877	0.039940324
88	0x3d8c080f	0.068374746
89	0xbdd1223d	-0.102116086
90	0x3ec89559	0.39176443
91	0x3d3b0e6d	0.045668054
92	0xbd88a0b9	-0.066712804
93	0x3dc38eea	0.09548743
94	0x3ea2e1d1	0.3181291
95	0x3e2b7cd6	0.1674684
96	0xbdfae449	-0.12250573
97	0x3e329474	0.17439443
98	0x3e5130fc	0.20428842
99	0xbe76ec0f	-0.24113487
100	0xbc09a4f2	-0.008401142
101	0xbd4c5fa7	-0.04989591
102	0xba903678	-0.0011002561
103	0xbe28509e	-0.16437003
104	0x3d273fcb	0.040832322
105	0x3c444649	0.011979648
106	0x3ddd9139	0.10818715
107	0xbe972b94	-0.29525435
108	0x3e20ad15	0.15691026
109	0x3cf7b51a	0.030237723
110	0xbd0e7337	-0.034777846
111	0x3ec2beda	0.38036233
112	0xbd1c1d38	-0.038113803
113	0x3eaa4489	0.33255413
114	0x3d08f32e	0.03343504
115	0xbe50c7fa	-0.20388785
116	0xbc96db0e	-0.018415
117	0xbd5c5ed5	-0.053801376
118	0xbe41deec	-0.18932694
119	0xbd1de76c	-0.03855078
120	0xbe82f49c	-0.25577247
121	0xbe523335	-0.20527346
122	0xbe4c5b31	-0.19956662
123	0xbe2e247d	-0.17006107
124	0xbe25c386	-0.16187868
125	0xbef1346c	-0.47110307
126	0xbe5e2b59	-0.21696223
127	0xbd17b255	-0.037035305
128	0x3e848b25	0.2588741
129	0x3cf3dd36	0.029768568
130	0x3e033101	0.12811662
131	0xbe06cf25	-0.13164957
132	0x3e867288	0.26259255
133	0xbe981090	-0.29700136
134	0x3ce2b16a	0.027672488
135	0x3cc0846a	0.02350064
136	0x3ec5cf0c	0.38634527
137	0x3e0514db	0.12996237
138	0x3ebf7fa7	0.37402079
139	0xbdfa815f	-0.12231707
140	0xbd906da3	-0.070521615
141	0x3d5b1e0b	0.053495448
142	0xbe01c075	-0.12671073
143	0xbdc5b468	-0.096535504
144	0xbcdaf7c4	-0.026729472
145	0xbde1b44f	-0.11020719
146	0x3e2b8fe8	0.16754115
147	0xbe95d38a	-0.29262954
148	0x3d86bc94	0.06578937
149	0x3de8c4c0	0.11365652
150	0xbe1fa3ae	-0.15589783
151	0xbec7ab91	-0.38998082
152	0x3a960920	0.0011446811
153	0xbe615767	-0.22005998
154	0xbeba92b4	-0.3644005
155	0xbd803cf2	-0.062616244
156	0xbce8d50a	-0.028421897
157	0x3e5ae102	0.21374896
158	0x3c5d6d28	0.013514794
159	0xbc87895d	-0.016544992
160	0xbdaea34a	-0.08527239
161	0x3e74c6a5	0.23903902
162	0x3d4a3dc5	0.049375314
163	0x3dddc142	0.108278766
164	0xbde4ab70	-0.111655116
165	0x3e88c965	0.26716152
166	0x3d3dafc4	0.0463102
167	0xbe15d824	-0.14633232
168	0x3e7ccf6b	0.24688499
169	0xbdddcb81	-0.10829831
170	0xbe3c54fc	-0.18391794
171	0xbe2b6ddb	-0.16741125
172	0x3dc34f10	0.09536564
173	0x3e1840a0	0.14868402
174	0xbd68bed7	-0.056822624
175	0x3da6c6ff	0.08143424
176	0xbea20582	-0.31644827
177	0xbe58dbdc	-0.2117762
178	0xbd368ec8	-0.04456976
179	0x3cfa76b6	0.030574184
180	0xbe2ed030	-0.17071605
181	0xbeaa30b0	-0.3324027
182	0x3d904d67	0.07046013
183	0xbdeb7a9e	-0.11497997
184	0x3d19180d	0.037376452
185	0x3ddf648c	0.1090785
186	0x3e19f820	0.15036058
187	0x3e0b5d4a	0.13609806
188	0x3d301a6e	0.042993955
189	0xbe768dc0	-0.24077511
190	0x3e6aa971	0.229162
191	0x3e3ed85b	0.1863722
192	0xbe80b390	-0.25136995
193	0xbe00dca6	-0.1258417
194	0x3e844441	0.25833324
195	0xbd74178a	-0.05959276
196	0xbe1fd178	-0.1560725
197	0xbc6cb019	-0.014446282
198	0xbca0e080	-0.0196383
199	0xbbe8ecea	-0.0071083205
200	0xbe920dab	-0.28526053
201	0x3eaf3bd7	0.34225342
202	0xbe838e2f	-0.25694415
203	0xbe5d7042	-0.21624854
204	0x3d83293a	0.06404348
205	0x3e94d137	0.29065868
206	0xbdd04155	-0.10168711
207	0x3e5ae333	0.21375732
208	0xbd290081	-0.041260246
209	0x3e8e4948	0.27790284
210	0x3dab90a8	0.083772
211	0x3da00570	0.07813537
212	0x3dff76f6	0.12473862
213	0x3d651715	0.055930216
214	0x3ec57a9e	0.38570112
215	0xbd8b84b9	-0.06812424
216	0x3e1ce9ac	0.15323514
217	0x3d0c2aee	0.03422063
218	0x3dcb4e09	0.099269934
219	0x3e368533	0.17824249
220	0x3b7cc054	0.0038566785
221	0x3e19afbb	0.15008442
222	0xbceadef7	-0.028670771
223	0x3eaba288	0.3352244
224	0x3e80822a	0.25099307
225	0x3d61bab4	0.055109695
226	0xbe4692d8	-0.19391954
227	0xbe440794	-0.19143516
228	0xbc95dd0d	-0.018293882
229	0x3df8c839	0.121475644
230	0xbd9e3f85	-0.07726959
231	0xbea299b1	-0.31757882
232	0x3ea625ac	0.32450616
233	0xbd21afef	-0.039474424
234	0xbebea85c	-0.37237823
235	0x3d3f8f58	0.046767563
236	0xbd02186d	-0.031761575
237	0xbea41940	-0.32050514
238	0x3c97cdc6	0.018530738
239	0x3dc212d9	0.09476251
240	0xbde68bbf	-0.11257123
241	0x3da0ed2a	0.078577355
242	0x3bbdbdfa	0.0057904692
243	0x3e2d8c51	0.16948058
244	0x3ce512ca	0.02796306
245	0x3e69522f	0.22785257
246	0x3d517600	0.051137924
247	0xbe230e3b	-0.15923397
248	0xbd586627	-0.052831795
249	0x3e5e5f8c	0.21716136
250	0x3e10e259	0.14148845
251	0x3e41a6e7	0.18911324
252	0x3e35e46b	0.17762916
253	0x3ab014fa	0.0013433986
254	0x3e77a7b8	0.24185073
255	0x3d77c7f5	0.06049343

base.mlp.fc2.0.0.bias f4 [64]
0	0x3c5ec9cd	0.013597918
1	0x3d711803	0.05886079
2	0xbc817613	-0.015803372
3	0x3cd3ae3d	0.02583992
4	0x3c81ba2a	0.01583584
5	0xbcdadb7c	-0.026715986
6	0xbd9ad349	-0.07559831
7	0xbbd662a6	-0.0065425215
8	0xbcbaddd6	-0.022810858
9	0x3d6eb394	0.058276728
10	0x3d36570e	0.044516616
11	0xbbbb81ca	-0.005722259
12	0x39f71997	0.00047130577
13	0x3c371d45	0.011176412
14	0xbbda0ff2	-0.006654733
15	0x3c76dd6a	0.015067438
16	0xbc04a6d9	-0.00809642
17	0x3db814df	0.08988356
18	0xbd314425	-0.04327788
19	0xbd4dba1c	-0.050226316
20	0xbd5f6475	-0.054539163
21	0xbd427926	-0.047478817
22	0x3b0a07b4	0.002106172
23	0x3a121ccb	0.00055737485
24	0xbbfbe533	-0.007687235
25	0xbd693f8a	-0.05694536
26	0xbcf6fd1e	-0.030149993
27	0x3b2a3e12	0.0025976938
28	0x3d0a4d6b	0.033765238
29	0x3c7e46c2	0.0155198
30	0xbd1b1dc0	-0.03787017
31	0x3d31f08a	0.043442287
32	0x3d4043f3	0.0469398
33	0xbd37f277	-0.044908967
34	0x3c90080a	0.017581958
35	0xbabe3a26	-0.0014513179
36	0xbd6267c0	-0.055274725
37	0xbd79452f	-0.060856994
38	0xbd0e38b8	-0.03472206
39	0xbcc72345	-0.02430881
40	0x3c1703f0	0.009217247
41	0xbaa28b43	-0.0012401122
42	0xbd00a6b1	-0.03140897
43	0x3d1dfe26	0.038572453
44	0xbb7342d3	-0.0037118688
45	0x3d1ed414	0.038776472
46	0x3bddc7c9	0.006768201
47	0xbd0f8923	-0.035042893
48	0x3d2e38dd	0.042534698
49	0x3c4de9f8	0.0125679895
50	0xbc3d213c	-0.011543568
51	0xbd3481b8	-0.044069022
52	0x3c482e25	0.012218033
53	0xbc7f3c6d	-0.0155783715
54	0x3d1e3069	0.038620386
55	0xbd3c9794	-0.046042994
56	0xbc25f8cc	-0.010130119
57	0xbbcdab09	-0.0062764925
58	0x3b55fa3b	0.003265037
59	0xbc740cb0	-0.014895603
60	0x3d5f7db5	0.054563243
61	0x3be55051	0.0069981
62	0x3d7e2d15	0.062054712
63	0x3d364a46	0.044504426

base.mlp.fc2.0.2.weight f4 [64]
0	0x3f8c80c8	1.0976801
1	0x3f907062	1.1284297
2	0x3f8e417d	1.1113735
3	0x3f8d54ab	1.1041464
4	0x3f8c4777	1.0959309
5	0x3f861114	1.0473962
6	0x3f85ac9d	1.0443302
7	0x3f8eb4d1	1.1148931
8	0x3f8b14a7	1.0865678
9	0x3f852665	1.0402342
10	0x3f8ad5c2	1.0846484
11	0x3f8d5072	1.1040175
12	0x3f9033f7	1.1265858
13	0x3f8a83bf	1.0821456
14	0x3f8792ad	1.0591637
15	0x3f8cbcbe	1.09951
16	0x3f87d8e5	1.0613066
17	0x3f8f5392	1.1197379
18	0x3f8b0e00	1.0863647
19	0x3f896092	1.0732596
20	0x3f8efe45	1.1171347
21	0x3f840dae	1.0316675
22	0x3f8e7ecf	1.1132449
23	0x3f8a1558	1.0787764
24	0x3f90778c	1.1286483
25	0x3f8bc291	1.0918752
26	0x3f873383	1.0562595
27	0x3f8a1ddd	1.0790364
28	0x3f962d16	1.1732509
29	0x3f8b7d58	1.0897627
30	0x3f8678b4	1.0505586
31	0x3f8987cb	1.0744566
32	0x3f93e3db	1.1553911
33	0x3f894ee3	1.0727199
34	0x3f8adb62	1.08482
35	0x3f905d46	1.1278465
36	0x3f8c32fa	1.0953057
37	0x3f88734c	1.0660186
38	0x3f89c036	1.0761783
39	0x3f8ba515	1.0909754
40	0x3f89464a	1.0724576
41	0x3f8d0d53	1.1019691
42	0x3f853744	1.0407491
43	0x3f8bcc04	1.0921636
44	0x3f8a7438	1.0816717
45	0x3f8d36b3	1.1032318
46	0x3f91550b	1.1354078
47	0x3f8ff38e	1.1246202
48	0x3f8a74b4	1.0816865
49	0x3f91a00e	1.137697
50	0x3f92d2bc	1.1470561
51	0x3f8450ac	1.0337119
52	0x3f96e06e	1.178724
53	0x3f841cc9	1.0321285
54	0x3f916d28	1.1361437
55	0x3f8dc8d6	1.1076915
56	0x3f8edaf0	1.1160564
57	0x3f83bfa0	1.0292854
58	0x3f8850ae	1.0649621
59	0x3f90781d	1.1286656
60	0x3f8fb6df	1.1227683
61	0x3f8c2657	1.09492
62	0x3f8e27e4	1.1105924
63	0x3f8dac9c	1.1068301

base.mlp.fc2.0.2.bias f4 [64]
0	0xbcd230f0	-0.0256581
1	0x3d8323e9	0.06403334
2	0xbd516745	-0.051123876
3	0x3ce4d14c	0.027931832
4	0x3ce4a7ab	0.027911982
5	0xba95c109	-0.0011425327
6	0xbc084523	-0.008317265
7	0xbd1fd4b6	-0.039021216
8	0xbceed4b7	-0.029154165
9	0x3c00d5e0	0.007863492
10	0xbd2bf88a	-0.041985072
11	0x3c835893	0.016033446
12	0xbd2b1d5d	-0.04177605
13	0xbc71a873	-0.014749634
14	0xbccbd72e	-0.02488288
15	0xbc208e16	-0.009799501
16	0x3ca98134	0.020691492
17	0x3d180381	0.037112717
18	0xbd7873d7	-0.06065735
19	0xbd849259	-0.06473226
20	0xbaef640f	-0.0018264073
21	0xb8f9b097	-0.00011906138
22	0xbd22909f	-0.039688703
23	0x3cdbaf8e	0.02681711
24	0xbc2d97aa	-0.010595242
25	0xbcf38bfa	-0.029729832
26	0xbbd65921	-0.0065413867
27	0x3cd0adf2	0.025473569
28	0xbaa534c1	-0.0012604223
29	0x3d79d7de	0.060996883
30	0xbb3c9418	-0.0028774794
31	0xbd1680a0	-0.03674376
32	0x3cfef749	0.031123774
33	0xbd7f3f7c	-0.062316403
34	0x3ca8e2cb	0.020615956
35	0xbd5b50b6	-0.05354377
36	0xbc8f375b	-0.01748245
37	0xbd6529b1	-0.055947963
38	0x3d006fa7	0.03135648
39	0xbc478917	-0.012178681
40	0x3ce97b40	0.028501153
41	0x3d2dafae	0.04240387
42	0x3d43e711	0.047827784
43	0x3d4af92c	0.049554035
44	0xbd235ed7	-0.03988537
45	0x3d643892	0.055718012
46	0xbcff14e8	-0.031137899
47	0xbd9b21fe	-0.07574843
48	0x3d481c43	0.048855077
49	0x3c7b6f96	0.015346428
50	0xbd91c332	-0.07117309
51	0xbc892959	-0.016743349
52	0xbbe835f5	-0.0070865103
53	0x3c9c3144	0.01906646
54	0xbbb54a84	-0.0055325646
55	0xbce2d9cc	-0.027691744
56	0xbcbbd448	-0.022928372
57	0x3bb5a740	0.0055436194
58	0x3d78f9fe	0.060785286
59	0xbd89c952	-0.06727852
60	0x3da963b1	0.08270968
61	0xbd012cdb	-0.031536918
62	0x3d42378c	0.047416255
63	0x3cacd3bd	0.021097058

act.action_out.fc_mean.weight f4 [5, 64]
0	0xbb806194	-0.003917882
1	0xba6b095a	-0.0008965932
2	0x3d023aee	0.03179448
3	0xb93338f6	-0.0001709199
4	0x3cb5e91a	0.022205878
5	0x3c66da97	0.014090202
6	0x3d0fb211	0.035081927
7	0x3c360929	0.011110582
8	0x3ce424c4	0.027849562
9	0x3c981d6e	0.01856872
10	0xbc39a067	-0.011329747
11	0xbd74ae40	-0.05973649
12	0x3a1e07ad	0.00060283655
13	0x3d012251	0.031526867
14	0xbcb56e2e	-0.022147264
15	0x3d938cb8	0.07204574
16	0xbd638d3e	-0.05555462
17	0x3c5498bd	0.012975869
18	0xbd34d888	-0.044151813
19	0xbcaa063d	-0.020754928
20	0x3d38fbac	0.045161888
21	0x3cc5834b	0.024110457
22	0xbdad8b89	-0.0847388
23	0x3d6d6106	0.057953857
24	0xbd4b65d7	-0.04965767
25	0x3cb5e5c8	0.022204295
26	0xbb79cfa7	-0.0038118155
27	0x3cec80c3	0.028869992
28	0xbdfdf3b1	-0.12399996
29	0xbc21718f	-0.009853735
30	0x3c635179	0.013874405
31	0xbcfc0ed1	-0.030768784
32	0x3d7d2c98	0.061810106
33	0xbd59c224	-0.053163663
34	0x3d4ed3df	0.050495025
35	0x3d1f1ec5	0.038847703
36	0xbd31249a	-0.043247797
37	0xbbb47421	-0.0055070077
38	0x3d235387	0.03987458
39	0x3c9b48f6	0.018955689
40	0x3d45c9a2	0.048287995
41	0x3d12f644	0.03587939
42	0x3d472446	0.048618577
43	0x3c1e2038	0.009651236
44	0xbd33b235	-0.043871123
45	0x3d332e39	0.043745253
46	0x3d42a368	0.047519118
47	0xbb183e53	-0.0023230508
48	0x3c54681a	0.012964273
49	0xbdcfa99a	-0.10139771
50	0xbd1c8b44	-0.03821875
51	0xbcbb0b28	-0.022832468
52	0xbd71f140	-0.059067965
53	0x3c819cd0	0.015821844
54	0xbd5abd46	-0.05340316
55	0xbc617374	-0.013760436
56	0x3d66b587	0.05632546
57	0xbc381757	-0.011236033
58	0x3d78bf0a	0.060729064
59	0xbdbccbff	-0.09218597
60	0xbca996bf	-0.020701764
61	0xbd2f9c8c	-0.042873904
62	0x3d175008	0.036941558
63	0xbc722947	-0.014780349
64	0x3d8f5134	0.0699791
65	0xbd3d5068	-0.04621926
66	0x3d6c153e	0.057637446
67	0x3cd464c0	0.025926948
68	0xbdbad373	-0.09122362
69	0x3cfa7f22	0.0305782
70	0xbd2a76cb	-0.041617196
71	0xbd4debf5	-0.050273854
72	0xbd9a1de4	-0.075252324
73	0x3c098bd6	0.008395156
74	0x3b8f1212	0.004366168
75	0x3cd976ac	0.026545845
76	0x3d910769	0.070814915
77	0xbd8b3a6a	-0.06798251
78	0x3cfca3e5	0.03083987
79	0x3d21531e	0.039385907
80	0x3ce4fb8c	0.027951978
81	0xbdda0965	-0.10646323
82	0x3d3a5fa4	0.045501366
83	0x3d4c7712	0.04991824
84	0xbcb7cf4d	-0.022437716
85	0x3b967d90	0.004592605
86	0x3b223ea9	0.0024756587
87	0xbd64f523	-0.055897843
88	0x3d141d48	0.036160737
89	0x3ca7d436	0.020486932
90	0xbd5630a3	-0.052292477
91	0xbc6a4245	-0.014298026
92	0x3caa2f5d	0.020774538
93	0xbd905adc	-0.0704858
94	0xbd0235fe	-0.031789772
95	0xbd49a49e	-0.049229257
96	0x3d838a08	0.06422812
97	0xbc91284e	-0.017719414
98	0x3d6bc628	0.057562023
99	0x3dbb97d3	0.091598175
100	0xbd2c4cd3	-0.042065453
101	0x3c50bee2	0.0127408225
102	0xbd31198a	-0.043237247
103	0x3d95cca2	0.07314421
104	0x3a3b0806	0.00071346795
105	0xbd7bc4a4	-0.061466828
106	0xbcffe4eb	-0.031237086
107	0xbdb1aebc	-0.08675906
108	0xbd209cf0	-0.039212167
109	0x3c8102bf	0.01574838
110	0x3b8fbb8e	0.004386372
111	0x3d59d562	0.053182013
112	0xbce73f3e	-0.028228398
113	0xbc8a5465	-0.016885946
114	0x3dc1b5c4	0.09458497
115	0xbca6a84d	-0.020343924
116	0x3df2f1ac	0.118625015
117	0x3d0da57e	0.034581654
118	0x3d976c6e	0.07393728
119	0xbc507b86	-0.012724763
120	0xbc901820	-0.017589629
121	0xbd0c6cb5	-0.03428336
122	0xbb279858	-0.0025572982
123	0x3c9b236d	0.01893779
124	0xbd0eedbb	-0.034894686
125	0x3d642f15	0.055708963
126	0xbd5bfd17	-0.053708162
127	0x3d9056ec	0.07047829
128	0xbd587cb4	-0.0528533
129	0x3d8c8a68	0.068623364
130	0xbd109017	-0.035293665
131	0x3d0913e0	0.03346622
132	0xbb0d2b90	-0.0021540858
133	0x3c6e0313	0.0145271
134	0xbbf91f6c	-0.0076026227
135	0xbd70bf20	-0.05877602
136	0xbb9b7d6b	-0.0047451756
137	0xbc9f8638	-0.01947318
138	0xbd982c7e	-0.07430361
139	0x3d786993	0.06064756
140	0xbd80705e	-0.06271432
141	0x3bb56cd9	0.0055366573
142	0xbd2d78f1	-0.042351667
143	0xbcd1246e	-0.025530066
144	0x391e5b20	0.00015102001
145	0x3d0d2fc7	0.034469392
146	0xbd5cafad	-0.053878475
147	0xbd8269e7	-0.063678555
148	0x3ccb542b	0.024820408
149	0x3ca183a2	0.019716088
150	0xbd423215	-0.047411043
151	0x3c928b04	0.017888553
152	0xbde57db5	-0.11205617
153	0xbafa9f3a	-0.001912094
154	0x3b556727	0.0032562704
155	0x3d6f39c3	0.058404695
156	0xbd0f708a	-0.035019435
157	0x3bca6c5a	0.0061774673
158	0xbb4d1a4c	-0.0031296192
159	0x3ca2cafb	0.01987218
160	0x3d20db85	0.03927185
161	0x37602b08	1.3361459e-05
162	0xbca61dd0	-0.020277888
163	0xbc8d1db1	-0.017226072
164	0xbd88a0af	-0.06671273
165	0xbc9d2e92	-0.019187246
166	0x3cba9876	0.022777777
167	0x3ce03314	0.027368106
168	0xbc4291de	-0.011875598
169	0x3bd71679	0.0065639582
170	0xbc1e8a18	-0.009676479
171	0x3d1dba16	0.038507544
172	0x3d791244	0.060808435
173	0x3d4fe1dd	0.05075251
174	0x3db4eabc	0.088338345
175	0xbd4f6138	-0.050629824
176	0x3ce40d60	0.027838409
177	0x3ce3e48c	0.02781894
178	0xbc58f17d	-0.013241169
179	0xbc380f34	-0.011234093
180	0xbd1b8c1a	-0.037975408
181	0x3c699eb6	0.014259031
182	0xbd7eb430	-0.06218356
183	0x3c70230c	0.014656793
184	0x3d1a0769	0.037604723
185	0xbb9dc8a3	-0.0048151775
186	0xbc7ff154	-0.015621502
187	0xbcea3a11	-0.028592141
188	0x3dc1a754	0.094557434
189	0xbc926aa0	-0.017873108
190	0x3d965035	0.07339517
191	0xbc92d4b7	-0.017923696
192	0x3caf46d3	0.021396076
193	0xbd508fc9	-0.050918374
194	0x3da9e0fd	0.08294866
195	0xbc8de802	-0.017322544
196	0x3d3815d5	0.044942696
197	0x3cdd94b9	0.027048456
198	0xbcd9aee3	-0.02657265
199	0x3cac28ef	0.021015612
200	0xbcae4f59	-0.02127807
201	0xb9e00b50	-0.00042733038
202	0x3cc48153	0.023987448
203	0xba81d303	-0.0009904805
204	0x3d31386c	0.0432667
205	0xbcd5c250	-0.026093632
206	0xbc810b4b	-0.015752455
207	0xbccda18e	-0.02510145
208	0xbd19b4be	-0.037525885
209	0xbcec71be	-0.02886283
210	0x3c609317	0.013706944
211	0x3c696ee8	0.0142476335
212	0x3dd0a4fb	0.101877175
213	0xbbfc643e	-0.0077023795
214	0xbd138774	-0.03601785
215	0xbc500b9f	-0.012698083
216	0x3c6ed942	0.0145781655
217	0x3dbd2db5	0.092372335
218	0xbd4aa666	-0.049475096
219	0x3cc2b3ea	0.02376743
220	0x3c30565d	0.010762778
221	0xbd7a15a9	-0.061055813
222	0xbd5713c9	-0.052509103
223	0x3d2bf5c6	0.041982435
224	0x3c22ce9e	0.009936957
225	0xbcb1dbd9	-0.021711277
226	0x3bbe5483	0.0058084144
227	0x3cf353d1	0.029703053
228	0x3ce97921	0.028500142
229	0x3c941e65	0.0180809
230	0x3d72705b	0.05918918
231	0xbc52e919	-0.012872958
232	0xbd2ecaaf	-0.042673763
233	0xbd12dfd7	-0.035858
234	0x3cf537ce	0.029933836
235	0xba4659be	-0.0007566473
236	0xbcb0674e	-0.021533635
237	0xbc8e1706	-0.017344963
238	0x3d93e706	0.072217986
239	0x3b08e0eb	0.0020886015
240	0xbc751cdd	-0.014960495
241	0xbdb0a65b	-0.0862548
242	0x3d55908c	0.052139804
243	0xbcded699	-0.027201938
244	0xbda9db2d	-0.082937576
245	0x3b39ae21	0.0028332549
246	0xbcd6cb6f	-0.026220052
247	0x3d869539	0.06571431
248	0x3ca9c094	0.020721711
249	0xbc1df27e	-0.009640334
250	0x3c8bed87	0.017081035
251	0x3ce23a41	0.027615668
252	0xbd8204a2	-0.0634854
253	0xbd527389	-0.051379714
254	0xbd32a575	-0.043614823
255	0xbd927754	-0.07151666

act.action_out.fc_mean.bias f4 [5]
0	0x3bdd64b9	0.006756392
1	0xbcbf6176	-0.023361903
2	0x3cea9bc4	0.028638728
3	0xbd253f81	-0.040343765
4	0x3d3e6dff	0.04649162

act.action_out.logstd._bias f4 [5, 1]
0	0xbe028905	-0.12747581
1	0xbdcf4f16	-0.10122506
2	0xbdde586e	-0.108567104
3	0xbd75c8bd	-0.060005892
4	0xbd861ecb	-0.06548842
