checkpoint/best_mappo_seed113_run20260211_183208_envmamujoco-walker2d-2x3_ep200_agent0_critic.pt (torch, 31330 bytes, 11 tensors)

base.feature_norm.weight f4 [24]
0	0x3f79ceb6	0.9758104
1	0x3f56cae8	0.8390336
2	0x3f876132	1.0576537
3	0x3f81164b	1.0084928
4	0x3f7ddcff	0.9916534
5	0x3f7c750a	0.9861609
6	0x3f8aec54	1.0853372
7	0x3f85f6e1	1.0465966
8	0x3f8307df	1.0236777
9	0x3f87f3e9	1.062131
10	0x3f89d8b5	1.0769259
11	0x3f7ae369	0.9800325
12	0x3f802eac	1.0014243
13	0x3f643ad3	0.8915226
14	0x3f8983e9	1.0743381
15	0x3f7589b8	0.9591327
16	0x3f82f551	1.0231115
17	0x3f7eb4a3	0.9949438
18	0x3f85e3ac	1.0460105
19	0x3f7d4c7f	0.9894485
20	0x3f873bc3	1.0565113
21	0x3f8228d3	1.0168709
22	0x3f93a0a5	1.15334
23	0x3f82c724	1.0217023

base.feature_norm.bias f4 [24]
0	0x3b143ff3	0.0022621125
1	0xbc12a735	-0.008950998
2	0x3d03d5d7	0.032186355
3	0xbd36b4fb	-0.04460619
4	0xbd211cc7	-0.039334085
5	0x3cf2ed2b	0.029654106
6	0x3bd88326	0.006607431
7	0x3d0f841b	0.035038095
8	0x3c872468	0.016496852
9	0x3c9b749a	0.018976498
10	0xbc95122c	-0.018197142
11	0xbc186ad4	-0.009302814
12	0x3bdd9196	0.00676174
13	0xbc28ca35	-0.010302116
14	0x3c73d1dc	0.014881577
15	0x3c87ec0f	0.016592054
16	0xbcafda56	-0.021466415
17	0x3b941b8f	0.004519887
18	0x3c46c1ab	0.012131135
19	0x3c1e4619	0.009660267
20	0xbc314a48	-0.010820933
21	0xbaf17c6f	-0.0018423925
22	0x3be6236a	0.0070232647
23	0xbcdab87c	-0.026699297

base.mlp.fc1.0.weight f4 [64, 24]
0	0x3e3cb57b	0.18428604
1	0x3e352675	0.17690451
2	0xbce43880	-0.027858973
3	0xbecb3c77	-0.3969457
4	0xbe5d4452	-0.21608093
5	0x3ce8c2be	0.028413173
6	0x3efbd371	0.49184754
7	0x3da806ba	0.08204408
8	0xbd17e6e8	-0.037085444
9	0x3da88f1e	0.082304224
10	0xbcf6e11b	-0.030136636
11	0x3de82c9a	0.11336632
12	0x3ea2b43f	0.31778142
13	0xbe15c9db	-0.14627783
14	0xbd1240a4	-0.035706177
15	0xbdb7c946	-0.08973937
16	0xbdc88811	-0.097915776
17	0x3e3c77df	0.18405102
18	0x3e2b9b45	0.1675845
19	0x3e7851e3	0.24249987
20	0xbd3cf4f9	-0.04613206
21	0x3e175eb4	0.1478222
22	0xbe846edc	-0.2586583
23	0xbd6401ce	-0.055665784
24	0x3e97858f	0.29594085
25	0xbda802c3	-0.08203652
26	0xbda4f784	-0.08055022
27	0xbe1191c4	-0.14215761
28	0xbdd7810a	-0.10522659
29	0xbe8a4ff5	-0.27014127
30	0xbe9fe8a3	-0.31232175
31	0xbe31a509	-0.17348112
32	0xbb2c5c99	-0.002630031
33	0xbe73fb07	-0.23826228
34	0x3dadd81d	0.08488486
35	0xbe7a2e7b	-0.24431793
36	0xbe7f63f2	-0.2494047
37	0xbe0fa670	-0.14028335
38	0x3e9ba5e5	0.30400005
39	0xbe67d916	-0.22641405
40	0xbea4f3fc	-0.32217395
41	0xbdbe1486	-0.09281258
42	0xbcaf2c84	-0.021383531
43	0x3c9ea7e8	0.019367173
44	0xbddeb5cf	-0.10874521
45	0xbeb35b24	-0.35030472
46	0x3ccaf650	0.024775654
47	0xbd3e6d86	-0.04649117
48	0xbdf721ad	-0.1206697
49	0x3e8bdf67	0.2731888
50	0xbe0d647c	-0.13807863
51	0xbe0a894f	-0.13528942
52	0x3d88805b	0.06665107
53	0xbde13c41	-0.10997821
54	0x3d8e0842	0.06935169
55	0x3dffff61	0.124998815
56	0x3e499a37	0.19687735
57	0x3e652881	0.22378732
58	0xbeac42c0	-0.33644676
59	0x3e927fe2	0.28613192
60	0xbe2a28c3	-0.16617112
61	0xbea8a798	-0.32940364
62	0xbd55e92b	-0.05222432
63	0x3ca2769e	0.019831952
64	0x3e84d82c	0.25946176
65	0xbd0c55c3	-0.034261476
66	0xbd33429e	-0.043764703
67	0xbebe901f	-0.3721933
68	0xbe274c28	-0.16337645
69	0xbdb3d7bb	-0.08781382
70	0xbdd56458	-0.1041953
71	0x3ecfd2aa	0.4059041
72	0xbe02804e	-0.12744257
73	0x3e513180	0.20429039
74	0xbe6b3951	-0.22971083
75	0xbe6c713b	-0.23090069
76	0x3d3db5d5	0.046315987
77	0x3e102151	0.14075209
78	0xbe2ba270	-0.16761184
79	0x3e9579a5	0.2919437
80	0x3c28c293	0.010300296
81	0x3e17c983	0.14822964
82	0x3e868d84	0.26279843
83	0xbd6c3cd3	-0.057675194
84	0x3de7b33d	0.11313484
85	0xbe936899	-0.2879074
86	0xbe3bb99b	-0.18332522
87	0xbec03b96	-0.3754546
88	0xbc70683d	-0.01467329
89	0x3e694bba	0.22782794
90	0x3d21376a	0.039359488
91	0x3d414890	0.04718834
92	0x3e12edbf	0.14348505
93	0x3cd74498	0.026277825
94	0x3e82d9af	0.25556704
95	0xbd4a2f92	-0.049361773
96	0x3c438ec5	0.011935894
97	0x3d27d654	0.040975884
98	0xbe09a998	-0.13443601
99	0xbe1abe9c	-0.15111774
100	0x3e7db76e	0.24777004
101	0x3d93fdb3	0.07226124
102	0xbe149a78	-0.1451205
103	0x3d189fc6	0.037261747
104	0xbcacd42a	-0.021097261
105	0xbcf99a0b	-0.030468961
106	0x3de741fd	0.11291883
107	0xbe9c535f	-0.30532357
108	0xbecd2f18	-0.40074992
109	0x3e1d0665	0.1533447
110	0x3c2263b6	0.009911468
111	0x3d7322d9	0.059359405
112	0xbe0805c7	-0.13283454
113	0xbc3f52f1	-0.01167749
114	0xbd212fe5	-0.039352316
115	0x3a641f01	0.00087021297
116	0xbe724c0e	-0.23661825
117	0xbe096690	-0.1341803
118	0xbd9ac978	-0.07557958
119	0x3cef4d39	0.029211627
120	0xbd73f9f1	-0.059564535
121	0xbcf871cf	-0.030327706
122	0x3e0487da	0.12942448
123	0xbdb36054	-0.087586075
124	0xbe858891	-0.26080754
125	0xbe0314ee	-0.12800953
126	0xbe8350d2	-0.25647599
127	0x3d0cbb9f	0.034358617
128	0xbd9c9231	-0.07645071
129	0xbe7774dc	-0.24165672
130	0xbcabe561	-0.0209834
131	0xbe516c34	-0.20451432
132	0xbd964451	-0.07337249
133	0xbe92b60b	-0.28654513
134	0xbdbfad26	-0.09359197
135	0x3e873637	0.2640855
136	0xbe235270	-0.15949416
137	0x3e0a2be8	0.13493311
138	0xbe325060	-0.17413473
139	0xbe55158a	-0.20808998
140	0xbe074a11	-0.13211848
141	0xbe596e08	-0.2123338
142	0xbdec46f2	-0.11536969
143	0xbdd83594	-0.10557094
144	0x3d9b614a	0.07586916
145	0xbdf34c8e	-0.11879836
146	0x3e87ac58	0.26498675
147	0xbe9bf4c1	-0.3046017
148	0xbe70e2d3	-0.23524027
149	0xbd1a9430	-0.03773898
150	0xbec2378a	-0.37932998
151	0xbcc9ad0c	-0.024618648
152	0x3d9e477f	0.077284805
153	0x3e7f5dc8	0.24938118
154	0x3d89805c	0.06713936
155	0x3e0e1b38	0.1387757
156	0x3d3df95a	0.04638038
157	0x3dd5bf94	0.10436931
158	0xbda97ceb	-0.08275779
159	0x3da52d02	0.08065225
160	0xbc98564e	-0.01859584
161	0x3cd9caff	0.026586054
162	0x3e32dc88	0.17466938
163	0xbdd0ab20	-0.101888895
164	0xbe6e9400	-0.23298645
165	0x3e97df38	0.2966249
166	0xbae1d001	-0.0017228128
167	0x3e87dc88	0.2653544
168	0xbdbc0b78	-0.09181875
169	0x3dbe0a51	0.092793114
170	0x3e6caefa	0.23113623
171	0x3f041e8e	0.5160912
172	0x3df1541f	0.11783623
173	0xbe112a48	-0.14176285
174	0xbe9a8ace	-0.30184025
175	0x3d97e2ae	0.074162826
176	0x3e53c206	0.20679483
177	0xbedb2a0d	-0.4280552
178	0xbd5544ae	-0.05206745
179	0xbe631899	-0.22177352
180	0xbdb8b0c1	-0.09018088
181	0x3e1fc1aa	0.1560122
182	0xbe09b04c	-0.13446158
183	0x3d1dafde	0.0384978
184	0x3b1e1d2a	0.002412627
185	0x3eb67437	0.3563554
186	0x3e949a28	0.29023862
187	0x3e22d729	0.1590239
188	0xbd08c065	-0.033386607
189	0x3c7ae307	0.015312917
190	0x3cf0dd6a	0.029402453
191	0x3dd775c8	0.10520512
192	0xbe8cb237	-0.27479717
193	0x3dfb75b5	0.1227831
194	0xbbd5784c	-0.0065145846
195	0xbc7668a0	-0.015039593
196	0x3ded1080	0.11575413
197	0x3ce57bbb	0.0280131
198	0x3da04770	0.078261256
199	0x3eb2da66	0.3493225
200	0x3cc215b3	0.023691988
201	0xbe183e7c	-0.14867586
202	0xbefa3474	-0.48868144
203	0xbd2a7a4a	-0.04162053
204	0xbd54d430	-0.05196017
205	0xbd256e10	-0.040388167
206	0xbe6385f5	-0.2221907
207	0xbcf4722e	-0.029839601
208	0x3e2e238c	0.17005748
209	0xbe3d2457	-0.18470894
210	0xbe43f447	-0.19136153
211	0xbcc96e11	-0.024588617
212	0x3eeef3fa	0.46670514
213	0xbd810a2b	-0.063007675
214	0xbde52029	-0.11187775
215	0x3da244ff	0.07923316
216	0x3e082fb2	0.13299444
217	0xbe8f02be	-0.2793178
218	0x3cdb647e	0.026781317
219	0xbe69f917	-0.22848926
220	0xbc8cd19b	-0.017189791
221	0xbe454fad	-0.19268675
222	0x3dbbb875	0.09166042
223	0x3e4ee2a2	0.20203641
224	0xba8f7eef	-0.0010947863
225	0x3e27c2c9	0.16382898
226	0xbc155993	-0.009115594
227	0xbc22574b	-0.009908508
228	0x3e714b36	0.23563847
229	0x3e9e9577	0.30973408
230	0xbee33dcc	-0.44383085
231	0xbd63868a	-0.05554823
232	0xbe7badbe	-0.24577996
233	0xbe4c930f	-0.19977973
234	0x3e3abd88	0.18236363
235	0xbe9e3ac4	-0.3090421
236	0x3d912b3b	0.07088324
237	0x3cd9cffd	0.026588434
238	0xbe46ae6d	-0.19402476
239	0xbe8bdd33	-0.273172
240	0xbe434256	-0.19068274
241	0x3bb32b29	0.0054677916
242	0xbe1851cd	-0.14874955
243	0x3d985c3e	0.07439469
244	0xbec1b266	-0.3783142
245	0xbea67b3e	-0.325159
246	0x3e0f281b	0.13980143
247	0x3d5cd955	0.0539182
248	0x3e21b3cb	0.15791242
249	0xbeb48ed9	-0.35265234
250	0x3e6607e2	0.22463945
251	0x3e4aba76	0.19797692
252	0x3eb1c185	0.34717956
253	0x3ddb5125	0.107088365
254	0x3da58cef	0.080835216
255	0xbe03bfcb	-0.12866132

base.mlp.fc1.0.bias f4 [64]
0	0x3d0069fc	0.031351075
1	0xbbf604ae	-0.007507882
2	0x3bd756f5	0.0065716454
3	0x3c924084	0.01785303
4	0xb9c91d2a	-0.00038359436
5	0x3cf54520	0.029940188
6	0x3ca574f9	0.020197378
7	0x3c3309c3	0.01092762
8	0xbc5522d9	-0.013008797
9	0x3c0bda99	0.008536004
10	0xbc4d5f8c	-0.012534987
11	0xbd3ea4b8	-0.046543807
12	0x3cee7550	0.029108673
13	0x3cdfa158	0.027298614
14	0x3cabeb70	0.020986289
15	0x38ae102a	8.299977e-05
16	0x3b2a1032	0.0025949595
17	0x3d0e3dcf	0.034726914
18	0xbd0355fb	-0.03206442
19	0xbccfc6c0	-0.025363326
20	0x3b953444	0.0045533497
21	0x3c6db101	0.014507533
22	0x3ccfbe1f	0.025359211
23	0x3c808d03	0.01569224
24	0xbd2e3f6d	-0.042540956
25	0x3cdde7be	0.027088042
26	0xbc9dd356	-0.019265812
27	0x3cf30c78	0.029669032
28	0xbc2c1101	-0.010502101
29	0x3b7aa1fd	0.0038243525
30	0x3cb9fcc3	0.022703534
31	0xbc06799a	-0.008207703
32	0xbbe5baa7	-0.007010776
33	0x3c206342	0.00978929
34	0x3c344ea3	0.011005077
35	0xbd1125f7	-0.035436597
36	0x3cc07147	0.023491515
37	0x3c17374a	0.0092294905
38	0x3bc7c424	0.00609638
39	0xbd040338	-0.032229632
40	0x3cca0c24	0.024663992
41	0xbc6ecd7e	-0.01457536
42	0xbca3f306	-0.020013344
43	0x3d4c0221	0.049806718
44	0xbb16b9ec	-0.0022999002
45	0xbcbcc706	-0.02304412
46	0xb990a573	-0.0002758909
47	0xbb6b6f37	-0.0035924444
48	0x3b1b207d	0.0023670488
49	0xbc9e0cfd	-0.019293303
50	0x3be75a44	0.007060321
51	0x3c4ae92a	0.012384692
52	0x3c0de600	0.008660793
53	0xbcb01e8a	-0.021498937
54	0xbd85fae6	-0.06541996
55	0xbc623907	-0.013807542
56	0xbd3a6a88	-0.045511752
57	0x3d6c6f65	0.05772342
58	0x3c4d8b18	0.01254537
59	0x3bec2adf	0.007207259
60	0x3cf9e0a0	0.030502617
61	0x3cdee78f	0.027210025
62	0xbd622ecb	-0.055220407
63	0xbc095d15	-0.008384009

base.mlp.fc1.2.weight f4 [64]
0	0x3f817183	1.0112766
1	0x3f7cb159	0.9870811
2	0x3f7e0123	0.99220484
3	0x3f8106b5	1.0080172
4	0x3f81d7a8	1.0143938
5	0x3f8491b6	1.0356967
6	0x3f821e61	1.0165521
7	0x3f7674d3	0.9627201
8	0x3f86baf0	1.0525799
9	0x3f7cded1	0.9877749
10	0x3f801e6b	1.0009283
11	0x3f7c2805	0.98498565
12	0x3f7ca297	0.9868559
13	0x3f7d3c94	0.9892056
14	0x3f847798	1.0348997
15	0x3f8589b5	1.043265
16	0x3f7e6be7	0.99383396
17	0x3f82069c	1.0158267
18	0x3f72b495	0.94806796
19	0x3f83470d	1.0256058
20	0x3f7d2506	0.9888462
21	0x3f83b7b2	1.0290434
22	0x3f8133fa	1.0093987
23	0x3f834994	1.0256829
24	0x3f8152be	1.0103376
25	0x3f7e402d	0.99316674
26	0x3f78df24	0.97215486
27	0x3f801323	1.000584
28	0x3f79daad	0.975993
29	0x3f84d764	1.0378232
30	0x3f81a728	1.0129137
31	0x3f79307c	0.97339606
32	0x3f7d43ac	0.98931384
33	0x3f81e600	1.0148315
34	0x3f837bce	1.0272157
35	0x3f79918f	0.9748773
36	0x3f7de633	0.9917938
37	0x3f7b2024	0.9809592
38	0x3f758fbb	0.9592244
39	0x3f7e424e	0.9931992
40	0x3f804670	1.0021496
41	0x3f7b341c	0.9812639
42	0x3f7d8948	0.990376
43	0x3f795d7d	0.97408277
44	0x3f7eb71d	0.9949816
45	0x3f77bdf7	0.9677424
46	0x3f86cd72	1.0531447
47	0x3f7f7c7c	0.99799323
48	0x3f808e4b	1.0043424
49	0x3f8198ba	1.0124733
50	0x3f82bb93	1.0213493
51	0x3f828576	1.0196979
52	0x3f7f6f81	0.99779516
53	0x3f83cd2b	1.0296987
54	0x3f6fd64e	0.9368638
55	0x3f7ffc2f	0.99994177
56	0x3f829332	1.020117
57	0x3f8e4753	1.1115516
58	0x3f80763a	1.003608
59	0x3f7dfaed	0.9921101
60	0x3f823d76	1.0175006
61	0x3f82fbae	1.0233057
62	0x3f7850da	0.9699837
63	0x3f7a83a8	0.9785714

base.mlp.fc1.2.bias f4 [64]
0	0x3ccf9dae	0.025343742
1	0x3a83859d	0.0010034327
2	0x3a853f5c	0.0010165977
3	0x3dade6ae	0.08491264
4	0x3c10b88e	0.008833064
5	0xbc2340b8	-0.009964161
6	0xbc497f92	-0.012298482
7	0xbcd2db64	-0.02573938
8	0x3a0b46c3	0.00053129735
9	0x3c0f764d	0.008756232
10	0xb9cd7d62	-0.00039194064
11	0xbc595167	-0.013264037
12	0x3cf565ca	0.029955763
13	0x3d093721	0.03349984
14	0xbc0acd33	-0.008471775
15	0xbc173204	-0.009228233
16	0xb8b7c010	-8.7618944e-05
17	0x3cb4ecac	0.02208551
18	0x3b627f8a	0.0034560882
19	0xbd0462dd	-0.032320846
20	0xbc6ed86a	-0.014577964
21	0x3cb39a7e	0.021924254
22	0x3d0d92cf	0.034563836
23	0xbbaf1c64	-0.0053439606
24	0xbd059365	-0.03261127
25	0x3cfe68cb	0.031055829
26	0xbc554118	-0.013016008
27	0x3b353c3d	0.0027654313
28	0xbcbe5b65	-0.02323694
29	0xbd04e985	-0.032449264
30	0x3d088f81	0.03333998
31	0xbbbb701d	-0.005720152
32	0xbb3e91f8	-0.0029078703
33	0xbcbe45f7	-0.023226721
34	0x3bfe5c00	0.007762432
35	0x3ceefbf5	0.029172877
36	0x3b863560	0.0040957183
37	0xbae93eb2	-0.0017795174
38	0x3ca2cc62	0.019872848
39	0x3bdfb47d	0.006826936
40	0x3d411809	0.047142062
41	0xbcaca5d0	-0.02107516
42	0xbc5e93ed	-0.013585073
43	0x3d14030c	0.03613572
44	0xbcb0ed95	-0.021597663
45	0xbabf819e	-0.0014610772
46	0xbc93ffc6	-0.018066298
47	0x3b7e280b	0.0038781192
48	0xbad32292	-0.0016108325
49	0xbce85cf6	-0.02836464
50	0x3c16d730	0.009206578
51	0x3b9ac4a2	0.0047231475
52	0x3b8b4119	0.0042497036
53	0xbcdace31	-0.026709648
54	0x3ba4d4c7	0.005030248
55	0xbb944d11	-0.0045257886
56	0xbce675e0	-0.028132379
57	0x3d332639	0.043737624
58	0xbc74a3af	-0.014931603
59	0x3bc6cffd	0.0060672746
60	0xbc1570de	-0.009121148
61	0x3ccab33a	0.024743665
62	0xbd78d124	-0.060746327
63	0x3c8fcffd	0.017555231

base.mlp.fc2.0.0.weight f4 [64, 64]
0	0xbdd8fd47	-0.10595184
1	0x3e44376e	0.1916177
2	0x3c818f15	0.015815297
3	0xbe2746a3	-0.1633554
4	0x3d94116e	0.07229887
5	0xbe3dbfc5	-0.18530186
6	0xbba48e45	-0.0050218427
7	0xbe69fd3a	-0.22850505
8	0x3e06f1c6	0.13178167
9	0x3ce4ebec	0.027944528
10	0xbe608281	-0.21924783
11	0x3dd93469	0.106056996
12	0x3caa9ef8	0.020827755
13	0xbe688e48	-0.22710526
14	0xbec8eef3	-0.39244804
15	0x3dffd7dd	0.124923445
16	0xbe489c01	-0.19590761
17	0x3e4643bf	0.1936178
18	0x3e28acda	0.16472188
19	0xbe562b9e	-0.20915076
20	0x3e05a987	0.13052951
21	0x3dc82504	0.09772685
22	0xbd6ae38a	-0.057345904
23	0x3e48bffe	0.19604489
24	0x3d332630	0.04373759
25	0x3cfce315	0.03087
26	0x3cf6ba31	0.03011808
27	0x3e6e4676	0.23269066
28	0x3e92992e	0.28632492
29	0xbe13ce7c	-0.14434236
30	0xbea901d9	-0.33009222
31	0xbe3cdd93	-0.18443899
32	0x3c92b2f9	0.017907606
33	0xbe21ec25	-0.15812738
34	0xbd7b3c72	-0.061336942
35	0x3dcbe16c	0.09955105
36	0xbea79cc5	-0.32736793
37	0xbe61fb7f	-0.22068594
38	0x3dd01c3d	0.10161636
39	0x3c4b2737	0.012399486
40	0xbee380f7	-0.4443433
41	0x3d84d597	0.064860515
42	0x3dbf40b3	0.09338512
43	0xbc9b3194	-0.01894454
44	0xbe21c80c	-0.15798968
45	0x3e047217	0.12934147
46	0x3eb07b48	0.34469056
47	0xbe0afad5	-0.13572247
48	0x3d01c6dc	0.031683788
49	0xbe383667	-0.17989503
50	0x3e298594	0.16554862
51	0x3d878504	0.066171676
52	0xbd9ecb79	-0.07753653
53	0xbd263323	-0.04057611
54	0xbd6ac88f	-0.057320174
55	0x3e9dc412	0.30813652
56	0xbe8f2164	-0.27955163
57	0x3ba3c101	0.004997373
58	0x3d943632	0.072368994
59	0xbd5b578c	-0.053550288
60	0x3ecca2d8	0.3996799
61	0x3bd72749	0.0065659625
62	0xbe1917dc	-0.14950508
63	0xbda13af7	-0.07872575
64	0xbea0eb6d	-0.31429616
65	0x3e95e5ce	0.2927689
66	0x3e3dd945	0.18539913
67	0x3dd61aa8	0.10454303
68	0x3e51c864	0.20486599
69	0x3e4dc998	0.20096433
70	0x3e43ebac	0.1913287
71	0x3deef3f7	0.11667626
72	0xbdd8a6ed	-0.105787136
73	0xbe78186f	-0.2422807
74	0x3e0efcd9	0.13963641
75	0xbe173d75	-0.14769538
76	0xbd86e3c9	-0.06586415
77	0x3e49e127	0.19714795
78	0x3c8b7eb3	0.017028188
79	0x3e116d62	0.14201882
80	0x3e788217	0.24268375
81	0x3e524f9a	0.20538178
82	0xbd3eec88	-0.046612293
83	0x3eac9dc3	0.33714113
84	0xbcc1c9b2	-0.023655746
85	0x3e4de45d	0.20106645
86	0x3e3bad45	0.18327816
87	0x3e1db9d4	0.15402919
88	0xbe1c3c3b	-0.15257351
89	0xbde4a7e8	-0.11164838
90	0xbe644eb4	-0.22295648
91	0xbdf5b580	-0.11997509
92	0x3e481154	0.1953786
93	0xbe817d93	-0.25291118
94	0x3c125522	0.00893143
95	0xbc9dc433	-0.019258594
96	0xbd930bb3	-0.07179966
97	0xbdc8ba54	-0.09801164
98	0x3e01026e	0.12598583
99	0xbd2ab64a	-0.04167775
100	0xbe1e6021	-0.15466358
101	0xbe035588	-0.12825596
102	0xbe427c4c	-0.18992728
103	0xbcf374ac	-0.02971872
104	0x3cffd467	0.031229211
105	0x3ca6b836	0.02035151
106	0xbdad04ca	-0.08448179
107	0x3dda4c40	0.10659075
108	0xbcf79a95	-0.030225078
109	0x3e68cad3	0.22733621
110	0x3db2e767	0.08735543
111	0xbe38fd56	-0.1806539
112	0x3ea317b6	0.31854028
113	0xbe84fa64	-0.25972283
114	0xbeaedcce	-0.34152836
115	0xbe2fc89f	-0.17166375
116	0xbe0ee61e	-0.1395497
117	0xbd63dfa1	-0.05563319
118	0x3e50f48a	0.20405784
119	0x3e215f62	0.15759042
120	0x3cd02bf4	0.025411583
121	0x3ec7faee	0.39058632
122	0xbdb4e2bc	-0.08832309
123	0x3dbf3811	0.09336866
124	0xbe801a8a	-0.25020248
125	0x3e01cc2e	0.12675545
126	0xbe48b6bb	-0.19600956
127	0x3c828f61	0.015937509
128	0x3cc12cc0	0.023580909
129	0xbd592a00	-0.05301857
130	0x3db7ae96	0.089688465
131	0x3d9459d9	0.072436996
132	0xbe4dbf80	-0.20092583
133	0x3e6ad5ec	0.22933167
134	0xbdd1f671	-0.10252083
135	0xbe231374	-0.1592539
136	0xbe4172db	-0.1889147
137	0x3f018fa7	0.5060982
138	0xbe6043ea	-0.21900907
139	0xbe8f11b4	-0.27943194
140	0x3e178763	0.1479774
141	0x3e2775e6	0.16353568
142	0xbcc8cab5	-0.02451072
143	0xbe8e46a6	-0.27788275
144	0xbd75193a	-0.05983851
145	0x3e81b1c0	0.25330925
146	0xbd1607c8	-0.036628515
147	0xbdb09c05	-0.08623508
148	0xbd15fad5	-0.036616165
149	0x3dad0462	0.084481016
150	0xbeabdd39	-0.33567217
151	0xbd9f0433	-0.07764473
152	0xbe50fc77	-0.20408808
153	0xbdd12b6c	-0.1021336
154	0xbe88f238	-0.26747298
155	0x3b9661d5	0.004589299
156	0xbdcfc936	-0.101458
157	0xbbd1fe30	-0.0064084753
158	0xbea5cfbf	-0.3238506
159	0x3eabae7b	0.33531556
160	0xbe49ff63	-0.19726329
161	0xbddc3e59	-0.10754079
162	0xbe158f03	-0.14605336
163	0xbe406979	-0.18790235
164	0xbdc56323	-0.096380495
165	0xbe58122b	-0.2110068
166	0xbdbd7314	-0.09250465
167	0x3d3bb164	0.04582347
168	0x3d2c07fa	0.041999795
169	0x3e3ed386	0.18635377
170	0x3d62dd46	0.055386804
171	0x3d9efe55	0.07763354
172	0x3e87df66	0.26537627
173	0xbebebb19	-0.3725212
174	0x3d78dec6	0.06075933
175	0x3d6cbcde	0.057797305
176	0x3d77ff09	0.060545955
177	0xbd254f81	-0.040359024
178	0x3d4ef160	0.050523162
179	0xbdac3239	-0.08408017
180	0xbe8c9d59	-0.27463797
181	0xbd4a2e60	-0.049360633
182	0xbe170268	-0.14747012
183	0xbda9eaf4	-0.08296767
184	0x3d9efaf6	0.07762711
185	0x3dfdc974	0.1239194
186	0xbc4813c3	-0.012211743
187	0x3ed24db1	0.410749
188	0xbc39357f	-0.011304258
189	0x3dc80b7c	0.097678155
190	0x3e17212b	0.14758746
191	0xbe82dd2f	-0.25559375
192	0x3eb8b0be	0.36072344
193	0xbcaf30d3	-0.021385586
194	0xbdfef7ac	-0.124495834
195	0xbd8ac6d5	-0.067762055
196	0x3ec5c0bd	0.3862361
197	0xbcb3bda0	-0.021941006
198	0xbedb9556	-0.42887372
199	0x3e048d05	0.1294442
200	0xbc30f1d6	-0.010799846
201	0xbcefb106	-0.029259216
202	0x3e980fc7	0.29699537
203	0x3df310d1	0.11868442
204	0x3eb70f71	0.35753968
205	0x3e68d102	0.2273598
206	0x3e82c66e	0.25542015
207	0xbe1bce6e	-0.15215465
208	0x3e856d53	0.2605997
209	0xbb73a5be	-0.0037177647
210	0xbbb8a8d6	-0.005635361
211	0xbdd83c13	-0.10558333
212	0xbe2671ab	-0.16254298
213	0x3d16bb8a	0.036799945
214	0xbdb38404	-0.08765414
215	0x3d0d9d74	0.034573987
216	0x3eca2599	0.3948181
217	0x3de4b856	0.11167972
218	0xbdb7bafb	-0.089712106
219	0x3df5f87c	0.12010285
220	0xbe2fa1d4	-0.17151576
221	0x3c996735	0.01872597
222	0xbdbe3a5a	-0.092884734
223	0x3cf9f392	0.030511651
224	0xbe3e6a8c	-0.18595332
225	0x3d397a5f	0.045282718
226	0xbe2ae58f	-0.16689132
227	0xbe19e67a	-0.15029326
228	0xbd3ee5af	-0.046605762
229	0x3d1a939b	0.037738424
230	0xbd7298e1	-0.059227828
231	0x395cfa30	0.00021074037
232	0xbeaa4f66	-0.332637
233	0xbe02d932	-0.12778166
234	0xbe2e5fb1	-0.17028691
235	0x3ebc290a	0.3675006
236	0x3e2df094	0.16986305
237	0x3daeab70	0.08528793
238	0xbe867338	-0.2625978
239	0x3c297ece	0.010345174
240	0xbdb9bc84	-0.090691596
241	0xbe0dd17c	-0.13849443
242	0xbe040d81	-0.12895776
243	0xbdc61aa4	-0.0967305
244	0xbd20e066	-0.039276503
245	0xbc6828c5	-0.014169876
246	0xbc0fec68	-0.008784391
247	0x3e89fbe2	0.26949984
248	0xbe92a79a	-0.28643495
249	0x3dc2a035	0.09503213
250	0x3e3752d1	0.17902686
251	0x3e392855	0.18081792
252	0x3de65f50	0.11248648
253	0xbebd5782	-0.36980826
254	0xbe29a182	-0.16565517
255	0xbb85e6a0	-0.0040863305

base.mlp.fc2.0.0.bias f4 [64]
0	0xbbc8e7b6	-0.0061311377
1	0x3c15dfe2	0.009147616
2	0x3c93934b	0.01801457
3	0x3d18433d	0.0371735
4	0xbc8c2c85	-0.017111072
5	0x3d6142f8	0.054995507
6	0x3d3b995b	0.045800548
7	0xbd0de8c7	-0.034645822
8	0xbc9b3ab7	-0.018948896
9	0x3ce5d376	0.028054934
10	0x3c657660	0.014005274
11	0xbbc1afc0	-0.0059108436
12	0xbc32cdf1	-0.010913358
13	0x3c1abfed	0.009445173
14	0x3cb1193c	0.021618478
15	0xbc4b9f4c	-0.012428116
16	0x3c5181b7	0.012787274
17	0x3b50b4f9	0.003184615
18	0x3c68ffd5	0.014221151
19	0xbbf5e844	-0.007504495
20	0x3d1f5058	0.03889498
21	0x3c8547a4	0.016269512
22	0xbc5fbbe5	-0.013655637
23	0xbbc99a83	-0.0061524524
24	0xbc6938c6	-0.014234727
25	0x3cca2507	0.02467586
26	0xbca76639	-0.020434486
27	0xbc24b702	-0.010053398
28	0x3c926066	0.017868232
29	0x3c78b1e4	0.015179131
30	0xbba43815	-0.0050115683
31	0x3c0e32ca	0.008679101
32	0x3c3f1191	0.011661903
33	0x3ca5307d	0.020164723
34	0x39db8d94	0.0004187642
35	0x3c2d2ba0	0.010569483
36	0xbcd910ac	-0.026497208
37	0xbbe5f08b	-0.0070172003
38	0xbb9f6c39	-0.004865196
39	0xbbeb59c6	-0.0071823327
40	0x3bc452a9	0.005991299
41	0x3d95fd27	0.073236756
42	0xbb821120	-0.0039693266
43	0xbb4e6673	-0.003149417
44	0xbbb3a137	-0.005481865
45	0x3c08e8f6	0.0083563235
46	0x3cd7dc80	0.02635026
47	0xbc5eda25	-0.013601814
48	0xbb44a2be	-0.0030004228
49	0x3e204109	0.15649809
50	0x3ce1bb4e	0.027555134
51	0xbb227d35	-0.0024793867
52	0x3c961bc6	0.01832379
53	0x3c903a2d	0.017605865
54	0xbbe2b85a	-0.006918949
55	0xbcb73243	-0.022362834
56	0x3d1e5963	0.038659465
57	0x3c45f789	0.012082943
58	0xbadce123	-0.0016851764
59	0x3d3a5273	0.045488786
60	0xbb925626	-0.004465836
61	0xbd1c0e8c	-0.03809981
62	0x3c354319	0.011063361
63	0x3c5d2f00	0.013499975

base.mlp.fc2.0.2.weight f4 [64]
0	0x3f82883e	1.0197828
1	0x3f799ab7	0.975017
2	0x3f7e159e	0.99251735
3	0x3f81874a	1.0119412
4	0x3f77bf06	0.96775854
5	0x3f82ec51	1.0228368
6	0x3f85804b	1.0429777
7	0x3f7a90f0	0.9787741
8	0x3f869dd3	1.0516914
9	0x3f80d263	1.0064205
10	0x3f8138d9	1.0095474
11	0x3f88a054	1.0673928
12	0x3f87b77a	1.0602868
13	0x3f7c02e3	0.98441905
14	0x3f8217ed	1.0163552
15	0x3f7b386d	0.98132974
16	0x3f81c35a	1.0137742
17	0x3f7c5c86	0.9857868
18	0x3f7e5066	0.9934143
19	0x3f7996a7	0.974955
20	0x3f82032c	1.0157218
21	0x3f795e01	0.97409064
22	0x3f8851fe	1.0650022
23	0x3f7e5acb	0.9935729
24	0x3f747561	0.95491606
25	0x3f7e481e	0.9932879
26	0x3f77d902	0.968155
27	0x3f7bde7b	0.98386353
28	0x3f7e8b89	0.99431664
29	0x3f84de2c	1.0380301
30	0x3f7a7009	0.978272
31	0x3f80161a	1.0006745
32	0x3f780e46	0.9689678
33	0x3f7ee461	0.9956723
34	0x3f79ed8c	0.9762809
35	0x3f795800	0.973999
36	0x3f771b8a	0.96526396
37	0x3f7bc902	0.9835359
38	0x3f805349	1.0025417
39	0x3f81d156	1.0142009
40	0x3f803c98	1.0018492
41	0x3f7c8d20	0.9865284
42	0x3f765f78	0.96239424
43	0x3f7db861	0.99109465
44	0x3f80fe4c	1.0077605
45	0x3f7fcdc1	0.9992333
46	0x3f888403	1.0665287
47	0x3f7c15ec	0.9847095
48	0x3f7de631	0.9917937
49	0x3f787ec3	0.97068423
50	0x3f822a7f	1.0169219
51	0x3f7af05e	0.9802302
52	0x3f828e48	1.0199671
53	0x3f85bdeb	1.0448583
54	0x3f7ee8d7	0.99574035
55	0x3f800c3b	1.0003732
56	0x3f80bec4	1.0058217
57	0x3f7ddc34	0.9916413
58	0x3f84f7da	1.0388138
59	0x3f80c780	1.0060883
60	0x3f7d88bc	0.99036765
61	0x3f719576	0.94368684
62	0x3f837b0c	1.0271926
63	0x3f7c6e64	0.9860594

base.mlp.fc2.0.2.bias f4 [64]
0	0x3b616d85	0.0034397554
1	0xbb4659f1	-0.0030266012
2	0xbb49570c	-0.003072205
3	0xbb448f0a	-0.0029992484
4	0xbb1df3a6	-0.0024101525
5	0xbc908140	-0.017639756
6	0xba9dc107	-0.0012035676
7	0x3b444434	0.0029947879
8	0xbb8f98e9	-0.004382242
9	0xbb31eddd	-0.0027149834
10	0xbb709bd0	-0.0036713965
11	0x3ca69300	0.020333767
12	0x3c0219ea	0.007940749
13	0x3b2bef76	0.002623526
14	0x3b4d7f19	0.0031356274
15	0x3c55497d	0.013018009
16	0xbb56589e	-0.0032706629
17	0xbb536717	-0.0032257491
18	0xbb24a2e1	-0.0025121497
19	0x3b3babd3	0.002863635
20	0x3c26d522	0.010182651
21	0x3b35da5e	0.0027748565
22	0x3bd964d5	0.0066343346
23	0x3b592d78	0.0033138674
24	0x3ae51d36	0.0017480019
25	0xbb53955c	-0.003228507
26	0xbb30897c	-0.0026937416
27	0xbb7a0ec2	-0.003815577
28	0xbb5f2b62	-0.0034052958
29	0x3b6a8290	0.0035783388
30	0xbb264105	-0.0025368345
31	0x3b8f51e9	0.004373778
32	0x3b5057f9	0.0031790717
33	0x3b0d0cc5	0.0021522504
34	0xbb2039ab	-0.0024448435
35	0xbabbe506	-0.0014335222
36	0x3b3d65ba	0.0028899745
37	0x3bcf54fa	0.0063272687
38	0xbb76bb28	-0.0037648175
39	0xbb5e5b08	-0.003392877
40	0xbb3be275	-0.0028668914
41	0x3adbda4b	0.001677343
42	0xbb2605ac	-0.002533297
43	0x3b32c787	0.0027279572
44	0xbb66e50a	-0.0035231733
45	0xbb532b88	-0.0032221992
46	0xbbd9ee7d	-0.0066507445
47	0x3b4fee64	0.0031727785
48	0xbb546a81	-0.0032412114
49	0xba9fab6a	-0.0012181823
50	0x3b40dd79	0.0029428883
51	0x3b3117cd	0.0027022243
52	0x3b6b0a84	0.0035864422
53	0xbb968894	-0.004593918
54	0x3b767df4	0.0037611695
55	0x3b6aa02c	0.0035801036
56	0x3c05936d	0.008152825
57	0x3b4564c7	0.0030119882
58	0xbb7e605a	-0.0038814754
59	0x3b24749b	0.0025093916
60	0xbb6c280c	-0.0036034612
61	0x3b36dbd2	0.002790202
62	0x3b556569	0.0032561666
63	0x3b7ec04f	0.003887195

v_out.weight f4 [1, 64]
0	0x3dfa5a52	0.122242585
1	0xbe840920	-0.25788212
2	0xbd51e984	-0.05124809
3	0xbe1e42dc	-0.15455192
4	0xbe294bfd	-0.16532893
5	0xbce151f9	-0.027504908
6	0xbd1681f1	-0.036745016
7	0x3e033a94	0.12815315
8	0xbd654f7e	-0.055984013
9	0xbddd15a1	-0.10795141
10	0xbd6e2b6b	-0.058146875
11	0x3d3ff0e0	0.046860576
12	0x3d5d67a3	0.054053914
13	0x3e011c3a	0.12608424
14	0x3e47e686	0.19521531
15	0xbb171dfc	-0.0023058644
16	0xbd2a8782	-0.041633137
17	0xbdd62011	-0.10455335
18	0xbc2d7487	-0.010586864
19	0x3e560177	0.20898996
20	0x3d106e37	0.03526136
21	0x3e109d9b	0.14122622
22	0x3d823f16	0.06359689
23	0x3e294588	0.1653043
24	0x3df3d3f1	0.11905659
25	0xbe4afb49	-0.1982242
26	0xbe2741ef	-0.16333745
27	0xbcbc4299	-0.022980975
28	0xbd9cdea3	-0.07659652
29	0x3e2be728	0.16787398
30	0xbd4af8ba	-0.04955361
31	0x3d65ee3f	0.056135412
32	0x3e46bdb4	0.19408303
33	0x3d017f47	0.03161552
34	0xbd9f3be9	-0.07775099
35	0xbd252bef	-0.0403251
36	0x3ddd4b1f	0.10805344
37	0x3c59a6bb	0.013284381
38	0xbdc614b3	-0.09671917
39	0xbdefbf54	-0.11706415
40	0xbe76285f	-0.24038838
41	0x3c7bd893	0.01537146
42	0xbe0ab6a8	-0.1354624
43	0x3d6da9a8	0.058023125
44	0xbd0820ad	-0.033234287
45	0xbdb38a05	-0.087665595
46	0xbddc021e	-0.10742591
47	0x3df317ac	0.118697494
48	0xbe4abd3c	-0.1979875
49	0x3bc9fccc	0.006164169
50	0x3dc9f6a1	0.09861494
51	0x3da7f998	0.08201903
52	0x3de5dfda	0.11224337
53	0xbd75fa47	-0.060053136
54	0x3dee0920	0.11622834
55	0x3e5a0f77	0.21294962
56	0x3ceab695	0.028651515
57	0x3e2ac80b	0.16677873
58	0xbdcbd8e3	-0.09953477
59	0x3ca97122	0.020683829
60	0xbdc073e4	-0.093971044
61	0x3e60d1ed	0.2195508
62	0x3de2e9bd	0.11079738
63	0x3d4f4c6c	0.05060999
