checkpoint/best_mappo_seed111_run20260211_183159_envmpe-cooperative_predator_prey_ep9600_agent1_actor.pt (torch, 31090 bytes, 13 tensors)

base.feature_norm.weight f4 [16]
0	0x3f770ceb	0.96504086
1	0x3f852adc	1.0403705
2	0x3f75bffd	0.95996076
3	0x3f7f2f64	0.9968169
4	0x3f64a51e	0.8931445
5	0x3f7d5279	0.9895397
6	0x3f764881	0.9620438
7	0x3f6d84b1	0.92780596
8	0x3f664ac4	0.89957833
9	0x3f70427c	0.9385145
10	0x3f7fd2ce	0.9993104
11	0x3f6c3140	0.9226265
12	0x3f99cd19	1.2015716
13	0x3f934bac	1.1507468
14	0x3f84bba5	1.0369765
15	0x3f8457c8	1.0339289

base.feature_norm.bias f4 [16]
0	0xbaf28770	-0.0018503498
1	0x3d13f894	0.036125734
2	0x3d22faa2	0.039789803
3	0x3c38b6b7	0.011274031
4	0xbbbd9c40	-0.0057864487
5	0xbd823c18	-0.06359118
6	0x3d5476e2	0.051871188
7	0xbc2416da	-0.010015214
8	0x3cd4e39c	0.025987439
9	0x3b41c126	0.0029564588
10	0xbd3eb72f	-0.046561416
11	0x3d91564d	0.07096539
12	0x3c406543	0.011742893
13	0x3d0f7738	0.035025805
14	0x3d0e61e8	0.03476134
15	0x3c4b91a0	0.012424856

base.mlp.fc1.0.weight f4 [64, 16]
0	0x3d2698d2	0.040673085
1	0xbebc351f	-0.36759278
2	0x3df4e5e3	0.1195791
3	0x3df5a9b3	0.11995258
4	0xbd38a948	-0.045083314
5	0xbe34d0f6	-0.17657837
6	0xbe1da801	-0.1539612
7	0xbde9d113	-0.11416831
8	0xbd8267d9	-0.063674636
9	0x3e4aff54	0.19823962
10	0x3e0c6c8a	0.1371328
11	0xbf0a2976	-0.53969514
12	0x3de726bb	0.11286684
13	0x3db78703	0.08961298
14	0x3d3d7e47	0.046263006
15	0xbde6a2b0	-0.11261499
16	0x3c712437	0.014718107
17	0xbe359c7b	-0.17735474
18	0xbd141603	-0.036153805
19	0x3e7503fa	0.23927298
20	0xbe3fec32	-0.18742445
21	0x3e896d83	0.26841363
22	0xbd05637a	-0.03256557
23	0x3c5e5a0d	0.0135712745
24	0x3e0bd45e	0.1365523
25	0x3e264108	0.16235745
26	0x3e8cc33c	0.27492702
27	0xbe559ca2	-0.20860532
28	0x3e802aca	0.25032645
29	0x3e208615	0.15676148
30	0x3d61618a	0.05502466
31	0x3e2e0255	0.16993077
32	0x3d41d023	0.047317635
33	0x3d1ffbc5	0.039058466
34	0x3e5be864	0.21475369
35	0xbd022f53	-0.031783413
36	0xbe68ede8	-0.22747004
37	0x3b5a5c93	0.0033319339
38	0xbdd6b786	-0.10484223
39	0xbe06d628	-0.13167632
40	0xbd413784	-0.047172084
41	0xbe67e22b	-0.2264487
42	0x3d90703b	0.07052656
43	0x3e31ba30	0.17356181
44	0xbe9d2668	-0.30693364
45	0xbeafd8f2	-0.34345204
46	0x3e30c84d	0.17263909
47	0x3e51da1e	0.20493361
48	0x3e404da4	0.18779618
49	0xbea23974	-0.31684458
50	0x3e441710	0.19149423
51	0xbdbf30c8	-0.09335476
52	0x3d82a821	0.06379724
53	0xbcf6b9b4	-0.030117847
54	0x3e84dc5f	0.2594938
55	0xbe1e6fbb	-0.1547231
56	0x3dabf4d5	0.083963074
57	0xbe5bed9f	-0.21477364
58	0x3e1266ad	0.1429698
59	0xbdf3a8ac	-0.11897406
60	0xbec4a689	-0.38408306
61	0x3e4095c2	0.18807128
62	0x3d16097c	0.03663014
63	0xbd9fd7d8	-0.07804841
64	0x3d96b337	0.07358401
65	0xbde81167	-0.11331444
66	0xbdb2a417	-0.08722704
67	0xbcef5619	-0.02921586
68	0xbc6c8e44	-0.014438216
69	0xbd4c0853	-0.049812626
70	0x3daa5318	0.0831663
71	0x3e56bb13	0.209698
72	0xbe1c692a	-0.15274492
73	0xbd52f6f1	-0.051505033
74	0xbe1a8d5b	-0.15092985
75	0x3e61f986	0.22067842
76	0xbd60fcaa	-0.05492846
77	0x3edc19ca	0.42988425
78	0xbdc2074e	-0.094740495
79	0xbd8c61be	-0.0685458
80	0xbdb235b7	-0.087016515
81	0xbda0186e	-0.078171596
82	0x3c1750e0	0.009235591
83	0xb93efef7	-0.00018214794
84	0x3eab95e3	0.33512792
85	0x3cedd517	0.029032273
86	0xbd815e48	-0.06316811
87	0xbe12f7a1	-0.14352275
88	0xbda6ccfc	-0.081445664
89	0xbd955903	-0.07292368
90	0xbca7d860	-0.020488918
91	0x3b8b2213	0.0042460053
92	0xbe0d36c6	-0.13790426
93	0x3e946d40	0.289896
94	0xbe0836ce	-0.13302156
95	0xbd93010a	-0.071779326
96	0xbe6f47f0	-0.23367286
97	0x3dbfae76	0.09359448
98	0x3e91ab68	0.28451085
99	0xbe482096	-0.1954368
100	0xbe74bc8e	-0.23900053
101	0x3e0e0407	0.13868724
102	0x3d956452	0.07294525
103	0x3e29f1be	0.16596124
104	0xbe542bca	-0.20719829
105	0xbe237fa2	-0.15966657
106	0xbe7d61be	-0.24744317
107	0xbe4d5214	-0.20050842
108	0x3e735584	0.2376309
109	0xbc75fc75	-0.015013804
110	0xbf005648	-0.50131655
111	0x3d1d4daa	0.038404144
112	0xbe96eb13	-0.29476222
113	0xbc29455f	-0.010331481
114	0x3e2c3918	0.16818655
115	0xbcf31e2f	-0.029677479
116	0xbbeffd64	-0.0073239077
117	0xbde5dfd6	-0.11224334
118	0x3e705922	0.23471501
119	0x3bb8d0d6	0.0056401296
120	0x3e0641e0	0.13111067
121	0x3e52aefa	0.20574561
122	0x3e1a335c	0.15058655
123	0x3de3a19b	0.11114808
124	0xbd945828	-0.07243377
125	0xbe94556e	-0.28971428
126	0x3e045a26	0.12925014
127	0xbe21d3ee	-0.15803501
128	0xbe56aec7	-0.2096511
129	0xbb9457ff	-0.0045270915
130	0xbd569187	-0.05238488
131	0x3dd2ec27	0.10298949
132	0xbe0852bc	-0.1331281
133	0xbe7a90da	-0.24469319
134	0xbdbe82e8	-0.09302312
135	0xbcea74b8	-0.028620109
136	0xbe4dd7c4	-0.2010184
137	0x3e2e37c7	0.17013465
138	0x3e0eb184	0.13934904
139	0x3c7ab403	0.015301707
140	0x3d8f1d57	0.06988018
141	0xbe0f74ad	-0.14009352
142	0xbd6d07c7	-0.057868745
143	0xbe8ddf10	-0.27709246
144	0x3e1b1d79	0.15147962
145	0x3e8d81bb	0.2763804
146	0x3ddbdb2f	0.10735165
147	0x3f181ed6	0.5942205
148	0xbe1fdccb	-0.1561157
149	0x3b6faee2	0.0036572744
150	0x3d9de2f7	0.07709306
151	0xbcd4fdff	-0.026000021
152	0x3e5826c8	0.21108544
153	0xbcbeedcd	-0.023306752
154	0x3d933a57	0.07188862
155	0xbe02737f	-0.12739371
156	0x3e1c6dc2	0.15276244
157	0xbdb98eae	-0.09060417
158	0x3e0fa60d	0.14028187
159	0x3ddf17b9	0.108931966
160	0x3e80587d	0.2506751
161	0xbe06ece0	-0.13176298
162	0x3d3bde10	0.045866072
163	0xbd991227	-0.074741654
164	0x3e30b194	0.1725524
165	0x3e4ec138	0.20190895
166	0x3e6407ae	0.22268555
167	0xbe3825c0	-0.1798315
168	0xbe1f1360	-0.15534735
169	0xbcff5b59	-0.031171488
170	0x3b786780	0.0037903488
171	0xbcfb12a2	-0.030648533
172	0xbdde1fe4	-0.108459264
173	0x3bb4d4c5	0.005518528
174	0xbca141da	-0.01968472
175	0x3c05e0ba	0.008171255
176	0x3e28dd73	0.16490726
177	0xbd72f0b2	-0.059311576
178	0xbe899480	-0.2687111
179	0x3a321696	0.00067935267
180	0xbe452a8a	-0.19254509
181	0x3e41718d	0.18890972
182	0xbc97a197	-0.01850967
183	0xbd0a2b9e	-0.033733003
184	0x3e0d36b3	0.13790397
185	0xbe94cf4c	-0.29064405
186	0xbd65e428	-0.05612579
187	0x3db03cef	0.08605372
188	0xbe00e3c5	-0.12586887
189	0x3e84328a	0.25819808
190	0xbd4f339d	-0.05058633
191	0xbed25226	-0.410783
192	0xbe0081f0	-0.12549567
193	0xbdf7327d	-0.12070177
194	0xbd5073ac	-0.050891563
195	0x3d401ca3	0.04690231
196	0xbd846f43	-0.06466534
197	0x3e94743d	0.28994933
198	0x3ca64a11	0.02029899
199	0xbd010b8a	-0.031505145
200	0xbe024e0e	-0.12725088
201	0x3e944343	0.28957567
202	0x3b82b8b3	0.003989303
203	0x3de43b87	0.111441664
204	0xbf086a69	-0.5328737
205	0xbdbdd39b	-0.09268876
206	0xbd272ec6	-0.04081609
207	0x3d91c87c	0.071183175
208	0x3edb0eb8	0.42784667
209	0xbd5fa5ce	-0.054601483
210	0x3db1a57c	0.08674142
211	0xbde82f5b	-0.11337157
212	0xbe49ebfa	-0.19718924
213	0xbc747fc5	-0.014923041
214	0x3c64d0a1	0.013965757
215	0x3db9ae4e	0.09066449
216	0xbe4ae29b	-0.19813006
217	0x3e830d2e	0.25595993
218	0x3c7a8920	0.015291482
219	0x3dbe5af6	0.09294693
220	0x3d034b40	0.032054186
221	0xbe72e88a	-0.23721519
222	0xbe9db657	-0.30803177
223	0x3d84078a	0.064467505
224	0xbe711f71	-0.2354715
225	0xbec91435	-0.3927323
226	0x3e31792c	0.1733138
227	0x3eb866f6	0.36016053
228	0xbd2ef0fa	-0.042710282
229	0x3cf3e684	0.029773004
230	0xbd655bf9	-0.055995915
231	0xbd521e09	-0.051298175
232	0xbe24bdbd	-0.16088004
233	0xbd8b7d05	-0.06810955
234	0x3e97a45c	0.29617584
235	0xbc87b5e3	-0.016566223
236	0xbd4c99df	-0.04995143
237	0xbe363a62	-0.17795709
238	0x3d775df3	0.06039233
239	0x3bfd2f69	0.007726599
240	0x3e0d1e6a	0.13781133
241	0xbd2f9927	-0.042870667
242	0xbe6342e9	-0.22193493
243	0x3e06db19	0.13169517
244	0x3d3280cd	0.043579865
245	0x3e6a7e2e	0.22899696
246	0xbe8afe37	-0.27147076
247	0xbd0b17a1	-0.03395808
248	0xbd61a0a2	-0.055084832
249	0x3e1708b0	0.14749408
250	0x3e350f8c	0.17681712
251	0x3dce3bd1	0.10070003
252	0x3eaadf0e	0.33373302
253	0x3e6023cf	0.2188866
254	0x3e34ed49	0.17668642
255	0x3cbdadba	0.023154128

base.mlp.fc1.0.bias f4 [64]
0	0xbda49c5b	-0.08037635
1	0xbd1dd398	-0.03853187
2	0x3d12f349	0.035876546
3	0xbc396255	-0.011314948
4	0x3d7901cf	0.06079274
5	0xbce717da	-0.028209615
6	0x3c0c65ef	0.008569225
7	0x3d15dcf0	0.036587656
8	0x3c8bc613	0.017062223
9	0x3d4b51ba	0.049638487
10	0x3d08731d	0.033312906
11	0xbc652338	-0.013985448
12	0x3ca179cf	0.019711403
13	0xbd64f7c4	-0.05590035
14	0xbcf8a48d	-0.030351901
15	0xbd0147de	-0.03156268
16	0xbce60c8d	-0.028082157
17	0x3d35be20	0.04437077
18	0x3bbcb099	0.005758357
19	0xbbb73706	-0.005591276
20	0x3c7ba4c0	0.015359104
21	0xbd001533	-0.031270217
22	0xbc6dcca4	-0.014514122
23	0xbd4e5f0f	-0.050383624
24	0x3cbab17a	0.022789706
25	0xbc883bc5	-0.016630063
26	0x3d369e20	0.044584394
27	0xbd79957c	-0.060933575
28	0x3cc1a343	0.02363742
29	0x3d12d107	0.035843875
30	0xbb8f287f	-0.004368841
31	0xbd4e0799	-0.050300214
32	0x3d2008b9	0.03907082
33	0x3d2a1db6	0.04153224
34	0x3d51db85	0.05123474
35	0xbd286a74	-0.041117147
36	0xbb9328e9	-0.004490961
37	0xbd14522c	-0.036211178
38	0x3d90be78	0.07067579
39	0x3d84a7a1	0.06477285
40	0x3d7d250b	0.061802905
41	0x3d45f338	0.048327655
42	0x3ccb5f1c	0.024825625
43	0xbc61be1d	-0.013778237
44	0xbb012b62	-0.0019709696
45	0xbd63edcc	-0.055646703
46	0xbbd7eddc	-0.0065896343
47	0x3b3d09b0	0.0028844886
48	0x3ccfb153	0.02535311
49	0xbda00b1a	-0.078146175
50	0xbc95a12d	-0.018265331
51	0xbd120f2a	-0.035658993
52	0x3cbcfe19	0.023070382
53	0xbad336d9	-0.0016114368
54	0x3ca39527	0.019968582
55	0x3cabf940	0.020992875
56	0xbcd0ed09	-0.025503652
57	0x3d3d8272	0.04626698
58	0xbcce1c6f	-0.025160043
59	0x3b7667d3	0.0037598505
60	0xbd97cccf	-0.07412111
61	0x3c2455bc	0.010030206
62	0xbd54d151	-0.051957432
63	0xbca94e04	-0.020667084

base.mlp.fc1.2.weight f4 [64]
0	0x3f81badb	1.0135149
1	0x3f7d99ca	0.9906279
2	0x3f8f5a11	1.1199361
3	0x3f8135e0	1.0094566
4	0x3f8aa335	1.0831057
5	0x3f7a75e3	0.9783613
6	0x3f7d5a65	0.98966056
7	0x3f80454b	1.0021147
8	0x3f7d28a9	0.9889017
9	0x3f85c212	1.044985
10	0x3f7d931e	0.9905261
11	0x3f8202bd	1.0157086
12	0x3f8a200f	1.0791034
13	0x3f72687d	0.94690686
14	0x3f6db931	0.92860705
15	0x3f82c58e	1.0216539
16	0x3f7ffb47	0.99992794
17	0x3f76733f	0.962696
18	0x3f77cde2	0.9679853
19	0x3f7ceb34	0.9879639
20	0x3f7c24f3	0.9849388
21	0x3f724a22	0.9464437
22	0x3f7b963d	0.9827612
23	0x3f7956f9	0.97398335
24	0x3f83c42a	1.029424
25	0x3f7518a3	0.9574072
26	0x3f83a5a8	1.0284929
27	0x3f85a7ff	1.0441893
28	0x3f884e88	1.0648966
29	0x3f79f390	0.9763727
30	0x3f77a180	0.96730804
31	0x3f749b3d	0.95549375
32	0x3f7e1b44	0.99260354
33	0x3f81758b	1.0113996
34	0x3f82177c	1.0163417
35	0x3f80c278	1.0059347
36	0x3f759d14	0.9594281
37	0x3f79e78d	0.97618943
38	0x3f87f3c0	1.0621262
39	0x3f837d27	1.0272568
40	0x3f86b230	1.0523129
41	0x3f86673b	1.0500253
42	0x3f6bf70d	0.92173845
43	0x3f7c20bb	0.9848744
44	0x3f819d35	1.0126101
45	0x3f6d8825	0.92785865
46	0x3f769d3d	0.96333677
47	0x3f75773f	0.9588508
48	0x3f86df5e	1.0536916
49	0x3f79054d	0.97273713
50	0x3f74a6e5	0.9556716
51	0x3f82839a	1.0196412
52	0x3f7f66a5	0.99766
53	0x3f8065a4	1.0031018
54	0x3f85935e	1.0435598
55	0x3f85362c	1.0407157
56	0x3f733528	0.95002985
57	0x3f8a236c	1.079206
58	0x3f8349d3	1.0256904
59	0x3f74dbb1	0.9564772
60	0x3f6a49a2	0.91518605
61	0x3f7faef5	0.9987634
62	0x3f77b456	0.96759546
63	0x3f7454b8	0.9544177

base.mlp.fc1.2.bias f4 [64]
0	0xbdaad213	-0.0834085
1	0xbb72bce7	-0.0037038864
2	0xbc3c0550	-0.011475876
3	0x3c93e0b2	0.018051479
4	0xbcacdb45	-0.02110065
5	0xbc701144	-0.014652554
6	0x3b41d1a6	0.0029574423
7	0x3d102e08	0.03520015
8	0x3cab90f4	0.020943142
9	0x3d50eba6	0.05100598
10	0x3d1e0429	0.038578186
11	0xbc828d4f	-0.015936522
12	0xbc45aea2	-0.0120655615
13	0x3b78b872	0.0037951735
14	0x3c67c4ad	0.014146012
15	0xbd32fc2a	-0.043697514
16	0xbd2ec097	-0.042664137
17	0x3db48652	0.08814682
18	0xbba8678c	-0.005139297
19	0xbc1dc836	-0.009630254
20	0xbc6d62a1	-0.014488847
21	0xbbe45809	-0.0069685024
22	0x3cb3d565	0.02195234
23	0xbcf6f8a4	-0.030147858
24	0x3c98784b	0.018612048
25	0x39f9df8d	0.0004765954
26	0x3d57f495	0.052723486
27	0xbdaffe3a	-0.08593412
28	0xbd189bff	-0.037258144
29	0x3d5e09b4	0.054208472
30	0x3d1765e0	0.03696239
31	0xbbb17ce9	-0.005416502
32	0x3caf1c94	0.021375932
33	0x3c100687	0.008790619
34	0x3d4ce090	0.050018847
35	0xbd4c7c59	-0.049923275
36	0x3c9dc7a5	0.019260237
37	0xbb15aa2f	-0.0022837033
38	0xbb8de7a0	-0.0043305904
39	0x3ccf4803	0.025302893
40	0x3cccda62	0.025006477
41	0x3cbfa1cf	0.023392586
42	0x3d82d5cc	0.06388435
43	0x3bcacc95	0.006188939
44	0xbc5e832d	-0.013581079
45	0x3ca1fef0	0.019774884
46	0x3cba7c5e	0.022764381
47	0x3bf07898	0.0073385946
48	0x3d12a51e	0.035802
49	0xbd8319da	-0.06401415
50	0xbc09b773	-0.008405554
51	0xbd87a868	-0.06623918
52	0x3d1b17b1	0.03786439
53	0x3cb446e4	0.02200646
54	0xba1ee088	-0.00060606794
55	0x3b2bd6c7	0.0026220547
56	0xbc1058ac	-0.0088102035
57	0xbd360667	-0.0444397
58	0xbcb66bcd	-0.0222682
59	0x3c4cd433	0.012501764
60	0xbd250077	-0.040283646
61	0x3d22d0ab	0.039749783
62	0x3c53fab8	0.012938194
63	0x3cfb56b0	0.030680984

base.mlp.fc2.0.0.weight f4 [64, 64]
0	0x3d8eabb3	0.06966343
1	0xbe3c33d9	-0.18379153
2	0x3cd1a8a5	0.025593111
3	0xbddc2833	-0.10749855
4	0xbddef63a	-0.10886808
5	0xbdb9dd92	-0.09075464
6	0xbe1af060	-0.15130758
7	0xbd91b5e0	-0.07114768
8	0x3ed71e63	0.4201537
9	0x3e464858	0.19363534
10	0xbeac049c	-0.33597267
11	0xbde295c3	-0.11063721
12	0xbcd2829a	-0.025697041
13	0xbd29cdb9	-0.041455958
14	0x3e816d0e	0.25278515
15	0x3ead9beb	0.33908018
16	0xbe24872b	-0.16067187
17	0xbe85d095	-0.26135698
18	0x3e87ce8f	0.2652478
19	0x3ece6eff	0.40319058
20	0x3e36fc09	0.17869581
21	0x3e19ba69	0.15012516
22	0xbe0992b1	-0.13434865
23	0x3d9249e6	0.07143001
24	0x3df2a660	0.1184814
25	0x3cfa0801	0.030521395
26	0x3e84bb35	0.25924078
27	0x3e15d316	0.14631304
28	0xbd9358a1	-0.07194639
29	0xbdf7db25	-0.121023454
30	0xbea25ca1	-0.31711295
31	0x3c430366	0.011902666
32	0x3df674d1	0.12034
33	0x3e294074	0.16528493
34	0x3adf1313	0.0017019234
35	0x3eb2954f	0.34879538
36	0xbe199670	-0.14998794
37	0x3d67c86e	0.05658763
38	0x3dead803	0.11466982
39	0x3d6d3ca0	0.057919145
40	0x3e0f5174	0.13995916
41	0x3e8469ba	0.25861913
42	0x3de75c4c	0.11296901
43	0xbe8632ce	-0.26210636
44	0xbe4f21f3	-0.20227794
45	0x3e171be5	0.14756735
46	0x3e394e15	0.18096192
47	0x3e34bd4f	0.1765034
48	0x3e2ebf59	0.17065181
49	0xbbbb2614	-0.0057113264
50	0x3ea9b68a	0.3314708
51	0x3d8bd070	0.06826866
52	0x3eb41d94	0.35178816
53	0x3bfdd59a	0.0077464106
54	0x3b16a260	0.0022984967
55	0xbc147594	-0.009061236
56	0xbd1aa3ba	-0.037753798
57	0xbea6ad0d	-0.32553902
58	0xbda26c27	-0.07930785
59	0xbcafaca8	-0.021444634
60	0xbe75a461	-0.23988487
61	0xbd7ae2e8	-0.06125155
62	0x3ca19259	0.019723104
63	0xbd7c35e9	-0.06157485
64	0xbd826788	-0.06367403
65	0x3e2e7a51	0.17038848
66	0x3cbcfdd0	0.023070246
67	0xbc63e0c3	-0.013908568
68	0xbe89e4a5	-0.26932254
69	0xbd805764	-0.062666684
70	0xbc78914b	-0.015171359
71	0x3b934196	0.0044939024
72	0xbe7661f5	-0.24060805
73	0xbdc3311f	-0.095308535
74	0x3cae7d9e	0.021300133
75	0xbe7cb5f1	-0.2467878
76	0xbcd5bfbe	-0.026092406
77	0xbe7520b1	-0.23938252
78	0x3e1051f2	0.1409376
79	0x3ee65939	0.44989946
80	0xbe3c62d1	-0.1839707
81	0xbe0dea86	-0.13858995
82	0x3e46c60b	0.19411485
83	0xbe7fcc02	-0.24980167
84	0xbb854ff1	-0.0040683676
85	0xbd6a7bde	-0.057247035
86	0xbc89d711	-0.016826184
87	0x3e2a8de5	0.16655691
88	0xbd3dd702	-0.046347626
89	0x3e626744	0.22109705
90	0x3e807f79	0.25097254
91	0x3ded398e	0.11583243
92	0x3d27b9ff	0.040948864
93	0x3d87c1a1	0.06628729
94	0xbe4fd1b1	-0.20294835
95	0xbe9543dc	-0.29153335
96	0xbc27c98d	-0.010240925
97	0x3eb19aa3	0.3468829
98	0xbe32da97	-0.17466198
99	0xbd9736de	-0.07383512
100	0x3e903623	0.28166303
101	0x3e7d43eb	0.2473294
102	0xbdc873bd	-0.097877
103	0xbe7e4ec1	-0.2483473
104	0xbe0d2409	-0.13783278
105	0x3dc3584f	0.09538328
106	0x3dd7c6ef	0.105359904
107	0xbe23c914	-0.15994674
108	0xbd62d902	-0.055382736
109	0x3d847df7	0.064693384
110	0xbe29052f	-0.16505884
111	0x3d58bf50	0.052916825
112	0x3e45de1c	0.19323009
113	0x3c2b052f	0.010438248
114	0xbe013884	-0.12619215
115	0x3e50ee45	0.20403393
116	0xbedda589	-0.43290356
117	0xbe10b754	-0.14132434
118	0x3e202de7	0.1564251
119	0xbe3e5744	-0.18587977
120	0x3e8fc2e4	0.28078377
121	0x3c89e330	0.016831964
122	0x3cb15155	0.021645227
123	0xbd169859	-0.036766384
124	0xbdad9aee	-0.08476816
125	0xbd917cf4	-0.07103911
126	0xbe429dd9	-0.19005527
127	0xbdd7e0d0	-0.105409265
128	0x3e12a996	0.14322504
129	0x3e98115c	0.29700744
130	0xbe2171d9	-0.15766086
131	0xbe9cf4d4	-0.3065554
132	0x3dee2dec	0.11629853
133	0x3dbca2f5	0.09210769
134	0xbe926788	-0.28594613
135	0x3e3628d1	0.17789008
136	0x3e0f35ae	0.13985321
137	0xbe22d08b	-0.15899865
138	0x3e5d12f7	0.21589266
139	0x3e5a8346	0.2133914
140	0xbb8e9cca	-0.004352187
141	0xbd0cb238	-0.03434965
142	0xbe4f27f1	-0.2023008
143	0xbe06ba35	-0.1315697
144	0xbe02fc29	-0.12791504
145	0x3e9ae087	0.30249426
146	0x3d833746	0.06407027
147	0x3d97dc5e	0.074150786
148	0x3d31ad0f	0.043377932
149	0x3ed89880	0.42303848
150	0x3ccbecc0	0.024893165
151	0x3cda81aa	0.026673157
152	0x3d8a9692	0.06767
153	0x3bbcbd55	0.005759875
154	0xbd2b87d0	-0.041877568
155	0x3d4dc2ac	0.05023448
156	0xbb36ff10	-0.0027923025
157	0xbe47a4ad	-0.19496413
158	0xbecf6619	-0.40507582
159	0xbdc4ff53	-0.09619012
160	0xbe4b7b7e	-0.19871327
161	0x3cdc8d6f	0.02692291
162	0xbdde832c	-0.10864863
163	0x3e82768b	0.25481066
164	0x3db5d6d2	0.08878864
165	0x3da7c1a1	0.08191229
166	0x3d4b2b97	0.049602117
167	0xbe391530	-0.18074489
168	0xbd013646	-0.0315459
169	0x3d1211cc	0.035661504
170	0xbe5ec305	-0.21754082
171	0x3e4ef1ae	0.20209381
172	0xbdecc318	-0.11560649
173	0xbe178610	-0.14797235
174	0x3d7d5f1d	0.061858285
175	0xbe1a7339	-0.15083016
176	0x3e6fdff8	0.23425281
177	0x3dd510af	0.10403573
178	0xbe80033e	-0.25002474
179	0x3c015b37	0.0078952825
180	0x3e05f07c	0.13080019
181	0xbe310927	-0.17288648
182	0x3d965c27	0.073417954
183	0x3ed84fda	0.42248422
184	0xbb3a4444	-0.0028422037
185	0x3d806944	0.06270078
186	0x3cfd4f70	0.030921668
187	0xbd440e69	-0.047865305
188	0x3e288e74	0.16460592
189	0xbd165df4	-0.036710694
190	0xbe138a7a	-0.14408293
191	0xbeb81568	-0.35953832
192	0xbc8459ff	-0.016156195
193	0x3c33d676	0.010976424
194	0x3debcc56	0.11513583
195	0xbeee244f	-0.46512076
196	0xbdbd1016	-0.09231584
197	0x3d49eb95	0.049296934
198	0x3d896c4d	0.0671011
199	0xbde5456c	-0.11194882
200	0x3e061499	0.13093795
201	0x3e7c342f	0.24629281
202	0x3dae6688	0.0851565
203	0xbe5f5337	-0.21809088
204	0xbca6ad89	-0.02034642
205	0xbe56cbb2	-0.20976141
206	0x3da6afd6	0.08139007
207	0xbeca971e	-0.39568418
208	0xbe9a35f2	-0.30119282
209	0xbde91c9d	-0.11382411
210	0x3d482b9f	0.048869725
211	0x3cfc10c0	0.030769706
212	0x3d6924a0	0.056919694
213	0x3d808411	0.0627519
214	0x3d47d4a5	0.048786778
215	0x3e834921	0.2564173
216	0xbe1e9cf7	-0.15489565
217	0x3d6bc148	0.057557374
218	0xbd07a992	-0.0331207
219	0xbeee19f7	-0.46504185
220	0xbedb43c0	-0.42825127
221	0x3e89d85e	0.26922888
222	0x3d7a98f7	0.061181035
223	0xbdc15939	-0.09440846
224	0xbd46585c	-0.04842411
225	0xbe2b6422	-0.16737416
226	0x3dbf4c4b	0.093407236
227	0xbe8319e7	-0.256057
228	0xbd4d89cc	-0.05018024
229	0xbc8ddeb6	-0.01731811
230	0x3db4a314	0.08820167
231	0x3d14b8a5	0.036308903
232	0xbd6d6416	-0.057956778
233	0xbcf4e93b	-0.02989637
234	0xbe0549e8	-0.13016474
235	0xbe30ef2a	-0.17278734
236	0xbee14cf3	-0.4400402
237	0x3dda01f2	0.10644902
238	0x3e076105	0.13220604
239	0x3dce9f6f	0.10089003
240	0x3eae9006	0.34094256
241	0xbca5ee4d	-0.020255232
242	0xbdd85a96	-0.10564153
243	0xbe6e2b36	-0.23258671
244	0xbbecce97	-0.007226776
245	0x3e21c6b3	0.15798454
246	0xbe80fb5d	-0.25191775
247	0xbe85f604	-0.26164258
248	0x3e61cd55	0.22050984
249	0x3db52186	0.08844285
250	0xbe1d2930	-0.15347743
251	0xbdf4af75	-0.11947528
252	0x3c50e3c3	0.012749615
253	0x3bf0221c	0.007328285
254	0xbe27059b	-0.16310732
255	0xbd632631	-0.055456344

base.mlp.fc2.0.0.bias f4 [64]
0	0xbbc1e9c6	-0.0059177605
1	0xbd7da999	-0.06192932
2	0xbd2cd0c7	-0.042191293
3	0x3d3b0c0c	0.045665786
4	0xbcf27e82	-0.02960134
5	0xbcf4c560	-0.029879272
6	0xbcb07418	-0.021539733
7	0x3d584ef5	0.052809674
8	0x3aecf7f1	0.0018079263
9	0xbbf31b3b	-0.0074190176
10	0x3c76be81	0.015060068
11	0x3d927dab	0.071528755
12	0x3d9061ae	0.07049881
13	0xbd1c6c41	-0.038189176
14	0xbd56f5d8	-0.05248055
15	0xbb69679e	-0.003561474
16	0xbb5dd9ba	-0.00338517
17	0xbc713485	-0.014721994
18	0x3d708ca6	0.058727883
19	0xbc8765bc	-0.016528003
20	0x3cb7a2cc	0.022416495
21	0xbd11c1a0	-0.035585046
22	0x3ce6c075	0.028167943
23	0xbaac8cff	-0.0013164579
24	0xbdab5145	-0.0836511
25	0x3c86c088	0.016449228
26	0xbbf5f80a	-0.007506375
27	0xbb247049	-0.0025091341
28	0xbd55bf7d	-0.05218457
29	0xbd14f5ce	-0.03636723
30	0xbd3a39d1	-0.045465294
31	0xbce0c848	-0.027439252
32	0xbd006224	-0.031343594
33	0xbce1c7f8	-0.027561173
34	0xbb3c07ec	-0.0028691245
35	0xbd836124	-0.064150125
36	0x3bf475b6	0.0074603213
37	0xba971ab7	-0.0011528347
38	0x3db29417	0.08719652
39	0xbc63df5b	-0.013908233
40	0xbbe8ab8f	-0.0071005295
41	0xbcc99ff6	-0.024612408
42	0x3b4713ff	0.0030376909
43	0xbb722579	-0.0036948605
44	0x3cf1524e	0.029458191
45	0xbd2817cd	-0.041038323
46	0xbd601465	-0.05470695
47	0xbd033494	-0.032032564
48	0xbd05c565	-0.032658953
49	0x3b0e15bf	0.0021680442
50	0xbd321e66	-0.04348602
51	0x3cfa9cdc	0.030592375
52	0x3d742928	0.059609562
53	0x3a279a06	0.0006393496
54	0x3c271762	0.010198446
55	0xbd83a435	-0.064278044
56	0xbc3a51f7	-0.011372081
57	0xbc713f23	-0.014724526
58	0xbd910e9d	-0.070828654
59	0xbc101714	-0.008794565
60	0xbc43d99b	-0.011953737
61	0x3d2d91d7	0.04237541
62	0x3c44a883	0.012003067
63	0x3cea9c5a	0.028639007

base.mlp.fc2.0.2.weight f4 [64]
0	0x3f95c020	1.1699257
1	0x3f901cca	1.1258786
2	0x3f89751f	1.0738868
3	0x3f96e229	1.1787769
4	0x3f8c656f	1.0968455
5	0x3f909816	1.1296413
6	0x3f8cb467	1.0992554
7	0x3f95893b	1.1682504
8	0x3f8e731b	1.1128877
9	0x3f953377	1.1656331
10	0x3f8a0a5f	1.0784415
11	0x3f954324	1.1661115
12	0x3f8b7c3a	1.0897286
13	0x3f992996	1.1965816
14	0x3f8bf21a	1.0933259
15	0x3f9208a4	1.1408887
16	0x3f8bb093	1.0913261
17	0x3f872bd6	1.0560253
18	0x3f9d6f0b	1.2299513
19	0x3f958ecf	1.1684207
20	0x3f96f792	1.1794302
21	0x3f869fec	1.0517554
22	0x3f8edf90	1.1161976
23	0x3f94388c	1.1579757
24	0x3f84c07d	1.0371243
25	0x3f8fe49a	1.1241639
26	0x3f8f943a	1.121711
27	0x3f893c89	1.0721599
28	0x3f9304b8	1.1485815
29	0x3f86ba76	1.0525653
30	0x3f845fff	1.0341796
31	0x3f90afd6	1.1303661
32	0x3f8b3121	1.0874368
33	0x3f8e8663	1.1134762
34	0x3f940fc5	1.1567312
35	0x3f8a1882	1.0788729
36	0x3f8a5bbc	1.0809245
37	0x3f97c4d5	1.1856943
38	0x3f9e2e51	1.2357885
39	0x3f8b63b8	1.0889807
40	0x3f910f42	1.1332781
41	0x3f89a383	1.0753025
42	0x3f91d02e	1.1391656
43	0x3f921649	1.1413051
44	0x3f96fde6	1.1796234
45	0x3f8bf7ba	1.0934975
46	0x3f8d5633	1.1041931
47	0x3f8d4433	1.1036438
48	0x3f8fef47	1.1244897
49	0x3f8970f3	1.0737594
50	0x3f85ee37	1.0463322
51	0x3f8f65bf	1.1202925
52	0x3f957bba	1.1678383
53	0x3f8b53e9	1.0884982
54	0x3f99f5b3	1.2028106
55	0x3f8b2bb9	1.0872718
56	0x3f8ef5c5	1.1168753
57	0x3f885c0f	1.0653094
58	0x3f88dd7c	1.0692592
59	0x3f8dc4a7	1.1075639
60	0x3f8f478b	1.1193708
61	0x3f914da8	1.1351824
62	0x3f930583	1.1486057
63	0x3f8f4aff	1.1194762

base.mlp.fc2.0.2.bias f4 [64]
0	0xbb14196c	-0.002259816
1	0x3c103ce7	0.008803583
2	0xbcd39853	-0.02582947
3	0x3d248512	0.04016597
4	0xbc19a4a8	-0.009377636
5	0xbd2223c6	-0.039584897
6	0xbd4b1086	-0.049576305
7	0xbc804d6b	-0.015661916
8	0x3d655244	0.055986658
9	0x3d30c700	0.04315853
10	0x3d426e76	0.047468625
11	0x3caaf7a0	0.02087003
12	0x3d11c137	0.035584655
13	0xbd8a2845	-0.06745962
14	0xbcae085c	-0.02124422
15	0xbaaf9ec0	-0.0013398752
16	0x3d589f5f	0.052886363
17	0x3ac9af68	0.0015387358
18	0x3d147464	0.03624381
19	0xbd293b26	-0.041316174
20	0x3b5c2c7b	0.0033595848
21	0xbc8567da	-0.016284872
22	0x3d96b7e3	0.07359292
23	0xbd24f5d7	-0.040273514
24	0xbca5c96a	-0.020237643
25	0x3c479549	0.012181588
26	0xbd79cf28	-0.060988575
27	0x3ce3abad	0.027791822
28	0xbd556604	-0.052099243
29	0xbd20ed0f	-0.039288577
30	0xbd422774	-0.047400907
31	0xbd3da61d	-0.046300996
32	0xbd87d97b	-0.06633278
33	0x3c81d339	0.01584779
34	0xbc3ae8c7	-0.0114080375
35	0xb9c0865a	-0.00036721193
36	0x3baf01b9	0.0053407815
37	0xbc2fef50	-0.010738209
38	0x3cb67f10	0.022277385
39	0x3d3b0990	0.045663416
40	0xbd4b855d	-0.049687732
41	0xbc8c79a8	-0.017147854
42	0x3cec4903	0.028843408
43	0xbc1181c1	-0.008881033
44	0xbc72c38f	-0.014817133
45	0xbcc18bbc	-0.0236262
46	0xbc925a6b	-0.01786538
47	0xbdadb22d	-0.0848125
48	0xbd38f408	-0.0451546
49	0xbc28ef18	-0.010310911
50	0xbbc8aa66	-0.0061238287
51	0x3d81b82b	0.063339554
52	0x3d7ae843	0.06125666
53	0x3c2f6e9f	0.0107075265
54	0xbc8c01a1	-0.01709062
55	0x3d30054e	0.04297381
56	0x3bce37fa	0.006293294
57	0x3d220435	0.039554793
58	0x3cd0540d	0.025430704
59	0xbd2cfc71	-0.042232934
60	0xbd235129	-0.039872322
61	0x3bff3148	0.007787857
62	0xbc83763d	-0.016047591
63	0xbcccf5c1	-0.025019528

act.action_out.fc_mean.weight f4 [5, 64]
0	0x3d4df5a0	0.050283074
1	0xbda13858	-0.07872075
2	0xbc46b5e2	-0.012128325
3	0xbdb2bf07	-0.08727842
4	0x3d18bafb	0.037287693
5	0x3ced9a79	0.029004322
6	0x3d672bcf	0.056438264
7	0xbc24543b	-0.010029848
8	0xbdbcf59d	-0.092265345
9	0xbdee3dbb	-0.11632868
10	0x3d214dbf	0.039380785
11	0xbbe25ed9	-0.0069082794
12	0x3cb2dfb2	0.021835182
13	0x3c02f995	0.007994075
14	0x3d5dbd96	0.05413588
15	0x3d166b6a	0.03672353
16	0xbd8eea87	-0.06978326
17	0xbd047724	-0.032340184
18	0xbb32ae54	-0.0027264552
19	0x3cb5252d	0.022112453
20	0x3c118bbc	0.008883413
21	0x3d27d604	0.040975586
22	0xbdabc92c	-0.0838798
23	0x3c8d17aa	0.017223198
24	0xbbc06ee8	-0.005872596
25	0x3c8f389b	0.017483046
26	0x3c1b159a	0.009465599
27	0x3d348171	0.044068757
28	0x3e184b82	0.14872554
29	0x3d2b0ebf	0.04176211
30	0x3d2d4835	0.04230519
31	0x3d290236	0.041261874
32	0x3cc2f851	0.023800047
33	0xbce94a6f	-0.028477876
34	0x3c65cc4e	0.014025761
35	0x3d6b283f	0.05741143
36	0x3cdb1181	0.026741745
37	0xbdae470f	-0.08509647
38	0xbba09e73	-0.004901701
39	0xbba3ce6b	-0.004998972
40	0xbc1feb30	-0.009760663
41	0xbc4f540f	-0.0126543185
42	0xbdb8c3e9	-0.09021742
43	0x3c673eed	0.014114124
44	0xbbba18dc	-0.005679233
45	0x3c7fd49e	0.015614657
46	0xbcafc5e9	-0.021456676
47	0x3db18e83	0.0866976
48	0x3d0bbc78	0.034115285
49	0x3d43a4de	0.04776465
50	0x3d262b53	0.04056866
51	0xbd8c0673	-0.068371676
52	0xbd9aa03d	-0.07550094
53	0x3d43e3fb	0.04782484
54	0xbdf1b683	-0.118023895
55	0xbda2f186	-0.07956223
56	0x3d36136b	0.044452112
57	0xbd51f327	-0.05125728
58	0x3b8611c1	0.004091472
59	0x3d07437b	0.03302334
60	0x3d5a64bf	0.053318735
61	0x3d6bdb6e	0.05758231
62	0x3d764b74	0.06013055
63	0x3d29a085	0.04141285
64	0xbd4d1dc2	-0.050077207
65	0xbcb97272	-0.02263758
66	0xbd326673	-0.043554734
67	0xbcb01210	-0.021492988
68	0x3d7173c3	0.05894829
69	0xbcb2d6af	-0.021830885
70	0xbd7878bb	-0.060662013
71	0xbc7406cf	-0.014894201
72	0x3d3990c7	0.045304086
73	0xbc8ff846	-0.01757444
74	0x3c3a93a2	0.0113877375
75	0x3df4b1a4	0.11947945
76	0x3d089c33	0.03335209
77	0xbdd74a0b	-0.105121695
78	0x3c5e7aca	0.01357908
79	0xbd6bf454	-0.057606056
80	0xbc24ad2c	-0.010051053
81	0x3d18ec10	0.0373345
82	0xbde4a576	-0.11164372
83	0xbda9183a	-0.08256574
84	0x3c8dc44d	0.017305518
85	0x3d12481a	0.035713293
86	0x3d0da6cf	0.03458291
87	0x3d464619	0.048406694
88	0xbc2493cb	-0.010045002
89	0x3cea8254	0.028626598
90	0xbdd15143	-0.102205776
91	0x3d270b79	0.040782426
92	0x3ba33071	0.00498014
93	0xbd38ac69	-0.0450863
94	0xbd0e42c1	-0.03473163
95	0x3c6e460f	0.01454307
96	0xbdd045ee	-0.10169588
97	0xbd6e53a6	-0.058185242
98	0xbd4f2c40	-0.05057931
99	0x38afbb08	8.3794876e-05
100	0xbd3024a3	-0.04300369
101	0xbbcd3c99	-0.0062633273
102	0xbdbd4054	-0.09240785
103	0x3db88a56	0.090107605
104	0x3bd8ba00	0.00661397
105	0x3d2bbe44	0.0419295
106	0x3db84e1b	0.089992724
107	0x3d9932df	0.07480406
108	0x3daca02f	0.0842899
109	0x3bc35cae	0.005961976
110	0x3da5b50d	0.08091173
111	0xbd9ca042	-0.07647754
112	0xbd454ba2	-0.048167832
113	0x3d7a856d	0.0611624
114	0xbbfa938b	-0.007646983
115	0x3b764782	0.0037579243
116	0x3d8e702e	0.0695499
117	0x3ca782ba	0.020448077
118	0x3b0d3719	0.0021547733
119	0x3d069436	0.03285619
120	0xbd17806f	-0.03698772
121	0x3cd9e9ab	0.02660068
122	0xbdb9d51a	-0.09073849
123	0xbdd5c0c6	-0.10437159
124	0xbd9f3469	-0.07773668
125	0x3d23cf51	0.039992634
126	0x3d4cc546	0.049992822
127	0x3cef8d41	0.02924216
128	0x3dc08c0c	0.09401712
129	0x3dce2df9	0.10067362
130	0xbc761d12	-0.015021579
131	0x3e060d82	0.1309109
132	0x3d0d43b5	0.0344884
133	0xbc876c2a	-0.016531069
134	0xbcaa8206	-0.020813953
135	0x3d335d85	0.04379036
136	0x3ccdf86c	0.02514287
137	0x3ce6d2c9	0.028176682
138	0x3cc2d0ac	0.023781143
139	0xbdb8255c	-0.08991501
140	0x3daeae37	0.085293226
141	0x3ceb5b94	0.028730191
142	0xbcf7329b	-0.030175498
143	0xbd65542c	-0.055988476
144	0x3d6bc626	0.057562016
145	0x3d0c9263	0.034319293
146	0x3e32e811	0.17471339
147	0xbbe88080	-0.0070953965
148	0x3e0a9e2f	0.13536905
149	0xbd40f3d9	-0.04710755
150	0x3da0f863	0.07859876
151	0xbe0f3041	-0.13983251
152	0xbc3cfd67	-0.011535025
153	0x3c2aac6a	0.010417083
154	0xbc520364	-0.012818191
155	0xbd9294db	-0.07157298
156	0xbc49ac2d	-0.012309116
157	0xbd43f5b4	-0.047841743
158	0x3997b574	0.00028936157
159	0xbdb0f06b	-0.08639606
160	0xbc072e52	-0.00825079
161	0x3d4ee77f	0.05051374
162	0x3d38c7d4	0.045112446
163	0x3d808618	0.06275576
164	0x3d80a7ac	0.06281981
165	0xbdb144da	-0.086557105
166	0x3e48b4f2	0.19600275
167	0xbbfd0805	-0.0077219033
168	0xbda25a7e	-0.07927416
169	0xbd95e70c	-0.07319459
170	0xbda7c268	-0.08191377
171	0xbdfd829b	-0.12378427
172	0xbdcece4e	-0.10097943
173	0xbd472d88	-0.048627406
174	0xbd1a19f1	-0.037622396
175	0xbd21e98f	-0.03952938
176	0xbd923c53	-0.07140412
177	0x3b62bd10	0.0034597553
178	0xbc2a215c	-0.01038393
179	0x3ddae50f	0.10688221
180	0xbd58654e	-0.052830987
181	0xbd9f1db1	-0.07769335
182	0xbd6f911a	-0.05848799
183	0xbd30012c	-0.042969868
184	0x3d711d9c	0.05886613
185	0x3d65931a	0.05604849
186	0x3c81bbe1	0.015836658
187	0xbca078e5	-0.019588897
188	0x3c7f2e43	0.0155749945
189	0xbcbef51c	-0.023310237
190	0xbcfdef55	-0.030997911
191	0xbdd387c3	-0.10328629
192	0x3da7d3f7	0.08194726
193	0x3bc7035a	0.0060733976
194	0xbd8ee64b	-0.06977519
195	0x3d004f5b	0.03132568
196	0xbc4633f3	-0.012097347
197	0xbdd0871c	-0.1018202
198	0xbda78915	-0.08180443
199	0x3dad8753	0.08473077
200	0x3d57a4c3	0.052647363
201	0xbbddb5b4	-0.0067660455
202	0xbdb2cecb	-0.08730849
203	0x3db412a8	0.08792621
204	0x3cf3968d	0.029734874
205	0xbe023501	-0.12715532
206	0xbda3ca80	-0.07997608
207	0x3e008f52	0.12554672
208	0xbd199e02	-0.037504204
209	0xbd4be338	-0.04977724
210	0xbcfce299	-0.030869769
211	0xbd941ed6	-0.07232444
212	0x3d88d2ac	0.066808075
213	0x3bc4166c	0.005984118
214	0x3c18ec89	0.009333738
215	0xbc4076da	-0.011747086
216	0x3d061d2d	0.032742668
217	0x3d668212	0.05627639
218	0xbd20f63b	-0.039297324
219	0xbd2ba23f	-0.041902777
220	0x3c199752	0.0093744565
221	0x3c8653f1	0.016397448
222	0xbc3ddb72	-0.011587964
223	0x3db13550	0.08652747
224	0x3d2d13c5	0.04225518
225	0x3da3cd56	0.07998149
226	0x3e059603	0.13045506
227	0x3d3d70e2	0.04625023
228	0x3d7dcb3a	0.06196139
229	0xbdca7a4b	-0.09886607
230	0xbd862c96	-0.06551473
231	0x3ada9175	0.001667543
232	0xbd659439	-0.05604956
233	0x3cab3d0a	0.02090313
234	0xbd18e719	-0.037329767
235	0xbc56f8fc	-0.013120886
236	0xbdb635a7	-0.08896952
237	0xbdaa8b0f	-0.083273046
238	0xbd86d809	-0.06584174
239	0xbc2907d7	-0.010316811
240	0xbdce3d23	-0.10070255
241	0x3cd1b456	0.025598686
242	0x3d0cf99f	0.034417745
243	0xbc05722a	-0.008144895
244	0x3d9305b8	0.07178825
245	0x3d17ba50	0.037042916
246	0xbddacf76	-0.10684101
247	0xb7eb1f1b	-2.8028668e-05
248	0x3d264e0f	0.040601786
249	0x3bb4902a	0.0055103498
250	0x3c339be3	0.010962459
251	0x3d166e8a	0.036726512
252	0xbd952e6f	-0.07284247
253	0x3dbcca94	0.09218326
254	0x3de936cc	0.11387405
255	0x3b5c0079	0.0033569618

act.action_out.fc_mean.bias f4 [5]
0	0xbd3c1a81	-0.045923714
1	0x3d36eacf	0.044657525
2	0x3d1d49d6	0.038400494
3	0x3cfe66c5	0.031054864
4	0x3bf68fbb	0.007524458

act.action_out.logstd._bias f4 [5, 1]
0	0xbdaec312	-0.085333005
1	0xbe2ab346	-0.1666995
2	0xbebfcea1	-0.37462333
3	0xbe945cff	-0.289772
4	0xbe99ab67	-0.30013582
