checkpoint/best_mappo_seed111_run20260210_234901_envmpe-cooperative_navigation_ep1000_actor.pt (torch, 31368 bytes, 13 tensors)

base.feature_norm.weight f4 [18]
00000000: 97e2 803f a848 803f 81d5 7c3f ff39 783f
00000010: 48c8 843f 5415 803f 8f8e 833f 3ad4 823f
00000020: 3fe1 833f 6e6b 7a3f 12e2 7a3f cd12 743f
00000030: e8fa 7b3f 747e 7c3f cd86 823f 1f23 7e3f
00000040: d8b4 7e3f 05bd 823f
1.006915 1.0022173 0.9876328 0.96963495 1.0373621 1.0006509 1.027788 1.0221016
1.0303115 0.97820175 0.98001206 0.9534119 0.9842973 0.9863045 1.0197388 0.9927234
0.99494696 1.0213934

base.feature_norm.bias f4 [18]
00000000: 8b2d 90bc 57f9 223b 426d e9bc 799d c23a
00000010: 712c 6fbb f98a ef3c 2ad5 ae3b 35d6 31bd
00000020: c4bd 073d 1cf4 15bd d86f bc3c 5334 83bc
00000030: cc27 383c 7457 2dbd b257 24bb 24c6 0b3d
00000040: 6b4c 3a3d e4e2 a13c
-0.017599842 0.0024867856 -0.028494481 0.0014847956 -0.0036494995 0.029241072 0.0053354697 -0.043417174
0.03313996 -0.036609754 0.02300255 -0.016016161 0.011239957 -0.04231973 -0.0025076685 0.03412451
0.045483034 0.01976151

base.mlp.fc1.0.weight f4 [64, 18]
00000000: a568 a6bd ccc4 00be f511 7fba 82bf 093e
00000010: c6e9 99be cfa2 6e3d 54d8 003e 1f26 b53d
00000020: 2cb1 743e 27f3 363e 975d 8dbe 376d 063e
00000030: dbdc dd3d 18fd 39be cfdb 9c3d cdad 313d
00000040: 7ab8 df3c 646d e3be c5a9 463e 272f c53d
00000050: d7ec 83bd a5dd f3bd 384a e03d 1af2 30be
00000060: 65f1 2a3e 89b5 823c 6a60 1c3e 50e0 8cbe
00000070: 3ffc a0bd eb64 113e 14f5 72be ba83 0f3e
00000080: cc3e 573e 65f6 5cbe 48d5 273e 901e a43d
00000090: d326 dcbe 0491 973d 99f9 c3bd 0e63 7e3e
000000a0: 0fb9 7d3e cbe8 e63d 0fd6 6d3d 39a7 b3be
000000b0: 1ef5 053e 9c79 633c 48f4 883e 9e54 99bd
000000c0: c816 2c3e 3981 0f3e e64f 08be 96e8 f03e
000000d0: 7038 0a3d ae8d 1b3e abab 473d a3eb 413d
000000e0: 5880 b33e d1f1 46bd 0e8f 193e 476c a33d
000000f0: 1a4c b93e b8ce 263c 6116 b73c f215 c7be
00000100: f137 843d 8eca 3d3e af06 033e 24ba fc3c
00000110: b96c eebd b411 2fbe 0c9b 203c 7ddf 8ebe
00000120: 3bf4 11bd aad5 f1be 091b 0e3e 53bc 2cbd
00000130: a011 963d 0188 94bd c947 6abe 38f7 e9bd
00000140: b211 f4bd df6b 9a3c db1c bbbd 782e 93bc
00000150: 2462 323e 62eb 5ebd a6ec cfbd 9535 10be
00000160: 0387 363e 5160 7fbe 91fa 55be eed8 683e
00000170: 9eb2 0abc 3d5d 3fbe fd3f c4bc f46c a53a
00000180: 81ac d3be 417f 923b 9df8 b1bc cd20 c13d
00000190: 978b e6bd f2e6 d2bc a202 343e 7c25 8bbd
000001a0: 7f59 233e 975a a9be 3220 88be 4914 10be
000001b0: 5592 79bd 223d 97bd b944 3c3e 4907 5e3e
000001c0: a065 21be 62ad 68be 4b3b bd39 9d82 26bd
000001d0: db5d a9be 3d7b 623e 628b 903e cbc3 a6be
000001e0: 89d4 c8be 23c2 963a 538a 1cbe f17d e7bd
000001f0: d157 4e3c 5987 c6bd 3958 26be 3114 093e
00000200: 82c2 2f3d 3ec2 0d3e 48a5 c5bd 4c4c 813d
00000210: 5dea 983e ac9c b3be 98e9 d93d 1682 283e
00000220: 42f5 b13d 40ab 763e f28e a7be 8b4c 00be
00000230: 9d49 b4bd 8d5d 2d3e 5940 c93d edbf fc3c
00000240: df4f 45bd 2946 95be 14a9 703e f9a8 4cbd
00000250: 7769 28be 87ad 65bd 2fc4 2b3e ea73 4cbd
00000260: 5acd be3e 4216 d63d b648 a9bd 33ec d6ba
00000270: 6f0b 83be 358d 3e3e f787 4dbd 1595 023d
00000280: d9c9 34be f4a2 4c3e 3900 43be 0017 0a3d
00000290: 8f2f aa3d 6b22 c0bd 72ed 2e3e 4760 993c
000002a0: 6ad6 f7bd b90f 8abd b06c 9dbd ecde 2c3e
000002b0: cb00 c2bd 924a 7d3e 4907 88be f74c b9bd
000002c0: bdbc a1bd b5ac 9a3b 6cb2 68be 6000 c3bd
000002d0: 149c 3fbe de9e 9e3e 10f3 87be 4b92 8fbc
000002e0: c202 803d 0716 5bbb f1cd 96bc 1c0f 66be
000002f0: c58f eb3e 288e 543e 61af 5bbc 7c1e f9bd
00000300: e7fc da3d 15f4 c33e 5104 8e3e 71f4 e73b
00000310: e13c 0c3e 9d43 253e 8fc2 65be 0c83 14be
00000320: e3a6 8a3d 65da a9bb a73e 80ba d23b 07bf
00000330: 6837 e83d 2957 873e ea30 dd3d 8dba 13bd
00000340: 97f8 f7bd 967f b13d dcf5 8d3b 8f36 3bbe
00000350: bb9f 833e e345 153e d874 a03d 265f 09be
00000360: c82d 9abe a39b 8a3e 41fc 873e 2fa8 6fbe
00000370: 8efa 97be ef97 3f3d 1263 8d3d fd40 80be
00000380: b6f2 06be cc36 cebd 55ff e33c b30b c23c
00000390: 0a62 a6bc 3096 fdbd 09dc 163e 9b81 dbbd
000003a0: f605 3f3e f21c 643e 789f d1bd 04ff 56bc
000003b0: 3290 893e 5dc3 10be 08d9 b13e 5976 083e
000003c0: c815 503d 4f06 243e 79cb e53d 5689 483e
000003d0: d634 553e e65c 523e 555e 353e 97b2 0c3f
000003e0: 7589 d43d 0d81 8cbd 1447 8b3b e2a0 3dbd
000003f0: 8130 5b3c 1083 37be 8806 85bd 621c a5be
-0.08125428 -0.12575072 -0.0009730154 0.1345196 -0.30061167 0.058260735 0.12582523 0.08845162
0.2389571 0.17866193 -0.27610466 0.131276 0.108331405 -0.18162954 0.07659113 0.04337864
0.027309645 -0.44419396 0.194007 0.09628134 -0.06441658 -0.1190751 0.10951656 -0.17279854
0.16693647 0.015955703 0.15271154 -0.27514887 -0.07860612 0.14198653 -0.23726302 0.14015093
0.21020049 -0.21578367 0.16389954 0.08013642 -0.4299837 0.074007064 -0.09569091 0.24842474
0.24777626 0.112748705 0.05806547 -0.35088518 0.13081786 0.013883974 0.26748872 -0.074868426
0.16805565 0.14014138 -0.13311729 0.4705245 0.03374523 0.15190765 0.0487477 0.04734386
0.35058856 -0.048570458 0.14995977 0.07979637 0.36190873 0.0101811215 0.022349538 -0.3888393
0.064559825 0.185343 0.12795518 0.030850478 -0.11641831 -0.17096597 0.009802591 -0.27904883
-0.035633307 -0.47233325 0.138775 -0.042171787 0.073275805 -0.07252503 -0.22878946 -0.11424106
-0.119174376 0.018850265 -0.09136363 -0.017966494 0.1742025 -0.054423697 -0.10152559 -0.1408294
0.1782494 -0.24939086 -0.20896365 0.22739002 -0.008465437 -0.18687911 -0.023956293 0.0012620972
-0.41342548 0.0044707363 -0.021724993 0.094300844 -0.112570934 -0.025744889 0.1757913 -0.06794259
0.15952109 -0.33076927 -0.26587063 -0.14070238 -0.06093057 -0.07384707 0.1838559 0.21682467
-0.15761423 -0.2272239 0.00036093066 -0.040651906 -0.3307942 0.22117324 0.2823134 -0.32571253
-0.3922465 0.0011501949 -0.15287142 -0.11303318 0.012594179 -0.09693784 -0.16244592 0.13386609
0.042910106 0.13843629 -0.096506655 0.063133806 0.29866305 -0.3508047 0.106402576 0.16455874
0.08689357 0.24088764 -0.32726246 -0.12529199 -0.08803103 0.16930218 0.098267265 0.030853236
-0.048171874 -0.2915509 0.23501998 -0.049965832 -0.16446482 -0.05607369 0.16774057 -0.04991523
0.37266046 0.10453464 -0.08265822 -0.0016397297 -0.2559466 0.18608554 -0.050178494 0.031880457
-0.17655124 0.19984037 -0.19043054 0.03371334 0.08309852 -0.09381565 0.17082766 0.018722666
-0.12101443 -0.0674128 -0.07686746 0.16881913 -0.094728075 0.24735478 -0.26568058 -0.09047883
-0.07897327 0.0047202953 -0.22724313 -0.09521556 -0.18711883 0.3098058 -0.2655263 -0.017525813
0.06250526 -0.0033429877 -0.018408747 -0.22466701 0.46008125 0.20757353 -0.013408513 -0.121640176
0.106927685 0.38272157 0.27737668 0.0070787002 0.13695098 0.16139074 -0.224375 -0.14503115
0.06770112 -0.0051835054 -0.0009784297 -0.52825654 0.11338693 0.26433685 0.10800345 -0.03606658
-0.121079616 0.08666913 0.0043322872 -0.18282531 0.25707802 0.14577441 0.07834786 -0.13415202
-0.30113053 0.27071866 0.26559642 -0.23404 -0.29683346 0.046775755 0.06903662 -0.25049582
-0.13178524 -0.100690454 0.027831713 0.02368722 -0.02031042 -0.123821616 0.14732374 -0.1071808
0.18654618 0.22276667 -0.102354944 -0.013122324 0.26867825 -0.14137025 0.34735894 0.13326396
0.050802022 0.16018032 0.1122045 0.1958364 0.20820937 0.2054325 0.17711766 0.54960006
0.1037778 -0.06860552 0.0042504165 -0.046296008 0.013378263 -0.1792109 -0.06495386 -0.32248217

base.mlp.fc1.0.bias f4 [64]
00000000: 5e09 89bc 2a34 b2bc 7d1d 373d 370f 2c3c
00000010: eafe 2bbd b7f2 4c3b de68 07bd 6a6b fe3c
00000020: ebed d7bc 9a71 b0bd 8834 ce3c 85ce 133b
00000030: cf71 b0bb a912 8bbc 4ba2 0e3d 4897 5ebb
00000040: fc76 d0bc b904 233c be9f cbbc 0fed 153c
00000050: 956f b3ba c496 3c3c ecd3 5c3d 7aa5 ecbb
00000060: 62da 21bb d5d9 b83c 880b b03c 26b7 ebbc
00000070: faa2 d63c ac4d 8cbb 4c48 31bc 2073 ecbb
00000080: 3f2c 10bc 10fd b3bc 603b 8ebc 6995 ddbc
00000090: 25f3 2a3c a473 b13c e8f2 963c b591 debc
000000a0: 0283 a53c 9ecb 4ebc edf9 1e3d b171 f53b
000000b0: ae41 d43c f1c3 ce3c 9fa9 b6ba 5f9f 8d3b
000000c0: 6187 773c d1ca e8bc 072a c2bc 168e 7e3c
000000d0: 1d0e 783c 40bf 87bc 0893 d03c f848 9039
000000e0: 5d8c fc3b cfae 763d 43ea cfbc df33 8abc
000000f0: 7e80 75bc c9eb 92ba 7fbe 803c 2ba6 dd3c
-0.0167281 -0.02175339 0.044705857 0.010501674 -0.041991152 0.00312726 -0.033058994 0.031057078
-0.026358565 -0.08615418 0.025171533 0.0022553515 -0.005384661 -0.016976671 0.034822743 -0.0033964682
-0.025447361 0.009949856 -0.024856444 0.009150757 -0.001368987 0.011510555 0.053913042 -0.007221875
-0.0024696817 0.022564808 0.021489874 -0.028773855 0.02620076 -0.00428172 -0.01082046 -0.0072158724
-0.008799612 -0.021971256 -0.017362297 -0.027048783 0.010433947 0.021661587 0.018426374 -0.027169088
0.020204071 -0.012621788 0.038812567 0.0074903597 0.025910225 0.025239917 -0.0013936049 0.004321977
0.01510796 -0.028417023 -0.02370168 0.015536806 0.015140084 -0.016570687 0.025460735 0.00027520186
0.0077071623 0.060225304 -0.02538026 -0.016870437 -0.014984248 -0.0011209185 0.015715836 0.027056774

base.mlp.fc1.2.weight f4 [64]
00000000: 82bd 7c3f 8c4d 803f 2caa 833f 32a9 7a3f
00000010: b831 803f dd20 813f e7b2 7c3f 10f2 823f
00000020: db8f 793f 0a31 733f 12b7 813f 0505 7e3f
00000030: 7763 813f 4eea 7b3f 7e07 823f 21ab 7d3f
00000040: a48d 773f af12 7d3f 3529 823f 1449 803f
00000050: 3411 803f f3c8 7f3f 3136 853f 015c 7c3f
00000060: 94da 7a3f 7d26 7e3f a444 803f f5fe 7c3f
00000070: e2bb 823f 7c99 833f b21b 793f 6092 7a3f
00000080: a6c3 813f a994 733f 1971 7e3f df35 7f3f
00000090: 93fb 7d3f a9eb 7e3f 3d38 7f3f 7405 813f
000000a0: 78d8 753f ff1e 7e3f fcec 833f ddca 853f
000000b0: d170 853f b3f6 823f acd2 7c3f b0a7 803f
000000c0: 6d20 813f edcd 803f 2497 833f ba8a 7e3f
000000d0: b773 823f 3056 763f 7fc1 783f b705 823f
000000e0: c473 803f 4199 823f cd1c 793f 4dc4 7d3f
000000f0: 55d5 7c3f 9fb7 7a3f 43a2 803f 24bb 7f3f
0.98726666 1.0023665 1.0286307 0.9791442 1.0015173 1.0088154 0.98710483 1.0230122
0.9748513 0.949967 1.0133994 0.9922641 1.0108479 0.98404396 1.0158536 0.99089247
0.967005 0.98856634 1.0168825 1.0022302 1.000525 0.99916 1.0407163 0.98577887
0.97989774 0.9927748 1.0020947 0.98826534 1.0213587 1.0281215 0.97307885 0.978796
1.0137832 0.9514871 0.99391323 0.99691576 0.99211997 0.9957834 0.9969519 1.0079789
0.9603343 0.99266046 1.0306697 1.0452534 1.0425054 1.0231537 0.9875896 1.0051174
1.008802 1.0062844 1.02805 0.9943043 1.0191563 0.9622526 0.9717025 1.0157994
1.0035329 1.0203019 0.9730957 0.99127656 0.9876302 0.97936434 1.0049518 0.9989493

base.mlp.fc1.2.bias f4 [64]
00000000: 31fc aabb 1e4c 83bc 7ce0 183c 9134 f33c
00000010: a779 2cbd 54ae acbb f731 39bd eac7 5f3c
00000020: 31e6 943c 30f4 67bd 59d7 653c 609e 55bc
00000030: 6610 d23a 7ca8 9dbb 480f 4e3d 9927 96bb
00000040: a3f2 8f3a dde3 103c 3026 fabc 0474 bdba
00000050: 9634 1fbc b5be 5d3c 522e 983c c2e1 253b
00000060: 1f99 82ba 512b 2b3c ae40 6e3c 477a 04bc
00000070: a5f3 a63b cff7 a3bb a598 413b 285e db3b
00000080: b474 863b a41c c73c 1cf0 75bc e89f 76bc
00000090: d121 4c3c 1a5d 433c 7195 f23c eb5a 48bd
000000a0: b46e 083d 2935 25bd 77b5 fb3b ab2e 85bc
000000b0: 57d6 563b 3438 d2bb 09bc f23c 2f34 a13b
000000c0: 7209 10bb 07fe 3fbd 4ee3 eebc fb9d 8a3c
000000d0: 9991 dabb 1ded 213c 9009 373d 6ce0 26bc
000000e0: 314c 5d3b c158 073d 62a2 b7bb 47b5 adbc
000000f0: e592 64bb 6add 9ebc 8c27 f13a cc37 193d
-0.005218052 -0.016027506 0.009330865 0.029688152 -0.042108204 -0.005269805 -0.045213666 0.013658503
0.01817617 -0.05662936 0.014028394 -0.013038248 0.0016026616 -0.0048113447 0.050307542 -0.004582357
0.0010982346 0.008843389 -0.030535787 -0.0014454131 -0.009717127 0.013534238 0.018576775 0.0025311564
-0.0009963847 0.010447339 0.014541788 -0.008085794 0.0050949627 -0.0050039063 0.0029540446 0.006694574
0.0041032676 0.02430565 -0.01501086 -0.015052773 0.012459234 0.011924053 0.029612275 -0.04891483
0.0333087 -0.0403339 0.0076815444 -0.016257605 0.0032781565 -0.0064153913 0.029630678 0.004919551
-0.0021978286 -0.04687312 -0.029161122 0.016921034 -0.0066701886 0.009883192 0.044686854 -0.010185342
0.0033767337 0.033043627 -0.0056040743 -0.021204604 -0.0034877595 -0.019392688 0.0018398627 0.037406728

base.mlp.fc2.0.0.weight f4 [64, 64]
00000000: 6f64 a0bd feff 5fbe 438c 0ebe 4573 163d
00000010: a0a7 4fbe 1cda eabb 5f0d 4d3d 331a d83e
00000020: 9127 463c 4f24 d5bb 7ca8 4dbc 2715 933d
00000030: 36f9 d3bd 9a57 163e afad 3c3e 5b47 153e
00000040: 4d4a 0b3e 6c3f 3abe 1d6e dfbd 1b60 5b3d
00000050: c20c 09bb a91e 25bb 451f eebd e803 5dbd
00000060: 2257 89be b665 963d a1e7 d8bd 1264 333e
00000070: 5a1f fcbd 105b 3b3e 0733 52bd 9c4d 8bbd
00000080: 452f 56be 92be 8b3e d316 c03e 6f81 e93d
00000090: 447f d53e 2d5f 903d 3426 b7bd 88c4 d53c
000000a0: 5ab8 66bd 83f4 bbbd 26ec 383d 9c2f 8cbe
000000b0: c119 98be 5e74 eebb d636 453e bf6d 953d
000000c0: fd2c 60be c464 443e 965f 98bd 061f 1b3d
000000d0: b848 bdbe 3a4d 86bd 122d db3c 3d63 debe
000000e0: 6e53 3fbd 65c1 5dbe 2995 13be 8296 de3d
000000f0: a77f 4f3b f5df 9bbe c9bb d6bb 957e b0be
00000100: 6272 273b 33c1 0d3e b31e 7f3e 3f22 c33c
00000110: 6f5b 063e 429f f43b e36b c13c 0ede 32bd
00000120: c531 a6bd df0f 14be e891 fe3d 6841 023f
00000130: 3be7 0ebe c2fc d03e 3fc7 803e 0b9c 2e3e
00000140: 7b85 073e ca4b 5c3e fbec ac3d 6952 58be
00000150: 7397 27be c7dd cd3d c320 32be adec 683d
00000160: 77e1 273e 45d7 e43d 4194 823e ff61 56be
00000170: 6fc7 b3bc e327 a03c 319f 34be 0019 323e
00000180: 195e 903e 577f 63be d4f2 3b3e fb25 aabe
00000190: c50e 3c3e bdf3 003e 315b 463e d994 c73d
000001a0: 311d 6e3b 4c52 fa3d edb8 17be 1c78 5abe
000001b0: 2fda 07be dc81 853e e5ed 65be 4df1 3d3d
000001c0: a5d2 a3be 6917 7fbe d327 ad3d 6f41 e43d
000001d0: 0192 b6bc cf5c c43d f94c 73bb 2c42 f93d
000001e0: 10d7 f1bd 3cfc 84be fee5 63bc 72d6 463e
000001f0: 47d2 143e 70dd 6c3d ce4a a2bd 1841 0c3d
00000200: af88 8a3c c7cd e53d adbf 4f3e f959 783c
00000210: e311 ffbc 16e1 343d c494 673e 85cc cebc
00000220: a2d0 3dbe 91e0 bb3e 22a3 92bd 9175 46bd
00000230: 3234 f2bd 820e 18bd 0f6a 95bd d23b 06be
00000240: 8f84 4dbe d8b9 353d 4439 af3e f793 16be
00000250: ffa7 86be adc1 05be 608e a93e ba0b 473b
00000260: abe4 b8bd e021 513e 4e1a f33d 1295 aabc
00000270: 2be6 dc3c c3f5 a4bc 427e 0e3c ca6e c6bc
00000280: 8a23 bebd ed11 2ebc 9eb1 903e d14f b43e
00000290: 48e9 12bd aabb ff3d ac0e 5c3e 2787 79be
000002a0: 132e 93be 3da5 49bd e48f 2cbe 2953 e9bc
000002b0: 01ca a5bd 7194 b1bd 3422 8d3d 851a 0bbe
000002c0: b7de 873e 2422 8cbe a992 263e ba1c 723d
000002d0: a8b6 bf3e ca8e 523c 0d6b 863e 45d3 44be
000002e0: efbe 1e3d 13cc d1bd 8cd9 2dbe 7cd9 d93d
000002f0: c12b 5e3c 0e15 43be 3671 c6bd d726 c7be
00000300: c9e3 d63d 872f 67be 43b7 343d 4e1c 21be
00000310: be0d 89bc 4328 ecbb eba5 fcbb 382d 82bd
00000320: fd57 cb3b 9a64 5a3c 4104 77be 259b 51bd
00000330: 85d5 873e 8f2d 91bd 430c bcbd e0e7 1d3d
00000340: 1658 58be 62a6 99be 2150 ccbd 9a24 f03c
00000350: 0442 1a3e b5ca a4bd cd4d 82bc 8736 2c3e
00000360: 5a12 93be 9bb4 b53d 2003 8dbd 36c1 66be
00000370: 89e3 683d 50a6 383e 0328 2c3e d5d4 113e
00000380: 6ffe 1f3d 0564 973d 106e 2f3e 1ef4 97bd
00000390: 7ca6 20bd ad70 fcbe 09db 483d 852d 5dbe
000003a0: 7ae7 533c 739f 60be ba7c 7a3d 12b2 733d
000003b0: a73b d4bd c4eb 2fbe 455f 87be c8e8 3e3e
000003c0: 661f 8cbd 1e4f f8be a156 3f3e 6c9e 8e3c
000003d0: d9cf 24be 8922 e93d 08b3 0ebe 6b19 6c3e
000003e0: edcf b9bd a0be 8dbe 56b1 91be 443f 6f3e
000003f0: dc04 19be 7606 6abd 6499 7b3e c730 b93d
-0.07831656 -0.21874997 -0.13920693 0.036731023 -0.20278788 -0.007167114 0.05006158 0.42207488
0.012094394 -0.0065045725 -0.012552377 0.07181769 -0.103502676 0.14681855 0.1842563 0.14578001
0.13602562 -0.18188256 -0.10909674 0.05355845 -0.0020912145 -0.0025195277 -0.11627058 -0.053958803
-0.2682429 0.073436186 -0.10591055 0.17518643 -0.12310667 0.18296456 -0.051318195 -0.06801912
-0.2091647 0.2729383 0.37517413 0.114016406 0.41698658 0.07049403 -0.089428335 0.02609469
-0.056328155 -0.09177496 0.045147084 -0.27380073 -0.2970715 -0.0072770556 0.192592 0.07296323
-0.21892162 0.19179064 -0.074401066 0.037871383 -0.36969543 -0.065576985 0.02675489 -0.43435088
-0.046710424 -0.21655805 -0.14412369 0.10868551 0.003166178 -0.30444303 -0.0065531475 -0.34471574
0.0025550355 0.13843231 0.24914055 0.02382004 0.13120817 0.007465274 0.023611015 -0.0436688
-0.081149615 -0.1445918 0.12430173 0.5088105 -0.13955395 0.4081784 0.25152013 0.17051713
0.13234513 0.21513286 0.08443638 -0.21125187 -0.16366367 0.10052066 -0.1739531 0.056866337
0.16394602 0.11173872 0.25503734 -0.2093582 -0.021945683 0.01955027 -0.17638852 0.17392349
0.2819679 -0.22216545 0.1835435 -0.33232102 0.18365009 0.12592979 0.19370724 0.09745187
0.0036333317 0.12222728 -0.14816637 -0.2133488 -0.13266824 0.26075637 -0.22454031 0.0463727
-0.31996647 -0.24911274 0.084548615 0.11145293 -0.022286417 0.09588014 -0.0037124737 0.121708244
-0.11808598 -0.2597369 -0.013909815 0.19417742 0.1453334 0.057828367 -0.07924424 0.034241766
0.016910879 0.112208895 0.20287962 0.01515817 -0.031136459 0.04415997 0.22615343 -0.025244007
-0.18536618 0.36694768 -0.07160021 -0.048451964 -0.11826362 -0.03712321 -0.0729562 -0.13108757
-0.20070098 0.044366688 0.34223378 -0.14704882 -0.26300046 -0.13062163 0.33116436 0.003037198
-0.0902799 0.20423079 0.118702516 -0.020823035 0.026965221 -0.02013672 0.008697094 -0.02422275
-0.09284122 -0.010624391 0.2826051 0.35217145 -0.035867006 0.12486966 0.21489972 -0.24367963
-0.2874609 -0.04922985 -0.16851765 -0.028482037 -0.0809517 -0.08670891 0.06891289 -0.13584335
0.26537105 -0.27369797 0.16266884 0.059109427 0.37444043 0.012851426 0.26253548 -0.19221218
0.038756307 -0.10244002 -0.16977519 0.10637185 0.013560236 -0.19051 -0.09689562 -0.3889682
0.10492665 -0.22576724 0.044120084 -0.15733454 -0.016730186 -0.007206948 -0.0077102087 -0.06356281
0.0062055574 0.013329649 -0.24122716 -0.051173348 0.2653009 -0.07088768 -0.09182026 0.03855121
-0.21127352 -0.30009753 -0.09976221 0.029314328 0.15064245 -0.08046476 -0.015906239 0.16817676
-0.2872494 0.088723384 -0.06885362 -0.22534642 0.05685762 0.18032193 0.16812138 0.14241345
0.039061006 0.07392124 0.1713183 -0.074196085 -0.039221272 -0.49304715 0.049037013 -0.21599396
0.012933606 -0.21935825 0.061154105 0.059495993 -0.1036294 -0.17179781 -0.26439872 0.18643486
-0.06841926 -0.48497862 0.1868539 0.017409526 -0.16094913 0.1138354 -0.13935483 0.23056571
-0.09072862 -0.27684498 -0.2845561 0.23363978 -0.1494326 -0.057135068 0.24570233 0.09042507

base.mlp.fc2.0.0.bias f4 [64]
00000000: d153 033c e6dc dd3a b8ef 80bc 7910 1dbb
00000010: 0836 223c 956e eebc cefb f9bc 486a dc3c
00000020: 73a3 51ba f3b0 8abc ab23 a03c 74a6 12bd
00000030: b4fd d7bc 51f5 41bb 5eee 213d 21e7 c93b
00000040: e860 2abb 65a0 ca3c 9231 33bd d536 a3bc
00000050: 141d 48ba 64a8 4cbc c551 f9bc 5e64 383d
00000060: 77bc 69bd 9657 99bc ac7f 14bd ee15 493c
00000070: 54d8 c93b ce6d 1a3d 4b03 0a3c e1e1 bbbb
00000080: 3bd7 973b d340 64bc 4347 dbbc fc1c 993c
00000090: 5cf5 833c bed9 30bc 8038 96bc e9b9 c2ba
000000a0: 6eb3 103c 9613 013a ebc8 db3c d61a 4c3c
000000b0: 5925 babc e4d0 25bc 8da5 823c 3cd0 5f3b
000000c0: 4319 a53c 405e 023d 7dc4 b5bc 0ae8 043c
000000d0: cbd3 823c 0185 c3b8 d2a3 10bd 273b 0cbd
000000e0: c09b 89bc 3311 f6bc e288 adbc b957 64bc
000000f0: 4d1c 00ba 9942 703c b4a6 9f3b b979 ebbc
0.008015589 0.0016926795 -0.015739307 -0.0023966117 0.009900577 -0.029105464 -0.030515578 0.026906148
-0.0007997073 -0.01693008 0.019548258 -0.035803273 -0.026366092 -0.0029595683 0.039533965 0.006161586
-0.0025997702 0.024734685 -0.043748446 -0.019923607 -0.00076337275 -0.012491319 -0.030434499 0.045017593
-0.0570645 -0.018718522 -0.03625457 0.012273295 0.0061598215 0.037702374 0.008423637 -0.005733714
0.004633812 -0.013931471 -0.026767379 0.018690579 0.016108207 -0.010794101 -0.018337488 -0.0014856431
0.008831842 0.0004923878 0.026829204 0.01245757 -0.022722887 -0.010120604 0.015948081 0.0034151217
0.020153647 0.031828165 -0.02218842 0.008111963 0.015970131 -9.3230985e-05 -0.03531248 -0.0342361
-0.0167979 -0.030037498 -0.021183435 -0.01393693 -0.00048870296 0.014664316 0.0048721675 -0.028744565

base.mlp.fc2.0.2.weight f4 [64]
00000000: b82e 843f c18c 873f 7719 823f 8607 823f
00000010: 4f4e 833f f8da 843f 34a9 833f 9bca 893f
00000020: 0582 863f d63f 863f f6a8 873f b073 853f
00000030: 55c6 883f f847 823f 5c3f 883f e39a 843f
00000040: 148f 863f 630b 893f a976 823f ee2a 823f
00000050: 689a 853f d764 883f 4868 853f ab33 893f
00000060: 4bd7 833f a637 843f 61f1 7f3f cad7 883f
00000070: 0ee9 813f 9fc2 883f c92a 853f 7212 863f
00000080: 0ed3 873f cf7e 853f e5c0 813f efda 893f
00000090: f92c 863f 2e7f 843f 27c9 813f 6bc2 883f
000000a0: dafc 873f 2d81 863f 52e8 883f dc23 8b3f
000000b0: c8ba 833f b875 853f aa5a 843f 2ad5 813f
000000c0: 4311 8b3f 7a07 883f c96e 833f d508 883f
000000d0: 7e10 823f 46e4 893f 5d1b 853f 1e87 813f
000000e0: 6d8e 863f 2810 863f d388 833f 3f12 883f
000000f0: 13d6 823f c2c2 843f a11a 843f e9f5 833f
1.0326757 1.058983 1.0164021 1.0158546 1.0258273 1.0379324 1.0286012 1.0764955
1.0508429 1.0488231 1.0598438 1.042593 1.0685526 1.0178213 1.0644336 1.0359768
1.0512414 1.07066 1.0192462 1.0169351 1.0437746 1.0655774 1.0422449 1.0718893
1.0300077 1.0329483 0.9997769 1.0690854 1.0149248 1.0684394 1.0403682 1.0474379
1.0611284 1.0429324 1.0136992 1.0769938 1.0482475 1.0351312 1.0139512 1.0684332
1.0624039 1.0508171 1.0695899 1.0870318 1.0291376 1.042655 1.0340168 1.0143178
1.0864643 1.0627282 1.0268184 1.0627695 1.0161283 1.0772789 1.0398976 1.011936
1.0512215 1.047368 1.027613 1.0630568 1.022158 1.0371935 1.0320626 1.0309421

base.mlp.fc2.0.2.bias f4 [64]
00000000: 4a50 02bb 8a9c d63c 00a2 c83c 485e c7bc
00000010: 2d1c a63a 1881 c93a 86a1 733c 2b5e 013d
00000020: f421 643b 41da acbb 98d0 a93c 4f27 13bd
00000030: 8caa 71bc 05c3 8bbc f1cf e23c e6f9 d5bc
00000040: c0d5 ebbc 7d94 ac3c 0da9 b1bc b4c7 bd3b
00000050: 8be0 a4bc fa63 acbb 1cbb 1f38 ce4f 183d
00000060: 5a24 61bd 3c79 f83c 6bc0 dabc e832 9ebc
00000070: 870d 1b3d b75b 4f3c f537 793c 85df 99bc
00000080: 976d 6dbb fcc7 eebb 6752 65bc 4990 1cbc
00000090: 03d0 db3c 6a1d 2137 6d96 5bbc b742 00bd
000000a0: 6a33 c8bc 1b48 17bd 4e31 c73c 23b9 b13c
000000b0: 8a93 6cbb 0565 babb 97e0 a53c 45f6 4d3c
000000c0: f9c1 4abc 320a b13c 01b3 b5bc 6c16 99bc
000000d0: 57ef 383d b713 9fbc 3bf0 3dbd 46ab 4cba
000000e0: 19cc fbbc 9cb6 0dbd b160 f5bb 33cd 1bbd
000000f0: 28ac 2a3c 2479 023c 9471 0dbd bba0 5a3c
-0.0019884282 0.02619769 0.02449131 -0.024336949 0.0012673192 0.0015373556 0.014870053 0.031583946
0.0034810277 -0.0052750413 0.020729348 -0.03592616 -0.014750134 -0.017060766 0.027687045 -0.026120137
-0.028788447 0.021066898 -0.021687055 0.0057916287 -0.020126602 -0.0052609416 3.8082813e-05 0.037185483
-0.05496631 0.030331247 -0.02670308 -0.019311383 0.037854698 0.012656144 0.015211095 -0.01878334
-0.003622865 -0.0072870236 -0.013996697 -0.009555885 0.026832586 9.603196e-06 -0.0134025635 -0.031313624
-0.024438579 -0.036934 0.024315502 0.021694725 -0.0036098682 -0.005688312 0.020248694 0.012570922
-0.012375348 0.021611307 -0.022180082 -0.01868745 0.045150127 -0.01941858 -0.04637168 -0.0007807504
-0.03073697 -0.034597978 -0.007488333 -0.03803749 0.010417022 0.0079634525 -0.034532145 0.013343985

act.action_out.fc_mean.weight f4 [5, 64]
00000000: bc7d 823c e9db e3bc 33b0 e63b cfc5 bf3c
00000010: b2ac 0a3b de44 1839 47f5 88bc b4a9 65bb
00000020: 5ba2 803c 05d4 78bc cf95 353c c910 893b
00000030: 9ff0 9bbc 27f5 6a3c 8bbd f83a ed06 d4bb
00000040: 8370 8d3c 502b 27bd 4698 673c bfe7 383a
00000050: 29d9 2c3b a8f0 92bc af9a 963c 9ba3 98bc
00000060: 8de7 103c e190 02bd 0d1b 1bbb c454 ca3c
00000070: 6b82 babc b35b 9b3c 847b e33b eb84 003d
00000080: 2117 933c baec 0dbb 506a 8cbb 423d 3f3c
00000090: ca4e b6bc 59ab 1a3b e709 0539 2964 093c
000000a0: 28aa c0bb 37f4 693b 1481 e7bc 3fbc b93a
000000b0: 9a37 05b8 493f 18bc 25a1 df3b 5709 423b
000000c0: e36a 60bc 7171 2bbb 578c 0f3c 4970 ec3b
000000d0: aa1f 8a39 6123 243c d390 a73c a43a 2c3c
000000e0: bd86 df3b 0606 5eba 6044 70bc 1527 5f3c
000000f0: 79b1 56bc 0a1e 653c e284 9b3c 4a6e 0ebc
00000100: ee72 f3bc 4985 dbbc 4162 973a c01f e4ba
00000110: 3a2f 8b3c c294 643c 9663 ac3c 37dd 12bd
00000120: fe60 f9bc 1971 293c 9f70 183d e189 4d3b
00000130: ecd7 4e3d deda 30bc 0383 43bd 9144 7abc
00000140: 2497 743c f6c9 48bc 3882 95bc 3a2f 8bbc
00000150: baa7 e83c ab45 1bbd 2096 1c3c 2542 d9bc
00000160: 890c 10bc 6b7e 2e3c 4a42 2ebc b779 d7bc
00000170: 2e5f 04bc 8385 6e3b f324 ea3c 7c2d 9c3c
00000180: 0102 24bd 6cef ab3c 245c 9d3b 926b 083d
00000190: 9186 9fbc 6a58 d8bc cff0 a6bc d1de 453d
000001a0: 2b50 f13c 8a47 113d 0b5b 2bbd a9d6 1abd
000001b0: 020f b63b 6c89 a73b 8986 93bb 7d0a 103c
000001c0: 7cde b73c 31c8 133c 6255 e93c e1f4 083d
000001d0: 7829 42bb 75c6 ec3c 8bc6 8b3b b992 143a
000001e0: 9460 c8bc ec5c e23a d409 22bc 9bda 323c
000001f0: 3af8 e9b9 8f51 743c 508b 9bbc ae43 ab39
00000200: f9f9 02bb a4e4 053c 556d 9a3c 1e3a 4fbc
00000210: 80b3 83bc 5594 8e3c 3e8a 8b3c f7f1 02bc
00000220: a1e8 d43c 18df c4bb 9f1d 8fbc 93a2 3e3c
00000230: aa03 ffbb 566b 163b edad f83c e1c7 91bc
00000240: 0cc9 00bd e7e1 403d 53f4 89bb d994 d53b
00000250: 78af 843c a5cf 37bb 83d7 63bc 5305 183d
00000260: 85de 41bc 4acf c33b 7493 b4bb b4a8 0f3d
00000270: c903 283b b652 0e3d 0206 5fbc 5d6c 28bb
00000280: 7239 9b3c aae8 e23c 2e2f c0ba 49ca 63bd
00000290: 1611 063d 78b9 51bb de0e f5bb 7aa2 babc
000002a0: 49b6 47bd b61f a2bb 0cec f53c debd 4b3d
000002b0: caf2 cebc 12d1 10bd f61c 783c 9fa5 3a3c
000002c0: c48d 7ebd 34d6 fd3c 69a4 4dbc 1a95 f4bc
000002d0: 7189 373c 263c a8bc d33a 05bd 179c 473b
000002e0: 2a08 b1bc 0fa4 e7bc c9d8 d2bc cb15 24bc
000002f0: 93ce 803a 4293 aa3c 6654 45bc f56b 263b
00000300: f76d e6bb 56bb 6bbb 8285 2bbb c691 74bb
00000310: 1529 cebb 2b95 cf3c 0200 383c cc47 7abd
00000320: 8287 8d3c 6297 253d e458 14bd 047d 253d
00000330: af81 04bc 29d2 db3b 73f4 a2b9 0e08 e03c
00000340: f2b6 3aba 2329 403b 430c 5fbb e7d2 93bc
00000350: 06b9 e33c 428e fcbc aeab b6bc 122e dcbc
00000360: 306d 533c 5466 0ebc 7bf0 2f3c 8b99 073d
00000370: 668f c9bb bb90 383d c549 dcbc 4821 78bc
00000380: a41c ac3c 0b2d 7a3c 74dd ae3c ec74 35bc
00000390: 58ca 7f3b 0d6c 7cba a89b 29bc 284f fb3c
000003a0: ab7f 043c 2d21 123d a8ab 37bb c3e1 bd3c
000003b0: 2a21 8ebc 3378 9d3c b296 cebc 977c 8cbc
000003c0: 95d0 5c3c 4dc2 77bc 9c6d 343b 6db6 40bc
000003d0: 0e9e 6dbc f9db b6ba 5744 893c e265 743c
000003e0: 92b3 203d 0456 06bd ac1e 943b 8e4f 5d3d
000003f0: b219 cbbc 4bf2 003d 02f8 883c 0b94 0bbd
0.015929095 -0.027814822 0.0070400476 0.023409752 0.0021160063 0.00014521505 -0.01671852 -0.0035043778
0.015702417 -0.015187268 0.01108308 0.004182909 -0.019035636 0.014340675 0.0018977387 -0.006470552
0.017265564 -0.04081279 0.014135426 0.0007053576 0.0026374555 -0.01793702 0.018384306 -0.0186327
0.0088442685 -0.03187645 -0.0023667247 0.024698623 -0.022767266 0.018964624 0.0069422144 0.03137676
0.017955365 -0.0021655993 -0.0042851344 0.01167232 -0.022254366 0.0023600666 0.00012687557 0.008385696
-0.005879659 0.0035698542 -0.028259791 0.0014170482 -3.1761454e-05 -0.009292432 0.00682463 0.0029607618
-0.013697359 -0.0026160146 0.008761487 0.007215534 0.00026345003 0.010018201 0.0204548 0.010512028
0.006821482 -0.00084695255 -0.014664739 0.013620158 -0.013103836 0.013984213 0.018984262 -0.008693287
-0.029717889 -0.026796954 0.0011549668 -0.0017404482 0.016990293 0.013951482 0.02104358 -0.0358555
-0.030441757 0.010341906 0.03721678 0.00313627 0.050498888 -0.0107943695 -0.047732364 -0.015275137
0.014928613 -0.0122551825 -0.01825057 -0.016990293 0.02840029 -0.037908237 0.009557277 -0.026520798
-0.008792051 0.010650258 -0.010635922 -0.026303155 -0.008079333 0.0036395497 0.028582072 0.019064657
-0.040040974 0.020988189 0.004802244 0.033305712 -0.019473346 -0.026409347 -0.020378498 0.048308197
0.029457172 0.035468616 -0.041834872 -0.037802372 0.0055559883 0.0051128175 -0.004502122 0.008791563
0.022444956 0.009019897 0.028483097 0.03343666 -0.0029626768 0.028903225 0.0042656115 0.00056676153
-0.024460115 0.0017270125 -0.0098900385 0.010916377 -0.00044626166 0.014912023 -0.018987328 0.00032666087
-0.001998542 0.008172188 0.018850962 -0.012648134 -0.016076803 0.017404715 0.017033692 -0.007992259
0.025989832 -0.00600804 -0.01747018 0.01163544 -0.007782419 0.002295216 0.030356372 -0.017795505
-0.031441733 0.047090437 -0.004210034 0.006517988 0.016196951 -0.002804735 -0.0139063625 0.037114453
-0.011832838 0.0059756385 -0.005510742 0.035072997 0.0025637022 0.034746848 -0.013612272 -0.0025699355
0.01894829 0.027698833 -0.0014662498 -0.055612836 0.03273114 -0.0032001417 -0.007478579 -0.022782553
-0.048757825 -0.004947628 0.030019782 0.04974162 -0.025262255 -0.035355635 0.015143624 0.011392026
-0.062146917 0.03098593 -0.0125514055 -0.029856253 0.011202202 -0.020536494 -0.032526802 0.0030458027
-0.021610338 -0.028276471 -0.025738137 -0.0100149615 0.0009827189 0.020822171 -0.012044048 0.0025393937
-0.007032152 -0.0035969815 -0.0026172106 -0.0037318333 -0.0062915185 0.025339684 0.011230471 -0.061103627
0.01727653 0.040427573 -0.036217585 0.040402427 -0.00808756 0.0067084027 -0.00031081177 0.02734759
-0.0007122598 0.0029321394 -0.0034034408 -0.018044902 0.027798187 -0.030829553 -0.02229866 -0.026877437
0.01290445 -0.008691389 0.010738487 0.033105414 -0.0061511276 0.0450599 -0.026890645 -0.015144654
0.02100975 0.015269528 0.021345831 -0.01107524 0.0039030518 -0.0009629138 -0.010352053 0.030677393
0.008087079 0.03567617 -0.00280259 0.02317894 -0.017349798 0.019222355 -0.025218341 -0.017149253
0.013477464 -0.0151220085 0.0027531153 -0.011762244 -0.014503015 -0.0013951055 0.01675622 0.014916869
0.03923375 -0.032796875 0.004520258 0.054030947 -0.024792526 0.03148107 0.016719822 -0.03407673

act.action_out.fc_mean.bias f4 [5]
00000000: b9ea c6bc c6c0 593b 7ceb 673c 4b6e f8bc
00000010: 6912 43bb
-0.024281846 0.0033226474 0.014155265 -0.03032603 -0.0029765612

act.action_out.logstd._bias f4 [5, 1]
00000000: 6dae 9ebc fa12 45bc 2117 83ba f6bf 99ba
00000010: 0d5d b43b
-0.019370282 -0.01202845 -0.00100014 -0.0011730182 0.0055042566
