checkpoint/best_mappo_seed112_run20260211_185513_envmamujoco-ant-2x4_ep2600_agent0_actor.pt (torch, 42965 bytes, 13 tensors)

base.feature_norm.weight f4 [63]
0	0x3f81e294	1.0147271
1	0x3f7c83a3	0.9863836
2	0x3f7b3173	0.9812233
3	0x3f80d0ee	1.006376
4	0x3f7afb85	0.9804004
5	0x3f83df7b	1.0302576
6	0x3f85b1ed	1.0444924
7	0x3f7fc127	0.999041
8	0x3f7f46c2	0.9971734
9	0x3f8457ef	1.0339335
10	0x3f819c89	1.0125896
11	0x3f82ff5a	1.0234177
12	0x3f76dd89	0.96431786
13	0x3f85d5b8	1.0455847
14	0x3f8a057c	1.0782924
15	0x3f858b0f	1.0433062
16	0x3f7cd488	0.98761797
17	0x3f802541	1.0011369
18	0x3f867532	1.0504515
19	0x3f8749f5	1.0569445
20	0x3f82c1e4	1.0215421
21	0x3f7a1251	0.976842
22	0x3f7ef43d	0.9959143
23	0x3f7f32ca	0.9968687
24	0x3f874011	1.0566427
25	0x3f85c706	1.0451362
26	0x3f85da92	1.0457327
27	0x3f7b99e5	0.982817
28	0x3f814b29	1.0101062
29	0x3f7b7887	0.98230785
30	0x3f83b183	1.0288547
31	0x3f855dab	1.041921
32	0x3f74e71f	0.9566516
33	0x3f847ef7	1.0351247
34	0x3f8945b8	1.0724401
35	0x3f87b343	1.0601581
36	0x3f78163b	0.9690892
37	0x3f81c6a1	1.0138742
38	0x3f7be95a	0.9840294
39	0x3f855e61	1.0419427
40	0x3f84dc7e	1.0379789
41	0x3f76cc0e	0.9640511
42	0x3f80a08c	1.0048995
43	0x3f7b67ce	0.9820527
44	0x3f81032d	1.0079094
45	0x3f847bb5	1.0350252
46	0x3f869a78	1.051589
47	0x3f816cc1	1.0111314
48	0x3f89e639	1.0773383
49	0x3f79ab20	0.9752674
50	0x3f6dba10	0.92862034
51	0x3f8673da	1.0504105
52	0x3f840aea	1.0315831
53	0x3f7f1d43	0.99654025
54	0x3f880060	1.0625114
55	0x3f84b77a	1.0368493
56	0x3f769e4a	0.9633528
57	0x3f7ccad9	0.9874702
58	0x3f7aa89b	0.9791352
59	0x3f833b07	1.0252389
60	0x3f7e99e5	0.99453574
61	0x3f859090	1.0434742
62	0x3f7db0e3	0.9909803

base.feature_norm.bias f4 [63]
0	0xbc880732	-0.016604993
1	0xbc35d5af	-0.011098309
2	0xbcc53724	-0.024074145
3	0x3bc5e809	0.0060396236
4	0xbcdff57c	-0.027338736
5	0xbae70076	-0.0017624039
6	0x3b13d0c5	0.0022554856
7	0x3c913ec7	0.01773013
8	0xba9aa5d9	-0.0011798694
9	0x3b8a1ffd	0.004215239
10	0x3c2fca73	0.01072942
11	0xbd18855e	-0.037236564
12	0x3cea0059	0.028564619
13	0xbc22f5e4	-0.00994632
14	0x3d1ab5eb	0.037771147
15	0x3d095e14	0.033536986
16	0xbc44efd2	-0.012020068
17	0x3cc5efe1	0.024162235
18	0xb97dbca6	-0.00024198237
19	0xbbf1898a	-0.0073711323
20	0x3b5acfba	0.0033387975
21	0x3c018f58	0.007907711
22	0x3c1afa74	0.009459127
23	0x3cf6f480	0.030145884
24	0xbd0de693	-0.03464372
25	0xbb9f1a85	-0.0048554563
26	0xbd42909d	-0.047501195
27	0x3c076a49	0.008265086
28	0xbd17e39d	-0.037082303
29	0xbca97f6b	-0.02069064
30	0x3cccca3f	0.024998782
31	0x3bfd4195	0.0077287653
32	0x3cf911b9	0.030403959
33	0xbc9a1d11	-0.018812688
34	0xbc81267c	-0.015765421
35	0xbcd8da1b	-0.026471188
36	0xbce20d5c	-0.02759426
37	0xbb76461f	-0.0037578417
38	0x3c846646	0.016162049
39	0x3b7ee5c6	0.003889428
40	0x3c9a1634	0.018809415
41	0x3c26dcd1	0.010184483
42	0xbc5420a7	-0.012947238
43	0xbc22ad88	-0.009929068
44	0xbba3737b	-0.0049881316
45	0xbce6d5c7	-0.028178109
46	0x3cb362d4	0.02189771
47	0x3b508df6	0.0031822897
48	0xbc7b1082	-0.01532376
49	0xbcb3db6b	-0.021955213
50	0xbd1d04ff	-0.038334843
51	0xba8ea105	-0.0010881728
52	0x39c0b242	0.00036753906
53	0xbca44f76	-0.020057421
54	0x3cf6c1ba	0.030121673
55	0xbcabd1dc	-0.020974092
56	0x3c5899cb	0.013220261
57	0x3c1ba131	0.00949888
58	0x3d19ee89	0.037581
59	0x3c666250	0.014061525
60	0x3c8b305d	0.016990835
61	0x3d027ccc	0.031857297
62	0x3b8e94bb	0.004351226

base.mlp.fc1.0.weight f4 [64, 63]
0	0xbd8aba4a	-0.06773813
1	0xbd271f84	-0.04080154
2	0x3ef28bf8	0.47372413
3	0x3e25ca20	0.16190386
4	0x3c3c437d	0.0114907
5	0xbe69c485	-0.22828873
6	0xbe5c86d2	-0.21535805
7	0xbe225492	-0.15852574
8	0x3c3ba42e	0.011452718
9	0xbd09a866	-0.033607863
10	0x3c92c43b	0.017915836
11	0x3e942460	0.28934002
12	0xbc515591	-0.012776748
13	0x3d507df7	0.05090138
14	0x3cb456aa	0.02201398
15	0x3c9f94cd	0.019480133
16	0xbd548f32	-0.051894374
17	0xbd982f9a	-0.07430954
18	0xbda0797a	-0.0783567
19	0x3deed649	0.116619654
20	0x3e835891	0.25653508
21	0x3ddf8138	0.109133184
22	0x3cb29e14	0.021803893
23	0x3c53cc1b	0.0129270805
24	0x3e0a2f54	0.13494617
25	0xbeac723e	-0.3368091
26	0x3d07a0f5	0.033112485
27	0x3e33920b	0.1753618
28	0x3dcd3bd0	0.10021174
29	0x3cf12fa1	0.029441657
30	0x3e6de61b	0.2323231
31	0xbd64bdae	-0.055844955
32	0xbdfcb3a8	-0.12338954
33	0xbe26effe	-0.16302487
34	0xbe7811fa	-0.24225608
35	0xbdcc6a1f	-0.099811785
36	0xbe1571e0	-0.14594221
37	0xbcf6e65b	-0.030139139
38	0xbd9aae1e	-0.075527415
39	0xbd97a856	-0.074051544
40	0xbe49388b	-0.19650476
41	0xbe7558f7	-0.23959719
42	0x3dc533a3	0.096289895
43	0xbdf65ae4	-0.12029055
44	0x3d9fff4d	0.07812367
45	0x3e4fd406	0.20295724
46	0xbec644be	-0.3872432
47	0x3ec7047f	0.38870618
48	0xbea08848	-0.31353974
49	0xbe2bab9b	-0.16764681
50	0x3e9e7bbd	0.3095378
51	0x3e886332	0.2663818
52	0xbe510daa	-0.20415369
53	0xbc79bd06	-0.015242821
54	0xbe3a9918	-0.18222463
55	0x3df6dfe0	0.120544195
56	0xbd7fd071	-0.062454645
57	0x3da3e326	0.080023095
58	0xbe47ab78	-0.19499004
59	0x3ccdd404	0.025125511
60	0x3e66c79c	0.22537082
61	0x3e73fe85	0.2382756
62	0x3e855d07	0.26047537
63	0x3db59ee8	0.088681996
64	0xbe13658c	-0.14394206
65	0xbdb2694e	-0.087114915
66	0x3da294ed	0.079385616
67	0x3e2ca9f8	0.16861713
68	0x3dcec244	0.10095647
69	0x3ddb8d83	0.107203506
70	0x3dbbb685	0.09165672
71	0x3c7b51ce	0.015339328
72	0x3e4601da	0.19336644
73	0x3e6f0e48	0.23345292
74	0x3e0070e4	0.12543064
75	0xbe51f975	-0.20505317
76	0x3e21757b	0.15767471
77	0x3e45457d	0.19264789
78	0xbed4adbd	-0.41538802
79	0x3d8264e0	0.06366897
80	0x3d9f0c04	0.07765964
81	0xbed909a8	-0.4239018
82	0xbcf5e15c	-0.030014686
83	0xbcd5b2bf	-0.02608621
84	0x3eb28e64	0.3487426
85	0x3ea72d2b	0.32651648
86	0xbe4bf9d0	-0.19919515
87	0xbd9b92e2	-0.07596375
88	0xbea9ce79	-0.3316534
89	0x3d94ce6f	0.072659366
90	0x3ce49bfd	0.027906412
91	0x3cc48e87	0.023993744
92	0x3d6b1f21	0.057402734
93	0xbd739121	-0.059464578
94	0xbdb38f2e	-0.08767544
95	0xbe448b9f	-0.19193886
96	0x3c648451	0.013947562
97	0x3c373783	0.011182669
98	0xbc4c2aa7	-0.012461341
99	0x3cf3df6e	0.029769626
100	0xbe5820cd	-0.21106263
101	0x3e347eaf	0.17626451
102	0xbe80bfa8	-0.25146222
103	0xbe35e18d	-0.17761822
104	0x3d3f2baf	0.04667252
105	0x3e8c3971	0.27387574
106	0xbe848096	-0.25879353
107	0x3d6d2181	0.05789328
108	0x3d4bd166	0.049760245
109	0xbd1bada1	-0.038007382
110	0xbe9ca66e	-0.30595726
111	0x3dd6c1e9	0.10486204
112	0xbd201115	-0.03907879
113	0xbe575f50	-0.21032453
114	0xbda1443f	-0.07874345
115	0x3e44b07b	0.19207947
116	0x3e11ef88	0.1425153
117	0x3d83c7dc	0.064346045
118	0xbea3a3ba	-0.3196085
119	0x3ea58092	0.32324654
120	0x3e433a72	0.19065264
121	0x3d75ed10	0.060040534
122	0xbd15846f	-0.03650325
123	0xbda22974	-0.07918063
124	0x3dd746d6	0.10511558
125	0x3ddb0709	0.10694701
126	0xbecf1403	-0.40444955
127	0x3ea32fad	0.3187231
128	0x3c01855b	0.00790533
129	0x3e056610	0.13027215
130	0x3dba19a2	0.0908692
131	0x3bc33cea	0.0059581893
132	0x3e637893	0.22213964
133	0xbd8b7998	-0.068103015
134	0xbe6347d6	-0.22195372
135	0x3dc603d6	0.096687004
136	0xbbb084a8	-0.0053869076
137	0xbd0c0e57	-0.034193363
138	0x3d8e6284	0.06952384
139	0x3e99f625	0.30070606
140	0x3e403314	0.18769485
141	0xbdbdcf9f	-0.09268116
142	0x3f02a6be	0.5103568
143	0x3e4f10c8	0.20221245
144	0xbd86c995	-0.065814175
145	0xbde9bcf1	-0.11412991
146	0xbaff5e7f	-0.0019483118
147	0xbe8601e2	-0.2617331
148	0xbe2a2284	-0.16614729
149	0x3e2893f1	0.16462685
150	0xbdaf2902	-0.085527435
151	0xbe404de7	-0.18779717
152	0x3dba8030	0.09106481
153	0xbe283056	-0.16424689
154	0xbc515637	-0.012776903
155	0xbe0878e3	-0.13327365
156	0x3e39e13c	0.18152326
157	0x3d93d649	0.07218606
158	0xbe22b0b2	-0.15887716
159	0xbdd66970	-0.10469329
160	0xbc9587b7	-0.01825319
161	0x3d605abd	0.054774035
162	0xbe0d0330	-0.13770747
163	0x3e31d43b	0.17366116
164	0x3ce07d88	0.027403608
165	0x3b8a7a7f	0.0042260285
166	0xbea2d7d1	-0.3180528
167	0xbead3ac2	-0.3383389
168	0x3e84317e	0.2581901
169	0x3dc240d5	0.09485022
170	0xbe990669	-0.29887703
171	0xbe1bd4e5	-0.15217932
172	0x3dfd3143	0.123629116
173	0xbcc8de3b	-0.02452003
174	0x3e99812e	0.2998137
175	0x3db59e45	0.08868078
176	0xbdbfa0d6	-0.09356849
177	0x3e6549e2	0.22391465
178	0xbd68959c	-0.056783304
179	0x3cdce13e	0.026962873
180	0xbe7b55fe	-0.24544522
181	0x3e6ccdb5	0.23125346
182	0x3e558035	0.20849688
183	0xbeac1d42	-0.33616072
184	0xbcd6cf28	-0.026221827
185	0x3d58f4e8	0.052967936
186	0xbdb33e28	-0.0875209
187	0x3db29583	0.08719923
188	0xbdb0d11d	-0.08633635
189	0xbe8ee02f	-0.27905414
190	0xbe867789	-0.26263073
191	0x3cef24aa	0.029192287
192	0x3c7baed8	0.01536151
193	0x3c5678b9	0.013090306
194	0xbdf6f1f8	-0.120578706
195	0x3e49bab2	0.19700125
196	0x3d052132	0.03250236
197	0xbe69154a	-0.22762027
198	0x3eefa215	0.46803346
199	0x3dc3bdb1	0.09557665
200	0xbe4a877a	-0.19778243
201	0x3dc98ee1	0.09841705
202	0xbe786e07	-0.24260722
203	0x3d3a480e	0.045478873
204	0x3e1e2f76	0.15447792
205	0xbec63874	-0.38714945
206	0x3c038da4	0.008029375
207	0x3e070962	0.13187173
208	0xbe751628	-0.23934233
209	0xbe25994a	-0.16171756
210	0x3c326667	0.010888672
211	0xbd9038bf	-0.070420735
212	0xbea22a6d	-0.31672993
213	0x3dd894f1	0.10575283
214	0xbe114e5a	-0.14190045
215	0x3dce8afd	0.10085104
216	0x3dcf1471	0.10111321
217	0xbd96ed64	-0.073694974
218	0x3d3cb186	0.046067737
219	0x3d574ae1	0.052561644
220	0x3e362ea0	0.17791224
221	0xbd90edd6	-0.070766136
222	0xbdd231ab	-0.1026338
223	0x3d074609	0.033025775
224	0x3f1c02cd	0.60941774
225	0x3d8cd0fb	0.06875797
226	0xbdf9cae6	-0.12196903
227	0xbd0a85eb	-0.03381912
228	0xbe00c8a8	-0.12576544
229	0x3e07521a	0.13214913
230	0x3e2e3810	0.17013574
231	0x3e006689	0.12539114
232	0xbe6aebbf	-0.22941492
233	0x3db61dce	0.088924035
234	0xbdd356d3	-0.10319295
235	0xbddce6f9	-0.10786242
236	0x3e370dcf	0.17876361
237	0x3e003577	0.12520395
238	0x3d21b35e	0.0394777
239	0xbcb897cf	-0.022533325
240	0x3ea760ad	0.32690945
241	0xbd45ad56	-0.04826101
242	0xbe11d6c3	-0.14242081
243	0xbe64f7ba	-0.22360125
244	0xbe334908	-0.17508328
245	0xbde45fd9	-0.11151094
246	0xbc2bba64	-0.010481451
247	0x3c868732	0.016421888
248	0xbd0cb16e	-0.034348898
249	0xbe7c831d	-0.24659391
250	0x3e74a0e8	0.23889506
251	0xbe392b89	-0.18083014
252	0xbd1a2c0f	-0.037639674
253	0x3e29bb62	0.16575387
254	0x3ca3b181	0.019982101
255	0xbc458546	-0.012055701

base.mlp.fc1.0.bias f4 [64]
0	0xbcb3f9ae	-0.021969642
1	0xbbc449bb	-0.0059902347
2	0xbb674e91	-0.0035294632
3	0x3c3caa20	0.01151517
4	0x3d15cd54	0.03657277
5	0xbc0bedcd	-0.008540583
6	0x3c742b8c	0.0149029605
7	0xbc67bc55	-0.014144023
8	0x3ca284b9	0.019838678
9	0xbceab57e	-0.028650995
10	0xbcb2ce31	-0.021826835
11	0x3b2fb6bc	0.00268118
12	0x3c7ee6e5	0.015557979
13	0x3cac0d4a	0.02100243
14	0x3ce2a1b4	0.027664997
15	0xbc4cb016	-0.012493154
16	0xba0fab93	-0.00054805836
17	0xbd32a386	-0.04361298
18	0x3d6ede07	0.05831721
19	0xbd2815c6	-0.04103639
20	0x3d31262b	0.04324929
21	0x3b450a20	0.003006585
22	0xbc26ffb6	-0.010192802
23	0xbd2708f9	-0.04078004
24	0xbc2bf3fe	-0.010495184
25	0x3b31544c	0.0027058301
26	0x3cfda231	0.030961128
27	0xbc68629b	-0.014183666
28	0xbc62f59e	-0.013852505
29	0x3ca1436f	0.019685475
30	0xbc053180	-0.0081294775
31	0xbc829823	-0.015941685
32	0x3a0cb338	0.0005367282
33	0x3c950a78	0.018193468
34	0xbbd9fafa	-0.006652233
35	0x3c814bdd	0.015783245
36	0x3c9b80fd	0.018982405
37	0x3c1f7cd9	0.009734356
38	0xbaba12d3	-0.0014196284
39	0xbbf9172a	-0.0076016383
40	0x3c7fb852	0.01560791
41	0xb86533b2	-5.4646e-05
42	0xbabaf92c	-0.0014264933
43	0x3b67f10f	0.0035391485
44	0x3c8554b4	0.016275741
45	0x3cb37794	0.021907605
46	0xbc475a72	-0.01216756
47	0xbc61b005	-0.0137748765
48	0x3905ce6a	0.00012760764
49	0xbcedb881	-0.029018642
50	0xbbcff752	-0.0063466216
51	0xbc22140c	-0.009892475
52	0x3d24eb62	0.04026354
53	0xbbdbed8c	-0.0067116674
54	0x3c82d56a	0.015970904
55	0xbce65a3a	-0.028119195
56	0x3b9351b1	0.0044958224
57	0x3ce35822	0.027751986
58	0xbd182b23	-0.037150513
59	0x3b44c360	0.003002368
60	0x3bc2458f	0.005928702
61	0xbc8d831b	-0.01727443
62	0x3cd3d867	0.025860025
63	0xbc2886d7	-0.010286055

base.mlp.fc1.2.weight f4 [64]
0	0x3f801a64	1.0008054
1	0x3f7a7318	0.9783187
2	0x3f816ba9	1.011098
3	0x3f79c584	0.9756701
4	0x3f838b45	1.0276877
5	0x3f80e739	1.0070564
6	0x3f857780	1.0427094
7	0x3f81076a	1.0080388
8	0x3f818914	1.0119958
9	0x3f7b01ff	0.9804992
10	0x3f82fe91	1.0233938
11	0x3f7fb339	0.9988285
12	0x3f82db33	1.0223144
13	0x3f8152e0	1.0103416
14	0x3f84d8aa	1.0378621
15	0x3f7d89c9	0.9903837
16	0x3f82ba5c	1.0213122
17	0x3f79f4a2	0.97638905
18	0x3f804204	1.0020146
19	0x3f7dc143	0.9912302
20	0x3f831b9f	1.0242804
21	0x3f7cfd1b	0.9882371
22	0x3f7f7822	0.99792683
23	0x3f76e0c2	0.96436703
24	0x3f7e54c1	0.99348074
25	0x3f7d4dd2	0.9894687
26	0x3f8783db	1.0587114
27	0x3f837d1d	1.0272557
28	0x3f83265b	1.024608
29	0x3f84b164	1.0366635
30	0x3f7e55ff	0.9934997
31	0x3f7f91a3	0.998316
32	0x3f828eb1	1.0199796
33	0x3f7f451c	0.9971483
34	0x3f7b559c	0.98177505
35	0x3f8308a1	1.0237008
36	0x3f81a9dc	1.0129962
37	0x3f818e15	1.0121485
38	0x3f821635	1.0163027
39	0x3f7aa1fe	0.9790343
40	0x3f7a9a1f	0.9789142
41	0x3f7fd489	0.9993368
42	0x3f83115c	1.0239673
43	0x3f7fbd65	0.9989837
44	0x3f83021b	1.0235018
45	0x3f80f6a5	1.007527
46	0x3f8167b8	1.0109777
47	0x3f843ad9	1.0330459
48	0x3f810439	1.0079414
49	0x3f713b1f	0.94230837
50	0x3f7fe848	0.9996381
51	0x3f8015d1	1.0006658
52	0x3f8269e7	1.0188569
53	0x3f75212d	0.9575375
54	0x3f79579d	0.9739931
55	0x3f7a3fbc	0.977535
56	0x3f802a9a	1.0013001
57	0x3f81b578	1.0133505
58	0x3f8404d1	1.031397
59	0x3f7570b1	0.9587508
60	0x3f772fc2	0.9655725
61	0x3f832d54	1.0248208
62	0x3f830c42	1.0238116
63	0x3f79a18d	0.9751213

base.mlp.fc1.2.bias f4 [64]
0	0xbc716764	-0.014734123
1	0x3b2927e2	0.0025811126
2	0x3ca6b42d	0.020349586
3	0x3d341383	0.04396392
4	0x3d1e45ad	0.038640667
5	0xbd0cf1b9	-0.034410212
6	0x3c0e1e19	0.008674168
7	0xbc4c0b2f	-0.012453838
8	0x3c2ea5a2	0.010659607
9	0x3a4d0555	0.0007820924
10	0xbd301d2e	-0.042996578
11	0x3d16372e	0.036673717
12	0x3d103949	0.03521088
13	0x3aac6aba	0.0013154366
14	0x3c9c4828	0.019077376
15	0x3c1df2a3	0.009640369
16	0xbd038230	-0.03210658
17	0xbcbbb1cd	-0.02291193
18	0x3d04e2f6	0.03244301
19	0xbbb8c3b8	-0.005638566
20	0x3d046755	0.032325108
21	0x3c402320	0.011727124
22	0xbccafaaa	-0.024777729
23	0xbcae1b76	-0.021253329
24	0x3b9ad068	0.004724551
25	0x3c4bccc3	0.012438956
26	0xbbd1f828	-0.0064077564
27	0xbc0d9066	-0.008640384
28	0xbc428e2a	-0.011874715
29	0x3cfcf11c	0.030876689
30	0xbc75022b	-0.01495413
31	0xbcdeee6b	-0.027213296
32	0xbc62c5f0	-0.013841137
33	0x3b5b6f7c	0.0033483198
34	0xbc752bbf	-0.014964043
35	0x3c8097ce	0.015697386
36	0x3c833768	0.01601763
37	0xbbeffe05	-0.0073239827
38	0xbc07c64c	-0.008287024
39	0xbc7679b3	-0.015043664
40	0x3d03f4e1	0.032215957
41	0x3bf9d2ca	0.007624005
42	0xbcd15e06	-0.02555753
43	0xba7b4c5d	-0.0009586269
44	0x3d0312ab	0.032000225
45	0xbc3953dd	-0.0113114985
46	0xbd75da68	-0.06002274
47	0xbd2c5017	-0.042068567
48	0xbc61aae2	-0.013773652
49	0xbcce3fe4	-0.02517695
50	0x3c523737	0.012830547
51	0x3c395449	0.011311599
52	0x3ce128bd	0.027485246
53	0x3b50f28c	0.003188285
54	0x3cbd7788	0.023128286
55	0xbcb1a28c	-0.021683954
56	0xbcb8c6e6	-0.02255578
57	0x3c845b87	0.016156925
58	0xbd4de175	-0.05026384
59	0xbb9c9b8f	-0.004779286
60	0x3cf8fe3f	0.030394671
61	0xbd15496a	-0.036446966
62	0x3cb58240	0.022156835
63	0x3a8482bb	0.0010109761

base.mlp.fc2.0.0.weight f4 [64, 64]
0	0xbda5c9ec	-0.08095154
1	0xbdac087a	-0.08400054
2	0xbe458d4d	-0.19292183
3	0xbe27c57e	-0.16383931
4	0xbd3f4337	-0.04669496
5	0x3dbcf39b	0.092261516
6	0x3cfd2d8a	0.030905504
7	0x3e6d3533	0.23164825
8	0xbcd9a930	-0.026569933
9	0x3cc2853b	0.02374517
10	0xbe41e29f	-0.18934105
11	0x3dc25d17	0.09490412
12	0xbeb6c384	-0.35696042
13	0x3d9f0004	0.07763675
14	0xbdd1a752	-0.10236992
15	0x3dd45f3c	0.10369727
16	0xbe628c45	-0.22123821
17	0x3da8a39c	0.08234331
18	0x3e556352	0.20838669
19	0xbe3b9498	-0.18318403
20	0x3e9d5b3a	0.30733663
21	0xbdbfc135	-0.09363023
22	0x3d911846	0.07084708
23	0xbc2c73cb	-0.010525654
24	0xbda0b64c	-0.0784727
25	0x3d9b7dca	0.07592352
26	0x3d1864e2	0.037205584
27	0xbefc03b4	-0.49221575
28	0x3f03e897	0.5152678
29	0xbce9f9a1	-0.028561415
30	0x3c9fa5d5	0.019488255
31	0x3d49ab2f	0.04923552
32	0xbdb45e03	-0.08806994
33	0x3cc71ffd	0.024307245
34	0x3ebacdb4	0.36485064
35	0x3e07293e	0.13199326
36	0x3d78e07a	0.060760953
37	0xbb43c462	-0.0029871692
38	0xbe1674aa	-0.14692941
39	0x3d9e0087	0.07714944
40	0x3e055dfa	0.1302413
41	0x3ac3f6f6	0.001495092
42	0xbe88069f	-0.26567551
43	0x3db02167	0.08600121
44	0x3e8fe6d5	0.28105798
45	0xbdc8f2f7	-0.09811967
46	0xbdc7cb41	-0.097555645
47	0xbeec4f76	-0.46154374
48	0xbd804ea2	-0.06264998
49	0x3eb62554	0.35575354
50	0xbe1d55b4	-0.15364724
51	0xbe7cd2b4	-0.24689752
52	0xbdf01c8b	-0.11724194
53	0xbe70e80b	-0.23526017
54	0xbe4cdc1c	-0.2000584
55	0xbde06b73	-0.10957994
56	0x3d7fac9f	0.062420484
57	0x3d56569b	0.052328687
58	0x3e63d3cd	0.22248764
59	0x3e0ad18c	0.13556498
60	0x3d7e79f7	0.062128033
61	0x3daa3f58	0.08312863
62	0xbd2b0f69	-0.041762743
63	0x3d6e9450	0.05824691
64	0xbe897662	-0.2684813
65	0x3e9ba40f	0.30398604
66	0x3e04a2b2	0.12952688
67	0xbd433f01	-0.047667507
68	0x3e5625b3	0.20912819
69	0x3e683863	0.2267776
70	0xbe0c209c	-0.13684314
71	0x3e0121b1	0.12610509
72	0xbdca5ca9	-0.09880955
73	0xbe97958e	-0.2960629
74	0xbe0b54a4	-0.13606507
75	0xbdf89db7	-0.12139457
76	0x3e0638ac	0.13107556
77	0x3e34b624	0.17647606
78	0xbe1651b3	-0.14679603
79	0x3eb16bbb	0.34652504
80	0xbe0d66b2	-0.13808706
81	0x3bc8cb2b	0.006127735
82	0xbd921abe	-0.07134007
83	0x3b31d026	0.0027132123
84	0xbdcfccfc	-0.101465195
85	0xbdcfdb42	-0.10149242
86	0x3bdab7e2	0.0066747526
87	0xbde5fbec	-0.11229691
88	0xbd8b0e0a	-0.06789787
89	0xbe4b3b06	-0.19846734
90	0xbe37e587	-0.17958651
91	0xbce0e32c	-0.027452074
92	0xbddaebd2	-0.106895104
93	0xbea02a6e	-0.3128237
94	0x3d4ff086	0.05076649
95	0xbda146e5	-0.0787485
96	0xbe1be1fe	-0.15222928
97	0xbed723d4	-0.42019522
98	0x3dc7e4ea	0.09760459
99	0xbddb9a9b	-0.10722848
100	0xbe7f774d	-0.24947853
101	0x3e8fa710	0.28057146
102	0x3d8042e0	0.062627554
103	0x3e26e8d9	0.16299762
104	0x3e008c8d	0.12553616
105	0x3e0310cd	0.12799378
106	0x3dab98f1	0.08378781
107	0x3ce8f8cb	0.028438946
108	0xbcb7d03c	-0.022438161
109	0xbe5f90a6	-0.21832523
110	0xbda76c9f	-0.08175015
111	0xbd91d21f	-0.071201555
112	0xbdb83455	-0.089943565
113	0x3e313448	0.173051
114	0x3e040267	0.12891541
115	0x3e37ced5	0.17949994
116	0xbe9b4a01	-0.30329898
117	0xbbbbbc1f	-0.005729213
118	0x3d8d284c	0.06892452
119	0x3d102b24	0.035197392
120	0xbcafb684	-0.021449335
121	0xbdeab3d3	-0.1146008
122	0xbec350fb	-0.3814772
123	0x3eabe421	0.33572486
124	0xbeb47f1d	-0.3525323
125	0x3c10b866	0.0088330265
126	0xbe03ffd6	-0.12890562
127	0x3e278738	0.16360176
128	0x3d1a1e8f	0.0376268
129	0xbe356e10	-0.17717767
130	0xbe51f1c2	-0.2050238
131	0x3e508e78	0.20366848
132	0xbd346bd7	-0.044048157
133	0x3d410ce4	0.047131434
134	0xbe55688e	-0.20840666
135	0xbec3acc5	-0.3821775
136	0x3e13d2ac	0.14435834
137	0xbdd205aa	-0.102549866
138	0x3e2894d3	0.16463022
139	0x3d0665d3	0.03281195
140	0x3dbc7b59	0.09203214
141	0xbd516833	-0.051124763
142	0x3ebfe72e	0.37481064
143	0x3e49da2c	0.19712132
144	0xbe420d0e	-0.18950292
145	0x3d74ef3a	0.059798457
146	0x3c547a60	0.01296863
147	0x3c4890ca	0.012241552
148	0x3dd4c45c	0.10389015
149	0xbe9da7e4	-0.30792153
150	0xbd5be8b7	-0.05368873
151	0xbeae2af0	-0.34017134
152	0x3d924eb6	0.07143919
153	0xbdb7821f	-0.089603655
154	0x3d947e8a	0.07250698
155	0x3e9005a0	0.28129292
156	0x3e048991	0.12943102
157	0xbdfa9695	-0.122357525
158	0x3e393998	0.18088377
159	0x3d873eb5	0.06603757
160	0x3e894338	0.26809096
161	0xbe29e99c	-0.16593021
162	0xbd82900d	-0.06375132
163	0xbb107b8f	-0.0022046303
164	0xbe3fedfc	-0.18743128
165	0xbd3b6ddf	-0.045759078
166	0x3d56d368	0.052447706
167	0xbe028df8	-0.1274947
168	0xbe87ee0a	-0.26548797
169	0x3e093499	0.1339897
170	0xbaebd312	-0.0017991981
171	0x3ea414fc	0.3204726
172	0xbe858985	-0.26081482
173	0xbe20dffd	-0.15710445
174	0xbe42b4ae	-0.19014236
175	0xbdc66e44	-0.09689
176	0xbeb6937a	-0.3565939
177	0xbe01fbc6	-0.126937
178	0xbe8edfd3	-0.2790514
179	0xbe07922b	-0.13239352
180	0xbcb3fc66	-0.021970939
181	0xbd104522	-0.03522218
182	0xbec5f3f6	-0.3866269
183	0x3dddc305	0.10828213
184	0x3e0e65af	0.13905977
185	0xbd18cfa4	-0.037307397
186	0x3dbbefa2	0.09176566
187	0xbd53b54a	-0.051686563
188	0x3df768b2	0.12080516
189	0x3dfa8c8f	0.12233841
190	0xbe3f0609	-0.18654646
191	0x3ca850f8	0.020546421
192	0xbdf68437	-0.12036937
193	0xbdc56233	-0.09637871
194	0xbe78df05	-0.24303825
195	0xbeaade90	-0.33372927
196	0x3e56b690	0.2096808
197	0x3b9a59e7	0.004710424
198	0x3e19cf89	0.15020575
199	0x3bb48a90	0.005509682
200	0xbe2677f0	-0.1625669
201	0xbe30f832	-0.17282179
202	0x3e122577	0.14272104
203	0xbe46b134	-0.19403535
204	0xba707d91	-0.0009173984
205	0xbb6060d0	-0.0034237392
206	0xbcf7de57	-0.030257387
207	0x3ce622b8	0.028092727
208	0xbd5fb5c9	-0.054616723
209	0x3de05874	0.10954371
210	0xbe166a00	-0.14688873
211	0xbd1c4b2f	-0.03815764
212	0xbd99e645	-0.075146236
213	0x3e15bcc3	0.14622788
214	0x3e0f6687	0.14003955
215	0xbe98e089	-0.29858807
216	0xbe0fa6f1	-0.14028527
217	0x3d13c143	0.03607298
218	0x3f0955e5	0.5364669
219	0x3dde1532	0.108438864
220	0xbb43b2f3	-0.00298613
221	0x3e408574	0.18800908
222	0xbbb14eb7	-0.005410995
223	0x3d01c70c	0.031683967
224	0x3e91dfc4	0.28491032
225	0xbe5a5d7a	-0.21324721
226	0xbcc29f12	-0.023757491
227	0x3e76cae6	0.24100837
228	0x3e23bdba	0.15990344
229	0xbd0a2e1c	-0.03373538
230	0xbdd05551	-0.10172523
231	0x3d254074	0.04034467
232	0x3db938ab	0.09044012
233	0xbe5385db	-0.2065653
234	0xbde69bd1	-0.11260188
235	0xbd84bd1e	-0.06481384
236	0x3e5430bb	0.20721714
237	0x3e27fff0	0.16406226
238	0xbe858436	-0.2607743
239	0x3e5f98e9	0.21835674
240	0xbe2a7631	-0.16646649
241	0xbb850e6f	-0.0040605585
242	0xbd9ba766	-0.07600288
243	0x3d782902	0.060585983
244	0xbd1385d6	-0.036016308
245	0x3eb3b126	0.3509609
246	0x3e1651bd	0.14679618
247	0xbe9334ba	-0.28751165
248	0xbd9e97c5	-0.077437915
249	0xbe51637c	-0.20448107
250	0x3ea0dfb8	0.31420684
251	0xbe81c30d	-0.25344124
252	0xbed63cb8	-0.418432
253	0xbe1e29ae	-0.15445587
254	0xbcdef09d	-0.027214343
255	0x3e46fa5c	0.19431442

base.mlp.fc2.0.0.bias f4 [64]
0	0x3c0f19a5	0.0087341415
1	0x3b164894	0.0022931444
2	0xbac546bc	-0.0015050988
3	0xbc977037	-0.018486125
4	0xbcd5b119	-0.026085423
5	0x3c706efc	0.014674898
6	0x3a4b7de1	0.0007762593
7	0xbc495894	-0.012289185
8	0xba95ec2a	-0.001143818
9	0xba0ad7fc	-0.00052964664
10	0xbba0531a	-0.004892719
11	0x3c0beb13	0.008539933
12	0x3b354bc8	0.0027663577
13	0x3adc66b0	0.0016815271
14	0x3caa2601	0.020770075
15	0x3c025cc1	0.007956685
16	0x3cbcd35f	0.023050008
17	0x3cb7ac8e	0.022421148
18	0x3cfa72ed	0.030572379
19	0xbd413ef4	-0.047179177
20	0x39fab209	0.00047816362
21	0xbc912de5	-0.01772208
22	0x3c8aeed9	0.016959595
23	0xbc733d5b	-0.014846171
24	0xbcfde297	-0.030991836
25	0x3d1b0b2f	0.037852462
26	0xbce79790	-0.028270513
27	0xbb9570ef	-0.004560582
28	0xbcf2d45b	-0.029642275
29	0x3ba04ec3	0.0048922016
30	0x3cb4b687	0.022059692
31	0xbb876019	-0.004131329
32	0xbd07b8e4	-0.03313531
33	0xbd33cc32	-0.043895908
34	0xbbd96234	-0.006634021
35	0xbd1773c8	-0.036975652
36	0x3d2d06da	0.042242862
37	0x3b1b839a	0.0023729564
38	0xbcc8d8c4	-0.024517424
39	0xbc278eed	-0.010226947
40	0x3ca3f6dc	0.020015173
41	0x3c2d84cc	0.010590743
42	0x3d097c7a	0.033565976
43	0x3cb1c1ef	0.02169892
44	0x3c5ade9a	0.013358736
45	0x3ca1166a	0.019664008
46	0xbc1f5473	-0.009724724
47	0xbbe81e4b	-0.0070836893
48	0xbceb4b64	-0.028722472
49	0x3d0f67be	0.035011046
50	0x3a60709d	0.00085617026
51	0xbcc87c32	-0.024473283
52	0xbd16c3a5	-0.036807675
53	0xbb6a8c59	-0.003578922
54	0xbb83d034	-0.0040226225
55	0xbd4a288e	-0.049355082
56	0xbc145a68	-0.009054758
57	0xbc063706	-0.00819183
58	0x3d15b7de	0.036552303
59	0xbc265437	-0.010151914
60	0x3d3bab77	0.04581782
61	0xbd749e6c	-0.059721395
62	0xbc430242	-0.011902394
63	0x3be45c78	0.006969031

base.mlp.fc2.0.2.weight f4 [64]
0	0x3f885f4b	1.0654081
1	0x3f87f7c9	1.0622493
2	0x3f83ec88	1.0306559
3	0x3f870e1f	1.0551184
4	0x3f8691d4	1.0513253
5	0x3f87f919	1.0622894
6	0x3f859ff8	1.0439444
7	0x3f83ae44	1.0287557
8	0x3f851200	1.0396118
9	0x3f8061eb	1.0029882
10	0x3f8019f3	1.0007919
11	0x3f86dcc0	1.0536118
12	0x3f85062c	1.0392509
13	0x3f86e785	1.0539404
14	0x3f84f6c7	1.038781
15	0x3f871eec	1.0556312
16	0x3f83a12b	1.028356
17	0x3f8cc280	1.0996857
18	0x3f88cea8	1.0688066
19	0x3f83bf13	1.0292686
20	0x3f852434	1.0401673
21	0x3f8273e4	1.0191617
22	0x3f8407f6	1.031493
23	0x3f80f3cd	1.0074402
24	0x3f8610da	1.0473893
25	0x3f8544b2	1.0411589
26	0x3f82f43c	1.0230784
27	0x3f82813c	1.0195689
28	0x3f866174	1.049849
29	0x3f86352d	1.0484978
30	0x3f899a6b	1.075025
31	0x3f81b4f1	1.0133344
32	0x3f8527ba	1.0402749
33	0x3f879c25	1.0594527
34	0x3f812b27	1.0091294
35	0x3f855c9c	1.0418887
36	0x3f8757a5	1.0573622
37	0x3f85032a	1.039159
38	0x3f8403a1	1.0313607
39	0x3f85c7fb	1.0451654
40	0x3f877c57	1.058482
41	0x3f86649c	1.0499454
42	0x3f88c1b0	1.0684109
43	0x3f8633d9	1.0484573
44	0x3f855d00	1.0419006
45	0x3f84064f	1.0314425
46	0x3f8428e1	1.0324975
47	0x3f80605f	1.002941
48	0x3f82fa4e	1.0232637
49	0x3f85f8a2	1.0466502
50	0x3f89e626	1.0773361
51	0x3f808ce0	1.0042992
52	0x3f897e2b	1.0741628
53	0x3f81ff51	1.0156041
54	0x3f889db1	1.0673124
55	0x3f85ae50	1.0443821
56	0x3f84d91f	1.037876
57	0x3f86d2b8	1.0533056
58	0x3f899789	1.074937
59	0x3f878eab	1.0590414
60	0x3f880301	1.0625917
61	0x3f83b9fd	1.0291134
62	0x3f8166a6	1.0109451
63	0x3f86ab67	1.0521058

base.mlp.fc2.0.2.bias f4 [64]
0	0x3cca215a	0.024674106
1	0xbb195764	-0.0023398036
2	0xbcb359f4	-0.021893479
3	0xbd17189d	-0.036888707
4	0x3c34b02c	0.011028331
5	0x3c8c7897	0.017147345
6	0x3d04a4cf	0.032383736
7	0x3b52d606	0.0032171025
8	0x3cd0b098	0.025474831
9	0xbab622db	-0.0013895886
10	0x3a9423c7	0.0011302166
11	0xbc39b52f	-0.011334701
12	0x3ab9d55d	0.0014177967
13	0xbc15f02f	-0.0091515025
14	0x3c1956c3	0.0093590645
15	0xbca6f505	-0.020380506
16	0xb9e61c7b	-0.00043890238
17	0xbcc0f5ae	-0.02355465
18	0x3bf90c20	0.0076003224
19	0xbd1d6291	-0.03842408
20	0xbcad2f8f	-0.021140842
21	0xba047e0b	-0.0005054182
22	0x3d02e4d1	0.031956498
23	0xbc6bd920	-0.014395028
24	0xba97df25	-0.0011586888
25	0x3d0bd485	0.03413822
26	0xba8897fb	-0.001042127
27	0x3c7453af	0.01491253
28	0xbc4ba555	-0.012429555
29	0x3b331804	0.0027327547
30	0x3b91117c	0.004427133
31	0x3d3bed01	0.04588032
32	0x3b82353a	0.0039736303
33	0xbcd580cc	-0.026062392
34	0xbbabbfeb	-0.0052413843
35	0xbc53cc26	-0.012927091
36	0x3bc4665b	0.005993647
37	0xbca9d168	-0.020729735
38	0x3b4e4a72	0.0031477478
39	0x3b539ab3	0.0032288253
40	0xbccc7c90	-0.02496174
41	0xbb022506	-0.0019858493
42	0xbc80f9fd	-0.015744204
43	0xbcb67e44	-0.022277005
44	0xbc94beb0	-0.018157333
45	0xba1ccc64	-0.00059813843
46	0xbc6b1003	-0.014347079
47	0xbc9b8775	-0.01898549
48	0x3c9f03b5	0.019410947
49	0x3c10a3e4	0.008828137
50	0x3c7e7a4f	0.01553209
51	0xbc8386ee	-0.01605555
52	0xbcbd646f	-0.02311918
53	0xbc0b9752	-0.008519964
54	0xbc9ba684	-0.0190003
55	0xbd167d80	-0.03674078
56	0x3c96a7fc	0.018390648
57	0xbc8a9e4e	-0.016921189
58	0x3cd68bc2	0.026189689
59	0xbab6d28f	-0.0013948249
60	0x3ce17162	0.027519885
61	0xbcbe5845	-0.02323545
62	0x3cc2925b	0.023751428
63	0x3cdb8fdd	0.026801998

act.action_out.fc_mean.weight f4 [4, 64]
0	0xbcea8d3b	-0.028631797
1	0xbd67caef	-0.056590017
2	0xbd066829	-0.03281418
3	0x3bb7561c	0.005594982
4	0xbc5e0ee0	-0.013553351
5	0x3cb14394	0.02163867
6	0x3d1f109c	0.0388342
7	0x3b5ab5a7	0.0033372433
8	0xbc0dd96a	-0.008657793
9	0x3c2b948f	0.010472431
10	0xbc944620	-0.018099844
11	0xbd211269	-0.039324198
12	0xba917ba8	-0.0011099475
13	0xbb3db43e	-0.0028946544
14	0x3d237b9d	0.03991281
15	0x3cc0e9a6	0.023548912
16	0xbc2f3751	-0.010694341
17	0xbaf7c3cb	-0.0018902955
18	0x3c09825e	0.008392898
19	0xbc8bd35a	-0.017068554
20	0xbc80a283	-0.015702492
21	0x3c17a9a2	0.009256752
22	0x3cc2d639	0.02378379
23	0xb9d4d61f	-0.00040595324
24	0xbcb17350	-0.02166143
25	0x3cfcd457	0.03086297
26	0xbcf38c5c	-0.029730015
27	0x3c8028ad	0.015644396
28	0x39429512	0.00018556815
29	0x3ce9aaaa	0.028523762
30	0x3d5f4746	0.05451133
31	0x3b69097e	0.0035558636
32	0xb9f30a79	-0.00046356375
33	0xbc89dcdb	-0.016828945
34	0xbc70cea9	-0.014697709
35	0xbc2c3601	-0.010510922
36	0x3d38bfbf	0.04510474
37	0x3b3310b6	0.0027323193
38	0x3c0e8e95	0.008700986
39	0xbb1a2574	-0.002352086
40	0xbc37d3f5	-0.011219968
41	0x3caf0cc7	0.021368397
42	0x3b7cd720	0.0038580373
43	0x3b96fa51	0.0046074768
44	0x3bc84bc5	0.006112548
45	0x3c92c35e	0.017915424
46	0x3ce62675	0.02809451
47	0x3b9fbddf	0.0048749293
48	0x3c85985e	0.016308006
49	0x3c861350	0.01636663
50	0xbd52925c	-0.05140911
51	0xbbb3779a	-0.005476904
52	0xbcb74693	-0.02237252
53	0x3a97fac4	0.001159512
54	0xbd4dec5f	-0.05027425
55	0xbccebde6	-0.025237035
56	0x3c74c417	0.01493933
57	0xbcc9bc62	-0.02462596
58	0x3b1656c7	0.0022939907
59	0xbd14f019	-0.036361787
60	0x3d06301a	0.032760717
61	0x3a2545ae	0.00063046336
62	0xbae9e9b4	-0.0017846138
63	0x3c344010	0.011001602
64	0x3d34605b	0.044037204
65	0x3b2a0305	0.0025941741
66	0x3caab645	0.020838866
67	0xbb9dbb12	-0.0048135603
68	0x3d0da700	0.03458309
69	0x3d4cac46	0.04996898
70	0xba644c8a	-0.0008708915
71	0xbb7d907a	-0.003869085
72	0x3d428d25	0.047497887
73	0x3924813e	0.00015688405
74	0xbc45fb22	-0.0120838005
75	0x3c5e92f8	0.013584845
76	0x3cf81bab	0.03028663
77	0xbc4fa43f	-0.012673437
78	0xbc19e407	-0.009392745
79	0xbd4e55f1	-0.05037493
80	0x3d098083	0.033569824
81	0x3b6a3b95	0.003574108
82	0xbab962e3	-0.001414385
83	0x3baee975	0.005337889
84	0xbbf9b382	-0.007620276
85	0xbc19b5d3	-0.009381729
86	0xbc0dabd9	-0.008646929
87	0x3b8a2c3f	0.0042167003
88	0xbc89fabb	-0.01684319
89	0x3cb0219e	0.021500405
90	0xbc5974cd	-0.013272476
91	0x3c8c18e5	0.017101714
92	0xbc08e908	-0.00835634
93	0x3c248cbe	0.010043321
94	0x3d312deb	0.04325668
95	0xbc4fbfd8	-0.012680016
96	0xbc20ed4e	-0.009822203
97	0xbc657edb	-0.0140072955
98	0xbb634319	-0.0034677444
99	0xbd035a11	-0.032068316
100	0xbcc7a45c	-0.024370365
101	0xbc2e78b2	-0.010648893
102	0xbcac8fed	-0.021064723
103	0x3ca9e20d	0.020737672
104	0x3d206614	0.03915985
105	0xbd0998b8	-0.03359291
106	0xbcfd6117	-0.030930085
107	0xbcc63545	-0.024195323
108	0x3c59803c	0.013275202
109	0xbcd01a11	-0.025403054
110	0x3a1ab57c	0.0005901677
111	0xb89a4bd4	-7.357416e-05
112	0xbcb0f137	-0.021599395
113	0xbafe1229	-0.0019384074
114	0xbbd06b6b	-0.0063604615
115	0x39d66081	0.00040889162
116	0xbd37d67d	-0.044882286
117	0x3cad3090	0.02114132
118	0xbd20c295	-0.039248068
119	0x3ca78e8e	0.020453718
120	0xbba9d405	-0.0051827454
121	0xbc741edb	-0.014899935
122	0xbc4fda76	-0.0126863625
123	0xbce1b9df	-0.02755445
124	0x3cea5f43	0.028609877
125	0xbc44dc16	-0.012015363
126	0x3c533f2f	0.012893482
127	0x3d376e66	0.04478302
128	0x3d22f4df	0.03978431
129	0xbb71fb4c	-0.0036923466
130	0xbae28750	-0.0017282758
131	0x37060187	7.987378e-06
132	0x3ce7028b	0.028199455
133	0x3c8cbbc5	0.01717938
134	0x3c011443	0.007878366
135	0xbcc202f0	-0.023683041
136	0xbc164a59	-0.009172999
137	0xb913b9d5	-0.0001408824
138	0xbbee295e	-0.007268115
139	0x3c7dd562	0.015492769
140	0xbc9ecbc2	-0.019384269
141	0xbd0e0406	-0.034671806
142	0x3b98e838	0.0046663545
143	0x3c820d9b	0.015875628
144	0x3cdfdace	0.027326014
145	0xbdb54dca	-0.08852728
146	0x3d6f0693	0.05835588
147	0xbca9df75	-0.020736435
148	0xbc93a508	-0.018023029
149	0x3bd27e29	0.006423731
150	0x3cba4fd6	0.022743147
151	0x3c05021d	0.00811818
152	0x3d2e59c3	0.042566072
153	0x3c2dd307	0.010609395
154	0x3ba8d36e	0.0051521575
155	0xbbac5973	-0.0052596866
156	0x3d4f2299	0.050570104
157	0xbc83a5cc	-0.016070269
158	0x3bbf5109	0.0058385176
159	0xbc0c7c65	-0.00857458
160	0xbd2f4198	-0.042787164
161	0xbd657554	-0.056020096
162	0x3be2474b	0.0069054714
163	0x3cd44a9c	0.025914483
164	0x3c6c352d	0.014416975
165	0x3ada8d0c	0.0016674115
166	0x3c6ecdda	0.014575446
167	0xbd266b7a	-0.04062984
168	0xbd0d746d	-0.03453486
169	0xbd0e3a62	-0.034723647
170	0x3d49c53e	0.04926037
171	0xbd12085c	-0.035652503
172	0xbd25ccd1	-0.04047853
173	0xbc4e9eb1	-0.012611077
174	0x3c9d04a7	0.019167257
175	0x3c89f4f5	0.016840437
176	0xbaddc031	-0.0016918239
177	0x3d539ea3	0.05166496
178	0xbb811c4c	-0.003940141
179	0x3c52164e	0.012822701
180	0xbd335f65	-0.043792147
181	0xbc97bcfa	-0.018522728
182	0x3ca817f0	0.020519227
183	0xbd11731f	-0.03551018
184	0x3d00b993	0.031426977
185	0xbd38edb8	-0.04514858
186	0x3d90f158	0.07077283
187	0x3c2f09f5	0.010683526
188	0xbcb546ca	-0.022128481
189	0xbce67414	-0.028131522
190	0x3c365991	0.011129753
191	0xbc537ba2	-0.012907894
192	0x3c34087c	0.010988351
193	0x3bf125f7	0.007359262
194	0xbcc2e93d	-0.023792857
195	0xbd76b5d7	-0.06023201
196	0x3c9e0fd9	0.019294666
197	0xbb93d968	-0.004512001
198	0x3cdf26a2	0.027240101
199	0x3d07fbfe	0.033199303
200	0xbbe47906	-0.006972435
201	0x3c916a6d	0.017750943
202	0x3c44fd0d	0.012023223
203	0x3d1fd8b9	0.039025042
204	0x3c88c41c	0.016695075
205	0xbd4231c3	-0.047410738
206	0x3ad47088	0.0016207853
207	0x39d6f282	0.00040997943
208	0xbba68652	-0.00508193
209	0xbc3ff5ed	-0.011716348
210	0x3c852476	0.016252737
211	0xbcdd0cd3	-0.026983654
212	0xbd365c75	-0.044521768
213	0xbca1e231	-0.019761177
214	0x3cdacd3a	0.026709188
215	0xbcc8fd10	-0.024534732
216	0xbc3c3bd3	-0.011488873
217	0x3c9ecc54	0.01938454
218	0x3bcee186	0.0063135056
219	0xbc539eb1	-0.012916253
220	0x3a79585b	0.0009511762
221	0xbd27929c	-0.040911302
222	0xbcb099fa	-0.021557797
223	0x3c81095d	0.015751535
224	0x3c14f8cf	0.009092524
225	0xbc5e6845	-0.0135746645
226	0x3c205fdd	0.009788481
227	0x3be96672	0.007122808
228	0xbcce5a86	-0.02518965
229	0xbd2491fc	-0.040178284
230	0x3ceb0a1e	0.028691348
231	0x3c8d9617	0.017283482
232	0xbcf59d91	-0.02998236
233	0xbc5ce1b0	-0.0134815425
234	0xbd1a9c84	-0.03774692
235	0xbd11a7e6	-0.03556051
236	0xbc671cf7	-0.014106027
237	0x3c0d9cb3	0.008643317
238	0xbc40766b	-0.011746983
239	0x3b08070d	0.0020756156
240	0x3ccd6029	0.025070267
241	0x3b3cc352	0.0028802943
242	0x3d5e3f58	0.054259628
243	0xbc642872	-0.013925659
244	0xbc6a08c9	-0.014284321
245	0x3c191f9d	0.009345916
246	0xbbeb8deb	-0.007188549
247	0xbcbc0c70	-0.02295515
248	0x3cac6362	0.021043483
249	0x39f4ba2a	0.0004667801
250	0x3c06cb02	0.008227112
251	0x3d18c384	0.037295833
252	0x3c8eaaa4	0.017415352
253	0xbc985b90	-0.018598348
254	0x3c456306	0.012047535
255	0x3ca7d741	0.020488383

act.action_out.fc_mean.bias f4 [4]
0	0x3c350dc6	0.011050647
1	0x3c73bbb2	0.014876293
2	0x3c45ae02	0.0120654125
3	0x3ce8810e	0.02838185

act.action_out.logstd._bias f4 [4, 1]
0	0xbe5599db	-0.20859472
1	0xbe466c49	-0.19377245
2	0xbe241101	-0.16022111
3	0xbe41bd1c	-0.18919796
