checkpoint/best_mappo_seed112_run20260211_190250_envmamujoco-halfcheetah-6x1_ep1400_agent2_critic.pt (torch, 39394 bytes, 11 tensors)

base.feature_norm.weight f4 [54]
1.4749715 0.81533295 1.3671075 1.50722 1.3280557 1.1825461 1.0592122 1.0216584
0.8604746 1.2172704 0.68257403 1.0085204 1.3406165 1.4504466 1.4402092 1.1785668
0.9066346 0.9357764 1.1821152 0.49151483 1.2128698 1.4032563 1.4330828 1.1597366
1.0580062 0.9110063 1.5455663 1.2139126 0.81610084 1.583136 1.234715 1.4227151
1.2859124 1.2126315 1.0697172 0.8885426 1.0729942 0.5103896 1.1832333 1.3863336
1.4878813 1.2572857 1.1655476 0.98278826 0.94051224 1.0742271 0.5332274 1.2535554
1.4539065 1.0000484 1.2212163 0.85335195 0.8310671 1.5815341
00000000: decb bc3f a9b9 503f 61fd ae3f 96ec c03f
00000010: bbfd a93f ac5d 973f 4494 873f b4c5 823f
00000020: 1048 5c3f 84cf 9b3f 2cbd 2e3f 3217 813f
00000030: 5299 ab3f 3ca8 b93f c658 b83f 47db 963f
00000040: 3519 683f 0b8f 6f3f 8d4f 973f d5a7 fb3e
00000050: 513f 9b3f e79d b33f 426f b73f 4072 943f
00000060: bf6c 873f b537 693f 1ed5 c53f 7d61 9b3f
00000070: fceb 503f 33a4 ca3f 240b 9e3f 871b b63f
00000080: c798 a43f 8237 9b3f 7eec 883f 8777 633f
00000090: e057 893f e5a8 023f 3074 973f 6173 b13f
000000a0: e572 be3f bdee a03f aa30 953f 0398 7b3f
000000b0: 69c5 703f 4680 893f 9781 083f 8174 a03f
000000c0: 9c19 ba3f 9601 803f d150 9c3f 4675 5a3f
000000d0: d0c0 543f b66f ca3f

base.feature_norm.bias f4 [54]
0.033860672 -0.0016540824 -0.052334055 0.05881622 0.10496527 -0.03753761 -0.040837258 -0.024377288
0.039159086 0.0060293484 0.05247373 -0.06383355 -0.0031472293 0.030149486 -0.040532455 6.5006294e-05
-0.08763671 -0.035241634 -0.012337356 -0.09275114 -0.037245203 0.033793498 -0.008656357 -0.04245205
-0.04886603 0.055228356 0.01307581 -0.0869005 0.06429696 -0.027111024 0.0396032 0.1257855
-0.048582442 -0.06182976 0.013301769 -0.053920306 -0.04180417 0.101781465 0.0108673945 0.08044752
-0.066404864 -0.077988386 0.015918083 -0.07383261 -0.007897334 0.003065218 0.078710124 0.047948875
-0.11575561 0.03929108 0.031817496 -0.01981132 0.017590843 0.061145313
00000000: 7db1 0a3d cccd d8ba 3c5c 56bd 47e9 703d
00000010: 08f8 d63d 09c1 19bd f844 27bd e1b2 c7bc
00000020: 4765 203d d791 c53b b2ee 563d 2abb 82bd
00000030: bf41 4ebb 0efc f63c 5c05 26bd fd53 8838
00000040: e07a b3bd 8859 10bd 9f22 4abc 4ff4 bdbd
00000050: 6d8e 18bd 0d6b 0a3d 65d3 0dbc 33e2 2dbd
00000060: bf27 48bd 2137 623d ec3b 563c e4f8 b1bd
00000070: 20ae 833d f017 debc f736 223d eacd 003e
00000080: 62fe 46bd 3441 7dbd aaef 593c 8adb 5cbd
00000090: d93a 2bbd cd72 d03d 280d 323c abc1 a43d
000000a0: 46ff 87bd 60b8 9fbd a466 823c 8d35 97bd
000000b0: d263 01bc d3e1 483b c632 a13d 0a66 443d
000000c0: 4711 edbd afef 203d 1053 023d 594b a2bc
000000d0: ac1a 903c 8273 7a3d

base.mlp.fc1.0.weight f4 [64, 54]
-0.31947953 -0.061468408 0.06386633 -0.54075426 -0.32452154 0.030209035 0.20903876 -0.07185787
0.029049622 0.025988275 0.100512415 0.10084419 -0.018570293 -0.19167721 0.24979362 0.3463306
-0.07340716 -0.034590457 0.1843217 0.12852605 0.021909235 -0.21591829 0.13154636 0.32388446
-0.15352164 -0.26300532 0.091076076 -0.09226317 -0.011296982 -0.3406337 -0.0143066095 -0.43343878
0.35526147 -0.28953955 -0.022010766 0.19766305 0.2664506 -0.23425563 0.49179345 -0.2266143
-0.2690956 -0.15914221 0.1708278 -0.093499206 -0.08625747 0.17713127 -0.089501984 0.09170663
-0.038027085 0.18210629 0.59376556 -0.06921322 -0.11785591 0.16594861 0.03852529 0.11926044
-0.1891867 0.13882066 -0.28375113 0.046210393 0.20286502 -0.040197246 0.05675195 -0.104151264
0.118899755 0.076521486 0.32924005 -0.11243848 0.13170868 0.0907771 0.10843858 -0.17942901
0.227941 0.08281424 -0.20536733 -0.020339765 -0.029499566 -0.34761485 -0.24856468 0.09462269
-0.3932143 -0.11148039 0.30935156 -0.106167614 -0.12974921 -0.08578947 -0.3798481 0.015158597
-0.2064848 -0.09374881 0.013174059 -0.3605842 -0.09884171 -0.215658 -0.10152108 0.07423041
0.13503926 -0.03580294 -0.06405215 0.07128016 -0.3376969 -0.08181645 0.08810736 0.055609405
-0.00012259425 -0.18756062 0.2370059 0.09133613 -0.5692353 -0.17490433 0.17037795 0.054165035
0.20776923 -0.2811917 -0.017624494 0.33325815 -0.2565255 -0.28534698 -0.22702101 -0.22276197
-0.47228158 0.1883991 -0.3167972 0.03665701 0.5585758 -0.21853796 0.053119745 -0.036840882
0.12977536 0.10316738 -0.30353773 0.12839314 0.07613247 -0.07937525 0.3486477 -0.099160135
-0.024056258 -0.5447561 -0.13910392 0.08001591 -0.26605165 0.4169724 0.022817357 -0.07731586
-0.28640103 -0.22206767 0.13389872 -0.054721553 0.22407301 0.15980026 -0.026160179 -0.037084695
-0.037198193 0.17364405 -0.027337123 -0.44503292 0.6602217 -0.082658194 0.15227997 -0.091910735
-0.36224246 0.28961447 -0.19122934 -0.042558532 0.010831762 0.28923133 -0.2546614 -0.18435398
-0.06373239 0.3546635 -0.31028932 0.20946977 -0.13130058 -0.26844656 -0.093493156 0.015396156
-0.15195246 -0.13112882 0.13878231 -0.17384079 -0.16742045 -0.020939648 -0.34655666 0.092768475
-0.06650057 0.34400707 0.01237568 -0.07104196 0.36251 0.30351558 0.22662741 -0.15823361
0.15369524 0.08811303 -0.28908646 0.16604339 0.3804413 0.024969324 0.26667985 0.15858814
0.3035577 0.03726688 -0.2689478 -0.24148485 -0.019232148 0.24821918 -0.1067633 0.25625238
-0.40682104 -0.033694126 -0.101230904 -0.06735417 0.16234276 0.46078277 -0.02758649 0.28747347
-0.22668497 -0.048087265 -0.27639043 0.1657216 0.61956877 -0.33904043 -0.18850611 0.30899507
0.033411365 -0.19413005 -0.017251655 -0.13998055 -0.23687568 0.33103344 -0.35046405 0.10525949
-0.24461044 -0.1102439 0.076963864 0.05788043 -0.008127842 0.40828082 -0.15128985 -0.13737635
0.19676252 0.047010213 0.12741849 -0.2798439 0.030789826 -0.3948456 0.13554162 0.621679
-0.50851077 0.03314698 0.31439975 0.13767664 -0.01083258 0.06038682 0.16633216 -0.018094603
00000000: d292 a3be 4cc6 7bbd 5acc 823d df6e 0abf
00000010: b027 a6be f078 f73c 420e 563e 382a 93bd
00000020: 79f9 ed3c 5de5 d43c 74d9 cd3d 6687 ce3d
00000030: ba20 98bc 0847 44be e6c9 7f3e 3f52 b13e
00000040: 7e56 96bd b9ae 0dbd d4be 3c3e 559c 033e
00000050: ff7a b33c af19 5dbe 17b4 063e 2fd4 a53e
00000060: c734 1dbe a2a8 86be 1886 ba3d 79f4 bcbd
00000070: fa16 39bc 8a67 aebe 4566 6abc b0eb ddbe
00000080: d5e4 b53e 873e 94be ec4f b4bc 2f68 4a3e
00000090: 376c 883e b5e0 6fbe 5acc fb3e 940d 68be
000000a0: e6c6 89be 2df6 22be 7ced 2e3e 837c bfbd
000000b0: c2a7 b0bd e661 353e d14c b7bd b0d0 bb3d
000000c0: 4ac2 1bbd 127a 3a3e 0501 183f a9bf 8dbd
000000d0: 705e f1bd 6fee 293e b2cc 1d3d d13e f43d
000000e0: 29ba 41be 0127 0e3e d447 91be 1c47 3d3d
000000f0: d9bb 4f3e dea5 24bd bc74 683d 424d d5bd
00000100: b781 f33d 4cb7 9c3d 2792 a83e 2546 e6bd
00000110: a4de 063e 58e9 b93d 0c15 de3d 3dbc 37be
00000120: 5e69 693e 839a a93d d04b 52be 949f a6bc
00000130: 13a9 f1bc 93fa b1be bd87 7ebe 8ac9 c13d
00000140: 6253 c9be d54f e4bd 5463 9e3e 686e d9bd
00000150: fadc 04be 64b2 afbd 737b c2be c45b 783c
00000160: c070 53be 60ff bfbd 02d8 573c 7e9e b8be
00000170: 866d cabd 73d5 5cbe 49ea cfbd 1d06 983d
00000180: bb47 0a3e 1ba6 12bd c62d 83bd 55fb 913d
00000190: 9ce6 acbe 628f a7bd a271 b43d b0c6 633d
000001a0: a58c 00b9 e40f 40be adb1 723e 700e bb3d
000001b0: 68b9 11bf 1f1a 33be 8f77 2e3e 28dc 5d3d
000001c0: 75c1 543e 5cf8 8fbe 3e61 90bc d0a0 aa3e
000001d0: 4f57 83be 0019 92be 3278 68be b71b 64be
000001e0: e4ce f1be b2eb 403e 3e33 a2be a925 163d
000001f0: d3fe 0e3f 6ac8 5fbe 1794 593d 77e6 16bd
00000200: d5e3 043e 6b49 d33d 4c69 9bbe 7e79 033e
00000210: 57eb 9b3d 7e8f a2bd f481 b23e 7814 cbbd
00000220: a111 c5bc 2375 0bbf 4271 0ebe 62df a33d
00000230: ec37 88be 687d d53e 77eb ba3c c757 9ebd
00000240: 28a3 92be b565 63be bf1c 093e b523 60bd
00000250: 6573 653e aea2 233e df4d d6bc 1fe6 17bd
00000260: 225d 18bd bfcf 313e 1af2 dfbc 5bdb e3be
00000270: 4a04 293f b348 a9bd 48ef 1b3e b23b bcbd
00000280: d877 b9be 5948 943e a0d1 43be db51 2ebd
00000290: b477 313c 2116 943e fb62 82be 4ac7 3cbe
000002a0: 2186 82bd 7496 b53e 3ede 9ebe 3e7f 563e
000002b0: a973 06be d471 89be 5779 bfbd 2940 7c3c
000002c0: 6d99 1bbe a246 06be f31c 0e3e 5203 32be
000002d0: 4470 2bbe a089 abbc e06f b1be 66fd bd3d
000002e0: 7331 88bd b221 b03e 5dc3 4a3c 727e 91bd
000002f0: e99a b93e 6566 9b3e 0411 683e fe07 22be
00000300: 4962 1d3e 9b74 b43d 2403 94be 4707 2a3e
00000310: 34c9 c23e 788c cc3c 438a 883e ee64 223e
00000320: ea6b 9b3e 28a5 183d 87b3 89be ce47 77be
00000330: bd8c 9dbc 2b2d 7e3e b8a6 dabd 8333 833e
00000340: d94a d0be da02 0abd 2652 cfbd fcf0 89bd
00000350: 2e3d 263e b8eb eb3e 10fd e1bc b92f 933e
00000360: 1b20 68be 27f7 44bd 0c83 8dbe ecb2 293e
00000370: 0f9c 1e3f b596 adbe bf07 41be 9a34 9e3e
00000380: 5bda 083d 07ca 46be 5853 8dbc 1057 0fbe
00000390: 8a8f 72be 377d a93e 0670 b3be 4a92 d73d
000003a0: 297b 7abe 8ec7 e1bd 3b9f 9d3d 0814 6d3d
000003b0: a42a 05bc 2f0a d13e baeb 1abe 63ac 0cbe
000003c0: 1d7c 493e c88d 403d fe79 023e b347 8fbe
000003d0: f23a fc3c 3429 cabe 6ccb 0a3e 5b26 1f3f
000003e0: c32d 02bf 21c5 073d 01f9 a03e 1bfb 0c3e
000003f0: 227b 31bc 2c58 773d fa52 2a3e 223b 94bc

base.mlp.fc1.0.bias f4 [64]
-0.034760486 -0.020321816 -0.10696546 -0.0063462644 0.097973615 -0.12780842 0.041918524 0.093083225
-0.05608584 0.11102467 0.03621683 0.078441165 -0.06331391 0.034116674 0.032593526 0.061947346
0.11997155 0.037044987 0.058024827 -0.0076787355 -0.013962022 0.00506332 0.09701391 0.0076449174
0.09922954 0.11886971 0.08864718 -0.026448278 0.10849807 0.09773374 0.07160349 0.051831175
0.0625382 0.021277543 0.0110608945 -0.0420595 0.02014007 -0.08507228 -0.019392578 0.016972097
-0.1030727 0.0060311244 -0.0035202992 0.045543697 -0.02481442 0.14090678 0.025708953 0.04791506
0.03900668 -0.070746556 0.05237856 0.064608924 -0.016236326 0.050814394 0.04529814 -0.05188376
0.15553929 0.01746865 0.117943816 0.03271027 -0.0076915803 0.044203196 -0.022999974 0.0051712845
00000000: 0361 0ebd f079 a6bc b510 dbbd 53f4 cfbb
00000010: 64a6 c83d 36e0 02be c2b2 2b3d 6ba2 be3d
00000020: 44ba 65bd e760 e33d 1958 143d c3a5 a03d
00000030: b9aa 81bd edbd 0b3d ca80 053d 80bc 7d3d
00000040: a5b3 f53d 7cbc 173d 71ab 6d3d e79d fbbb
00000050: f7c0 64bc 35ea a53b 3baf c63d 3782 fa3b
00000060: db38 cb3d f671 f33d a78c b53d 0faa d8bc
00000070: 3c34 de3d a128 c83d daa4 923d ed4c 543d
00000080: 0714 803d 3e4e ae3c c138 353c 9546 2cbd
00000090: cafc a43c 603a aebd 2fdd 9ebc 1109 8b3c
000000a0: c817 d3bd bda0 c53b d2b4 66bb 078c 3a3d
000000b0: 9c47 cbbc de49 103e 959b d23c 9542 443d
000000c0: 78c5 1f3d 92e3 90bd e78a 563d af51 843d
000000d0: 0b02 85bc c122 503d 8b8a 393d 1184 54bd
000000e0: b145 1f3e 6a1a 8f3c 878c f13d 34fb 053d
000000f0: a709 fcbb 690e 353d 716a bcbc e173 a93b

base.mlp.fc1.2.weight f4 [64]
1.1572926 0.9551298 1.1882973 0.94504315 1.1399205 0.8526428 1.0076708 1.0689708
1.098012 1.0308914 0.937835 0.9531709 0.88779366 1.1633191 1.0491463 0.91725975
0.86811954 0.89966196 0.9068193 0.96807706 0.88995004 0.91384137 1.0252783 0.98409283
0.87674195 0.98073596 1.0907114 1.1313312 1.0402662 0.9497043 1.0779833 1.0775914
0.9329408 1.0159699 0.8764333 1.0395371 0.9644711 1.1981776 1.0869751 1.1137205
0.9650617 0.8962098 0.9309732 1.0037553 0.91879576 1.1217327 1.0857767 1.1561524
1.029827 0.94985557 1.0305856 0.9861093 1.043556 1.0937995 0.97993994 1.039234
1.0229887 0.9293467 1.0210321 0.91035324 1.002166 1.002799 0.9372173 1.0015776
00000000: 2a22 943f 6383 743f 201a 983f 59ee 713f
00000010: eae8 913f cc46 5a3f 5bfb 803f 09d4 883f
00000020: a88b 8c3f 40f4 833f f415 703f 0203 743f
00000030: 7246 633f a4e7 943f 6d4a 863f 89d1 6a3f
00000040: 153d 5e3f 3f50 663f 4f25 683f e6d3 773f
00000050: c4d3 633f 82f1 693f 523c 833f 82ed 7b3f
00000060: 2972 603f 8311 7b3f 6e9c 8b3f 76cf 903f
00000070: 7127 853f d21f 733f 5bfb 893f 84ee 893f
00000080: 35d5 6e3f 4d0b 823f ef5d 603f 8d0f 853f
00000090: 94e7 763f e25d 993f 0022 8b3f 658e 8e3f
000000a0: 490e 773f 016e 653f 4254 6e3f 0e7b 803f
000000b0: 3336 6b3f f094 8f3f bbfa 8a3f cdfc 933f
000000c0: 5fd1 833f bc29 733f 3bea 833f a971 7c3f
000000d0: 3e93 853f 9f01 8c3f 58dd 7a3f 9f05 853f
000000e0: 4bf1 823f aae9 6d3f 2eb1 823f e90c 693f
000000f0: fa46 803f b85b 803f 79ed 6f3f b233 803f

base.mlp.fc1.2.bias f4 [64]
-0.10199082 -0.02139263 -0.030556971 0.004401814 0.06589369 -0.016772533 -0.026531503 -0.011667178
-0.010057188 -0.0066905734 -0.023905506 0.022682747 -0.022222308 -0.075627714 -0.05425031 -0.003325633
0.04863223 0.06622521 0.084682785 -0.03257316 0.020760294 -0.033012696 -0.0104805995 0.016989918
0.11313545 0.023157964 0.026790362 -0.039146647 0.03537091 0.04610773 -0.0139060775 0.047384933
-0.03130279 -0.039897133 0.040705156 -0.06758965 0.020423809 -0.025992153 -0.1336959 0.009903782
-0.00985146 0.009288373 0.011089037 -0.06808641 0.049155097 -0.014001082 0.022962874 -0.0594032
-0.043307416 -0.032192763 -0.043937802 0.10231675 -0.049306843 -0.053488273 0.0023557763 -0.073796704
0.010312489 -0.0072015603 -0.05989819 -0.043299492 0.040104184 -0.036683187 0.07265092 -0.060659625
00000000: 90e0 d0bd 993f afbc 9d52 fabc 183d 903b
00000010: 45f3 863d 8d66 89bc 9858 d9bc b127 3fbc
00000020: e7c6 24bc 993c dbbb 7bd5 c3bc 2bd1 b93c
00000030: 8f0b b6bc b4e2 9abd 9335 5ebd ddf2 59bb
00000040: 9732 473d 15a1 873d 2b6e ad3d 6f6b 05bd
00000050: 7e11 aa3c 5238 07bd d2b6 2bbc 712e 8b3c
00000060: 8fb3 e73d c5b5 bd3c 7677 db3c 3c58 20bd
00000070: 16e1 103d 76db 3c3d 51d6 63bc b416 423d
00000080: 5b37 00bd 2d6b 23bd 73ba 263d 716c 8abd
00000090: d54f a73c 7fed d4bc 94e7 08be 7943 223c
000000a0: 0568 21bc 432e 183c cbae 353c e370 8bbd
000000b0: db56 493d cb64 65bc a31c bc3c c550 73bd
000000c0: 1e63 31bd 8fdc 03bd 20f8 33bd 728b d13d
000000d0: f9f5 49bd 8516 5bbd 5e63 1a3b ba22 97bd
000000e0: b7f5 283c 11fb ebbb ce57 75bd cf5a 31bd
000000f0: 4944 243d 1c41 16bd 01ca 943d 3a76 78bd

base.mlp.fc2.0.0.weight f4 [64, 64]
0.11527827 0.058029074 0.15625642 -0.10950279 -0.29398853 -0.083169244 0.12427833 -0.09561537
-0.47813284 0.21027713 0.22100373 -0.13279295 0.10045602 0.062367886 -0.061370466 -0.064074405
0.097129606 0.12096769 -0.20433606 -0.010963992 0.014706297 0.19221354 0.17715602 -0.24716786
-0.012544935 0.12555243 0.032179143 0.15970229 0.3403366 0.045835026 0.028692836 0.17422731
-0.002892605 0.28942233 -0.019439226 -0.023883278 0.29801407 -0.06599879 0.06111139 0.1165285
0.03336343 0.103470996 0.14627199 0.051087882 -0.0488061 0.43794334 0.43024722 0.23859663
-0.13683727 0.036838323 0.05222278 0.15055662 -0.027066663 -0.049449604 -0.017841788 0.19604388
0.17675148 0.13440128 -0.084641844 0.04390663 -0.24897417 0.32851607 -0.06655222 0.17836139
-0.27245155 -0.074584916 0.2122209 0.024015436 -0.11693791 -0.18465924 -0.26361543 -0.10851527
0.20228799 0.19426247 -0.08224031 -0.25754547 -0.10419188 -0.26054588 0.08544529 -0.047019802
-0.051868197 0.0100448765 -0.039903942 0.23467839 0.0918695 -0.3306578 -0.26990524 -0.08850583
0.035431515 0.19798574 -0.032852534 -0.12496105 0.43277892 0.14490771 0.06782932 -0.15227
0.19434509 0.14083712 -0.0015368955 0.04176195 -0.04124302 -0.1654118 0.09321986 -0.46101424
-0.03571621 0.16387807 -0.012914402 -0.074050955 0.08410932 -0.18672372 0.2605872 -0.22392577
0.20160209 -0.17563717 0.21431477 0.037490256 -0.08134789 0.03799449 0.2176891 -0.106423214
-0.16580825 -0.033792686 -0.2895098 -0.2759229 -0.18812741 0.16976959 0.082091406 0.0030400273
0.3102294 -0.28488123 -0.07372328 -0.28544822 -0.24823591 -0.2092295 0.11213154 0.064868905
-0.005981118 -0.27615058 -0.31050843 0.084351845 0.17384301 -0.17028436 -0.06254613 -0.18820281
-0.082858354 -0.080812246 0.07370786 0.2245392 0.13444531 -0.26772133 -0.11393059 0.22212651
0.26725072 -0.015707564 -0.103727795 0.14649646 -0.043531295 0.21209173 -0.20563023 -0.18735096
-0.1163002 0.12752357 0.1266151 -0.29065493 -0.19869556 0.3784345 -0.08685675 0.11448891
0.14755057 -0.19499767 -0.1798462 -0.31981045 -0.22663 0.22848363 0.049950566 0.09264908
-0.040147066 0.050574742 0.06866005 0.4065283 0.06976886 0.05503873 0.09362584 0.107373334
0.04526188 0.08908593 -0.02902933 -0.010538969 0.04657285 -0.15927945 -0.3833417 -0.06248487
-0.0043710344 0.033629432 0.09965388 0.117377855 0.45586282 0.04242858 0.04635604 0.47067618
0.18444012 0.14616725 0.15175049 0.108544774 0.21082766 0.12894244 -0.09716214 -0.080154955
0.0073904092 0.049127404 0.06835466 0.13430656 -0.1907601 0.08577329 -0.04584649 -0.003539885
-0.11723905 -0.26911592 -0.4599478 0.05167118 0.18687174 0.17436042 -0.1705721 -0.17896475
-0.050825458 0.107568316 0.39802116 0.2989355 0.20672512 -0.02010155 -0.063390195 0.04850485
0.1733226 0.4544761 0.33535546 -0.26353225 -0.1642516 0.07644285 -0.07480317 0.3290037
0.1734926 -0.26562905 0.21209401 0.06517195 0.069866076 0.08309916 0.3538522 -0.3018978
-0.12021758 0.08683991 -0.31558377 0.14090973 0.5033045 0.04199105 -0.046248358 -0.15341766
00000000: 0317 ec3d e5af 6d3d af01 203e 0043 e0bd
00000010: aa85 96be a354 aabd a385 fe3d fed1 c3bd
00000020: d4cd f4be e352 573e cd4e 623e e0fa 07be
00000030: e3bb cd3d 7875 7f3d 995f 7bbd 7139 83bd
00000040: e3eb c63d e9bd f73d 793d 51be 51a2 33bc
00000050: aef2 703c a0d3 443e 6368 353e 9219 7dbe
00000060: 4589 4dbc d190 003e 47ce 033d ff88 233e
00000070: 9940 ae3e 82bd 3b3d 3d0d eb3c a568 323e
00000080: dc91 3dbb 2a2f 943e 033f 9fbc dda6 c3bc
00000090: 4d95 983e 602a 87bd f04f 7a3d 7fa6 ee3d
000000a0: 18a8 083d 9ae8 d33d 53c8 153e 8741 513d
000000b0: e8e8 47bd 1c3a e03e 5d49 dc3e ad52 743e
000000c0: 121f 0cbe c8e3 163d 8ee7 553d 842b 1a3e
000000d0: e8ba ddbc ab8b 4abd f128 92bc babf 483e
000000e0: 57fe 343e 7da0 093e b458 adbd 70d7 333d
000000f0: 16f3 7ebe 4233 a83e 884c 88bd 5ea4 363e
00000100: c57e 8bbe fabf 98bd 7050 593e 05bc c43c
00000110: 257d efbd 5017 3dbe 9af8 86be 413d debd
00000120: 9524 4f3e beec 463e 9c6d a8bd 00dd 83be
00000130: 8d62 d5bd 4566 85be f1fd ae3d d697 40bd
00000140: bf73 54bd 4493 243c 5172 23bd 884f 703e
00000150: 1426 bc3d fb4b a9be 0531 8abe 8b42 b5bd
00000160: a320 113d c6bc 4a3e 6190 06bd 94eb ffbd
00000170: 3395 dd3e b062 143e 19ea 8a3d abec 1bbe
00000180: 6602 473e 9b37 103e a871 c9ba 940e 2b3d
00000190: 71ee 28bd b661 29be 0eea be3d 0f0a ecbe
000001a0: 294b 12bd a7cf 273e ee96 53bc 07a8 97bd
000001b0: 8241 ac3d 8134 3fbe af6b 853e cc4c 65be
000001c0: c770 4e3e 3bda 33be 5575 5b3e 628f 193d
000001d0: b999 a6bd 1ca0 1b3d e4e9 5e3e 6af4 d9bd
000001e0: a3c9 29be 336a 0abd a13a 94be c445 8dbe
000001f0: 79a4 40be 14d8 2d3e 8a1f a83d 323b 473b
00000200: 63d6 9e3e f4db 91be 3bfc 96bd 4526 92be
00000210: 8e31 7ebe 4240 56be 39a5 e53d fdd9 843d
00000220: 41fd c3bb 9c63 8dbe f6fa 9ebe a9c0 ac3d
00000230: e703 323e 065f 2ebe 2f18 80bd 3db8 40be
00000240: a4b1 a9bd e480 a5bd 26f4 963d 9bed 653e
00000250: 08ac 093e c512 89be 7154 e9bd 2275 633e
00000260: 16d5 883e 26ad 80bc 3d6f d4bd 2b03 163e
00000270: df4d 32bd 932e 593e bb90 52be eed8 3fbe
00000280: cd2e eebd 8a95 023e 64a7 013e b9d0 94be
00000290: d976 4bbe 2bc2 c13e f4e1 b1bd 2979 ea3d
000002a0: 7f17 173e 78ad 47be 9a29 38be 32be a3be
000002b0: b211 68be 9df7 693e f798 4c3d cdbe bd3d
000002c0: 4071 24bd 7627 4f3d a49d 8c3d 7a24 d03e
000002d0: fae2 8e3d 4b70 613d e8be bf3d 8de6 db3d
000002e0: 8564 393d af72 b63d ebce edbc a4ab 2cbc
000002f0: 2cc3 3e3d 271a 23be 5d45 c4be 23f0 7fbd
00000300: e53a 8fbb 04bf 093d 5517 cc3d cd63 f03d
00000310: da66 e93e 97c9 2d3d d5df 3d3d 78fc f03e
00000320: dfdd 3c3e deac 153e 7b64 1b3e b94c de3d
00000330: 35e3 573e 7d09 043e f2fc c6bd 4828 a4bd
00000340: 3f2b f23b d139 493d 87fd 8b3d a987 093e
00000350: 9e56 43be e8a9 af3d 87c9 3bbd 6afd 67bb
00000360: 071b f0bd 90c9 89be 477e ebbe 29a5 533d
00000370: 4e5b 3f3e 8a8b 323e 74aa 2ebe 8942 37be
00000380: 5b2e 50bd c74c dc3d 6ec9 cb3e 130e 993e
00000390: c0af 533e 01ac a4bc b8d2 81bd 06ad 463d
000003a0: 7b7b 313e 17b1 e83e b6b3 ab3e b3ed 86be
000003b0: 9231 28be 128e 9c3d 6832 99bd 2c73 a83e
000003c0: 0ba8 313e 8800 88be 2c2f 593e df78 853d
000003d0: f215 8f3d e42f aa3d 1e2c b53e 5992 9abe
000003e0: a234 f6bd 1fd9 b13d 3294 a1be a44a 103e
000003f0: 90d8 003f cffe 2b3d eb6e 3dbd 8519 1dbe

base.mlp.fc2.0.0.bias f4 [64]
-0.04540007 0.03788718 0.017648166 0.005647152 0.13384998 0.09795825 -0.04571453 -0.03589926
0.06448359 0.056802545 -0.03827388 0.029205963 0.03373695 0.08486825 -0.037999943 0.046493016
0.09524355 0.03404782 0.007720444 -0.015041207 -0.011034038 0.05528799 -0.05698091 -0.11033558
-0.025166292 0.032310996 -0.077277705 -0.0060255197 0.03505945 0.12885566 0.0015264681 0.08035698
0.061441254 0.045127552 0.045388564 0.11529103 -0.015449543 -0.06475752 0.033344816 -0.06814425
0.014535665 -0.04992661 0.028217228 -0.023115423 0.13055849 -0.053675648 0.05238968 0.03412105
-0.080103345 0.052651636 0.10185425 -0.092165016 -0.06093727 0.1617298 -0.03805744 -0.080763616
-0.025036557 0.07820168 0.01638796 0.039987814 0.057263643 -0.024840387 -0.03387494 -0.052882433
00000000: 6cf5 39bd 962f 1b3d e392 903c bf0b b93b
00000010: f80f 093e 569e c83d 293f 3bbd 1a0b 13bd
00000020: f90f 843d c9a9 683d 12c5 1cbd 5841 ef3c
00000030: c22f 0a3d 68cf ad3d d4a5 1bbd 766f 3e3d
00000040: 0d0f c33d ba75 0b3d c7fb fc3b 656f 76bc
00000050: 1cc8 34bc a975 623d d164 69bd 9ff7 e1bd
00000060: 8a29 cebc 8958 043d c643 9ebd b971 c5bb
00000070: 7f9a 0f3d bdf2 033e c513 c83a 3392 a43d
00000080: d3a9 7b3d abd7 383d 5ce9 393d b41d ec3d
00000090: 1420 7dbc 979f 84bd 9394 083d 368f 8bbd
000000a0: ff26 6e3c d87f 4cbd d127 e73c 8e5c bdbc
000000b0: 20b1 053e ffda 5bbd 9096 563d 84c2 0b3d
000000c0: 390d a4bd 3ea9 573d f698 d03d 03c1 bcbd
000000d0: 5c99 79bd 7f9c 253e 1ee2 1bbd 6567 a5bd
000000e0: 7719 cdbc 3428 a03d 0b40 863c 43ca 233d
000000f0: 488d 6a3d 117e cbbc 73c0 0abd 409b 58bd

base.mlp.fc2.0.2.weight f4 [64]
0.8974124 0.91207063 0.93598175 0.97767174 0.9049938 1.0130296 0.98849463 0.9356391
0.995381 0.9564784 0.8746188 0.9209198 0.94059384 1.0214705 1.0124898 1.0468069
1.0478946 1.0472711 0.94376117 0.94964564 0.91262263 0.9784124 1.0414935 1.0431747
1.0059507 0.9744655 0.9615818 0.9245684 0.92328274 0.9699204 0.9933018 1.0035121
0.95247656 0.9209513 1.0041357 0.959599 0.9434812 1.0528227 0.96488124 0.97628266
0.98483497 0.96042895 0.94066656 0.88985986 0.98756665 0.9964441 0.96180004 1.024892
0.980054 0.9533699 0.90298843 0.9269321 0.97745854 0.9238532 0.89275 1.043273
0.97962844 1.1046635 0.9333902 0.9039618 1.014622 0.94075334 0.95703167 0.9330133
00000000: d2bc 653f 767d 693f 809c 6f3f b248 7a3f
00000010: acad 673f f4aa 813f fc0d 7d3f 0b86 6f3f
00000020: 4ad1 7e3f c5db 743f 05e7 5f3f 66c1 6b3f
00000030: c2ca 703f 8cbf 823f 4499 813f c5fd 853f
00000040: 6921 863f fb0c 863f 559a 713f fa1b 733f
00000050: a3a1 693f 3c79 7a3f a94f 853f c086 853f
00000060: fec2 803f 9276 793f 3a2a 763f 84b0 6c3f
00000070: 425c 6c3f b44c 783f 0749 7e3f 1673 803f
00000080: 81d5 733f 77c3 6b3f 8587 803f 48a8 753f
00000090: fc87 713f e5c2 863f 7502 773f a9ed 793f
000000a0: 251e 7c3f acde 753f 86cf 703f dbcd 633f
000000b0: 2bd1 7c3f f616 7f3f 8738 763f a92f 833f
000000c0: d2e4 7a3f 0d10 743f 402a 673f 6c4b 6d3f
000000d0: b93a 7a3f a581 6c3f 448b 643f f889 853f
000000e0: eec8 7a3f 9d65 8d3f a9f2 6e3f 0a6a 673f
000000f0: 22df 813f 36d5 703f 0700 753f f6d9 6e3f

base.mlp.fc2.0.2.bias f4 [64]
-0.044405192 0.04737522 0.047585398 -0.05168122 -0.06471386 0.025649086 -0.042823046 -0.038038142
0.060243562 0.046426028 -0.04719152 0.05149651 -0.04346901 0.05065827 -0.0426417 -0.05368125
0.07299982 -0.062384505 -0.04768453 -0.04945635 0.051608264 -0.007512904 -0.061551895 -0.05389564
-0.05465291 0.04769195 -0.039268173 0.052351337 -0.012397523 0.05208773 -0.051528726 0.054601703
0.043513108 0.045526117 0.05344342 0.037487578 -0.0428739 -0.06152482 0.052123822 -0.05498218
0.054057647 -0.04871594 0.040416386 -0.04595246 -0.08950055 -0.052059848 0.042575162 -0.057682395
-0.04107954 0.028002713 0.044901937 0.023258448 -0.046376776 -0.06266553 -0.047994122 -0.062153924
0.057235796 0.07153013 0.048013423 0.021640407 0.04912222 -0.045838058 0.050913345 -0.028844895
00000000: 38e2 35bd 850c 423d e8e8 423d b0af 53bd
00000010: b388 84bd 081e d23c 3867 2fbd e2cd 1bbd
00000020: f4c1 763d 3829 3e3d e54b 41bd 01ee 523d
00000030: 900c 32bd 0c7f 4f3d 10a9 2ebd dfe0 5bbd
00000040: ee80 953d e586 7fbd db50 43bd be92 4abd
00000050: 3063 533d ce2e f6bb d71d 7cbd adc1 5cbd
00000060: bbdb 5fbd a258 433d aad7 20bd 5b6e 563d
00000070: fb1e 4bbc f259 553d c90f 53bd 09a6 5f3d
00000080: cd3a 323d 9879 3a3d 7de7 5a3d 938c 193d
00000090: 8b9c 2fbd 7301 7cbd ca7f 553d ff34 61bd
000000a0: 8d6b 5d3d 5e8a 47bd a78b 253d a638 3cbd
000000b0: 104c b7bd b53c 55bd 4b63 2e3d 6044 6cbd
000000c0: 0543 28bd f265 e53c 18eb 373d 8088 be3c
000000d0: 93f5 3dbd c956 80bd 7c95 44bd 1d95 7ebd
000000e0: 1570 6a3d 647e 923d b9a9 443d 3947 b13c
000000f0: 6234 493d b0c0 3bbd 838a 503d 214c ecbc

v_out.weight f4 [1, 64]
-0.15499446 0.09747057 0.08973853 -0.034682076 -0.026280569 0.05392824 -0.07958158 -0.04755686
0.12476239 0.061346117 -0.18841475 0.16743042 -0.0354948 0.15003988 -0.101283364 -0.15541258
0.058027558 -0.07303842 -0.11260896 -0.089537874 0.113985375 -0.050212573 -0.17646551 -0.12992536
-0.066152595 0.10250974 -0.060563356 0.13540742 0.024631195 0.040720146 -0.076263875 0.040119648
0.05992631 0.05699872 0.1820795 0.030499803 -0.028874505 -0.115756184 0.11666012 -0.12058465
0.09879394 -0.10617252 0.06446465 -0.21113406 -0.039872825 -0.03834131 0.06952021 -0.087110914
-0.058006104 0.022619782 0.033748154 0.053428188 -0.10503043 -0.008139792 -0.18657352 -0.060402084
0.03342425 0.10897714 0.050707117 0.0151021695 0.11538345 -0.06615129 0.02922664 -0.036596216
00000000: deb6 1ebe a69e c73d d6c8 b73d cb0e 0ebd
00000010: 594a d7bc dce3 5c3d abfb a2bd fbca 42bd
00000020: 6d83 ff3d 1146 7b3d ccef 40be e172 2b3e
00000030: ff62 11bd 0ea4 193e a76d cfbd 7a24 1fbe
00000040: 4eae 6d3d 2b95 95bd 879f e6bd a25f b7bd
00000050: 2a71 e93d b3ab 4dbd 60b3 34be 270b 05be
00000060: 037b 87bd a0f0 d13d 4811 78bd 3ea8 0a3e
00000070: 5cc7 c93c 2bca 263d 3c30 9cbd 8054 243d
00000080: 4a75 753d 7d77 693d 0c73 3a3e b9da f93c
00000090: 3a8a ecbc 9411 edbd 80eb ee3d 16f5 f6bd
000000a0: 7a54 ca3d fa70 d9bd 0b06 843d 8733 58be
000000b0: b051 23bd c70b 1dbd 9d60 8e3d 3567 b2bd
000000c0: cf97 6dbd 1f4d b93c 813b 0a3d 84d7 5a3d
000000d0: 321a d7bd c35c 05bc 210d 3fbe 2d68 77bd
000000e0: dee7 083d 682f df3d 44b2 4f3d 176f 773c
000000f0: 294e ec3d 547a 87bd b56c ef3c eae5 15bd
