checkpoint/best_mappo_seed111_run20260211_183159_envmpe-cooperative_navigation_ep3600_agent1_actor.pt (torch, 31551 bytes, 13 tensors)

base.feature_norm.weight f4 [18]
000000 50 87 80 3f 6c 3e 84 3f 56 49 82 3f bc e8 7c 3f
       1.0041294 1.033155 1.017863 0.98792624
000010 4b 33 88 3f 4b e8 83 3f 03 f2 81 3f 2f db 88 3f
       1.0640653 1.0305265 1.0151981 1.069189
000020 d0 57 81 3f 95 32 77 3f 36 bf 7a 3f 74 1c 77 3f
       1.0104923 0.9656156 0.97948015 0.9652779
000030 68 15 74 3f 00 39 7a 3f 95 9c 7c 3f 5b 72 80 3f
       0.95345163 0.97743225 0.98676425 1.0034899
000040 82 7c 77 3f f9 af 77 3f
       0.9667436 0.9675289

base.feature_norm.bias f4 [18]
000000 27 b6 41 bd c3 6e 2f bc 39 6d 38 bd f0 37 00 bd
       -0.047292855 -0.01070756 -0.045026038 -0.031303346
000010 2f d1 01 3d fd 8d 2e bc be f8 e1 bc b5 33 69 3c
       0.031693634 -0.01065397 -0.02758443 0.014233519
000020 0d f6 0b bc 06 79 76 bb c6 9e 29 3d a3 7f ab bb
       -0.00854255 -0.0037608757 0.041411184 -0.0052337213
000030 b2 23 a1 bc 72 10 45 3c 78 12 43 3b 48 72 c1 bc
       -0.019670341 0.012027847 0.0029765647 -0.023614064
000040 c7 7f 95 bc 2c 6f f7 bc
       -0.018249406 -0.030204378

base.mlp.fc1.0.weight f4 [64, 18]
000000 90 4a a7 bd 52 c8 8f bc b8 ac 98 be 8d 3e 6c be
       -0.081685185 -0.017551575 -0.29819274 -0.23070736
000010 f9 46 c8 3d 92 ab 99 bd 13 ec 99 bd a2 8f 5f be
       0.09779162 -0.075034276 -0.07515731 -0.21832135
000020 9b ec 56 3e 83 36 11 bd 8b d4 f9 bd 8c 5d f3 bd
       0.20988695 -0.035452377 -0.121987425 -0.11883077
000030 9c b2 a8 bb f0 a9 12 3e 45 11 c7 3d 78 95 07 be
       -0.005148245 0.14322639 0.09720091 -0.13240612
000040 90 dc fd 3c 8a ca 88 3d 6d b1 dd bd f8 6e ff 3e
       0.030988961 0.06679256 -0.10824857 0.4988935
000050 8c a7 bc 3d 94 62 c5 bb 03 7e aa 3e 0a 50 91 bc
       0.092116445 -0.0060237143 0.33299264 -0.01773836
000060 c3 64 6e be eb b6 d7 3d 44 8e 33 bd 4e 51 4d be
       -0.23280625 0.10532936 -0.043836847 -0.20050547
000070 71 c8 f1 bd fc 9d d8 3d a2 9d 3f 3d 9b d4 2c 3d
       -0.11805809 0.10577008 0.04678119 0.042194944
000080 91 82 45 be 20 51 15 3d ad 36 e5 3c 39 df ae 3e
       -0.19288088 0.03645432 0.027980173 0.3415468
000090 ec af 7b 3e 1e ac 31 bd 47 7e a2 3d ce a5 03 3c
       0.24578828 -0.043377034 0.07934242 0.008035136
0000a0 a8 2e fa bd cb 8e 2c 3e 03 7b 47 be e7 49 94 bd
       -0.1221593 0.16851346 -0.19480519 -0.07240658
0000b0 82 51 55 be 32 c5 59 bd 0f 52 fe ba fe d3 b9 3d
       -0.20831874 -0.053166576 -0.0019403117 0.090736374
0000c0 a7 28 31 bd 46 8f c3 be 76 3d f5 bd 78 75 61 bd
       -0.04325166 -0.38195246 -0.11974613 -0.055043668
0000d0 e7 e1 87 be e9 ff 0e be e8 89 43 be a1 c9 5a be
       -0.26539537 -0.1396481 -0.19095576 -0.21365978
0000e0 3e 66 3a 3e 62 0a 05 3e 4d b1 96 be 18 d8 1a bd
       0.18203065 0.12992242 -0.29432145 -0.03780374
0000f0 8d 8e 15 be 07 3f bb be 45 e8 4a 3e fb fc 94 3e
       -0.1460516 -0.36571524 0.19815166 0.2909926
000100 57 48 95 3d 37 d3 92 be 79 95 eb 3d 47 79 47 be
       0.07289188 -0.2867677 0.11503119 -0.19479857
000110 4b 5b 76 be 02 27 3c 3d e6 77 aa 3e f6 67 6b be
       -0.24058263 0.04593564 0.332946 -0.22988877
000120 fa f3 a2 3d 83 f2 6c 3d 6c f7 23 3e 10 21 89 bd
       0.07956691 0.057848465 0.16012353 -0.06695759
000130 df 01 cb bd 63 53 c2 3c ac f9 c4 be 2f 33 ae 3e
       -0.09912466 0.023721403 -0.38471735 0.34023425
000140 ab 89 36 be a1 06 c9 be d4 21 6d bd c3 79 22 be
       -0.17825954 -0.3926287 -0.05789359 -0.15866761
000150 c1 b9 85 be 90 23 a1 bd 23 22 75 bd 21 49 d0 bd
       -0.2611828 -0.07868111 -0.05984701 -0.10170198
000160 42 a2 d1 bd 54 5c ff 3c 74 72 36 be f6 a6 1d 3e
       -0.10236026 0.031171955 -0.17817098 0.15395722
000170 b6 82 6e 3d 78 8f 24 bb 2e 32 a8 be fd cc fa bd
       0.058230124 -0.0025109928 -0.32850784 -0.1224613
000180 a1 a7 c9 bc f1 cb 36 be 74 fb b1 bd 8a 01 87 be
       -0.024616065 -0.17851235 -0.08690539 -0.26368362
000190 69 c7 d0 bd d7 47 ba bc 26 e8 e8 3d d5 b0 3a be
       -0.101942845 -0.022739334 0.11372404 -0.18231519
0001a0 f3 ff 37 be e2 c7 06 3e 20 ef d6 bd 58 ea aa 3d
       -0.1796873 0.13162187 -0.10494828 0.08345479
0001b0 d5 46 3e be f0 fc af be 49 fc 2b 3e 95 7f de be
       -0.18581708 -0.34372663 0.16795458 -0.43456712
0001c0 09 72 3c bd 2c ab 56 3e 1e a2 20 be e2 b5 4d 3e
       -0.04600719 0.20963734 -0.15686843 0.20088914
0001d0 4d 5e 96 3d cc 07 f4 3d 3d c2 fd 3e 4e 15 89 bd
       0.07342205 0.1191555 0.49562255 -0.06693517
0001e0 ac 4e 55 be 5b c6 80 be 4f 5d 55 3e 5e 1a 5f 3e
       -0.20830792 -0.25151333 0.20836376 0.21787402
0001f0 f8 66 6b bd 32 6d c4 3d 05 62 1a 3e 94 f1 0b bd
       -0.057471246 0.0959114 0.15076454 -0.034165934
000200 09 96 a3 3d 39 5e de bc 90 2d a1 bd d9 ee 6c 3d
       0.07987601 -0.027144538 -0.078700185 0.05784497
000210 11 9b b9 3d 9b e6 87 3e 23 3c 33 3e ae b9 c0 3d
       0.0906278 0.26543126 0.17503409 0.094104156
000220 cd 42 a1 3d fe ac a3 be c8 83 f3 3d 6c 87 b6 3c
       0.07874069 -0.3196792 0.1189037 0.022281371
000230 42 00 dc be e4 10 21 be 3e f3 20 be d9 9a 88 be
       -0.42968947 -0.157291 -0.1571779 -0.2668064
000240 69 2d 7b bd 27 22 e9 3d fd f7 54 3e 45 50 c8 3d
       -0.061322603 0.11383467 0.20797725 0.09780935
000250 b9 db 88 3d b4 32 a9 3d 44 f4 1e 3e 29 91 9f 3e
       0.06682534 0.08261624 0.15522867 0.31165436
000260 64 33 a8 3e 68 3e 02 be ff ce 29 3e 2e db 97 bd
       0.32851708 -0.12719119 0.16582869 -0.07414852
000270 89 7a b4 bd dd 7f db bd a9 33 75 bd 82 f4 0c 3e
       -0.08812434 -0.10717747 -0.05986372 0.13765147
000280 bc da 54 3d dd 59 c7 3d 0a 3e c0 bd fa c0 9a bd
       0.051966414 0.09733937 -0.09386833 -0.075563386
000290 ab 94 48 3e ff 46 dd 3a 34 f6 b4 bd a5 95 c2 3d
       0.19587962 0.001688212 -0.08836022 0.09501199
0002a0 b7 2f 7b 3e 59 c1 8a be 80 74 a9 3c c6 5f f7 3d
       0.2452992 -0.27100638 0.020685434 0.12078814
0002b0 f0 60 70 be 8b 0d e4 bd 9f 3e 37 bc f6 b1 a4 3c
       -0.23474479 -0.111353956 -0.011184364 0.02010439
0002c0 0a b9 22 3e b3 c6 80 bd fb 44 dc be 52 ec 0c 3e
       0.158909 -0.06287899 -0.43021378 0.13762024
0002d0 79 54 54 bd ca 81 80 bd 15 39 34 bc 92 8c 79 bd
       -0.051838372 -0.06274755 -0.010999938 -0.060925074
0002e0 76 fc 19 3e 0f 48 5a 3b f5 35 7f 3e f6 8b b0 3e
       0.15037712 0.003330711 0.24922927 0.34481782
0002f0 40 cf ab be 29 06 2e 3e ed 02 79 bd a3 96 35 3e
       -0.33556557 0.16994537 -0.060793806 0.17733245
000300 9b 68 b2 3e 1c d7 2d be 82 de 7a 3c 7b 0b 07 3f
       0.34845433 -0.16976589 0.015311839 0.5275189
000310 cb af ed 3b 17 8f f2 3b 77 07 22 bd 98 7c bb be
       0.007253622 0.0074023115 -0.0395579 -0.36618495
000320 72 d1 fd 3d e7 75 db bd fa fc 0e 3e 3b 47 49 3d
       0.12393464 -0.107158475 0.1396369 0.049140196
000330 52 b2 13 3e 5d b3 3c be fb 01 ae 3d 14 f6 87 bd
       0.14423493 -0.18427797 0.084964715 -0.066387326
000340 2b 3a 1a bd 17 08 59 3c 72 e9 89 3e 6a 83 27 3c
       -0.03765313 0.013246558 0.26935917 0.010224203
000350 ad d1 0a 3e a6 96 e9 bd 4e 6e 44 be c1 5d 32 be
       0.13556547 -0.11405687 -0.19182703 -0.17418577
000360 a6 12 cc bd 57 ad 0d be 16 23 97 3d 32 0c b0 bc
       -0.099644944 -0.13835655 0.07379739 -0.02149019
000370 cf 9e 9b be e2 7a 98 bd a8 54 d8 bc 0b 05 bb bd
       -0.303946 -0.07445313 -0.026407555 -0.09131821
000380 45 d9 83 be 7c 9c 60 3d ee e6 bb bd 1c b5 02 3e
       -0.257517 0.054836735 -0.09174906 0.127644
000390 7f 5a 4f 3d 19 c3 c4 3a e7 fb 48 3d 1a a4 2b be
       0.050623413 0.0015011757 0.049068358 -0.16761819
0003a0 47 2b 73 3e 80 76 02 3e 95 4c 69 3e 6a cb 79 3d
       0.23746978 0.12740517 0.2278312 0.060985006
0003b0 e4 4b 25 be 5c 4a 91 bd b2 d4 6a 3d ba 67 1a 3e
       -0.16142231 -0.07094261 0.05733175 0.15078631
0003c0 19 d8 97 be 09 17 06 3e 24 2c 44 3e cf a7 de bd
       -0.29657057 0.13094725 0.19157463 -0.10871851
0003d0 d2 79 e8 bd 2e 83 de bd 63 4f 94 3d 6a c0 4e 3e
       -0.113513604 -0.10864864 0.07241704 0.20190588
0003e0 b4 f4 b6 bd 19 ae 24 3e f3 db aa be cf fd d9 3c
       -0.08933392 0.16082038 -0.33370933 0.026610283
0003f0 4d 16 2c be 7d f1 95 3e ab dc 47 3b 0c c2 d0 bd
       -0.16805382 0.29285803 0.0030496519 -0.101932615

base.mlp.fc1.0.bias f4 [64]
000000 7b 08 46 3d 63 e9 7e 3d c1 f6 bb ba 70 83 b1 bc
       0.04834793 0.062234294 -0.0014340506 -0.02166912
000010 24 34 a4 3c 9f 9a fd bc 51 08 20 3d 68 af c2 bc
       0.020044394 -0.030957518 0.03907043 -0.02376528
000020 95 4b 73 3c 49 b8 57 3d d6 81 2d bc e9 bd 14 3a
       0.014849563 0.052665982 -0.010590037 0.0005674051
000030 4c ca 50 3b 16 a7 8d 3b 96 f2 8d 3c 86 45 88 bc
       0.003185886 0.0043228967 0.017327588 -0.016634714
000040 2d 92 2c bd ad 4b ac bc f2 0f 1f bb 71 9c b0 bb
       -0.04213159 -0.021032179 -0.0024270979 -0.005389743
000050 13 87 22 bc fc 6f 02 3c a7 db 3c 3d 1e 12 d7 bb
       -0.0099198995 0.0079612695 0.046107914 -0.006563439
000060 2d e2 04 3c fa 16 34 3c a8 d6 c5 bc 22 78 5d 3c
       0.008110565 0.010991806 -0.024150208 0.013517411
000070 00 46 fc bb bd a2 d0 bb 7b 5c ef 3c c1 c4 5e ba
       -0.0076987743 -0.006367056 0.029218903 -0.00084979465
000080 fe 25 ca bc dc 6c 3c 3a 2a c8 42 bc 0c c0 06 3d
       -0.02467632 0.0007187852 -0.011888543 0.032897994
000090 19 f3 0e bd c8 11 da bb c3 50 47 bd a7 a0 c4 ba
       -0.034899805 -0.0066549517 -0.048661005 -0.0015001491
0000a0 e7 e8 f5 bc 70 a6 b8 ba 1e 25 d7 3a f5 2c 12 3d
       -0.030018283 -0.0014087688 0.001641426 0.035687406
0000b0 be 83 e9 3b c4 72 ad bc b8 12 56 bd 9c b4 f0 bb
       0.0071263006 -0.021172889 -0.052263945 -0.007345749
0000c0 2e 14 3b bb 01 de 59 3d 8d 35 25 3c bf 27 1b bc
       -0.0028545964 0.053190235 0.010083568 -0.009469925
0000d0 a6 91 01 bd cd 11 14 bd 78 2e d9 bc bd 81 8f bc
       -0.03163304 -0.03614979 -0.026511416 -0.017517919
0000e0 06 65 00 3d ac ec 43 bd 8e a8 de bc d3 59 48 bc
       0.031346343 -0.04783313 -0.027179983 -0.012228447
0000f0 06 89 f1 3a 64 70 49 3c cc 83 5c 3d 41 5a 50 3c
       0.0018427677 0.012294862 0.05383663 0.012716831

base.mlp.fc1.2.weight f4 [64]
000000 d7 46 80 3f 68 56 82 3f cf 67 84 3f 57 3d 79 3f
       1.0021619 1.0182619 1.034418 0.9735922
000010 b1 18 75 3f ba e6 7f 3f 3e 2c 88 3f 11 1d 75 3f
       0.957408 0.99961436 1.0638502 0.95747477
000020 9d b3 82 3f 04 46 76 3f 5d 96 74 3f 84 67 80 3f
       1.0211064 0.96200585 0.95541936 1.003159
000030 16 63 89 3f 2b fc 7e 3f ed 8a 73 3f 48 47 8a 3f
       1.0733364 0.9960353 0.9513386 1.0803003
000040 2a fd 84 3f f0 0d 85 3f cc c9 7e 3f 2b b5 7d 3f
       1.038976 1.0394878 0.9952667 0.99104565
000050 f9 30 85 3f 21 20 7f 3f f7 08 85 3f db 68 77 3f
       1.040557 0.996584 1.0393361 0.9664437
000060 76 a7 7e 3f b3 55 80 3f 61 f5 80 3f 7a 11 80 3f
       0.99474275 1.0026153 1.0074884 1.0005333
000070 1c f0 7f 3f 67 d7 80 3f 1e b6 81 3f 5f ad 7d 3f
       0.9997575 1.0065736 1.0133703 0.9909267
000080 62 8c 82 3f 9d 2a 81 3f de e1 85 3f 86 09 7e 3f
       1.0199091 1.009113 1.0459554 0.9923328
000090 ed 4d 7c 3f aa 9e 80 3f b3 5d 7b 3f 06 f9 79 3f
       0.98556405 1.004842 0.9818985 0.97645605
0000a0 15 8f 79 3f 3e 14 7d 3f 75 7f 81 3f b0 8e 84 3f
       0.9748395 0.9885901 1.0117022 1.0356045
0000b0 75 b6 7a 3f dc 69 81 3f b6 2f 77 3f 0d e8 77 3f
       0.9793466 1.0110431 0.96557176 0.96838456
0000c0 85 2d 7e 3f 84 09 83 3f 82 f4 82 3f 27 1a 7d 3f
       0.9928821 1.0237279 1.0230868 0.9886803
0000d0 df 48 7f 3f 56 2d 74 3f d1 3e 75 3f 6a 0a 7d 3f
       0.9972057 0.9538168 0.95798975 0.98844016
0000e0 af 99 83 3f e3 a8 76 3f 53 ce 80 3f 8f 7a 75 3f
       1.0281276 0.9635145 1.0062965 0.95890135
0000f0 77 6a 81 3f c1 74 82 3f b5 f7 88 3f 17 59 79 3f
       1.0110615 1.019188 1.0700594 0.97401565

base.mlp.fc1.2.bias f4 [64]
000000 5f 34 18 3d 41 d7 59 3d 6b 82 bb bc ea e0 93 bc
       0.03715932 0.053183798 -0.022889337 -0.018051583
000010 c3 a1 1d 3d 35 ff 25 bd 54 c2 8f 3c b5 a7 d9 3b
       0.038484346 -0.040526588 0.017548718 0.0066423067
000020 57 d1 6e 3c ca da 2c 3d a8 64 5c 3b e1 f1 19 3b
       0.014576278 0.04220084 0.0033629332 0.0023490118
000030 6c 8b c4 bc 71 c7 b5 bc 3f 1c f1 3c 10 82 2e bd
       -0.023992263 -0.022189828 0.029432414 -0.042604506
000040 29 fa 89 bd 9b 2d 9a bc 88 65 92 bc 8a 6a 3f 3c
       -0.067371674 -0.018820575 -0.01787068 0.011683116
000050 01 e7 96 bc c8 7b 5c 3c ce 10 a7 3c 94 7b da bc
       -0.018420698 0.013457246 0.020393755 -0.026670255
000060 f6 1d 9e 3c 2b 1c 6d 3b 8e 42 00 bd 73 eb cd 3a
       0.019301396 0.003618012 -0.03131347 0.0015710428
000070 ac c2 0e bb 25 c7 43 bc 15 67 21 3d 12 3e c3 3b
       -0.0021783514 -0.011949335 0.039404947 0.005958327
000080 17 b6 ac bc 40 2e c2 3a c1 06 bc bc 48 10 91 3c
       -0.021082921 0.0014814809 -0.02295244 0.017707959
000090 13 50 9d bb 29 77 46 bd 44 69 15 bd b6 97 97 3b
       -0.0048008054 -0.048453484 -0.036477342 0.0046262396
0000a0 fd 83 26 bd d9 24 b6 ba c3 2b d0 3c 49 96 ef bb
       -0.040653218 -0.001389648 0.025411492 -0.0073116166
0000b0 36 75 02 3d 1c 18 31 bc 22 f8 0f 3c 5a 29 42 3d
       0.031850062 -0.010808971 0.008787187 0.047402717
0000c0 c4 96 77 bc 87 0a 23 bb 60 96 09 bd d2 2a 6a 3b
       -0.015111629 -0.00248781 -0.033590674 0.003573109
0000d0 4e 4f 1b bd 3b 44 db bc 23 50 b1 bb 00 51 78 3b
       -0.037917428 -0.026765933 -0.0054111644 0.0037890077
0000e0 a4 83 70 3c 88 6c c0 bc 60 24 a9 bc b3 08 3c 3c
       0.014679823 -0.023489252 -0.020647228 0.011476683
0000f0 08 94 a2 3b 95 97 9c 3c fe 3e 83 3c fe cc 92 3c
       0.0049614944 0.019115249 0.016021248 0.017920014

base.mlp.fc2.0.0.weight f4 [64, 64]
000000 65 5e 91 3c 17 48 be 3d f0 73 00 3d 43 95 6d be
       0.017745206 0.09291094 0.031360567 -0.2320147
000010 05 d3 40 be 46 eb a8 3d 2b 08 2f 3d 6a 95 35 3e
       -0.18830498 0.08248 0.0427324 0.17732778
000020 b4 55 b6 be 0d 3c d9 3d be db 09 bd 1a e8 c3 3b
       -0.3561226 0.10607157 -0.033656828 0.0059785964
000030 e8 66 39 bd b5 96 95 be 97 b9 34 bd 71 92 93 bd
       -0.045264155 -0.29216543 -0.044122305 -0.07205666
000040 f6 98 80 3e d6 7f 41 bd 1c 22 0d 3e 23 c0 b2 be
       0.251167 -0.047241054 0.13782543 -0.34912214
000050 7c 0d db 3e 9b f6 bd bd 36 c5 5b bc a5 02 61 be
       0.42783725 -0.09275552 -0.013413718 -0.21973665
000060 5e 17 15 be cd 88 c3 be 61 6f 43 3e 1a d0 d3 3d
       -0.14559695 -0.38190308 0.19085456 0.103424266
000070 e9 6c 1e bc e9 fd d6 3d aa 28 cd 3a c6 bd cd 3d
       -0.009669521 0.10497648 0.0015652378 0.10045962
000080 40 85 3c be c9 aa 27 bd 4c 3b 11 bd 60 b0 2e be
       -0.18410206 -0.040934358 -0.03545694 -0.17059469
000090 77 42 6d 3e cd 2b 41 3e b6 72 65 3e 4b 54 00 3e
       0.23169886 0.18864365 0.2240704 0.12532155
0000a0 c7 75 bf bc 6f 0e 43 3e d6 a7 93 3e b9 ee 75 3e
       -0.02337159 0.19048475 0.28838986 0.24016847
0000b0 22 50 05 3e b2 6b 1b be 08 72 24 3e 61 ca 88 3e
       0.1301885 -0.15177801 0.16059124 0.26716903
0000c0 7e 1a 98 3d e0 a1 d3 bc 9d 41 ae bd 94 30 5a 3e
       0.07426928 -0.025834024 -0.085086085 0.21307594
0000d0 d7 aa 7a be d6 83 13 3e b2 b4 88 3d c9 f1 b0 3d
       -0.24479233 0.1440576 0.0667509 0.08639867
0000e0 c7 40 4c 3e 00 5f f4 3d 39 94 f3 3e d5 93 00 be
       0.19946586 0.11932182 0.47574022 -0.12556393
0000f0 2f 23 c3 3d 12 58 70 3b 9d a4 76 3e 43 41 4e bd
       0.09528195 0.0036673588 0.24086232 -0.050355207
000100 d1 0d ee 3b 89 8d 96 be 0f 4a f4 3d a9 f6 31 3e
       0.0072648306 -0.29404858 0.11928188 0.1737925
000110 bf ca 7d 3d 4b 75 16 bf f3 b8 d6 ba c0 c7 8c 3d
       0.061960932 -0.58772725 -0.0016382023 0.06874037
000120 32 1e 80 3d dc ea 8e bd d8 4c 25 be 56 df 81 be
       0.06255759 -0.069783896 -0.16142595 -0.25365704
000130 0f 5c 07 3d e0 18 88 3e 40 f8 02 3e 6a 03 4d bd
       0.03304678 0.26581478 0.12790012 -0.050052084
000140 69 1c 3f bd 65 0d 33 bd 8b 87 46 3c c9 4b 82 be
       -0.046657953 -0.043713946 0.012117277 -0.25448444
000150 26 80 87 3c 76 0c 91 bd a4 15 eb 3e f4 b6 a1 be
       0.016540598 -0.07082455 0.45914948 -0.31584895
000160 92 cf 39 3d 63 aa 2b 3e 8b 93 5a 3e 97 89 9a 3e
       0.04536397 0.16764216 0.21345346 0.30183098
000170 f6 b9 47 be 24 1f ff 3c cc fe 42 be 38 6b d2 3e
       -0.19504532 0.031142779 -0.1904251 0.41097426
000180 5a 86 ef 3c eb a9 09 be 45 75 0c 3d fe bf ba 3c
       0.029238869 -0.13443725 0.034291524 0.022796627
000190 02 d0 0b be 77 92 6d be 48 41 27 3e 3f e4 91 bd
       -0.13653567 -0.23200403 0.16333497 -0.071236126
0001a0 12 0f 22 3c 85 10 96 bd 7b 5e 50 3e 19 78 33 bd
       0.009891288 -0.073273696 0.20348541 -0.043815706
0001b0 df 68 92 be 32 04 b1 3d d2 7e bd bc 1e 19 65 3c
       -0.28595635 0.08643378 -0.023131762 0.013983039
0001c0 3f 15 e6 3d 89 e5 9f 3d 51 5f 58 3e a5 f7 89 3e
       0.11234521 0.07807452 0.2113011 0.2694675
0001d0 02 56 82 3d f1 b4 ee 3d c3 6f cc bd bc bb 4b 3d
       0.06364061 0.116556056 -0.09982254 0.049739584
0001e0 bd c5 c3 bc 60 58 9c ba 0b a0 d6 3d 36 6b 32 bd
       -0.023898 -0.0011928193 0.104797445 -0.043559276
0001f0 9a 55 aa bd 8a 95 8a be 2c f5 22 3e 35 b6 0a 3e
       -0.083171085 -0.27067214 0.15913838 0.13546069
000200 62 71 a4 bc b8 07 7b be 5e d5 2d 3e 8f 8f 36 3d
       -0.020073596 -0.24514663 0.16975924 0.044570502
000210 83 d9 d3 3c e2 a6 3e 3e 41 bf 8f 3d 7e 1f 83 3e
       0.025860554 0.18618348 0.07018901 0.25609964
000220 ea 96 d9 3c 83 83 05 be 01 98 96 3c 09 8b 57 be
       0.02656122 -0.13038449 0.018383028 -0.21049131
000230 d6 c1 a3 3e 19 2c 4b 3d 58 93 ef bd 14 c2 fe 3d
       0.31983823 0.0496026 -0.116980255 0.12439361
000240 d3 6f df 3d d6 ed 1e 3d df 13 65 3c ba 37 88 3e
       0.10910001 0.038801037 0.013981788 0.26605016
000250 57 29 1d 3e ef 0a e4 3e 63 3c 89 3c dc 2b e8 3d
       0.15347801 0.44539592 0.016752427 0.113364905
000260 f6 d7 9f be c5 b7 d1 3d 1d 06 0d 3f 12 6c 2a 3c
       -0.31219453 0.102401294 0.55087453 0.0104017425
000270 28 4b d1 be 51 03 7f 3e db 8f 7c 3e eb d3 d2 bc
       -0.40877652 0.24903609 0.24664252 -0.025735816
000280 cf 88 24 bc 12 6c 4a bc 43 2a 97 3e 90 5c 13 3e
       -0.010042383 -0.0123548675 0.2952443 0.14390779
000290 bc 58 e2 3d 29 80 2d 3e 8b b4 60 3e 7e cb 1a 3e
       0.11052081 0.1694342 0.21943872 0.15116689
0002a0 c2 a3 0a 3e 44 1b 6d be 21 34 55 bd 52 b6 13 3e
       0.13539031 -0.23154932 -0.052051667 0.14425018
0002b0 ad 19 0f 3e fd e9 13 be 39 70 7c 3d d9 f2 56 be
       0.13974638 -0.14444728 0.06163046 -0.20991077
0002c0 08 3f 76 bd 4e 47 02 bd 8a f7 6d bd f0 55 93 bd
       -0.060118705 -0.031806283 -0.0580974 -0.07194126
0002d0 b0 aa 98 bd 87 35 71 3e ae d6 d7 3c 60 e5 0e 3e
       -0.07454431 0.23555575 0.026347484 0.13954687
0002e0 35 8c 09 3e 3f 74 5d 3e 5b 2e b5 bd f1 00 0f 3e
       0.13432391 0.21626376 -0.08846732 0.13965203
0002f0 7a e8 82 bc 9c f0 85 3c 3e 70 7c bd 4f 4d b4 bd
       -0.015979994 0.016350083 -0.06163048 -0.08803808
000300 68 0c 96 3e d3 2f 59 bd e5 e4 68 3d 36 cb cd 3b
       0.2930634 -0.053024124 0.056858916 0.006280328
000310 aa b2 4f bd cb af b1 3c e3 6c c2 be f9 86 89 bd
       -0.050707497 0.02169027 -0.379737 -0.06715197
000320 ce eb 88 be 01 ac 01 be 60 91 44 3e 49 79 5d 3e
       -0.26742405 -0.1266327 0.19196081 0.21628298
000330 51 9d 75 3e 19 7f ca bd 68 d9 8d be 99 3c 3e 3e
       0.23985793 -0.09887523 -0.2770493 0.18577804
000340 59 b4 25 be 9f bf 06 3e 4b 3b 21 3e 1e c1 70 3d
       -0.16182078 0.13159035 0.15745275 0.05877792
000350 d3 e4 a0 3d 28 6a 27 be 6d 7a ae 3e 4a 83 11 be
       0.07856145 -0.16349089 0.34077778 -0.14210239
000360 30 56 a9 3d be 61 13 3c 14 80 7f 3e e1 13 ad 3c
       0.08268392 0.0089954715 0.24951202 0.021127643
000370 44 85 88 3e 8b 16 d3 bc 70 fd 30 bd f5 75 31 3e
       0.26664174 -0.025767585 -0.043210447 0.17330153
000380 65 aa 67 3d 78 28 32 3e 8e 33 f0 be af 0c 29 3e
       0.056558985 0.1739825 -0.46914333 0.16508745
000390 58 cc 3a 3e 01 f0 1f bd cf 0e ff bc 12 7b 76 bd
       0.18242013 -0.039047245 -0.031134991 -0.060175963
0003a0 24 c9 40 3e 4b 1a 29 bc 9f 77 99 be 9e 8a c7 3d
       0.18826729 -0.01032121 -0.29974076 0.09743236
0003b0 a1 cd 63 be 2e b0 6b be 23 a9 ef bd 62 20 ef 3d
       -0.2224641 -0.23016426 -0.11702182 0.116760984
0003c0 75 9f 98 be e4 a0 c3 3d 37 53 d0 be ac c3 f2 bd
       -0.29809156 0.09552172 -0.40688488 -0.11853728
0003d0 5c bb 06 3d 9a b9 b5 3d ae 6a 30 3e 07 5c 59 3e
       0.032893524 0.08873291 0.17228195 0.21226512
0003e0 da 4c b5 bd 31 d9 f6 bc 6a 49 21 be ab f1 72 3d
       -0.08852549 -0.030132862 -0.15750661 0.059312504
0003f0 c6 5e f5 bd 3b c3 6f 3c 01 b3 d3 3a 1c cf f6 bd
       -0.11980967 0.014633949 0.001615137 -0.12051222

base.mlp.fc2.0.0.bias f4 [64]
000000 cf 0b 0e 3c b6 61 8f bc fe 50 56 bd e4 90 11 bc
       0.008669808 -0.017502647 -0.052323334 -0.008884642
000010 b8 51 db 3c c0 1a f1 bc 4a 12 93 3c 94 e5 d8 3c
       0.026772365 -0.0294317 0.017953057 0.026476659
000020 33 97 39 bd 40 23 c9 bb 82 42 1a 3c 70 ec 6d bc
       -0.04531021 -0.0061382353 0.009415271 -0.014521703
000030 a7 bc 1d bc 55 c6 08 bd 94 63 2d bd e4 12 f1 bc
       -0.009627498 -0.03339227 -0.042331293 -0.029427953
000040 08 f8 a3 3c 19 24 cb bc c9 87 af 3c 14 ef 6d 3d
       0.020015731 -0.024797486 0.021427052 0.05808933
000050 e0 a4 17 3c ef c3 01 bd eb 83 80 3c 4e d9 95 bb
       0.009255618 -0.031680997 0.015687903 -0.004573024
000060 3c f9 97 3a 1c 3b 24 3c 90 e7 00 bc 68 d5 d1 bb
       0.0011594663 0.010023858 -0.007867709 -0.006403614
000070 10 7a c3 bc c1 dc 98 ba 5c 20 99 3d ae ca 9d 3b
       -0.023861915 -0.001166247 0.07476875 0.004815421
000080 8c eb 1d bd af 4d e2 bb 8c 59 f9 3c 46 bd 79 bc
       -0.038554713 -0.0069062333 0.030438207 -0.01524288
000090 83 08 00 bc f3 70 7a 3c 2b a9 f3 bc 50 4a 0d bc
       -0.007814529 0.015285718 -0.029743752 -0.0086236745
0000a0 67 cd cb bc 23 4d 8b 3c cb da 2b 3c f0 d1 bd ba
       -0.024878217 0.017004555 0.010489176 -0.0014482122
0000b0 8e 1d f6 bc a1 b2 b5 3c 6c 36 1d bd 3a 60 24 bd
       -0.03004339 0.022179903 -0.03838198 -0.04013083
0000c0 40 02 b8 3c 02 36 32 3c c0 7f be bc ac 81 16 bd
       0.02246201 0.010877134 -0.023254275 -0.03674476
0000d0 1c 89 e7 3c c3 94 40 bb 4d c4 0d 3c b3 c1 f3 bc
       0.028263621 -0.0029385544 0.008652759 -0.029755449
0000e0 0c cd 93 3c 7f 4a b1 bb a0 7d 08 bd a6 65 17 3d
       0.01804211 -0.005410492 -0.03332293 0.036962174
0000f0 27 9a e2 3a 53 3e 3c bd fc 3f 9f 3c 06 90 b7 3b
       0.0017288373 -0.045957875 0.01943969 0.0056018857

base.mlp.fc2.0.2.weight f4 [64]
000000 8f 4e 90 3f bb 4c 87 3f 5f f4 8c 3f 8e 61 8e 3f
       1.1273974 1.0570291 1.1012076 1.1123521
000010 47 32 8f 3f 2a 61 82 3f fc 2c 8d 3f 16 18 8d 3f
       1.1187218 1.0185902 1.1029353 1.1022975
000020 72 58 82 3f 63 35 8d 3f 6e 7f 89 3f e5 1f 87 3f
       1.0183241 1.1031917 1.0742013 1.0556608
000030 6f 33 84 3f fe f4 84 3f 1f dd 89 3f a6 8e 8c 3f
       1.0328196 1.0387266 1.0770606 1.0981033
000040 b7 08 8e 3f b9 cb 8a 3f 33 69 8f 3f 96 a9 8c 3f
       1.109641 1.0843421 1.1203979 1.0989254
000050 b8 51 8c 3f e2 bd 84 3f 4d e2 8a 3f 83 62 81 3f
       1.0962439 1.0370448 1.0850312 1.0108188
000060 0d 73 8d 3f 4b 14 8e 3f bc 16 87 3f 79 2e 85 3f
       1.1050736 1.1099943 1.0553813 1.0404807
000070 ac 7f 8b 3f 9f 79 89 3f 78 dc 8e 3f e2 51 8d 3f
       1.0898337 1.0740241 1.1161032 1.1040614
000080 76 ff 85 3f 44 3b 8c 3f 70 43 85 3f 84 b5 89 3f
       1.0468585 1.0955586 1.0411205 1.0758519
000090 46 54 8a 3f 2a f3 85 3f 6f 2d 85 3f 2b 18 8c 3f
       1.0806968 1.0464833 1.040449 1.0944875
0000a0 b7 20 8d 3f c6 a7 84 3f f8 eb 8b 3f d2 11 8b 3f
       1.1025609 1.03637 1.0931387 1.0864813
0000b0 2c 83 8e 3f 6e e7 8e 3f 1a c4 8b 3f 40 57 88 3f
       1.113378 1.1164377 1.091922 1.0651627
0000c0 30 28 8e 3f c6 0a 84 3f 88 c9 83 3f 6a 24 88 3f
       1.1106014 1.0315788 1.0295877 1.0636113
0000d0 03 3c 8c 3f 58 2e 89 3f 1e 0c 89 3f 80 f6 88 3f
       1.0955814 1.0717268 1.0706823 1.0700226
0000e0 8e 54 88 3f 7d 73 87 3f db aa 85 3f cb 1d 8b 3f
       1.0650804 1.0582119 1.0442766 1.0868467
0000f0 1f b8 8b 3f 70 44 87 3f 15 10 8d 3f f7 11 8d 3f
       1.0915564 1.056776 1.1020533 1.1021107

base.mlp.fc2.0.2.bias f4 [64]
000000 c9 ad d9 bc 42 3d 0a 3d 92 d0 c4 bb 04 c2 c2 3b
       -0.026572125 0.033749826 -0.006006309 0.0059435386
000010 47 e1 39 3d 5b e1 ed bc f0 58 56 3b 52 6e c3 bc
       0.045380857 -0.029038122 0.003270682 -0.023856316
000020 4f 2f bd 3c 72 e7 e7 3c 14 05 e4 3c e7 ce 35 bd
       0.023093848 0.028308604 0.027834453 -0.04438677
000030 ff 5c e6 3c 54 19 8d 3c c8 52 72 bd d6 09 6f bd
       0.028120516 0.017223991 -0.059160978 -0.05835899
000040 5c db 4e 3d b0 4a d3 bc 08 8c 91 bc 8d 3b 16 3d
       0.050502166 -0.02579245 -0.017766967 0.036677886
000050 50 26 03 3c 2c 86 ba bc d6 e0 47 3d 7b 4c 91 3c
       0.00800474 -0.022769056 0.048798405 0.017736664
000060 bb de 5f 3c 58 08 25 bd 77 2e 60 bc 31 cd 67 3d
       0.013663943 -0.04029116 -0.013682953 0.05659217
000070 05 d8 61 bd 76 48 5f bd e5 b9 5e 3d 29 5d 5d bd
       -0.055137653 -0.054512464 0.0543765 -0.054043923
000080 9b 39 a1 bc 36 7d 0b 3d 8b bc 80 3d be 5c 0c bd
       -0.019680789 0.034054957 0.06285962 -0.034268133
000090 33 0d 37 3d 7d 3f 3a bc 5b b8 9d bb a3 f0 4d bd
       0.044690322 -0.011367676 -0.0048132367 -0.050278317
0000a0 42 0d 98 bd 5b 3f 21 3c f9 8c ef ba ce ae 86 3c
       -0.07424404 0.009841765 -0.0018276266 0.016440775
0000b0 b6 82 2f bd 33 24 24 bd 98 b3 bb bb f7 0f d6 3c
       -0.042849265 -0.040073585 -0.0057281964 0.02613066
0000c0 d1 e2 2f 3c b3 89 e6 3c 6c 83 47 3b c2 ed 0b bd
       0.01073523 0.028141832 0.0030443324 -0.03416229
0000d0 de 72 1d 3d 27 87 2b bb aa e1 d6 3c 98 f4 8d bd
       0.038439624 -0.0026173086 0.026230652 -0.06931418
0000e0 1f fc 16 3c 8b 8a 34 bd c2 e0 bd 3c 3d 91 46 3d
       0.009215384 -0.044077437 0.023178462 0.048478354
0000f0 95 1b 0e bd ed 1f 24 3d 48 9e 74 3c 2f 64 27 3d
       -0.034694273 0.04006951 0.014930315 0.040867027

act.action_out.fc_mean.weight f4 [5, 64]
000000 25 d9 16 bd 6c 13 94 3b 13 ba d2 3b 95 68 94 bc
       -0.03682818 0.004518917 0.006430873 -0.018116275
000010 db 0d 82 3d 80 65 60 bc f6 5c a4 bc 9b 85 39 3c
       0.06350299 -0.0136960745 -0.020063858 0.011323358
000020 98 1f 8b 3c 39 71 df bc a8 04 f0 bc f6 eb 88 3c
       0.016982839 -0.027275668 -0.029299095 0.016714077
000030 d0 f5 25 bd 72 ee 6f 3c 64 fc 9c bc 71 42 42 ba
       -0.04051763 0.014644252 -0.019163318 -0.0007410413
000040 66 65 55 bc a4 bf 7a bb aa a0 28 3d a8 9e a4 bc
       -0.013024664 -0.00382612 0.041168846 -0.020095184
000050 63 af 2f 3b 53 35 36 bc 42 ee 83 3c c3 8b ed 3b
       0.002680742 -0.011121112 0.016104821 0.007249327
000060 6e f5 11 3c a9 5b cf bc 0c 40 00 3c ff 60 a9 3c
       0.008908613 -0.025312262 0.00782777 0.020676134
000070 44 9c 29 bd 54 a5 37 3d ee ca 46 3c 37 27 cc 3c
       -0.041408792 0.044835404 0.012133343 0.024921043
000080 60 7d 93 3b cb ff 28 bd f8 7a 18 3d c2 a6 09 3c
       0.00450103 -0.04125957 0.037226647 0.008401575
000090 1e 88 b3 bb 4e bd ef bc 41 cd d0 bb ce d4 5c bc
       -0.005478873 -0.029265072 -0.0063721244 -0.013478471
0000a0 c2 b6 4d bd a4 99 d7 bb 1d 30 11 3d 2c 79 1a bc
       -0.05022312 -0.0065795947 0.035446275 -0.009428304
0000b0 83 fc 40 bd ec a9 b4 3b cc af 8b 3c 59 7d 5b bd
       -0.047115814 0.0055134203 0.0170516 -0.053586338
0000c0 b2 51 d0 b9 aa ae 91 bc 35 4b 05 3d e0 8e 39 3b
       -0.0003973372 -0.017783482 0.032542426 0.002831392
0000d0 c5 81 04 bd 81 5f 56 3d 0a 44 90 bc 4d 63 6f ba
       -0.03235032 0.052337173 -0.017610569 -0.00091319234
0000e0 57 2a f0 3c 9e 30 aa bc bc d2 ec 3c 2d 30 99 3c
       0.029317064 -0.020775136 0.02890908 0.01869973
0000f0 eb 57 ab 3b 45 18 16 3c f7 9c 19 3d 7c e7 08 3d
       0.0052289865 0.00916106 0.03750321 0.033423886
000100 58 cd 8e 3d e0 9e 00 bd 73 d0 a4 3d 74 dd 37 3c
       0.0697276 -0.031401515 0.08047571 0.011222232
000110 11 c7 46 bd c0 08 3c bc f4 36 42 bd 8d 57 88 3d
       -0.04852969 -0.011476696 -0.04741569 0.06657324
000120 56 d3 85 bb e7 64 6a bd 8e 6c 7d bd 8d 44 b9 3c
       -0.004084031 -0.057225134 -0.061871104 0.022615695
000130 df a8 85 b9 0a b1 05 bb 87 a2 d9 3c 31 16 90 3d
       -0.00025493556 -0.0020399713 0.026566757 0.07035483
000140 91 be 92 bc f7 b9 1c 3d d1 88 f2 bc 47 03 8a bd
       -0.017913135 0.038263287 -0.029606255 -0.06738906
000150 d4 e4 12 bd 50 32 40 3c c9 11 8b bb dc 2f 0b 3c
       -0.03586276 0.011730745 -0.0042440635 0.008495297
000160 16 78 8b 3b 33 a5 82 3c f2 e2 03 bd 6d d2 84 3c
       0.0042562587 0.015947914 -0.032198854 0.01621362
000170 23 db 9b 3b e1 83 29 3c 22 b0 bc bc a6 77 b6 3c
       0.0047563477 0.010346384 -0.023033205 0.02227385
000180 c6 46 b0 bc a8 49 ba 3b 8c 7b 0f bd df cc 12 3d
       -0.021518122 0.00568505 -0.035029933 0.03583991
000190 8e c0 cf bc 25 c6 65 3c cf 53 99 bc e6 40 dc 3b
       -0.025360372 0.014024292 -0.01871672 0.0067216037
0001a0 b8 00 69 bc ef 33 36 bd 70 71 80 3d fb a5 9d 3c
       -0.014221363 -0.04448312 0.062716365 0.019244185
0001b0 ab 91 84 3d 67 ba 54 bd 37 13 d6 3c d6 48 f8 bc
       0.064730965 -0.05193558 0.02613221 -0.030308168
0001c0 86 b4 96 3d e8 db 78 bc 83 dc 08 bc 9f 72 88 3d
       0.07358651 -0.0151891485 -0.008353355 0.06662487
0001d0 77 5c 8a bd 47 f4 ab bc b1 b8 60 bc eb 21 08 bc
       -0.067559175 -0.020990504 -0.013715909 -0.008308868
0001e0 59 99 13 bd f3 41 2b 39 3f dc ea 3c 64 03 8a 3c
       -0.036034916 0.00016332399 0.028669475 0.01684732
0001f0 25 0b 9a 3d fb 88 79 bc ef a9 77 bd e2 38 30 3d
       0.07521657 -0.015230413 -0.060464796 0.043022998
000200 b9 a2 82 bd 86 9e b8 bc 6c 88 ba 3b e9 cb 15 3d
       -0.06378693 -0.022536527 0.0056925323 0.036571417
000210 2d 53 63 3d 67 3e 94 bc 5f 1b 74 3d d2 be 0b bd
       0.055499244 -0.018096162 0.059596416 -0.034117527
000220 f8 96 b2 3c 69 61 35 3d 55 a9 cf 3c 30 91 1b bd
       0.021800503 0.04428235 0.025349298 -0.03798026
000230 87 4d af 3a df 04 4c bb 26 be cc bc a6 f1 ab bc
       0.0013374545 -0.0031130833 -0.024993014 -0.02098925
000240 1c 42 dd 3c d3 b5 61 bd 81 7a 80 3c 29 47 1a 3b
       0.027009062 -0.05510504 0.015683414 0.002354095
000250 7b 37 b4 3d f0 0a 33 bd 4a ac 8d 3d dc 36 30 3c
       0.087996446 -0.043711603 0.06917627 0.010755267
000260 c7 2e ae bc ac 29 2c bd a6 13 6f bd ff 89 84 3a
       -0.02126254 -0.04203193 -0.058368348 0.0010111927
000270 2b ea 8f 3c cb a0 34 bd 45 51 ae 3d 95 59 de bc
       0.017567715 -0.044098657 0.08511595 -0.027142325
000280 f1 35 5b bc 7c d2 ac 3c 1f a3 95 3c c7 bd a6 3c
       -0.01337956 0.02109646 0.018266259 0.020354165
000290 a6 51 8d bb f9 f6 37 bd f6 3b 17 3b d3 5d 9d bd
       -0.004312712 -0.044913266 0.002307651 -0.07683911
0002a0 91 b4 a2 bd d0 e0 88 3c 84 bf df bb 80 20 52 3c
       -0.079445966 0.016708761 -0.0068282504 0.012825131
0002b0 cb 21 e6 bc c1 9e 3c bd d8 69 1c bd 31 20 a4 3c
       -0.028092286 -0.046049837 -0.038186878 0.020034881
0002c0 b0 34 a5 bc 0d 1b 91 bc 61 63 9a 3c 3c 17 5a bc
       -0.020166725 -0.017713094 0.018846216 -0.013311204
0002d0 8c fd ce 3c cb 55 44 bd a5 3f 62 3d 2d 2e 64 bd
       0.025267385 -0.04793338 0.055236477 -0.0557081
0002e0 cf b9 33 3c e8 dd bb bc da b9 98 bc d8 d7 87 3b
       0.010969593 -0.022932962 -0.018643308 0.0041456036
0002f0 34 39 be 3c 28 f7 40 bb 21 64 16 3d d6 fe 8c 3d
       0.023220636 -0.0029444192 0.036716584 0.068845436
000300 32 a2 2b 3d 0a 06 4d bd 7b d1 59 3d b7 93 c0 3d
       0.04190273 -0.050054587 0.05317829 0.09403174
000310 e3 59 46 bd 34 37 3d 3c 4f f3 25 bd cd 68 64 bd
       -0.048425566 0.011548806 -0.04051524 -0.05576401
000320 5d a2 84 bc d7 8f dc 3c b9 e0 a6 3c 03 56 0f bd
       -0.016190702 0.026924057 0.020370828 -0.034994137
000330 4d 24 20 3c 9c 67 69 bc 09 39 1c 3c 97 c2 44 3c
       0.00977428 -0.014245894 0.009535083 0.012009284
000340 be 66 7c bd e8 a0 52 3d 3e f3 c3 bd cb 84 70 bd
       -0.06162142 0.051422983 -0.09567879 -0.05872039
000350 c6 51 93 3c b4 92 63 bc d8 1d 54 bd eb 8b ad 3c
       0.017983329 -0.013889957 -0.051786274 0.021184882
000360 17 3f 9c bd 3a 96 ae bd ee 96 6b 3c 13 8e 05 3d
       -0.07629221 -0.08524747 0.014379246 0.032606196
000370 10 b4 a4 3d 92 55 a6 3c 76 29 56 bd bc d0 44 bd
       0.08042157 0.020304475 -0.052285634 -0.048050627
000380 9d 3c be bb be ff 91 3d 55 bb 43 3c ed a3 ed 3b
       -0.0058055655 0.07128857 0.011946519 0.0072522075
000390 77 4d 78 bd bc 48 80 bc fb f4 3e bd d3 64 01 bd
       -0.06062075 -0.015659682 -0.04662035 -0.031590294
0003a0 a7 01 a2 bc ea b5 e6 bb f2 88 4d bd ef 28 af 3d
       -0.019776179 -0.007040729 -0.05017943 0.08552729
0003b0 01 2a 87 3d ad c2 59 3d fc 95 21 bc d4 53 05 3d
       0.065998085 0.053164173 -0.009862419 0.032550648
0003c0 35 0c 1b bd 23 ae 2c bb f2 34 2e 3c 76 81 b9 bb
       -0.03785344 -0.002634891 0.01063274 -0.005661185
0003d0 6e 61 18 3d 1c 03 91 bc 2a 85 03 bd 0d e9 a0 3b
       0.03720229 -0.017701678 -0.032109417 0.0049105943
0003e0 3c de ec 3c 41 15 04 3d fd 0c 32 bc b7 33 6c 3c
       0.028914563 0.03224683 -0.010867354 0.014416627
0003f0 b2 a3 1f bd 29 d7 6f 3d 21 1e eb bb ae 1b dd 3b
       -0.03897447 0.058554802 -0.0071752225 0.0067476844

act.action_out.fc_mean.bias f4 [5]
000000 e5 29 53 3c 77 3b d0 bc ee da 1d 3d 26 85 14 bc
       0.012888406 -0.02541898 0.038538866 -0.009064948
000010 38 7d 12 3d
       0.03576395

act.action_out.logstd._bias f4 [5, 1]
000000 96 40 a5 3c e6 22 42 bd 91 9d 6b bd 51 4c a6 bd
       0.020172399 -0.047396563 -0.057523314 -0.08120025
000010 13 52 d8 bd
       -0.105625294
