checkpoint/best_mappo_seed114_run20260211_185626_envmamujoco-ant-4x2_ep6400_agent0_actor.pt (torch, 36821 bytes, 13 tensors)

base.feature_norm.weight f4 [42]
00000000: 20dc 7a3f 1845 743f 7036 883f 434b 843f
00000010: 082c 8f3f eb47 823f 61c3 803f b206 7d3f
00000020: fb2f 793f d556 7c3f 69e2 7d3f 4cd3 823f
00000030: 4b5c 833f 6bb7 803f 7582 8d3f d3ce 813f
00000040: 7d34 813f 10a0 833f 131b 6d3f 0f0b 933f
00000050: 088b 873f b859 6d3f 3137 783f 3530 843f
00000060: 6e78 7b3f d97d 833f 1199 773f 2a70 803f
00000070: 967d 7a3f 7a5f 8c3f 8a93 833f dcfd 873f
00000080: 18f3 833f dea0 8a3f 1f25 883f 1908 883f
00000090: 1c31 823f 5d11 843f cc5b 7a3f ce44 833f
000000a0: 4a7f 803f e2d3 753f
0.97992134 0.9541793 1.0641613 1.0335468 1.1185312 1.0178198 1.0059625 0.9883834
0.9733884 0.98569995 0.991736 1.0220733 1.026254 1.0055975 1.1055437 1.0141243
1.0094143 1.0283222 0.92619437 1.148775 1.0589304 0.92715025 0.96959215 1.0327212
0.98230636 1.0272781 0.96717936 1.003423 0.9784788 1.0966637 1.02794 1.0624347
1.0308561 1.0830343 1.0636328 1.0627471 1.0171237 1.0317799 0.9779632 1.0255373
1.0038846 0.9602643

base.feature_norm.bias f4 [42]
00000000: 4930 bbbc b968 53bd b67e 83bc 1242 083b
00000010: d6a8 e4bc b6cc 943c 75c9 d0bb a884 073d
00000020: d15e 8a3c ca04 b63c cd15 733c d5a2 823b
00000030: a7d9 2dbc 8094 94bc 0761 88bc d28a cf3a
00000040: 2ea3 90bd cce8 76bb 09ca 1d3d b673 b2bb
00000050: 65cc 673c 84e0 27bd 226d 2cbc ec49 903b
00000060: e94c 143c ee47 933c 96f2 0a3c 6ff6 ac3b
00000070: d8a9 903c 2b0d 8abd 7a9a f43c 26d9 883d
00000080: d495 22bb 090d 8d3d 321b c0ba 3525 5f3c
00000090: 346e 0bbc 3611 ffbc 3189 19bc a27b af3c
000000a0: 3e72 253c 8ab5 afbc
-0.022850173 -0.051613543 -0.016051631 0.0020791334 -0.027912538 0.01816402 -0.006371672 0.033085495
0.016890915 0.02221908 0.014836741 0.0039866962 -0.010610974 -0.018137217 -0.016647829 0.0015834218
-0.07062374 -0.003767538 0.038522754 -0.0054459227 0.014147853 -0.0409856 -0.010524066 0.0044033434
0.00905154 0.017978635 0.008480689 0.0052784006 0.017659113 -0.06740793 0.029858816 0.06682043
-0.0024808543 0.06887252 -0.0014656542 0.013619711 -0.008510161 -0.031136137 -0.009371088 0.021421257
0.010098038 -0.02144887

base.mlp.fc1.0.weight f4 [64, 42]
00000000: 5b67 813d 3d5f 94be 5cfd 9f3e 0ebc 5dbc
00000010: 4e4b 93be ed33 85be f1aa ff3d 2269 1f3e
00000020: ffee c2bd ea1c 383e e8df 89be 2974 1ebc
00000030: b726 1bbe 99f1 83be 0722 503e 4d88 6d3e
00000040: f916 0abe 0213 7f3d 6de1 61be 9057 653d
00000050: 9a9c 49be 673a e8bd 1c1c b93d 5943 b3be
00000060: d69a 01bc aa03 b43d 35b9 ecbc 33f0 8bbd
00000070: a78a 99be b043 2c3d ce59 f73e 0b75 ed3d
00000080: 719b 2f3c df2e b7bd 4895 dabd 6b34 54be
00000090: b37b 17bd 3446 203e 7ba0 123e 2ddd 1dbe
000000a0: 67e0 fabd fa91 c4bd da1e 553e e5a8 b5bd
000000b0: c53d 953b ba83 003e 82b3 903e de90 033e
000000c0: f30a 83be af68 5b3e e77f 6a3d 4814 25be
000000d0: 7b0c 34bd 2870 993e 079d 4d3e d5ed db3d
000000e0: fc6f 42be 9888 a83e 4d89 f9bd cb29 42bd
000000f0: 1be5 08bb 192e d73c 70ab 2cbe 208d 5fbe
00000100: 4a64 71be e840 d0b9 505e 013d 4ce1 77bd
00000110: 8181 3e3d 6f73 113e 879e 04bd 69f9 05be
00000120: 8727 aabe 0cd4 023e 3eef bcbe 0e25 cebd
00000130: 7483 9abe 7175 d73c bbd7 27be 122a 94be
00000140: d778 fc3c ef42 5e3e 0c63 923d 85e0 503d
00000150: ae54 94bc 4df1 853e 063a 80be 02b6 b23e
00000160: a866 9e3d 6794 443e 9011 07bd 4374 133e
00000170: 6a2f 1a3d 69db 64bc 6a18 b83d bbd3 f4bd
00000180: 9f89 c2bb c3bd 233c 18de 433e 738a 2c3e
00000190: 36f6 c9bd 074b c7bd 24c4 51bc 3f57 bd3e
000001a0: 6d24 3e3e d35a 623e 57b0 b93e db12 983d
000001b0: 8ecf e23e 218c 9ebe 3cbf bbbd 1d97 e8bd
000001c0: 7c72 a23d 9f3e d4bb bc6c 053c 1c1f 6cbe
000001d0: cb66 aeb9 5e0b a6bc b84d dd3d ac7a b83c
000001e0: 35c3 4f3d 9053 e23d e8ef e0bd c5c2 e53c
000001f0: 3d17 dfbc 5911 6d3d dbcb b5be 7464 0dbe
00000200: 26d0 a8bd 7347 a6bc 87d0 99bd f24e fd3d
00000210: cb57 28be a268 323e 5ac4 88be 5eb5 1d3d
00000220: fd4a 983d a6a0 5d3e 890a c43c 49ad babd
00000230: a180 1bbe 8ed5 aabc f6dc 703e 0f31 bebe
00000240: 0c02 02bd 7561 20be cdf8 31be 42ef 2f3e
00000250: cea0 253d 8b19 1c3d 6605 bdbd fc40 8d3d
00000260: 6c49 31be 8bf3 2e3d 28ec 963d 68e8 203d
00000270: 2014 f03c d42f a0bd 3a14 f53d ee05 6a3e
00000280: 0fd1 383d 2ff4 87be c301 21bd f3c0 42be
00000290: 6351 8cbe da6b 73be d808 a33e 5a10 053d
000002a0: ecea 30be 3d33 75be 5d6c 7c3e 50ef b5be
000002b0: e36b 393e f39f 13bd e3c9 0cbe 9ac8 413e
000002c0: dd86 eebd 44da d4bd 4c12 4fbd 34e4 6ebe
000002d0: ac24 3bbe da69 f0bc 2369 29be 3a93 debd
000002e0: fa41 bcbb 814c c7bc cae4 81be bd9e afbe
000002f0: 569b ce3e e480 1abe 68e4 0dbe d652 1dbe
00000300: 6373 863e b416 4cbd 342c 6cbe 629e 133e
00000310: 890b d13c dafd e0bd 8b15 61bd c6cf 32be
00000320: c675 b23e 4557 4abe 39aa 83bd b849 1abe
00000330: 71a4 8d3d e14c dbbc 3a1a e23d 0160 693e
00000340: 7088 b73d 2ee9 393e 8d0c 213d 6337 653e
00000350: 820e 833c 642c 26be 7780 a13d ff6e 57bd
00000360: 4a76 7cbe 5a7e 2cbe 4545 733e a160 c0bc
00000370: 2005 d9bd 1872 853c 8e61 75be a5f9 543e
00000380: 89c3 193e ef6d babe 1451 34be 5bd2 7a3c
00000390: 5f8e 34be 2420 51bd 27ab 973e dd2c 00be
000003a0: a38e 85be ed4f 2e3e cc62 ccbb b9f4 11be
000003b0: 541b 363c edea 56bd d823 1bbe f3b0 953d
000003c0: 52cd c83e 70bd 0dbb 41f8 44be e971 9a3e
000003d0: 2192 8ebe c447 763e 3ad4 d53d 9646 75be
000003e0: 1ade 6ebe cec2 ee3c 7481 88be d023 a6bc
000003f0: 951a c8be 4bdd 293e 0814 28be 2094 1bbe
0.063185416 -0.2897891 0.31247985 -0.013533605 -0.2876839 -0.2601618 0.12483776 0.15567449
-0.09518241 0.1797978 -0.2692864 -0.009671249 -0.15151487 -0.25770262 0.2032548 0.23196526
-0.13485326 0.062273987 -0.2205865 0.05599171 -0.19688645 -0.11339264 0.090385646 -0.3501232
-0.007910451 0.08789761 -0.028896907 -0.06832924 -0.29988596 0.04205674 0.48310703 0.1159459
0.010718212 -0.08944487 -0.106730044 -0.20723121 -0.036983203 0.1565178 0.14319031 -0.15416403
-0.122498326 -0.09598155 0.2081255 -0.08870105 0.0045544826 0.1255025 0.28261954 0.12848231
-0.2559429 0.21426652 0.057250883 -0.16121018 -0.043957215 0.2996838 0.20079432 0.10738722
-0.18988031 0.32916713 -0.12184391 -0.047403138 -0.002088851 0.026267098 -0.16862273 -0.21831179
-0.23573413 -0.0003972121 0.031584084 -0.060517594 0.046510223 0.1420419 -0.032377746 -0.13083424
-0.33233282 0.12776202 -0.36901277 -0.10065661 -0.30178416 0.026301118 -0.16390888 -0.28938347
0.03081934 0.2170522 0.07147798 0.05099537 -0.018106785 0.2616066 -0.25044268 0.34904486
0.07734424 0.19197236 -0.032975733 0.14399819 0.037642874 -0.013968327 0.089890316 -0.11954447
-0.005936816 0.009993973 0.19127691 0.16849689 -0.09861414 -0.09731107 -0.012803111 0.36980626
0.18568583 0.22104959 0.3626735 0.074254714 0.44298977 -0.30966285 -0.091673344 -0.113569476
0.079319924 -0.0064771916 0.0081436 -0.23058742 -0.00033264453 -0.020269092 0.10805839 0.022519432
0.050723273 0.110510945 -0.109832585 0.028046975 -0.02723276 0.057877872 -0.35507092 -0.13807851
-0.08242826 -0.020297742 -0.075104766 0.12368573 -0.1643974 0.17422727 -0.26712304 0.038503043
0.07436178 0.21643314 0.023930805 -0.09115083 -0.15185787 -0.020853784 0.2352179 -0.37146804
-0.031740233 -0.15662177 -0.17380066 0.17181113 0.04043656 0.038110297 -0.09229545 0.068971604
-0.17313164 0.04271273 0.07369262 0.03928414 0.029306471 -0.078216225 0.119667485 0.22853824
0.04512125 -0.26553485 -0.03930832 -0.19018917 -0.27405843 -0.23771611 0.31842685 0.032486297
-0.17277116 -0.23945327 0.24650712 -0.35534143 0.18107562 -0.03604121 -0.13748889 0.1892418
-0.11646817 -0.10393193 -0.05055456 -0.2332924 -0.18275708 -0.029347349 -0.16544013 -0.10867925
-0.0057451697 -0.024328472 -0.25369865 -0.34300795 0.40352887 -0.1508823 -0.13856661 -0.1536363
0.26259908 -0.04982634 -0.23063737 0.14415887 0.025518196 -0.10985918 -0.054952186 -0.17462072
0.3485548 -0.19759853 -0.06428952 -0.15067184 0.0691613 -0.026770057 0.110401586 0.22790529
0.0896157 0.18155357 0.03931861 0.2238441 0.015998129 -0.16227871 0.07885831 -0.05259609
-0.24654499 -0.16845074 0.23756893 -0.023483576 -0.10596681 0.016289756 -0.23962995 0.20798357
0.15015997 -0.36411998 -0.17609054 0.015308942 -0.17632435 -0.051056042 0.29622766 -0.12517114
-0.26085386 0.17022677 -0.0062373634 -0.1425351 0.011114914 -0.052470136 -0.15150392 0.07309141
0.39219147 -0.0021627806 -0.19235326 0.30165032 -0.27845863 0.24050814 0.1044087 -0.23952708
-0.23326913 0.029145624 -0.26661265 -0.020280749 -0.3908278 0.16588323 -0.16413891 -0.15193224

base.mlp.fc1.0.bias f4 [64]
00000000: 8778 833c 1491 d03c d410 07bd 532f 073d
00000010: 3f97 bc39 c22d 0a3d 68cc 19bd eeca 1abd
00000020: 71f2 a3bd 40f7 2abd 45de 7abb ac1a a0bb
00000030: 563c aaba 354b c93c b83b 73bb cb9a e8bc
00000040: 7037 99bc 15ab a03c 8e83 8f3a cbae 623c
00000050: 0961 3e3c 4619 1abc 2e4e b6bc 9709 ff3c
00000060: 6b29 7ebc da7c 8a3c bfcf 80bd 4930 ebbc
00000070: 3de2 22bd 6d68 133d b159 f93c d772 84bc
00000080: cf69 1bbd b74b c6bc 999e 153c 0c54 5abb
00000090: 7471 463c 4278 143d 3553 9bbc 923d 2bbd
000000a0: 5b94 c9bc 4680 46bd 758b 343d 1c72 28bc
000000b0: aeb0 a23c 0c68 e53b 5cc5 a4ba 5980 98bc
000000c0: 8dd3 293b a8ee 0ebc 34ca 233d 188f d13c
000000d0: 4ce0 2ebb 699b be3c d3d7 99bc ea8e 0d3d
000000e0: 5856 0a3d 70be 9abc 1c08 c1bb 91b4 a43c
000000f0: 9fde 673b e925 b13c 582e dcbc b98f f73b
0.016048683 0.025459804 -0.032975033 0.033004116 0.0003597084 0.033735044 -0.037548453 -0.037791185
-0.080052264 -0.041739702 -0.0038279456 -0.004885992 -0.0012987952 0.024571994 -0.0037114453 -0.028394124
-0.018703192 0.019612828 0.001094924 0.013835619 0.011619815 -0.00940544 -0.022254076 0.031132502
-0.0155128045 0.016905237 -0.062896244 -0.028709548 -0.03976654 0.03598826 0.030438276 -0.016168041
-0.037942704 -0.024206026 0.009132051 -0.0033314256 0.01211201 0.0362475 -0.018960575 -0.041806765
-0.024606874 -0.048462175 0.04407831 -0.010281112 0.019859638 0.0070009287 -0.0012571025 -0.018615888
0.0025913448 -0.008723892 0.039987758 0.025580928 -0.0026683984 0.023267465 -0.01877967 0.03456012
0.03377375 -0.018889636 -0.0058908593 0.020105632 0.0035380495 0.021624522 -0.026877567 0.007554975

base.mlp.fc1.2.weight f4 [64]
00000000: fc33 833f 9a58 883f 47a6 7f3f 5b5b 893f
00000010: 69f0 823f 50b5 743f 1242 803f 01e4 7e3f
00000020: 9c2e 733f bc5b 803f afd6 813f b271 853f
00000030: 977a 793f 668d 863f a65f 7f3f 6057 7e3f
00000040: f0ca 783f 182a 753f a42a 813f 33ec 863f
00000050: 1c67 7c3f 22ea 733f 1f06 7a3f 206e 823f
00000060: 56e9 7e3f e46d 7c3f a2fe 7d3f 0a7d 6d3f
00000070: 1982 753f 43c8 863f 5714 843f 7549 813f
00000080: 1e9a 763f ca0b 7e3f 41f0 813f 57b5 7a3f
00000090: 7c6c 813f 5b9c 813f f0bb 7c3f d2e7 813f
000000a0: c852 813f a8db 753f 6c32 853f 8028 883f
000000b0: 0153 813f 5927 823f d2df 823f a515 6e3f
000000c0: d4ac 843f 80de 7a3f 74ac 843f bef8 813f
000000d0: 53d4 773f 261f 823f 2993 863f 2115 843f
000000e0: 2a0d 853f c14f 7d3f 2a77 7e3f 7562 853f
000000f0: 9c81 7e3f 7626 873f 0002 823f 422a 7c3f
1.0250239 1.0652039 0.99863094 1.0731004 1.0229617 0.9558916 1.0020163 0.99566656
0.94992995 1.0027995 1.0143641 1.0425322 0.9745268 1.0511901 0.9975532 0.99352074
0.9718466 0.95767355 1.0091138 1.0540832 0.9859483 0.95279133 0.9766559 1.0189857
0.9957479 0.9860518 0.99216664 0.9276892 0.9590164 1.0529865 1.0318707 1.0100542
0.96328914 0.9923674 1.0151445 0.9793295 1.0111232 1.0125841 0.9872427 1.0148871
1.0103388 0.96038294 1.0406013 1.063736 1.0103456 1.0168258 1.0224555 0.93001777
1.0365243 0.9799576 1.0365129 1.0154035 0.96808356 1.0165756 1.051366 1.0318948
1.0394642 0.9894982 0.9940058 1.0420672 0.9941652 1.0558612 1.015686 0.9850198

base.mlp.fc1.2.bias f4 [64]
00000000: d949 a63c 922a b3bb abde 17bd db0e 91bb
00000010: a676 f8bc 5974 d13c 0052 ff39 2d19 2bbd
00000020: 73d7 913b a6fb aebc c012 aabb b0e8 f8bc
00000030: f70f 3ebb 4457 063b b628 b5bb 83c3 04bc
00000040: a258 f03b e7cc f83c d009 9dbc 471f f8bc
00000050: e995 86bb 8e16 233d 6fb6 d6bc 4ad0 9a3c
00000060: dee0 04bc 578b 083c 6b10 36bd 6efa 47bb
00000070: 2bdf 17bd 88ba 0f3d 4c40 3ebc 4ca4 033b
00000080: ebe4 443c 9a2d 8a3c c4fe 3b3b 492a 343c
00000090: bc1e 8ebb 56f4 5a3d def0 34bd f792 92bd
000000a0: cc3d 8fbc 8d64 33bd af15 6c3c a1ad 55bc
000000b0: 03a3 653d 9728 063a 2dba 963b 4483 3a3c
000000c0: 2602 2ebc 1b4e f8bb 8191 073d b889 e53c
000000d0: 6b7d d03b 93c5 353c 819e fcba 6e71 a13d
000000e0: 58f6 653c f189 cd38 a785 cfbb ac32 8f38
000000f0: 70e2 a43c fe86 ea3b 49de 19bd d816 793c
0.020298885 -0.0054677213 -0.037077587 -0.0044268197 -0.030330013 0.025568174 0.00048698485 -0.041772056
0.0044507324 -0.02136023 -0.0051902235 -0.030384392 -0.0029001215 0.0020498792 -0.0055285348 -0.008103254
0.0073347846 0.030371143 -0.019169718 -0.030288352 -0.004107226 0.03981643 -0.026210038 0.018898148
-0.008110253 0.008334002 -0.04444925 -0.0030514258 -0.037078064 0.03509 -0.011612009 0.0020086942
0.012017469 0.016867448 0.0028685788 0.01099641 -0.00433716 0.053455673 -0.04417502 -0.071569376
-0.017485522 -0.043797065 0.014409467 -0.013041885 0.056063663 0.00051177427 0.0045998306 0.011383835
-0.010620629 -0.0075776703 0.033097748 0.028019771 0.0063626072 0.011094469 -0.0019273312 0.07882963
0.014035784 9.800855e-05 -0.0063330713 6.82821e-05 0.020127505 0.0071572056 -0.037565503 0.0152032

base.mlp.fc2.0.0.weight f4 [64, 64]
00000000: cc06 06be 262a 123e 72c8 8dbe 36c0 1d3e
00000010: 4eb0 863d b771 f9bd ceab 3f3e b2fc b0bd
00000020: 6eb8 0c3d d0f6 db3c 7e63 b2bd 5f3f 103e
00000030: 80c0 b8be 65f5 ed3d 9b24 da3d 460b 583d
00000040: 0c5b cdbd 3900 bbbd 141f 663d 795e 953e
00000050: b8af 6dbd 0758 4c3c fbd0 e3bd eeed 0c3e
00000060: b598 97bc 064c 24be 62bf 073f 47bb 863c
00000070: fd0a 70bc 3e71 16be 0f69 113e 8cff c63d
00000080: ed3d cb3e 93bc ed3d aab3 35be 5408 143e
00000090: d7cf b43e 3389 babe 58fe 0c3e 70e5 ebbe
000000a0: 7cf5 ddbd ed11 34be f27d e63d 1c28 71bd
000000b0: 33bc 10bd 2718 803d 6858 2d3e 1f1e 153e
000000c0: 73b1 fe3c 8d65 993e f0a4 17bd 41ad 053e
000000d0: 328b 8b3c 8637 033e bdea 01be 2c7c 80be
000000e0: 3fc0 8b3d 4176 be3d de86 cd3d bfd8 673d
000000f0: 8aeb 07be c3c8 d5bd 4ebc 383e 2d12 61bd
00000100: 6b46 2d3e 9ecb 333e bf7c 4f3d 50de 22be
00000110: adbc a43a 1108 06be 7922 8abe e059 c23d
00000120: d8ce 6ebe 311a c93d 76e2 cc3c a7ae a03e
00000130: 9b29 6f3d ffa4 bebd bb43 65bc 7957 9ebe
00000140: 136b 88bd 8609 f4bc 6ca0 963e a814 8fbe
00000150: 2afe 89be ad08 c1bd 46bd 12be 30d2 89bd
00000160: bf7f 70be 6063 e23c 3c5e 90bc 06d7 b03e
00000170: 17a1 1cbe 5b26 ccbd 98cd 27be 294e cdbb
00000180: 95c6 35be d1c0 9d3e fe52 b33e 2db9 543e
00000190: 9d3f f3bc 745e 16be c21c b0be aa07 99bd
000001a0: 66f5 813c 9e28 9ebe 38a5 853d a263 cf3e
000001b0: 0404 95bb 49dc 1e3d 31ae 55bd e42c 3bbe
000001c0: c0c2 1bbe 78e4 9a3e 73e3 303e 9e38 603d
000001d0: e467 64bd 9f3c 32be f32b 243d 13c2 6b3d
000001e0: 958a 513e 4ac1 833e 8f71 1f3e 7ba7 a63c
000001f0: 7117 c8bd ec65 9e3e f25d 0d3e 6768 cb3d
00000200: 72f3 203e 07db 983c 1aa2 81be ed8c a33e
00000210: c8de 1d3d a8dc dfbd 4768 2fbd d3cf cd3d
00000220: 8b19 bc3d 82e2 a9bd a886 48be 5fc3 b7be
00000230: 394d ebbd 6b66 48be 8253 093e 6f82 30be
00000240: 6c40 f6bd 73d1 263e b56a ac3d c9ac f13c
00000250: 9968 a83e af4e 973d b5c0 8f3d a252 b6bd
00000260: 89cd f83d 34f6 e0be a85b 673e e124 3fbe
00000270: c426 5fbd e1c4 00bd 0b47 313c 1b98 6bbe
00000280: bfc0 3a3e 74fe 7c3e c06c ca3e 11d2 633d
00000290: 8a0a dcbd fe70 40bc 4a8a 44bd 4ba7 f2bc
000002a0: fa16 1fbe 9220 b43e 3e1f 9cbe 2bb0 683e
000002b0: e4af 183c fa13 0dbe d76a 0fbe d219 213d
000002c0: ffd8 41be 829f dabd 36a8 a73e 6503 89bd
000002d0: d648 11be 980f 78be 0d19 023e 0cdc 2b3e
000002e0: c6eb acbd cb90 483b 09ff e53d cbe2 8abd
000002f0: 351d 43be 92c4 883d aef9 9cbe 11e8 82be
00000300: 3238 55bd 5482 fc3d 2f06 ce3e 235f 0d3e
00000310: 5411 323e 1266 d7bc 52c8 76be 09cf 273e
00000320: eee5 05be f5e2 96bd 0d1c e6bd 9a89 2a3e
00000330: d440 46be 9865 973d 6633 52be 9694 aa3c
00000340: eed4 353e 1a8b 82be a499 ad3d a5e2 8f3d
00000350: f6b0 a3be aed9 a13d 83e4 45be 7c2d 363d
00000360: 455a 593d eb04 46bd 8092 c33d 9e33 99be
00000370: 1b89 59bd 60fa 77be c2df 16bd 6490 903d
00000380: 0ebf dabd ebd2 63be 39b6 4f3b c639 a63d
00000390: 6ca7 9dbe c8e6 283e 9b58 753e 7a0d 9cbe
000003a0: 9e3f 79be 16af fb3d fa6c e5bd 9395 eb3d
000003b0: 28f1 4e3e 5ba6 da3d 5a9f 86be c82e 8a3a
000003c0: 30ae 8fbb 1e6e 87be f31e a5be e945 cabd
000003d0: 2843 a7bd 0750 8c3e e0cc e1bc 6aa8 2e3e
000003e0: d14a 9b3e 4d34 a6bc a18c 1e3d 69b0 fd3c
000003f0: 4c6d aabe 408b 2a3e 5419 85be d71f c33d
-0.1308853 0.14273891 -0.2769199 0.15405354 0.06576596 -0.121798925 0.18717882 -0.08641948
0.034355573 0.026851088 -0.08710383 0.14086674 -0.36084366 0.11619071 0.10651513 0.052745126
-0.100271314 -0.09130902 0.056181982 0.2917364 -0.058028907 0.012472159 -0.11123844 0.13762638
-0.018505434 -0.16044626 0.530264 0.016446723 -0.014651057 -0.14691636 0.14200233 0.097167104
0.39695683 0.11608233 -0.17744318 0.14456302 0.3531482 -0.364328 0.137689 -0.46073484
-0.10837838 -0.17584963 0.11254491 -0.058876142 -0.03533573 0.06254607 0.16928256 0.14562272
0.031090474 0.2996029 -0.03702253 0.13054372 0.017034147 0.1281415 -0.12687202 -0.25094736
0.068237774 0.09299899 0.100354895 0.05660319 -0.13273445 -0.10438683 0.18040583 -0.054948974
0.16921394 0.17558143 0.050656077 -0.15905118 0.0012568437 -0.13089015 -0.26979426 0.094897985
-0.23321092 0.09819449 0.025010329 0.3138325 0.058389287 -0.09308814 -0.013993199 -0.3092611
-0.06661048 -0.029789697 0.29419267 -0.27945447 -0.26951724 -0.09425483 -0.14330015 -0.06729543
-0.23486231 0.027635276 -0.01762306 0.3453905 -0.15295826 -0.09968253 -0.16387022 -0.006265421
-0.17751534 0.3081117 0.35024256 0.20773764 -0.02969342 -0.14684469 -0.3439694 -0.07472165
0.015864085 -0.30890363 0.065256536 0.405057 -0.004547598 0.0387843 -0.052168075 -0.18278843
-0.1521101 0.30252433 0.17274265 0.054741494 -0.05576314 -0.17405938 0.040080976 0.05755813
0.20463021 0.25733405 0.15570663 0.020343533 -0.09770096 0.30937135 0.13805369 0.099320225
0.15717867 0.018659128 -0.25318986 0.31943455 0.03854254 -0.10930759 -0.042824056 0.10049405
0.091845594 -0.08295156 -0.19582617 -0.35891244 -0.114893384 -0.1957032 0.13410762 -0.17237256
-0.12024006 0.16290836 0.0841879 0.029501336 0.32892302 0.073880546 0.07019178 -0.0890248
0.12148578 -0.43937838 0.22593558 -0.18666412 -0.05448033 -0.03143776 0.010820161 -0.23007242
0.1823759 0.24706441 0.39536095 0.055620257 -0.10744198 -0.011745689 -0.047983445 -0.029620787
-0.15536109 0.351811 -0.30492586 0.22723453 0.009319279 -0.13777152 -0.140056 0.039331265
-0.18930434 -0.10674955 0.32745522 -0.066901006 -0.14187941 -0.24224699 0.12704869 0.1678316
-0.08443408 0.0030603881 0.11230285 -0.067815386 -0.1905411 0.06678118 -0.3065924 -0.25567678
-0.052055545 0.123295456 0.40239093 0.13805823 0.17389423 -0.026293788 -0.24099854 0.16387571
-0.13075992 -0.07367507 -0.11235819 0.16654053 -0.19360667 0.07392424 -0.2052742 0.020822804
0.17757007 -0.2549675 0.0847657 0.07025651 -0.31970948 0.07902847 -0.19325452 0.04447697
0.053064603 -0.048344534 0.09549427 -0.29922193 -0.05310927 -0.24216604 -0.036834486 0.0705879
-0.10680972 -0.22248428 0.0031694307 0.08116488 -0.30791795 0.16494286 0.23959582 -0.30479032
-0.24340674 0.12289254 -0.11202426 0.115031384 0.20209181 0.10676261 -0.2629345 0.0010542506
-0.0043847784 -0.264512 -0.32250175 -0.098766156 -0.08167106 0.27404806 -0.027563512 0.17056432
0.30330518 -0.02028861 0.038708333 0.030967908 -0.33286512 0.16654682 -0.25995886 0.09527557

base.mlp.fc2.0.0.bias f4 [64]
00000000: d6de a0bc 7aa6 9b3c 47c5 593a 4168 ca3b
00000010: e260 63bc a8b6 8a3c 7e39 dbbc 37e1 d7ba
00000020: 8e97 90bc 35c5 0d3d ffe8 36bc d548 333b
00000030: 61a0 2abd dd0c 3f3d 8014 22bd 3ce4 22bd
00000040: b613 35bd 5d88 8dbc 391e 693a f80a ccbc
00000050: a36d 5c3a 9662 8abb 9c15 3cbd 46d6 1cbd
00000060: 8ef7 53bc 7a80 86bc db3e 09bd 1502 b33b
00000070: c544 b43c de72 dd3b 8c54 b2bc e845 b73b
00000080: 56e4 f4bb 1c6b 103c 1e4e e1bc dabc 60bd
00000090: b5f0 a03d 1171 ebbc 5f37 63bd 7ee1 f73c
000000a0: 93f8 e83b bd93 243c f3ff b4bc 4f10 15bd
000000b0: be32 763c 731a 523c 5e10 34bc fc9a 38bd
000000c0: 8f98 53bc 3e70 213c a7f7 14bd 4666 7d3c
000000d0: c09b d1bb 5ffe d7bb e49f fcba c8f2 173d
000000e0: e633 9a3b aff6 2fbc 54dd d13b e542 953b
000000f0: d90c 9fbc 06ac cfbc 6f7b 80bc 64ec 423d
-0.019637506 0.01900028 0.00083072897 0.006176979 -0.013878079 0.0169328 -0.026760813 -0.0016470317
-0.017650392 0.0346119 -0.011163949 0.0027356644 -0.041656855 0.046643127 -0.03957033 -0.039768443
-0.04420825 -0.017276937 0.0008892748 -0.024907574 0.0008408671 -0.004223178 -0.045919046 -0.038290285
-0.01293744 -0.016418684 -0.03350721 0.0054628947 0.022005448 0.006758078 -0.02176883 0.0055930503
-0.007473509 0.008814599 -0.02750307 -0.054867603 0.07858411 -0.028740438 -0.055472728 0.03025889
0.0071097105 0.010044989 -0.022094702 -0.036392506 0.015026746 0.012823689 -0.01099023 -0.04506968
-0.012914791 0.009853421 -0.036368992 0.015466278 -0.0063967407 -0.0065916027 -0.0019273725 0.03709677
0.004705894 -0.010739966 0.006404558 0.0045550936 -0.019415306 -0.025350582 -0.015683858 0.04758872

base.mlp.fc2.0.2.weight f4 [64]
00000000: 8bd2 853f ff20 883f f57d 893f cc3b 803f
00000010: 32ba 873f c3a5 893f c62c 873f b8dc 873f
00000020: 1cd4 873f e248 883f 237b 883f 2305 873f
00000030: c762 823f 6a50 853f db8c 853f ec98 833f
00000040: 0a9e 833f 23c2 863f 6743 803f 1297 853f
00000050: a6a1 843f 9f4d 853f 412b 873f 66af 873f
00000060: d137 803f e0a2 853f ff1a 823f fd23 863f
00000070: fe1f 8a3f fdcf 863f e6cd 883f 0846 853f
00000080: 9d87 883f 1c1a 873f 6639 8a3f d535 873f
00000090: bca9 803f 965a 823f b8d6 7c3f 666f 873f
000000a0: bec6 903f 3e7e 833f 9255 843f 42c4 853f
000000b0: 85f0 863f a098 823f cd2a 883f 38e1 823f
000000c0: e2c6 843f ab9b 883f 2ecc 813f f98b 813f
000000d0: 3e99 883f 6893 873f fc7b 833f b4d2 863f
000000e0: 6a0c 883f 290e 863f 90fa 853f 57ed 803f
000000f0: 1cfc 7b3f cae9 823f 4ce9 843f 3c02 813f
1.0454878 1.063507 1.0741564 1.0018249 1.0603697 1.0753711 1.0560539 1.0614233
1.0611606 1.0647242 1.0662578 1.0548443 1.0186394 1.0415165 1.0433611 1.0281043
1.0282605 1.0527996 1.002057 1.0436728 1.0361831 1.0414313 1.0560075 1.0600402
1.0017034 1.044033 1.0164489 1.0479733 1.0791013 1.0532223 1.0687835 1.0411997
1.0666386 1.0554843 1.0798767 1.0563303 1.0051799 1.0183895 0.98765135 1.0580871
1.1310651 1.0272901 1.0338614 1.0450518 1.0542151 1.0202827 1.0638062 1.0224981
1.0373194 1.0672506 1.0140436 1.0120841 1.0671766 1.059186 1.0272212 1.0533051
1.0628788 1.0473071 1.0467091 1.007243 0.98431563 1.0227597 1.0383697 1.0078807

base.mlp.fc2.0.2.bias f4 [64]
00000000: 1876 40bc 3333 e7bc 2354 b4bc 913d 6c3c
00000010: ee4e f9bc 8db5 05bd 27fb 89bc 21db c7bc
00000020: 78ba dc3c a15b fc3c 58be 16bc 173d ca3b
00000030: ab43 b1bc 6393 a6bb a334 f03b d660 8ebc
00000040: 46af 933c 3074 893c 54bf 8a3c a6c9 c9bb
00000050: d8c0 d2bc 856d d43c f661 9d3c 1816 2ebd
00000060: 4d14 ed3b 1a72 59bc 761b 8c3c 1185 923c
00000070: 1bbb 283d bb35 9b3b a52d c9bb 9029 10bd
00000080: f104 473a 9dab 3dbc f29c b03c 9abb cdbc
00000090: a86c 0f3d b521 743c 9fee 7bbb 614f 85bb
000000a0: 7d79 30bd f124 e5bc c1cb dfbc b5c2 9cbc
000000b0: 806c c13c 1221 4dba ffe9 1fbc 7436 ad3c
000000c0: 600d b0bc 4409 6e3c 4df0 06bd 0ac8 f53c
000000d0: fc45 983c 055f 913c 433c d1bc 612d 8a3c
000000e0: da5a 223c 0ed5 92bc de0e 0b3c cfd0 4f3b
000000f0: 8dd3 8a3c 57c9 9d3b 75b4 2539 4454 18bc
-0.011746906 -0.028222656 -0.022012776 0.014418975 -0.030433144 -0.032643843 -0.016843392 -0.024396481
0.026944384 0.03080541 -0.009200655 0.0061718333 -0.021638712 -0.005083488 0.0073304935 -0.01738016
0.018027913 0.016779035 0.016936935 -0.0061580716 -0.02572672 0.02593113 0.01921175 -0.04250154
0.007235086 -0.013271833 0.017102938 0.017885717 0.041194063 0.00473663 -0.0061394745 -0.035195887
0.0007591984 -0.01157656 0.021559212 -0.02511387 0.035015732 0.0149006145 -0.003844179 -0.0040683006
-0.04308461 -0.027971717 -0.027318837 -0.019135812 0.023611307 -0.0007825057 -0.009760379 0.02114413
-0.021490753 0.014528576 -0.032944012 0.030002613 0.018588059 0.017745504 -0.02554143 0.016867341
0.009909356 -0.017923858 0.008487431 0.0031710153 0.016946578 0.0048152613 0.00015802852 -0.009297434

act.action_out.fc_mean.weight f4 [2, 64]
00000000: 46b2 2cbc 4bd4 b53c 6e4a 92bd f2f2 4b3c
00000010: 0dad 81bd 6db0 6ebd ea76 99b9 8091 48bd
00000020: f2be 06bc ce19 203d 21f0 823c eb6a 08bd
00000030: 9b86 d43a 36d0 a8bc 0bfd 363d 8626 8ebb
00000040: f2b4 c73c 2399 cf3c 5011 58bc 186c adbc
00000050: decf 04bd 2a28 193d c953 553d 0fc7 5cbd
00000060: 2412 543c 39a6 c73c 65ac 9b3c 7c1c 2c3d
00000070: fc08 863d 1396 b23c e19d c3bc c8b7 dcbc
00000080: 1170 5ebd f946 1fbd 1f36 433d 02da 61bd
00000090: 62b2 093c 0a28 a33c df00 43bb f5be 0dbd
000000a0: c6a0 d6bd 7d4d f0bc 4d4c b53b 9de3 0ebd
000000b0: c0d1 443d 26fb 1abb ecc1 48bc f196 093d
000000c0: 3c4d 49bc 2ece ac3c b2ce b1bc f942 963c
000000d0: 9eae 0f3d 8bc8 4d3d e6a2 a0bc ef36 0abd
000000e0: 39ee 493d a80c bbba 7546 673c 7868 d3bb
000000f0: b69c 1bba 3287 e23c cdb2 f6bc 906e 0cbc
00000100: 6530 143d 2af2 6cbd 8e5d 3c3b a6a7 b0bb
00000110: b233 1a3c bfb3 173c 344f 59bd 987a 143d
00000120: d2c2 523d 07c4 283d 95a3 6b3d 031c f13c
00000130: 1777 c13c ca72 113d 800f 473c 1a62 21bd
00000140: 78ec 8dbc b32e 313d 42d0 f7bb 1447 e23c
00000150: df68 2a3c 6c4a 493c a326 bebb 4a0f ef3b
00000160: 1cc1 99bb d561 f93c 2345 a0bc 6115 e8bc
00000170: b041 763c e024 1c3d ceb7 70bd fcd5 09bd
00000180: 1485 71bc 0e27 bbbc 3bf3 60bd 42de 36ba
00000190: 47d9 02bc 2d1b 46bc b13f d33b c8ab 22bd
000001a0: 77c3 0bbd 562f 243b f6c7 133d d784 14bd
000001b0: a53d 8b3c 0e10 e1bc 3898 69bd c46a eabb
000001c0: 9338 ba3c a4f1 5fbd 1946 d2ba 612e 59bb
000001d0: 60a9 653d 568c cdbc eaa7 c1bc f44e 0b3d
000001e0: d560 0abd b493 343d cc55 583d 8f9f 37bc
000001f0: aec8 16bc 3a2d 28bb 3a0e e13c 1ee0 3abc
-0.010540551 0.022195956 -0.071431026 0.012448059 -0.06331835 -0.05827372 -0.00029271032 -0.048966885
-0.008224236 0.03908711 0.015983643 -0.03330509 0.0016214432 -0.020607095 0.044674914 -0.0043380884
0.024378274 0.025341576 -0.013187721 -0.021169707 -0.0324248 0.03739182 0.052081857 -0.053900775
0.012943778 0.024371253 0.019003103 0.042019352 0.065446824 0.021800077 -0.023878993 -0.026943102
-0.054306094 -0.038886044 0.047659036 -0.05513955 0.008404346 0.019916553 -0.0029755158 -0.03460594
-0.10479884 -0.029333824 0.0055327774 -0.034885038 0.048051596 -0.0023648231 -0.012253266 0.033591215
-0.0122864805 0.021094408 -0.021705005 0.018342482 0.035078637 0.05024008 -0.019608926 -0.033743795
0.049299452 -0.001427074 0.014115919 -0.0064516626 -0.00059361325 0.027652357 -0.030114556 -0.008571282
0.036178965 -0.057848133 0.0028742286 -0.005391079 0.009411739 0.009259163 -0.05305405 0.036249727
0.051455326 0.04120257 0.05752905 0.029432302 0.023616357 0.035509862 0.012149692 -0.039400198
-0.017324671 0.043257426 -0.007562668 0.027621783 0.01040098 0.01228581 -0.0058029457 0.007295524
-0.00469221 0.030442158 -0.019564217 -0.028330507 0.01503031 0.038121104 -0.05876904 -0.033651337
-0.014741201 -0.022845771 -0.054919463 -0.0006975868 -0.007986373 -0.01209144 0.0064468016 -0.039714605
-0.034121957 0.0025052628 0.03607937 -0.0362595 0.016997168 -0.027473476 -0.057029933 -0.0071538407
0.022732055 -0.054673806 -0.0016042619 -0.0033139216 0.05606973 -0.025091331 -0.023639638 0.034010842
-0.033783752 0.044086173 0.052816197 -0.011207475 -0.009203119 -0.0025661723 0.027472604 -0.011405973

act.action_out.fc_mean.bias f4 [2]
00000000: 6a93 093d ab88 293b
0.03358785 0.0025868814

act.action_out.logstd._bias f4 [2, 1]
00000000: 033a e5be 89fc 07bf
-0.44770822 -0.53119713
