checkpoint/best_mappo_seed112_run20260210_235946_envmamujoco-swimmer-2x1_ep6400_actor.pt (torch, 27042 bytes, 11 tensors)

base.feature_norm.weight f4 [6]
00000000: 0f57 743f 7cd7 813f bcb4 6b3f afaf 873f
00000010: cf9d 8c3f 3ffe 743f
0.9544534 1.0143886 0.92072654 1.0600489 1.0985659 0.9570045

base.feature_norm.bias f4 [6]
00000000: c5b7 0dbc d6e2 573b 2bd0 9dbc 7378 f8ba
00000010: 0c56 8b3b 7ed5 27bc
-0.008649771 0.0032941601 -0.019264301 -0.0018956795 0.004252201 -0.010243772

base.mlp.fc1.0.weight f4 [64, 6]
00000000: 1207 4b3e cb95 e83c 3185 86be f4d3 dbbc
00000010: 84c1 46be ded1 27be 105f 353e d0e4 afbd
00000020: 47ff 393c 7fc9 953d 0046 e53d e206 1f3d
00000030: f60c c43d b127 61be b1f4 44be fc75 183e
00000040: 7f95 8bbe ba93 1f3e f071 043d 4e4f 263d
00000050: d5d3 4fbe 9fc3 eabd db4f 823e eb25 773c
00000060: 9095 a93e c210 90bd 862a bbbd ac48 d0bd
00000070: 4c2e b83d 8cb6 6b3e aea3 37be 045a be3e
00000080: bbaf 543e dd7e 9fba 5beb 24be 5b0a ba3c
00000090: 8e0b 28bd 0d10 ba3d 33ab e3bd aee1 05be
000000a0: c8af ba3e 2df7 ec3b d4d3 333e 354a 423d
000000b0: ceb8 b93b 58f0 ddbd eaa2 983e 2b75 563e
000000c0: a179 813e 0a52 4d3d 5f1b 00be 2a6c c3be
000000d0: 9dea 8dbd 3e27 5e3d 05bc c9bd 9034 35be
000000e0: 089c 5a3e f3ce 22bd 8289 c8bd 8a21 a53e
000000f0: 684f d7be dcef d4be 60f2 85be 5bdc aebd
00000100: 4755 c43e b221 a43c aa46 26be f608 7a3e
00000110: 1c84 c63e d156 8a3e e00e 24be f997 da3d
00000120: e6a1 f63d 4db2 2b3e 5fa4 27bd 86a6 2ebd
00000130: e86c adbb a50e c4be 5d95 52be 7c7d ea3d
00000140: e71b a23d f2a1 a93d 1695 90be b5c2 32be
00000150: 5fdf 78bd eeea f83d f7a5 b53c 690e fe3d
00000160: e453 31bd 6b30 a13e 53fa 163e 14b0 f03c
00000170: 9a5e 29bb 6333 0b3d 725e e43d b628 8f3d
00000180: 513c a0bd 073b 4f3e dadf 20be 5f54 343e
00000190: 35b2 ef3d acb0 34be f253 30be 814d 9d3e
000001a0: e066 063d 3ebd 6fbe cb26 a93d ae96 883e
000001b0: 8a51 8d3e ea1f 883e a899 f7bd b5c5 8c3e
000001c0: 3be7 72be 86e4 88be 3376 22bd a3c9 3b3e
000001d0: 0374 583e d414 273e 1406 c73e 16e6 5fbd
000001e0: ad71 863d 7f08 45be e413 623d bde4 d83d
000001f0: 7383 75be 7c5a 273a 950e 52be 2ff8 b5be
00000200: 8757 80be e30f ac39 93d9 153e 03b0 4bbd
00000210: ffa1 c43d adba 96bd be32 3dbe 3628 b53c
00000220: a95c c8ba ef8a 0cbd cf47 333e e154 b63d
00000230: 8b22 febd f819 a43d 48ca b1bd de9f 443e
00000240: 96b4 2a3e 68bb 283c 9b71 8ebd 0b45 683e
00000250: c119 f8bc 3c32 ce3d 08e5 073d 34cb b73c
00000260: 2045 bd3c 32af 033f b0f5 2d3d 53c0 023e
00000270: befd ab3b 39ca b83d 4c08 b3be 99b4 6d3d
00000280: 5f98 6abe 68b3 a1bb 1f38 09be ffa8 183d
00000290: 7f3e bbbe d527 243e 07c4 efbe 922d d5bd
000002a0: c919 f4bd b005 37bd 179b d4bd 4bf6 debe
000002b0: 1b84 02bd d1f8 2bbe 1933 63be a1f4 963d
000002c0: 74f8 bbbe 3137 c1bd 9dac bf3c 162e 1a3e
000002d0: 262d 7ebd 1742 083f 1182 a3bc a999 99be
000002e0: f4ac ea3b 1c96 593e 185e 33be d759 a6be
000002f0: 98d5 1e3e f96f db3d 0ed6 2abe b814 f23d
00000300: 84f1 fb3d c2a2 f93c 87a6 133e c320 f8bd
00000310: 07da 0e3e b7fd 153e 5212 c93e 4835 75be
00000320: d6c6 c93d f08e a7be 5f82 4a3c b14a 57be
00000330: 5a5d 14bc 08df 22bd 38fd 6fbd 9067 68be
00000340: 6d40 cb3e d9e6 d4bd 56ef 423e 4e52 0cbd
00000350: 3206 c83b 697d bbbd b3c4 2d3e 034d 5d3e
00000360: 9f12 aa3e 3320 e9bd a62c 3ebe b78d 1c3e
00000370: 6cee 643e 225c 633c ccb7 4b3c f194 17be
00000380: 5d31 7e3c 8b96 7d3e 8281 4f3d 322c 513e
00000390: c676 19be 6300 3d3e a958 6dbb 85c9 a83e
000003a0: 5133 75be 4978 233e 2a0f 2bbc ec10 f73d
000003b0: 0235 23be 963b 4bbe 216f e43d c92f 9a3d
000003c0: 9468 43bc 1dc0 a7bd 15fe 57bd 9eeb e13e
000003d0: 58c0 a03e da0e 6dbd 26ce 623d 98f8 123e
000003e0: af0f f8bd 3ccd 163e d4af eb3d 1c41 2b3e
000003f0: 35cd 643d 8d53 5d3e 9789 c73d 02c4 be3d
0.19826916 0.02839174 -0.26273492 -0.026834466 -0.19409758 -0.16388652 0.17712045 -0.085885644
0.011352367 0.07313823 0.11194992 0.038824923 0.095727846 -0.21987797 -0.19233967 0.14888757
-0.27262494 0.15583697 0.03233522 0.040602975 -0.20295651 -0.11463093 0.2545155 0.015084724
0.3312192 -0.07034446 -0.0913897 -0.10170111 0.089932054 0.23018855 -0.17933533 0.3717805
0.20770161 -0.0012168546 -0.16105406 0.022710016 -0.041026644 0.09085093 -0.11116638 -0.13074371
0.36462235 0.007231614 0.17561275 0.04743405 0.0056677824 -0.108368576 0.29811794 0.20943134
0.25288108 0.050127067 -0.12510441 -0.3816846 -0.069295146 0.054236643 -0.09850315 -0.17695832
0.21348584 -0.039748143 -0.097918525 0.3225215 -0.4205277 -0.41589248 -0.2616148 -0.08538123
0.3834631 0.020035598 -0.16237894 0.24417481 0.38772666 0.2701936 -0.160213 0.10673518
0.120425984 0.16767235 -0.04092824 -0.042639278 -0.0052925237 -0.38292423 -0.2056479 0.114497155
0.07915478 0.08282842 -0.28238744 -0.17457087 -0.0607599 0.12154184 0.022173865 0.12405092
-0.043292895 0.31482252 0.14743929 0.029380836 -0.002584374 0.033984553 0.111508265 0.06990187
-0.078240044 0.20237361 -0.15710393 0.1761031 0.11703912 -0.1764552 -0.17219523 0.30723193
0.032812953 -0.23412034 0.08259352 0.2667746 0.27601272 0.26586848 -0.120898545 0.27494588
-0.2372102 -0.2673685 -0.039663505 0.18338637 0.21138005 0.16316539 0.38871825 -0.054662786
0.06564651 -0.19241522 0.05519475 0.10590503 -0.23975925 0.00063840277 -0.20513375 -0.35540912
-0.25066778 0.00032818233 0.14633779 -0.049728405 0.09601211 -0.07359824 -0.18476388 0.0221139
-0.0015286404 -0.034312185 0.17507862 0.08902908 -0.12408932 0.08012766 -0.0868116 0.1920161
0.1667045 0.010298587 -0.06955262 0.22682588 -0.030285718 0.10068175 0.033177406 0.022435762
0.02310425 0.514392 0.042470634 0.12768678 0.0052487543 0.09022946 -0.34967268 0.05803356
-0.22909687 -0.004934717 -0.13400315 0.037270542 -0.36571118 0.1603082 -0.46829244 -0.104090825
-0.11918981 -0.04468316 -0.103811435 -0.43547282 -0.031864267 -0.16794135 -0.22187461 0.07370878
-0.36712992 -0.09434355 0.023397738 0.15056643 -0.062054776 0.53225845 -0.019959481 -0.30000046
0.007161731 0.21248668 -0.17516363 -0.32490417 0.15511167 0.107147165 -0.16683218 0.11820358
0.12301925 0.030473117 0.14418994 -0.12115624 0.13950358 0.14647566 0.3927179 -0.23946106
0.09852378 -0.3272624 0.012360184 -0.21024586 -0.00905546 -0.03976348 -0.058591098 -0.22695756
0.3969759 -0.10395593 0.19036612 -0.03425818 0.006104254 -0.091547795 0.16969566 0.21611409
0.33217332 -0.11383095 -0.1857172 0.15288435 0.22356576 0.013876947 0.012433957 -0.1480291
0.015514699 0.24764459 0.050660618 0.20427015 -0.14986715 0.18457179 -0.0036216176 0.32966247
-0.23945357 0.15963854 -0.010440627 0.120637745 -0.1593819 -0.19846949 0.11154009 0.075286455
-0.011926789 -0.081909396 -0.052732546 0.44125074 0.31396747 -0.05787549 0.05537238 0.14352643
-0.121123664 0.14726728 0.11508146 0.16724056 0.055859763 0.21613903 0.0974304 0.09314729

base.mlp.fc1.0.bias f4 [64]
00000000: d257 c1bc 7351 3fbc bc95 cabc df18 c83c
00000010: 7f68 3bbc 5532 d93c 219c fa3b 9b9c ed3b
00000020: 66de 633d f8b0 40bd a0ef 1c3d 6d24 4a3c
00000030: f499 37bd 7faf c53c f0ca 0ebd 59fb 96bc
00000040: c596 a73c 4734 2dbd ff77 973d eab6 bc3c
00000050: 13e4 723d 5152 82bb 94fe 243d 49f3 e03c
00000060: 8efd 703c 6c64 bcbc 8330 10bc b04a 60bc
00000070: dd5a 2c3d 3ded cabd ebdf 4c3d e269 8abb
00000080: 6c9a 46bd 8fd5 77bd 6813 a83c b7a2 4e3d
00000090: e43b 233d a24b 5cbd 7782 e43b 0b38 5f3c
000000a0: a945 19bd eefb 3cbd 3fc2 2bbd 5c3c 73bb
000000b0: b6c1 c6bd b285 bd3c e330 ee39 17ee 5abd
000000c0: dda4 6f3d 6a3a ad3d 18e5 34bd f747 573d
000000d0: bdfc 353c eb5d 84bd cb61 b13d 0fad fcbb
000000e0: 111a 35bd d5a4 febc 93db 87bd d5fe c23c
000000f0: c31f c53c fa0b ec3c 001d 97bd 39d5 3ebd
-0.023601446 -0.011677134 -0.024729602 0.024425922 -0.011438488 0.026513258 0.0076480065 0.007251335
0.055632018 -0.04704377 0.03831446 0.012337786 -0.044824556 0.024131535 -0.034861505 -0.018430399
0.020457635 -0.042286184 0.07395934 0.023036439 0.05929954 -0.003977098 0.040281847 0.027459757
0.01470889 -0.022997104 -0.008800629 -0.013689682 0.04207884 -0.09908531 0.050018232 -0.004224048
-0.048487112 -0.0605064 0.020517066 0.050448146 0.039852038 -0.053783067 0.0069735604 0.0136242015
-0.03741995 -0.046138696 -0.041933294 -0.0037114834 -0.09704916 0.02313504 0.0004543132 -0.053449716
0.058506835 0.08458407 -0.044163793 0.052558865 0.011107621 -0.06463226 0.08661231 -0.00771106
-0.044214312 -0.031084457 -0.06633677 0.023803154 0.024062997 0.028814305 -0.07378578 -0.046590064

base.mlp.fc1.2.weight f4 [64]
00000000: 6401 743f ce18 793f 4508 843f fc17 813f
00000010: 7685 773f 91d2 6d3f 43db 873f 40af 803f
00000020: b24a 863f f97e 713f cef3 823f 7a9e 803f
00000030: b71f 833f e3c8 7c3f 9ca1 853f 781b 703f
00000040: 3e6a 7f3f ceca 803f e996 7c3f e2a9 713f
00000050: 3284 833f 5f41 793f d38e 743f 43ca 7a3f
00000060: 4382 7f3f bae9 7e3f b906 7d3f 4cf3 833f
00000070: 8193 833f 024b 743f f225 853f bf65 713f
00000080: db10 843f b2da 823f 1a7b 8b3f a62f 7f3f
00000090: 8588 783f a9e0 823f 1c02 8c3f 80f0 803f
000000a0: 5e70 653f 08de 7b3f ef01 803f e76b 833f
000000b0: edab 793f 474e 7f3f 33d9 823f 3aa4 803f
000000c0: f602 8c3f 8bf2 753f fbda 763f dc89 873f
000000d0: 71ac 733f 91a0 8e3f 7dd7 7e3f 9276 833f
000000e0: 4a85 7c3f 634e 813f 6264 7a3f 1471 823f
000000f0: d378 7f3f 1347 803f c345 6b3f 1fa6 863f
0.9531462 0.97303474 1.0315024 1.0085444 0.9668802 0.92899424 1.0613788 1.0053482
1.0491545 0.9433437 1.0230653 1.0048363 1.0244054 0.9874403 1.0439944 0.93791914
0.9977149 1.0061891 0.9866777 0.94399846 1.0274718 0.97365373 0.9553043 0.97964877
0.9980814 0.9957539 0.9883838 1.0308623 1.027939 0.9542695 1.0402205 0.9429588
1.0317644 1.022299 1.0896943 0.9968208 0.9708331 1.0224811 1.0938144 1.0073395
0.89624584 0.9838567 1.000059 1.0267304 0.9752796 0.99728817 1.0222534 1.0050118
1.0938404 0.96073216 0.9642789 1.0588946 0.95185 1.1142751 0.9954756 1.027056
0.9864088 1.0102047 0.9780942 1.0190759 0.9979374 1.002169 0.9190332 1.0519446

base.mlp.fc1.2.bias f4 [64]
00000000: 1155 a83a 409f 053d 5a2d 87bc 4221 eb3b
00000010: 982b 5d3d 01eb a53d 246d 5fbc a4b1 2dbc
00000020: 942a 523c 1091 78bd 7a2b e8bc ced6 443c
00000030: c1d1 bbbd 0227 72bc 8abd 80bd cc2a 343d
00000040: 276a 6a3a 2357 abbc fd35 c23b e75c 4d3d
00000050: 2b88 ae3c 42ee 633d 062e 853d cbcc 34bc
00000060: ac68 b5bc 89e4 2f3c 74d2 aabb 2819 8b3c
00000070: 7389 553c 0cfb bebd 9a64 51bc 58e5 1a3d
00000080: b6ee a1bb 3440 35bd 5041 aebc 52d0 ab3b
00000090: 88ab c63c 8dde 543c e128 9dba 93c4 693d
000000a0: 6dbe a4bc e28f 39bd a6cf 7abd de1a 29bd
000000b0: 97ec b5bd dd2b 053c 7d30 8b3c 244d 0fbd
000000c0: 775d fabb 2cb6 b23d 0d72 cf3c 4b25 82bc
000000d0: f62a f43b 8b16 77bd c18b 213d dab3 afbb
000000e0: 2a33 5ebd c976 d8bb 7b3e 85bd 6047 353d
000000f0: 5361 04bd 0998 8a3d d89c 8ebd f951 d6bd
0.0012842735 0.032622576 -0.016501117 0.0071755955 0.053996652 0.08101464 -0.013636861 -0.010601435
0.012827534 -0.060685217 -0.028341044 0.012014104 -0.09170867 -0.014779808 -0.06286152 0.043986127
0.00089422095 -0.020915573 0.005926846 0.050137427 0.021305164 0.055647142 0.06502919 -0.011035155
-0.022144638 0.010735639 -0.0052130762 0.016979769 0.013033259 -0.09325227 -0.012780333 0.037816375
-0.0049417866 -0.044250682 -0.021271378 0.0052433396 0.024251714 0.012992513 -0.0011990332 0.057072233
-0.020110333 -0.045303233 -0.061233185 -0.04128539 -0.088830166 0.008128134 0.016990894 -0.034985676
-0.0076405364 0.08726153 0.025322938 -0.015886923 0.0074514104 -0.060324233 0.03943992 -0.005362016
-0.054248013 -0.006605957 -0.06506058 0.04425752 -0.032319378 0.0676728 -0.06963509 -0.10464854

base.mlp.fc2.0.0.weight f4 [64, 64]
00000000: 00e5 0c3e 604b 0d3e 1811 1fbf 4b5a 03be
00000010: 2cff 013e 24be 51bd aaa6 933b e439 15be
00000020: 565e 4abe 82e4 793e 033c 4cbe 782b e23d
00000030: 4f4e 5d3d 2e78 55be 216c 173e e9a1 b6bd
00000040: e2a9 0b3e d773 8cbe b574 65be 00f8 90be
00000050: ede2 503e 9afa 0f3e 07ee e63d 1fb2 20be
00000060: 2ece 123d 9dd8 b8bc 9758 0a3d 875a 973d
00000070: 0cf6 ca3c d2c4 383e 27a5 02be 1f5e ffbd
00000080: 71c8 00be 2e64 363e 33ef 28be b627 0dbc
00000090: 8e79 43bd b3d9 1cbe 5ec6 ee3e 5b4c 953c
000000a0: 9d2e 6c3d 809e 3f3d 8c3e 20be 3958 253e
000000b0: fa2d 81bc 4632 1ebe 071f c73d 13fc fcbc
000000c0: 921b 8c3e e926 7dbd 29f6 d4be 97fc 7c3e
000000d0: a5fa aebd b6a0 a4bd 5903 383d 2218 363d
000000e0: 51b8 bfbc a8c0 1c3e a32a a63d 0300 46be
000000f0: 5114 8b3d 395c 6a3d a18f 8d3c 3878 8d3e
00000100: d0de 4fbd 5597 c8bd 848c 4e3e e6f0 01bf
00000110: 3e8f 713d a307 ab3d 848a 223d 29ee 02bd
00000120: cfc6 b03e df60 9abe ef2e 07bf e236 603e
00000130: 6961 8a39 5ca0 9b3d 6bef 3bbe d233 06be
00000140: 7b73 1abe 1ca6 a83d 79a1 30be 0c6a 11be
00000150: 34f8 b6bc 5b9f 32be 04f8 2c3e c75e b5be
00000160: d997 3f3e a1f9 183e 071f e33d 01a3 903e
00000170: 24e7 1fbd 4426 6f3e ee13 193e 482c 0fbe
00000180: d0f9 12be 8c78 0a3e ed78 f13d b2df 36be
00000190: 3853 21be aeb0 07be 2c99 613d bcce 2a3d
000001a0: be3e 6ebd cc66 9e3e 5861 953d 8d0f 18be
000001b0: c138 b63e c57b febd d15c 60bc 1821 2d3e
000001c0: cc9b 023e 27ce 623e a242 043d 1c7c 5a3e
000001d0: 3df1 673e 42b9 03be ae89 1d3e 3893 5c3d
000001e0: 855e 2dbd 6d61 08bd 5dd9 95be 1a74 943d
000001f0: 80e6 4f3e 166d 6c3d 9e7f 143d 42e5 64be
00000200: 2bfc 2b3e 880b 133d 0f07 2b3e 1f08 ae3d
00000210: bc72 32be b3d8 f73d b16c 8a3d c349 69be
00000220: 8ed5 13be 0400 433e 5987 e1bd ad82 603e
00000230: bfd3 f1bd f3c2 7cbb 53d2 e53d bc3b 08be
00000240: 3421 2ebd a14a 8abd aa8b 7abd 4c5e 8fbd
00000250: 1c8b 48be 59f4 69be 56bc 133e f596 6a3e
00000260: 48fe 81bd 3e62 e5bd 4b47 cdbd cf07 ebbd
00000270: 09a5 e83e 0c47 cbbd a09a 3d3e e850 8dbd
00000280: f8cb b2be 0fad 8ebe 49cc c9b9 88ca fbbd
00000290: 6e3a 2dbe 6a33 833d 6ce8 d6bb 8f46 e3be
000002a0: 8838 ddbd 2c02 90be 3bab 03be cc8e 8b3d
000002b0: d591 a93d 35e0 87bd 4f87 76be e813 9d3e
000002c0: 74b5 493d c889 ae3d 3236 5bbe f05c 45be
000002d0: 0092 e73d 5d4d 65bd f0d8 b33d f652 143e
000002e0: 593a 3abe 6117 45be e4a3 15be 2ee1 d23d
000002f0: 4c6b 0b3e 0843 1e3d 08cb 00be 66eb 963c
00000300: 45d4 13be ec53 463e a157 343e 3307 963c
00000310: 7c55 223d fe60 89bb 6bce 3e3e 7d19 8a3e
00000320: e333 403e f3af 1bbd bd64 41be fcc8 d53d
00000330: 3179 fd3e b26b 5f3e 839a 4b3e 8d8e e9bc
00000340: cbfb c4bc 3fa9 3f3d 4ad4 acbc c113 f23d
00000350: 4543 933c 9497 343d 60cc 8b3d 4491 f93c
00000360: 9352 0ebe 6975 56be 1e8b ab3c 2754 9bbe
00000370: 258f c73d b6aa cb3d c4a3 32be 3393 87be
00000380: ff97 533e 2f7d 86be 57b9 5a3d 4169 b03d
00000390: 1d08 db3d 356c 293e 95ff 90bc d9b8 f2bc
000003a0: 9830 95be c6cb 803e bd56 5d3e a1e4 093e
000003b0: 37de 21bd 9cf1 643d 9e0a 02be 3cb9 1bbe
000003c0: 342e 9cbe 89e5 cfbe 8873 d8be 9431 19bd
000003d0: 9b1c 183e 2404 7cbd ce37 2cbb 768e 41be
000003e0: 166f d43d 4a0b 79bd 1311 3c3e a866 53be
000003f0: b0bf 2d3e 6e79 e33d 3871 383d 0f85 0c3e
0.13759232 0.13798285 -0.6213546 -0.12827413 0.12694997 -0.051206723 0.004505952 -0.14572865
-0.19762549 0.24403575 -0.19944768 0.11043447 0.05402976 -0.20846626 0.14787342 -0.08917601
0.13639024 -0.2743213 -0.22407801 -0.2831421 0.20399065 0.1406044 0.11275869 -0.15692948
0.03584116 -0.022564227 0.033775892 0.073903136 0.024775527 0.18043831 -0.12758313 -0.12469124
-0.12576462 0.17811653 -0.16497497 -0.008615425 -0.047723345 -0.1531742 0.46635717 0.018224886
0.05766164 0.046782017 -0.1564886 0.16146936 -0.015768994 -0.15448865 0.09722715 -0.030881917
0.27364784 -0.061804686 -0.41594055 0.2470573 -0.085439004 -0.08038466 0.044925068 0.04445661
-0.023403319 0.15307868 0.08113601 -0.19335942 0.067909844 0.057216857 0.017280402 0.27630782
-0.0507496 -0.09794489 0.2017079 -0.50758207 0.058974497 0.08351066 0.03968288 -0.03196541
0.3452668 -0.30152032 -0.5280599 0.21895936 0.00026393987 0.075989455 -0.1835305 -0.13105705
-0.15083115 0.08234808 -0.17249097 -0.1420061 -0.02233515 -0.17443602 0.16891485 -0.35423872
0.18710269 0.14938976 0.11089902 0.28249362 -0.039038792 0.23354441 0.14949009 -0.13981736
-0.14353108 0.13522547 0.11790643 -0.1785877 -0.15754402 -0.13250992 0.055077717 0.041701064
-0.058165304 0.30937803 0.072939575 -0.14849682 0.35590175 -0.12425951 -0.013694004 0.16907156
0.12754744 0.22148953 0.03229011 0.21336406 0.22650619 -0.12863639 0.15384552 0.053851336
-0.04232647 -0.033296037 -0.29267398 0.07248707 0.20302773 0.05772122 0.036254518 -0.2235308
0.16795413 0.03589967 0.16701911 0.08497643 -0.1742658 0.12101879 0.067590125 -0.22782044
-0.14436933 0.19042975 -0.11012144 0.21924849 -0.118079655 -0.0038568347 0.11221757 -0.13304037
-0.042512134 -0.067525156 -0.06116835 -0.070004076 -0.19584316 -0.22847117 0.14427313 0.22909148
-0.063473284 -0.11200379 -0.10023364 -0.11476099 0.45438412 -0.099256605 0.18516016 -0.06900197
-0.3492124 -0.27866408 -0.00038489912 -0.12294489 -0.1691682 0.06406291 -0.0065584686 -0.4438977
-0.10801798 -0.28126657 -0.12858288 0.06814346 0.082797684 -0.06634561 -0.24075054 0.3067925
0.049245313 0.085223734 -0.21407393 -0.19273734 0.11307144 -0.055981982 0.08781612 0.14484772
-0.1818632 -0.192472 -0.146133 0.10296856 0.1361515 0.038638145 -0.1257745 0.018422794
-0.14436443 0.19367951 0.17611553 0.01831398 0.039632306 -0.0041924706 0.1863343 0.2697257
0.18769793 -0.038009595 -0.18886085 0.10438725 0.49506524 0.21818426 0.1988316 -0.028510356
-0.024045845 0.046792265 -0.021097321 0.11820174 0.017976413 0.04408987 0.06826091 0.030464776
-0.13898687 -0.20943226 0.02094036 -0.3033764 0.097440995 0.0994467 -0.17445284 -0.26479492
0.2066345 -0.26267383 0.05339941 0.086138256 0.10694907 0.16545184 -0.017699996 -0.029629158
-0.29138637 0.25155467 0.2161512 0.13466121 -0.03951856 0.05589448 -0.12699363 -0.1520738
-0.30504 -0.4060481 -0.42275643 -0.037400797 0.14854662 -0.061527386 -0.002627838 -0.18902001
0.103727505 -0.06080178 0.18365888 -0.20644629 0.16967654 0.11107145 0.04502985 0.13722633

base.mlp.fc2.0.0.bias f4 [64]
00000000: 0cb4 88bd 71d3 883c 12b8 91bd 545d 80bd
00000010: e39e d5bd e09e a2bd aeb6 94bd 636f 3fbd
00000020: 0479 d7bd 2e08 92bc 0de0 2fbd ca4d b3bc
00000030: ef1c 66bd 6c00 05bd 346a 1bbd d0e7 65bd
00000040: 32a4 84bd e577 a3bc dfd1 22bd 43fe 4dbd
00000050: 1ba1 06bd e300 33bd ec26 b53b e996 c2bd
00000060: b891 9cbd bea8 1dbd e5c1 3b3b b6ff eebb
00000070: 2d88 07bd 25bd d5bc ec1e 40bd 6478 263d
00000080: ba11 c4bc 4153 06bd 34af b83c 57fd abbd
00000090: 974a 8dbd f56d 3b3d 1881 38bb 9eab 3bbd
000000a0: 9a72 2ebd d39d 87bc 36ee a6bc c3ea 88bd
000000b0: 08a3 76bd e649 51bd 1782 a5bc 3863 1f3d
000000c0: 64d7 c3bc 7dd9 0bbd 15ca ffbc 3de3 a7bd
000000d0: 5b1e 8fbd 9c96 303c 00d0 113d 3497 6dbc
000000e0: cfdb c1bd e862 58bd 2933 cbbd 9638 2bbd
000000f0: 30f9 46bd dc42 013d 400a 34bd 8924 20bd
-0.06674966 0.016702386 -0.07115187 -0.06267801 -0.10430696 -0.07940459 -0.07261406 -0.046737086
-0.10521129 -0.017826166 -0.04293828 -0.021887679 -0.056179937 -0.032471105 -0.03794308 -0.056129277
-0.0647663 -0.019954631 -0.03975093 -0.05029131 -0.032868486 -0.043702018 0.0055283215 -0.0950144
-0.07644981 -0.038491003 0.0028649506 -0.0072936667 -0.03308885 -0.026091168 -0.04690449 0.040642157
-0.023934234 -0.03279424 0.02254448 -0.0839793 -0.068989925 0.04575916 -0.0028153118 -0.045817964
-0.04258976 -0.016554749 -0.02037726 -0.06685402 -0.060214072 -0.051095866 -0.020203633 0.03891298
-0.023906417 -0.03414296 -0.03122429 -0.08197639 -0.06988212 0.010778096 0.035598755 -0.014501382
-0.09465753 -0.0528287 -0.099218674 -0.04180201 -0.048577487 0.031557903 -0.043955088 -0.039097343

base.mlp.fc2.0.2.weight f4 [64]
00000000: 1c89 8c3f 6cec 953f 7359 8c3f 1bc1 933f
00000010: 52e7 8e3f eb59 8e3f 5abd 983f 8ba5 873f
00000020: cd6b 8c3f 005f 943f d908 8e3f d2aa 843f
00000030: 4bd3 823f 9e13 913f 05d4 853f edd5 8d3f
00000040: bbda 883f 95c7 913f 6fe9 833f d85e 8c3f
00000050: fecc 8e3f c06d 913f 0362 913f cefd 853f
00000060: 2d2d 833f a4cd 8b3f b855 8f3f 0927 8e3f
00000070: 1cb9 8c3f 59a3 8e3f a9e1 8e3f 2af7 7f3f
00000080: 098c 803f 62c8 893f 863a 893f dbb4 823f
00000090: 7f8c 913f 6679 8b3f eb5e 903f 8525 913f
000000a0: 3d8b 933f 0729 8f3f 7f3f 933f 40c7 863f
000000b0: 0dbe 873f 6dd6 8a3f 37c0 913f 1e1d 823f
000000c0: e42f 8c3f bf80 8f3f 694e 903f 53da 853f
000000d0: ff6f 8d3f c613 853f 7869 8a3f 7136 8b3f
000000e0: 522e 893f c17d 953f 1921 893f e49f 973f
000000f0: aa39 893f fe56 8a3f a661 8a3f 7f09 8e3f
1.0979342 1.1712775 1.0964798 1.1543306 1.1164343 1.1121191 1.1932786 1.0597395
1.0970398 1.1591492 1.109645 1.036463 1.0220731 1.1334112 1.0455328 1.108091
1.0691751 1.1389033 1.0305613 1.0966444 1.1156309 1.1361618 1.1358036 1.046808
1.0248162 1.0922132 1.1198034 1.1105663 1.0993991 1.11436 1.1162616 0.9998652
1.0042735 1.0764277 1.0720985 1.0211443 1.1371001 1.0896423 1.1278967 1.1339575
1.1526867 1.1184396 1.1503752 1.0529556 1.0604874 1.0846688 1.1386784 1.0165136
1.0952115 1.1211165 1.1273929 1.0457252 1.1049803 1.0396659 1.0813437 1.0875989
1.0717261 1.1679002 1.0713226 1.184567 1.0720723 1.0807798 1.081105 1.1096648

base.mlp.fc2.0.2.bias f4 [64]
00000000: 1c17 133d 3790 f13c 7a36 043d 2058 f6bc
00000010: d038 133d 5c9e e9bc 18cd e93c e6a6 f03c
00000020: e50d 08bd c97b 033d ce3a f93c c1ae ecbc
00000030: 6c73 bf3c 25d3 0cbd 938c d13c 3062 f93c
00000040: 3771 d7bc f1c2 ec3c 5ba2 23ba 4cb7 f6bc
00000050: c63b e5bc e940 00bd 5ca6 ebbc 41c6 f63c
00000060: abaf 463c 0ca4 fd3c 9994 ef3c 7530 eb3c
00000070: a326 0dbd 57fa fd3c 33e4 fc3c 276a 88bc
00000080: fdf9 3b3d da44 f5bc 765f 06bd da00 ff3c
00000090: f253 e73c 1527 f5bc ae23 f4bc 0d69 fabc
000000a0: 2ead 143d d9e1 12bd 3e7d 09bd 69e7 c9bc
000000b0: 896c dcbc a04e 103d 1459 efbc b44a 0ebc
000000c0: de6a ec3c 2347 e8bc 79be 173d 7352 d83c
000000d0: 1ca8 0dbd 0831 ae3c 76eb eebc 1d4a 053d
000000e0: e119 e53c 9eb4 fcbc 291d f63c 66fc 0ebd
000000f0: 99a5 e43c 770a 03bd 3591 f2bc 6ddf e43c
0.03591071 0.029487712 0.032278515 -0.030071318 0.035942852 -0.028517894 0.02854018 0.029376458
-0.033216376 0.032100473 0.030423548 -0.028891923 0.023370467 -0.03438105 0.025579726 0.030442327
-0.026299102 0.028901549 -0.00062421494 -0.0301167 -0.027982604 -0.031311903 -0.02876585 0.030123832
0.012126843 0.030962013 0.029245662 0.02870963 -0.034460675 0.03100316 0.030870533 -0.01665218
0.045892704 -0.029940058 -0.032805882 0.031128336 0.02823827 -0.029925862 -0.02980217 -0.03056767
0.03629797 -0.035859916 -0.033566706 -0.024646478 -0.026907222 0.035231233 -0.02921728 -0.008684803
0.028859552 -0.028354233 0.037046883 0.026406502 -0.03458415 0.021263614 -0.02916501 0.032541383
0.027966442 -0.030847844 0.030043202 -0.034908675 0.027910994 -0.031992402 -0.029610256 0.027938569

act.action_out.fc_mean.weight f4 [1, 64]
00000000: f50e 9c3d 12e6 0f3e 655e a23d ee29 ebbd
00000010: 22fb bc3d 61ea 9ebd 7d4b 213e b80b 263d
00000020: bfdb b4bd 40da 0c3e 112c a13d 7b26 e9bc
00000030: 90a1 cd3b bead d8bd 226f 823c 63a2 b13d
00000040: 7b38 34bd a793 dd3d 9db3 6dbc e293 a5bd
00000050: 1bbd c1bd b7fc debd 5422 d8bd e6ff 113d
00000060: c755 26bc fb43 903d 4ef0 bf3d 85d5 b43d
00000070: 2604 96bd 7d0c c03d 6038 a03d 02d1 be37
00000080: e0c9 3d3c 78f4 66bd 0c5b 79bd f5af ce3b
00000090: a76d d03d 4f39 5ebd 5219 d5bd a121 d4bd
000000a0: 9685 ef3d c3d0 b4bd 6938 fdbd 94a5 18bd
000000b0: 77b0 10bd 9bbd 863d 96f5 dbbd 8abe d63b
000000c0: 012b 893d 1829 bfbd 530d d33d 914d cf3c
000000d0: 5f32 a1bd e846 c63c b3c0 8abd d65a 8b3d
000000e0: aaef 4b3d 405f 0dbe 5461 533d 936d 1abe
000000f0: dcc5 633d b272 7ebd 10f6 82bd 6a94 a33d
0.0762004 0.14052609 0.079281606 -0.11482607 0.09227587 -0.07759548 0.15751453 0.04053852
-0.08830976 0.13755131 0.07869733 -0.028460732 0.0062753633 -0.10580014 0.015922133 0.08673551
-0.043999176 0.10819178 -0.014508155 -0.08084847 -0.09459897 -0.10888045 -0.105534226 0.035644434
-0.010152287 0.07044216 0.09372006 0.08829788 -0.0732501 0.09377382 0.07823253 2.2747092e-05
0.011583775 -0.056385487 -0.060877845 0.006307597 0.101771645 -0.054253872 -0.1040522 -0.10357977
0.11695401 -0.08828881 -0.12364275 -0.037267283 -0.03532454 0.06579133 -0.10740201 0.0065534757
0.066976555 -0.0933401 0.10305276 0.025305541 -0.07870936 0.024203733 -0.06775036 0.06804435
0.04978911 -0.13805866 0.05160649 -0.15080862 0.055608615 -0.0621211 -0.06394589 0.07987292
