checkpoint/best_mappo_seed112_run20260211_185513_envmamujoco-ant-2x4_ep1600_agent1_actor.pt (torch, 42965 bytes, 13 tensors)

base.feature_norm.weight f4 [63]
00000000: 5fb4 833f e53c 813f e3a9 7c3f 59ad 833f
00000010: c410 823f cac2 803f ecc5 813f 8888 7f3f
00000020: e67b 813f 3349 803f 2786 833f d613 803f
00000030: d485 873f 2a5e 813f 50c0 823f aa75 843f
00000040: 19c6 823f af3d 813f 8507 783f 7b61 843f
00000050: 652a 823f 389b 7e3f 84af 843f 2b80 763f
00000060: eb66 833f 81bf 803f 5617 7e3f 36d7 7a3f
00000070: 26e1 7f3f cfe0 793f c685 813f 4510 7e3f
00000080: 5381 853f 3ca2 823f 40e4 7d3f 68d0 803f
00000090: 6649 813f d935 833f 3069 813f a417 803f
000000a0: ee44 803f f9cf 7a3f 4fa4 7b3f 351d 813f
000000b0: 85f0 7c3f 0578 823f 200a 7f3f f6fd 7f3f
000000c0: 1cd6 843f 49c6 753f 7069 803f 4902 7d3f
000000d0: 6be5 833f 3e57 803f b89d 843f 0d1a 813f
000000e0: 0e8f 7f3f 8a49 813f b898 7f3f abd1 823f
000000f0: 9592 823f 2df7 7b3f b194 813f
1.028942 1.0096709 0.98696727 1.0287277 1.0161366 1.0059445 1.0138526 0.99817705
1.0115936 1.0022339 1.0275315 1.0006053 1.0587716 1.0106862 1.0214939 1.0348408
1.0216705 1.0096949 0.96886474 1.0342249 1.0169188 0.99455595 1.0366063 0.9628932
1.0265783 1.0058442 0.9925436 0.97984636 0.99952924 0.97608656 1.011895 0.99243575
1.0430092 1.020576 0.99176407 1.00636 1.0100524 1.0250808 1.0110226 1.0007215
1.0021036 0.9797359 0.9829759 1.0087038 0.98804504 1.0192877 0.99624825 0.9999689
1.0377841 0.96005684 1.0032177 0.9883161 1.0304388 1.0026624 1.0360632 1.0086075
0.9982766 1.0100567 0.99842405 1.0220236 1.0200983 0.98424035 1.0123502

base.feature_norm.bias f4 [63]
00000000: 2acb ebbc 6e2a 12bd 8601 08bd 1d19 b8bb
00000010: 0c96 c33c 6c66 ebba 5ee9 b93c 0367 d4bc
00000020: 4709 9c3c 5aae 68bc 0b23 c43a ebf6 7c3c
00000030: 494a 883c bd92 ccbc 420c 1cbd 0439 fbba
00000040: 8a84 be3c 445c 263d 31bb 723b ad1e 243c
00000050: 2c41 c13c 7163 033d 97cb f5bc 9a22 c23c
00000060: 2ea6 ea3b 382a d0b7 4999 843c 860c d53c
00000070: 9fc9 4f3b 8035 113c e83f 0a3c 9022 093c
00000080: 8643 02bd 7326 e23c d483 303d 740f b13c
00000090: 0e42 e23b 5da6 eb3c 281e 053c 1f6c ad3c
000000a0: 9c5e b43c 2232 f33a 9d1e a03c 1592 9f3b
000000b0: a5e5 3cbc 1c72 073d dbf0 d53c 1337 67bc
000000c0: 9b0f 4c3b f117 aa3c 5224 d53b 35c3 b7bb
000000d0: 9988 913c 7287 0ebc c8cf 4fb9 ace8 ce3b
000000e0: 326c 7bbc 4d93 b8bc fa92 2fbb 14b6 84bb
000000f0: 93ab aa3c 87b1 dfb9 3f4d c23b
-0.0287834 -0.035684995 -0.033204578 -0.005618228 0.023875259 -0.0017959601 0.022694286 -0.025928026
0.019047393 -0.014201725 0.0014964057 0.015439729 0.016636984 -0.024972314 -0.038097627 -0.0019166772
0.023256559 0.040615335 0.0037037844 0.010017079 0.023590647 0.032077257 -0.030004306 0.02369814
0.0071609234 -2.4815192e-05 0.016186373 0.026006948 0.003170587 0.008862853 0.008438088 0.008370057
-0.031802677 0.027606225 0.04309447 0.021613814 0.006904847 0.028765852 0.008124866 0.02116972
0.02201777 0.001855437 0.019545848 0.0048697093 -0.011529361 0.033067808 0.026115825 -0.014112252
0.0031137231 0.02076337 0.006504574 -0.0056079873 0.01776533 -0.008699285 -0.00019818463 0.0063143577
-0.01534562 -0.022531176 -0.0026790486 -0.0040500257 0.020833766 -0.00042666143 0.0059296186

base.mlp.fc1.0.weight f4 [64, 63]
00000000: ad4e a83d 668c 143e 6922 dcbe 6d71 eabd
00000010: 853c 9cbe e6ec 27bd 9974 9fbd d439 3abe
00000020: 420c c43d cfb1 d4be e725 fc3a dac7 123e
00000030: d7ab 7f3d 615e 8c3e 1458 0cbe 8fa2 393c
00000040: 60e9 c03e 5302 3b3d 513c ecbc c895 c93e
00000050: 7a18 0bbd efb3 d43d ca84 e13d 000b c6bd
00000060: b644 0f3e e0d2 50be af5b aebe 934a c73d
00000070: 231c 223e 20dd 0b3e ea61 903d c433 03bd
00000080: 7197 1c3c 35e9 18bd 8536 b73e efa6 c63e
00000090: 44ed f1bc a9ca 093e dcea b63b e282 e33d
000000a0: 1a3c d4bd 10f0 03be 8960 813e 99c2 003d
000000b0: 98cb f7bc 7314 45be 5492 55be ea86 4d3d
000000c0: d804 a9be dcd8 03be 93bd 2dbd 31c8 ddbd
000000d0: 73c2 a13d 661c d13d 3cb5 793d 1e4c f43d
000000e0: dd10 16be 0494 a8be 1cf6 6cbe e802 c6bd
000000f0: d435 cbbd 9ba8 c7bc cfd7 203d fd78 aebd
00000100: 453e 88bd ed76 173e 8c55 843e 6c94 2d3e
00000110: 9cc4 3b3e d256 6f3e ca08 523b 5511 c7be
00000120: df1a 3dbe 7200 53bc 077f c4bd 2d1b 333d
00000130: 7db7 1c3c 93d0 9bbe 2b52 97bd 41d4 243e
00000140: 66f6 bb3d 3120 21be b03a ae3d 413f 9abe
00000150: cd61 5b3b d2c1 303e a136 6c3d da9f a8be
00000160: 6436 293d fe06 843e 1e05 3abd 9588 f73d
00000170: eb86 fd3d be80 0c3e 3c8c cfbd f98c e7bb
00000180: 4f9b 4f3e a28f 8fbd 364e 903e 2a7e 1abe
00000190: 66f0 103e 2101 1fbe 7da4 24be e2c3 5cbe
000001a0: bbf8 4c3c b963 da3d 8091 343e 93e7 8b3b
000001b0: 8901 1f3e b7f7 0d3e b6df 4c3e 34ce b63e
000001c0: 9136 2ebe 6509 bd3d 5c3e 583e 7958 c93e
000001d0: c175 21be 020f cdbd 32d1 66bc 0e9b 97be
000001e0: 9f7d 12be 24f9 5dbe 16d9 413c 5a8f 60be
000001f0: ed17 a33d 5769 97be 4b00 9f3e 9e0a d5bd
00000200: d046 be3d cf1a 4cbd 4af6 a9be b64a 85be
00000210: 1feb 883e 6141 213d 5112 5c3d 10bc 09bf
00000220: 7cbd 403e 3bb2 c3bd 5c85 8bbe c9b4 6a3d
00000230: c0ed 343e bcd7 633e 1c64 7f3c 5e58 3ebd
00000240: 2b1f 3a3e 16e4 f5bd 1e67 4abe e1af fa3c
00000250: 8866 d23d f6be be3c c367 8dbe 9c9f db3d
00000260: 2130 1b3e 107e 34be 61bb b13e c4d3 a23d
00000270: 27cd 573d 826f 913d 69ae 173e e19e 37be
00000280: 49ab c03b 0d64 fa3d ff82 06bc 5eb1 02bf
00000290: 0885 363e 6914 cfbc 97b5 213c 3d0c 7cbd
000002a0: 98d9 54be a751 a93c 1864 213e 4043 0e3d
000002b0: 25f2 553d 3cdc 903d 40ef 31bd 6614 0bbe
000002c0: 3cdb 94bb 768c d0bd c2e5 833b 2243 5cbe
000002d0: 71d3 bfbd baf5 93be 8027 293e 5bc2 9b3b
000002e0: 91dd 743e 91d7 9ebd 499a 023e 310b 87be
000002f0: e1ed 47bd af05 1fbe f0df b23e 6040 0fbe
00000300: 98fa e03c f467 873e 797f 83bd b33e cebe
00000310: 2c9e 373e e193 8f3c 19a6 0abe baee d43d
00000320: 5ee9 0e3e 27a9 103e 77b0 f23d f531 973d
00000330: b65c 89be da2c 6e3d 1d07 853e 98d8 143d
00000340: 328a 9c3c 34ec c53d a09e 6a3e 9a9b 59bd
00000350: 820a 97bc 99a5 0fbe 78ee 803e b6d4 acbd
00000360: fbd5 b83d 5627 1dbe 4292 48bc 501c 653d
00000370: d328 cd3c 6ebf 4b3e 11dc a53b a31b 723e
00000380: 2704 0cbc 8545 78be a986 63be 3a25 943c
00000390: efa5 393e e861 013c 32eb 86bd 46ec db3d
000003a0: 0cf7 9cbd 6c7e 7c3e 9c72 613e cd51 9a3e
000003b0: 051b 353e d16a 623d 8e2c c23d ed58 33be
000003c0: f795 3ebd 69fd 69bc ab04 983c ec8c bcbd
000003d0: 5055 04bc 38bb 5dbc 7603 00ba 9887 5b3e
000003e0: a556 133f 573e 5abe d7c6 7fbe e03a 50be
000003f0: f2d7 81be 08ac c5bd 05d3 eb3d 03eb dd3c
0.08218131 0.14506683 -0.42995003 -0.114474155 -0.30514923 -0.04099741 -0.07785911 -0.18186122
0.095726505 -0.41541907 0.001923737 0.1433405 0.06241974 0.27415755 -0.13705474 0.011330261
0.3767805 0.045656513 -0.028837355 0.39372087 -0.03395889 0.10385882 0.11011656 -0.09670067
0.13991055 -0.20392942 -0.34054324 0.09731021 0.15831046 0.13658571 0.070499256 -0.03203179
0.009557591 -0.03733178 0.35783783 0.38799235 -0.029532082 0.13456215 0.0055821966 0.11108948
-0.10363026 -0.12884545 0.25268963 0.031435583 -0.030248448 -0.19246082 -0.20856601 0.050177492
-0.33011508 -0.12875694 -0.04241712 -0.10829199 0.07898416 0.10210495 0.060963854 0.11928581
-0.1465487 -0.32925427 -0.23140758 -0.09668523 -0.09922376 -0.02437239 0.03926831 -0.085191704
-0.06652502 0.1479146 0.25846517 0.1695115 0.1833672 0.23372963 0.0032048696 -0.3888041
-0.18467282 -0.012878524 -0.09594541 0.04372709 0.009565231 -0.30432567 -0.07388719 0.16096593
0.09177856 -0.15734936 0.085072875 -0.30126384 0.0033475042 0.17261437 0.057669286 -0.32934457
0.041311637 0.25786585 -0.045415036 0.12086598 0.12379249 0.13720986 -0.101341695 -0.007066366
0.2027409 -0.07009818 0.2818467 -0.1508719 0.14154205 -0.15527774 -0.16078372 -0.21559098
0.012510474 0.10663552 0.17633629 0.004269549 0.1552793 0.13864027 0.20007214 0.35704195
-0.17013003 0.092303075 0.21117538 0.39325312 -0.15767576 -0.10012628 -0.014087962 -0.29610485
-0.14305733 -0.21677071 0.0118315425 -0.21929684 0.07963548 -0.29572555 0.3105491 -0.10402416
0.0929085 -0.049830254 -0.33195716 -0.26033562 0.26741883 0.03936899 0.053728405 -0.53802586
0.18822283 -0.09555479 -0.27250183 0.057301316 0.1766882 0.22250265 0.015587833 -0.046470992
0.18175952 -0.120063946 -0.19765899 0.030601444 0.102734625 0.023284417 -0.27618226 0.107238024
0.15155078 -0.17626214 0.3471327 0.07950547 0.052685883 0.071013466 0.14812626 -0.17931701
0.005879794 0.122261144 -0.008209943 -0.5105189 0.17824185 -0.025278287 0.009869955 -0.06153511
-0.2078613 0.020668818 0.15760839 0.034732103 0.05223288 0.070732564 -0.043441057 -0.13582
-0.0045427363 -0.10183041 0.004025192 -0.21509984 -0.09366501 -0.28898412 0.16518974 0.0047533936
0.23912646 -0.0775596 0.12754168 -0.26375726 -0.048810843 -0.15529512 0.34936476 -0.13989401
0.027463242 0.26446497 -0.06420798 -0.4028221 0.17931432 0.017526569 -0.13539924 0.10397096
0.1395621 0.14127026 0.11850064 0.073825754 -0.26828545 0.058148243 0.2598199 0.036339372
0.019108865 0.09664193 0.22912073 -0.05312691 -0.018437628 -0.14028014 0.25181937 -0.08439009
0.090251885 -0.15347037 -0.012241902 0.055935204 0.02504388 0.19897243 0.0050616344 0.23643355
-0.008545912 -0.2424527 -0.22219338 0.018084157 0.18129705 0.007896878 -0.06587829 0.10738425
-0.07664308 0.24657601 0.22016376 0.30140534 0.17686088 0.05527765 0.094811544 -0.17514391
-0.046529736 -0.014281609 0.018556913 -0.09206566 -0.008076981 -0.013533406 -0.0004883328 0.21438444
0.57554084 -0.21312843 -0.24978195 -0.20334959 -0.25360066 -0.09651953 0.11514858 0.027089601

base.mlp.fc1.0.bias f4 [64]
00000000: 1996 e23c a457 b13c 05e7 33bd 800c 583c
00000010: b73a 903c 6c17 dfbc 9f1a a1bc fc1f 25bc
00000020: 3b28 b53b 2f78 153c 2414 483c 843d 903c
00000030: 6775 3f3d 2f13 a53c bdec 39bc fa28 98bc
00000040: fab2 a33c 5c2b ae3b 0ed7 983b 6b03 723c
00000050: e817 12bd 187c 2e3d 2bb0 5abc 383d 09bc
00000060: 1467 99bc 521b 123c 0752 bdbb b9d3 fabb
00000070: 8cdc 3dbc d092 74bc b736 053c 0aec 1abc
00000080: 537f 413c 77e5 263d 4c2b 943a 2a75 2a3d
00000090: c2ab 743c fd89 453b e9be 1abd 86a7 0a3c
000000a0: 324c 0dbd d3cd c8ba 27b2 c8bc 8983 663b
000000b0: 56e7 163b daab c6bb 39b6 383c bf2f 463c
000000c0: 8997 fcbb c926 d4bb 19eb 01bd 7486 a6ba
000000d0: 99dc 2e3b 643c c73c 3a74 cd3c 2892 913b
000000e0: fb56 cab8 171d f73b 8bed 70bc 1eff fbbb
000000f0: 899d fdbc 04e4 7d3c 9856 b13b bbea ca3c
0.027659463 0.021648236 -0.04392149 0.013186574 0.017606122 -0.027232848 -0.019666014 -0.010078426
0.0055284775 0.009122892 0.012211833 0.017607458 0.046742823 0.020150749 -0.011347947 -0.018574227
0.019982804 0.0053152274 0.0046643084 0.014771323 -0.03566733 0.042598814 -0.013347666 -0.008376412
-0.01872591 0.0089176465 -0.0057776007 -0.007654634 -0.011588227 -0.014927581 0.008130721 -0.00945569
0.011810142 0.04074618 0.0011304407 0.041615643 0.014933528 0.0030142062 -0.037779722 0.008462792
-0.034496494 -0.001532013 -0.024499012 0.0035173616 0.002302607 -0.006062967 0.011273914 0.0120963445
-0.007708494 -0.00647435 -0.031718347 -0.0012704865 0.002668178 0.024320789 0.025079835 0.004442472
-9.648312e-05 0.0075413096 -0.014705072 -0.0076903244 -0.030958908 0.015496258 0.005411934 0.024770131

base.mlp.fc1.2.weight f4 [64]
00000000: 327c 863f a833 7f3f b74e 803f 15b4 803f
00000010: 403e 803f 5e1e 7c3f 6dc4 7e3f 07cf 7e3f
00000020: 4169 803f 44b1 823f 3966 7e3f e39c 813f
00000030: da69 803f 7a94 823f 29b4 773f 0701 7e3f
00000040: 21ab 7b3f 3684 7a3f 31de 853f 7a24 853f
00000050: 282f 813f cf02 843f 4659 833f ff4f 7d3f
00000060: be3c 753f 4bc9 7b3f 1e3f 763f c80e 7c3f
00000070: 6522 7d3f d1a3 7f3f 3523 833f 7973 833f
00000080: c091 823f 3846 843f 0574 813f ec71 833f
00000090: f31f 783f f591 7e3f 660b 7d3f 4561 823f
000000a0: b2b3 743f 0b78 813f 3db3 7b3f 4133 7e3f
000000b0: 2537 7e3f ad62 783f a976 833f be76 823f
000000c0: 03a3 803f f2a7 7a3f 461e 793f a49f 833f
000000d0: f377 823f 3d09 833f a41b 813f e55e 813f
000000e0: 0a93 803f 8033 853f 8d75 783f c543 823f
000000f0: 96d4 7c3f 4b10 813f 548a 813f 4574 823f
1.0506651 0.99688196 1.0024022 1.0054957 1.0018997 0.98483837 0.9951847 0.9953465
1.0032121 1.0210347 0.9937473 1.0126003 1.0032303 1.0201561 0.9675928 0.9922032
0.98307997 0.9785799 1.0458432 1.0401757 1.0092516 1.0313357 1.0261619 0.9895019
0.9579581 0.98354024 0.9619006 0.98460054 0.98880607 0.9985934 1.0245119 1.0269614
1.0200729 1.0333929 1.0113531 1.0269141 0.9692375 0.9944146 0.9884552 1.0185934
0.95586693 1.0114759 0.9832037 0.9929696 0.99302894 0.9702557 1.0270587 1.0192487
1.0049747 0.97912514 0.9731182 1.0283093 1.0192856 1.0237194 1.008656 1.0107085
1.0044873 1.0406342 0.9705437 1.0176932 0.9876188 1.0083097 1.0120339 1.0191733

base.mlp.fc1.2.bias f4 [64]
00000000: 08c7 2d3c e0cc 823c b855 b7bc de5b bebc
00000010: e231 a23c 4833 9abb 35f3 39bc 8339 e03a
00000020: 5b27 50bc cc56 cb3c 52df 283d 5e02 c13a
00000030: 6bd4 023d 95f4 243c f10d 94bc ad13 98bb
00000040: e665 ab3c 0235 41ba 109f 65bc 3a8c a2b9
00000050: 3186 2bbd b7fe 163d 0654 abbc 9a6b 8d3c
00000060: 24ab 54bc 219f 413c 0b6f 023d cbaf f5ba
00000070: 05a4 90bb d542 99ba 1b13 263b 3cb2 01bd
00000080: 532c cbbb ba23 e13c c443 adbb 856e 433c
00000090: 16be 363c 189b 953b 2ab0 9abc 1112 343c
000000a0: c850 753c 97f9 5bbb 556e 20bc 489d c43c
000000b0: 5ec8 8bb9 a428 2bbb dfbc 2ebc d9a7 883b
000000c0: c499 39bc 7a30 933c 2e80 0abd 4938 5dbc
000000d0: 13b2 b5bc a6e5 8c3b bdbb ee3b 730c 973c
000000e0: a7ba 0bbc 7061 e73b 0172 cd3c 3cfc 83bc
000000f0: 76ad 7abc 9abe d8bb 94e7 90bb a1d2 853c
0.010606535 0.015966833 -0.022379741 -0.023237165 0.019799177 -0.00470582 -0.011349489 0.0017106984
-0.012704696 0.024821661 0.0412286 0.0014725437 0.03194086 0.0100680785 -0.018073054 -0.0046410174
0.020922612 -0.00073702645 -0.014014974 -0.00031003525 -0.04187602 0.03686401 -0.020914089 0.017263222
-0.012980256 0.011817724 0.03184418 -0.0018744407 -0.004414084 -0.0011692891 0.0025340978 -0.03166412
-0.006200352 0.027482856 -0.0052876193 0.011928205 0.011153718 0.0045656078 -0.01888283 0.0109906355
0.014972873 -0.0033565515 -0.00979193 0.024000779 -0.0002666143 -0.0026116753 -0.010665148 0.0041703996
-0.0113281645 0.017967451 -0.033813648 -0.013502189 -0.022179639 0.004299837 0.0072855637 0.018438553
-0.008528388 0.007061176 0.025078775 -0.016111486 -0.015300145 -0.0066145184 -0.0044221375 0.016335787

base.mlp.fc2.0.0.weight f4 [64, 64]
00000000: e8a3 b43d 2401 b5bd 0006 53be c38a 2c3d
00000010: 6642 28bc 2211 5fbd b1b3 01bd 44dc 0ebd
00000020: d484 34bd e4da 7bbd 8c3f 0b3e f0ec a0be
00000030: c1fe db3e 339a 8bbe 671e b83d e285 6b3d
00000040: f8b2 a13d b9ea 4d3c fe09 5dbe be1f 16be
00000050: cfd6 623d 0227 4abe cc5d 863d 3002 58bd
00000060: 229e 82be 2788 bfbd 2ea7 14be fabc 5c3e
00000070: a379 213d 895c 2fba 5c42 793d 46d4 8e3d
00000080: 7cff 0abd 674f 20be f768 e13c 4692 dabe
00000090: 7f0b 8dbe 5e41 9ebd f5f0 69bd 2f73 f93d
000000a0: 48c5 723e d8fb 3dbd 959b 06be e9f3 eabe
000000b0: 899a fb3d 403c 6a3e 35a1 21bc ab8a 1e3e
000000c0: 68f6 6d3e 1c37 91be d1ad 4c3e 131e 783d
000000d0: 92ba 653e 918e 8e3d 2c16 063e ff46 1f3e
000000e0: f367 d23d 05cf 103c f22d 4e3e 4ff1 f7bd
000000f0: d315 4bbe 8b56 c63e 44da 46be 1bc0 f43c
00000100: 087f 29be d659 a13e 0ba6 7b3e bdea c93b
00000110: a78f ad3d cb84 9bba cd9c 9cbe 5b06 743e
00000120: c966 63bd 0735 4abe d82e 1f3e c448 64bd
00000130: efd1 5fbe a74a 1e3e e49e 14be d47a 9bbe
00000140: 3e0b 853e f09f d13e 4b81 fb3b 5b46 23be
00000150: a8c1 993d 8e91 21be ff29 c5bd 5a33 1d3e
00000160: f7ab a1be 1cb3 5bbe 7661 5a3d 96ca b6bd
00000170: 1aa6 0e3d cf75 5abe e704 823e f0b6 d43c
00000180: a690 983b b0da 96bd 25ac 3b3e bc78 6f3e
00000190: a42d ab39 91fb 553e 0f34 e9bb 3b25 003e
000001a0: c54e 52bd 157b a2bc 8714 c3bd 34f2 afb9
000001b0: 9084 eebe 44a6 873e c18d a0bd b138 a63d
000001c0: ad26 863e e0a6 96bd 23c0 8cbc 2509 e2bc
000001d0: fdbd d83d a9b3 073b 806d 82bd 7b21 83bd
000001e0: 4646 2bbe e2e5 e53d b87d 503d e88c 63be
000001f0: 60e4 f43c 4954 423d 9f8a 9a3c 4fdb e73e
00000200: e877 c43c 4730 e63d fed1 df3d 7e65 e33e
00000210: ec8b fd3d f19a afbc fc8d 293e fd91 c5be
00000220: 86dd 873e 2891 84be e8c6 eabd 8354 2a3d
00000230: 0c32 0f3e 6e88 f33d 6510 483e fd88 96bc
00000240: e68a 113e c062 40be e289 73bd 8dbc 1f3e
00000250: 78d3 7b3e 077f 0fbe 34cc 3a3d f467 78be
00000260: 4d3b d4bd fe75 b2bd d527 14be 95a1 153e
00000270: adef 42be 2637 52bd d5e5 b93e 0175 103e
00000280: 816e a7bc e166 b8bc 2dd4 babd 5238 293e
00000290: c952 2e3e b1de aa3d ffef 663e e03d a6be
000002a0: 15ff 19bd 4839 61be 23a8 85bd c9d3 933c
000002b0: 3d71 9f3c de0b 0abe f168 1e3e f6c8 a53d
000002c0: b680 9d3e a4e7 693e 9af3 63be 42cb ab3d
000002d0: bac4 a33e f068 963c 8048 593e 53cb 7abc
000002e0: 7d7c e33c a5fd f53c d8d5 943d da10 d5bd
000002f0: bfd7 af3e 234b eebd efc3 98bd 8d14 c9bd
00000300: 6996 183e 5c95 343e a4f0 ff3d c72b 483d
00000310: a47c a33e c817 a23e 192f 343e 5952 50be
00000320: ead8 a5be e6dd 923d ad92 d23c fc92 9dbe
00000330: 7d4e 0a3b 30d6 5abe 4d34 263d e372 12be
00000340: c414 c23d adeb 62bc 1af4 423e fd37 a5bd
00000350: 3a5c 1cbd 4866 d0bd 8769 473e 2498 833d
00000360: 737e 183e 170c 0fbd de03 4e3d 878f 87bd
00000370: 95b0 8fbd 0a41 62be dd2c 033e 57fe 46bd
00000380: 0a5d 2f3e d741 083e 93f8 a5be 5e5e 98be
00000390: 4872 8fbd 851d bb3e 0d45 edbd 3cac 9b3e
000003a0: 88f4 56bd cbff 37bd bae8 aa3d 642d 763e
000003b0: 27c6 16be 33c0 cd3d ad0d fbbd f971 6dbd
000003c0: e57b 393d 9561 953d 0de4 82be bd02 9c3d
000003d0: bceb b8be d56d 37bd aed2 153e b223 c33e
000003e0: fb18 533e 706c f3bc 1546 9b3e d755 513e
000003f0: af11 203e 47a0 b73c cbed 2dbe fa55 6abe
0.08820325 -0.08838108 -0.20607758 0.04212452 -0.010269737 -0.0544597 -0.031665508 -0.03487803
-0.044071987 -0.061488047 0.1359846 -0.3143077 0.429678 -0.27266082 0.08990174 0.057500727
0.07895464 0.012568169 -0.21585843 -0.14660546 0.05538064 -0.19741443 0.06560859 -0.05273646
-0.2551127 -0.09352141 -0.14516899 0.21556464 0.039422642 -0.0006689509 0.0608543 0.06974082
-0.033935055 -0.1565529 0.027515871 -0.42689723 -0.27547833 -0.077273116 -0.05711456 0.12180173
0.2370807 -0.046382755 -0.13145287 -0.45889214 0.122853346 0.22874546 -0.009865095 0.15482585
0.23238528 -0.28362358 0.1998818 0.060575556 0.22434452 0.06960786 0.13094395 0.15554427
0.10273733 0.00883842 0.20134714 -0.12106573 -0.19832544 0.38737902 -0.19419199 0.02987676
-0.16552365 0.31513852 0.24575059 0.006162016 0.08474665 -0.0011865137 -0.3058838 0.2383055
-0.055517945 -0.19746791 0.15545213 -0.055733457 -0.21857427 0.15458165 -0.14513737 -0.30367148
0.2598514 0.40942335 0.007675325 -0.15944807 0.0750764 -0.15778181 -0.09627151 0.1535162
-0.3157651 -0.21455044 0.053315602 -0.08925359 0.034826376 -0.21334003 0.25394365 0.025966138
0.0046559153 -0.0736593 0.18327387 0.233859 0.00032649667 0.20896746 -0.0071168016 0.12514202
-0.05134465 -0.01983408 -0.095254 -0.00033559056 -0.46585512 0.26494038 -0.078395374 0.08116282
0.26201382 -0.07356048 -0.017181462 -0.027592251 0.105831124 0.002070645 -0.06368542 -0.0640287
-0.16726026 0.11225487 0.050901145 -0.2222172 0.029894054 0.04744366 0.018864928 0.45284507
0.023982957 0.11239677 0.10928725 0.4441337 0.123802036 -0.021436187 0.16558069 -0.38587943
0.26536196 -0.25891995 -0.114637196 0.041584503 0.13983935 0.11891256 0.19537504 -0.018375868
0.14213142 -0.1878767 -0.059457667 0.1559927 0.24592388 -0.14013301 0.0456049 -0.24258405
-0.10362873 -0.087139115 -0.1446832 0.1461242 -0.19036742 -0.051322125 0.3630816 0.14107133
-0.020438435 -0.022509994 -0.091225006 0.1652539 0.17023768 0.08343256 0.22552489 -0.32469082
-0.03759678 -0.21994507 -0.0652621 0.018045323 0.019463176 -0.1348109 0.1546972 0.08094971
0.3076226 0.2284227 -0.22260895 0.08388378 0.31986028 0.018360585 0.21219063 -0.015307265
0.027769322 0.030028174 0.0726735 -0.10403605 0.3434429 -0.11635425 -0.07459246 -0.09818373
0.14901127 0.17635101 0.124970704 0.048869874 0.3193103 0.3165877 0.17596091 -0.20343913
-0.32392055 0.0717123 0.025704706 -0.30776203 0.0021103912 -0.21370769 0.04057722 -0.14301638
0.09476617 -0.013850135 0.1903843 -0.080673195 -0.03817389 -0.101757586 0.19473849 0.06425503
0.14891987 -0.03492364 0.050296657 -0.066191725 -0.07016102 -0.22095123 0.12810083 -0.0485824
0.17125335 0.13306366 -0.3241621 -0.29759496 -0.07004219 0.3654596 -0.11585436 0.30404842
-0.052479297 -0.044921678 0.0834517 0.24040753 -0.14724027 0.10046425 -0.12258468 -0.05797002
0.04528417 0.07294003 -0.25564614 0.0761771 -0.3611735 -0.04478248 0.14631149 0.3811317
0.20614998 -0.029714793 0.30326906 0.20442902 0.15631746 0.022415293 -0.16985242 -0.2288436

base.mlp.fc2.0.0.bias f4 [64]
00000000: 374e 91bc f075 ba3b 3427 15bd a380 cd3c
00000010: ece9 50bb 366a 89bc ebf5 4cbc 3972 9abb
00000020: b585 c43c 2505 df3c a1cd 25b9 8e77 263c
00000030: 2360 5aba 9486 c03b b651 473c 90b2 4bbc
00000040: bbed 2eba 0237 37bc 39f5 99bc aff6 34bc
00000050: 4611 ec3c e947 d3bc 7fdd 9a3b f523 f8bc
00000060: 161b b639 6d45 56bc 7efb 533c 725a dfbb
00000070: 5701 bf3a 00aa 473c 281e d5bc 6334 1abb
00000080: 8cd8 d23b 9e95 59bc c913 50bc 466f c1bc
00000090: 1c5d d6bb 7098 e43c f7e0 a4bc 82ca 2bbc
000000a0: 7fe6 e83c bebc 823b 9a41 983c 0d61 963c
000000b0: 1bd8 0ebc 8522 113c a997 19bc 8d06 babc
000000c0: 732b 0cbb 505f 163d 59b6 30bb 60b8 8bbc
000000d0: 1e1b f23b 97f0 c0bc 4e41 c63b 7c03 3d3c
000000e0: b962 aabc 9f12 debc 615f 36bc 9544 933c
000000f0: daad cd3c b787 f1bc e52d a3bc ca26 db3b
-0.017737491 0.005690329 -0.03641434 0.025085753 -0.003187771 -0.016774278 -0.012509803 -0.0047133234
0.023989538 0.027224133 -0.00015812229 0.01016034 -0.00083303655 0.005875418 0.0121654775 -0.012432709
-0.0006672998 -0.0111825485 -0.01879369 -0.011045142 0.02881683 -0.025791125 0.0047261114 -0.030290583
0.00034733926 -0.013078076 0.012938378 -0.006816202 0.0014572543 0.012186527 -0.026015356 -0.002352976
0.006434506 -0.0132803 -0.01270003 -0.02361263 -0.006541861 0.02790472 -0.020126803 -0.010485293
0.028430222 0.003989785 0.018585969 0.018356824 -0.008718516 0.008858328 -0.0093745375 -0.022708202
-0.0021388202 0.03671199 -0.0026964156 -0.01705569 0.0073884865 -0.023552222 0.0060502654 0.011536475
-0.020799028 -0.027108489 -0.011131139 0.017977038 0.025107313 -0.02948366 -0.019919345 0.0066879736

base.mlp.fc2.0.2.weight f4 [64]
00000000: c6b7 813f 29ab 853f c61c 833f 20a3 853f
00000010: 178d 803f b6ff 853f f034 843f 0726 823f
00000020: a4b4 863f ef22 863f 5ac9 843f abb7 853f
00000030: 63f9 8a3f 8ce1 823f 476e 863f 7f0f 823f
00000040: 3a2c 823f f4d6 803f 00cd 843f 9298 853f
00000050: f50e 863f 54f0 833f 0341 823f 52ba 803f
00000060: bbdb 853f a5cd 843f 907f 853f 5b69 833f
00000070: 5253 813f c4b3 823f 8d84 803f 767e 833f
00000080: 1b7b 833f 178e 843f 2f64 823f 7e8f 823f
00000090: 84f7 7c3f d548 853f 4b12 803f 008f 833f
000000a0: 113d 843f c515 873f 5654 873f 598f 833f
000000b0: 20f3 863f d708 843f f7ff 813f 2935 813f
000000c0: 9c2c 823f 3362 893f d856 843f 8eb9 823f
000000d0: a18f 873f 1c08 843f 4f81 813f 43e9 863f
000000e0: c8b4 823f 8c2a 833f 384d 853f 566c 833f
000000f0: 20b6 873f 7c07 823f e447 863f e2e9 863f
1.0134208 1.0442859 1.0243156 1.0440407 1.0043057 1.0468662 1.0328655 1.0167855
1.0523877 1.0479411 1.0373948 1.0446676 1.0857357 1.0225081 1.0502404 1.0160979
1.0169747 1.0065598 1.0375061 1.0437186 1.0473315 1.0307717 1.017609 1.005686
1.0457681 1.0375258 1.0429554 1.0266527 1.0103552 1.021111 1.0040451 1.0272968
1.0271944 1.0355862 1.0186824 1.020004 0.9881518 1.0412852 1.0005583 1.0278015
1.0331136 1.0553519 1.0572612 1.0278121 1.0542946 1.0315198 1.0156239 1.0094348
1.0169864 1.0733093 1.0339003 1.0212877 1.0590707 1.0314975 1.0117587 1.0539936
1.021142 1.0247359 1.041419 1.0267437 1.0602455 1.0158534 1.0490689 1.0540125

base.mlp.fc2.0.2.bias f4 [64]
00000000: 7769 d2bc 4808 51bc 82ea 4abd 5252 3b3d
00000010: eb04 a4bc f0a8 fbbc 8cf5 14bd 53a3 a9bc
00000020: 8829 463c 5627 033d 6189 86bc f872 17bd
00000030: 53aa d4bc a4ca 3f3c 742e 713c da22 b2bc
00000040: 88d4 b7bb 260b 43bc 0f21 ffbc 48c6 3c3c
00000050: df9b d03b 7c4d 0cbd 2f3a 9fbb 9bbc a4bc
00000060: 9b8d 0b3c 4f24 09bd f505 8bbb 1632 28bc
00000070: aa1b 913c 3137 193b f72f a1bc 910e 943c
00000080: b71b edbc 8712 2fbc 6a55 e9bc b623 cd3c
00000090: 7fb5 2b3d a7ad d53c b139 a13c 7ebb e0bc
000000a0: bebc 003d 517c 88bc 0645 5a3a 862b 313a
000000b0: 0b1c 32bd b8bd 7e3c 4e3e 253b fa8a e0bc
000000c0: 64c4 b43c 0219 063d 0793 aabb 2a2a 16bc
000000d0: 7bbd 063d 0a2b 27bd 9b13 583c 621a b8bc
000000e0: 0d5e 5ebc c054 f8bb 6b07 40bc 7fbb 9a3c
000000f0: e107 0e3d eba6 69bc c97e 393c ae2e b5bc
-0.025685055 -0.012758322 -0.04954005 0.045732804 -0.020021876 -0.030720204 -0.036366984 -0.020707762
0.012094863 0.032019936 -0.01642293 -0.036974877 -0.025960123 0.011706028 0.014720548 -0.021745134
-0.0056100525 -0.011904513 -0.031143693 0.011521883 0.0063662375 -0.034253582 -0.004859231 -0.020109465
0.008517648 -0.033481892 -0.0042426535 -0.010265848 0.017713387 0.0023378844 -0.019676192 0.018073352
-0.02894388 -0.01068557 -0.028483111 0.025041442 0.041921135 0.02608378 0.01968083 -0.027433153
0.03143 -0.016660841 0.00083263253 0.00067584997 -0.043483775 0.015548162 0.0025214138 -0.02741002
0.022066303 0.032738693 -0.0052055153 -0.009165326 0.032895546 -0.04081253 0.013188268 -0.022473518
-0.013572228 -0.0075784624 -0.011720519 0.018888233 0.034675483 -0.014260988 0.011321732 -0.022116985

act.action_out.fc_mean.weight f4 [4, 64]
00000000: 56e4 353b 9e55 2c3d 191f 263c 4c5f e5bc
00000010: c2fd 373c 56c9 a73c 7850 44bc 3f3d 983b
00000020: 9a0d 123d 47c7 1cbd 22e2 acb9 ed61 043d
00000030: 8779 5c3d 244a 7b3a ebb8 eabc b5ab 583b
00000040: d4e9 a0bc 7f9a 583c 238d a8bb 771d a8bc
00000050: d260 f6bc 5d0b 3dbc a8ed 953c e154 2f3c
00000060: 423b f13c a141 023d 650d f73c 5e75 9d3b
00000070: 8555 653c 8975 c1bb 559e 66ba 7691 81bc
00000080: d12b 123c 5c57 143d d10b d4bb 7be7 0cbc
00000090: 22aa d0bb dccb b0bb 9c76 ff3b 5f3b c53c
000000a0: c8d6 91bc fd40 083c fb3e 1a3d fb66 e3ba
000000b0: 3c3f e13c 2339 c6bc 3c82 8abc fb64 1e3c
000000c0: 1ae1 8b3b c331 36bd e775 12bd a6de 483c
000000d0: d1bc 963c f924 cebb 05dc 9dbb 9c12 29bd
000000e0: a169 2c3c 1369 ce39 d72c 1bbd 4889 ab3b
000000f0: 12c4 1dbd 6b55 b03c b088 293d b5df c33c
00000100: 62bb 84b9 365f 02bc e920 e6bc e23a cd3c
00000110: 4416 9fbc eda0 d2bc d5e3 09bd 93f7 8dbc
00000120: 44db 193d f750 c93c 1cf8 bbbc dbfc d3bc
00000130: 3d30 973c fd27 c53a 4d89 133c 5c7b 8f3c
00000140: a794 a3bc da7f a23a 4ab9 8abc 25b9 923c
00000150: 091f 1b3b d797 06bd bac6 633c eb69 3a3c
00000160: bfe3 053d b922 c3bb b150 253b 14dd afbb
00000170: d97d b03a 55fd 11bc 2d9b 4cbb 1e99 80bb
00000180: 6d37 cbbc 920e b23b 17b9 6cbb 10ae dd3b
00000190: 120b b83b 002e 2f3d 503f 603c 9f00 8fbc
000001a0: 266a 993c d7b1 81bb 5a73 393c c21b 993c
000001b0: e976 f4bc 422b aeb9 7d81 debb 450d 94bc
000001c0: 71f8 9f3b f81b 493d 758f 2bbc ef4e 113c
000001d0: 7b72 883c 77f6 fabc a450 27bb fc7a 00bd
000001e0: 8a20 c83b 3acc e8bc 4781 82bc 04c6 9bbb
000001f0: 73e3 ce3c ce04 a93a 6739 bf3c 29bb 43bd
00000200: fcb8 bbbc 97cd 20bb 43f5 61bb 0ed0 c5bc
00000210: 7da5 ea3a f441 93bc 1070 c13b 0895 9cbb
00000220: b9fe 92bb 6444 fb3a 03f9 60bc 39aa 22b9
00000230: 6078 133d 62e6 9dbc 8cdd bb3a 7770 39bc
00000240: 8085 a3ba 69cc 353c 912b eebc ce22 e5ba
00000250: 5e8b 3cbc 5609 62bc b612 4639 9fdf 5ebc
00000260: ef5a 83bc c45d 683b c64f a73b a3f6 283c
00000270: d25f b43b 8fcf 8dbb b390 36bc 28ba be3b
00000280: 2ed7 9bbc bbf1 813c 8ba7 0aba 9833 c43c
00000290: f701 843b 563a d339 ddd7 24bc 4d7c 243c
000002a0: 4541 b23c a297 4a3d 9e5b 533c 15e2 9b3c
000002b0: e57b d93c b25e 523c c450 4ebc 2926 12bc
000002c0: a859 b03c a2e9 833c b499 3dbb 60e5 b63c
000002d0: 278d de3c ecca 1d3c 57d6 67bc 15e4 70bc
000002e0: 05af b1bb 9b0d 9f3a 9ddb c3ba b7ce 21bc
000002f0: fa3c d8bc fafa 0c3b 8f92 823b fd0b 80bb
00000300: 5109 b4bb 8fea ffbb 53a0 4f3c 5a0e 18bb
00000310: 17d5 263c f913 2cbc 96b5 cb3b 9053 2abc
00000320: faaa 79ba 474f c73b 7117 c6bc 344f 7ebc
00000330: dcff 13bd 6ebc 9bbc 92bf cf3c 7244 923c
00000340: 5dc8 58bb 2e14 c7ba cff9 49bc e094 043d
00000350: 5f3b 043d 2a94 3cbc 018e 26bc dbdf 0a3b
00000360: 77ea 13bc 2229 d5bc 1cc6 03bd 9b42 fbbc
00000370: f444 083c 282c d8bc 9d07 f5ba e0a6 e63c
00000380: 559e 91bc 66c2 70bc af5c c4bc d4f7 cc3b
00000390: aa79 8b3b 8336 8f3c 2521 d1b9 ca5e 23bc
000003a0: 24dd cc3b d5ea 97bb 8213 0fbd aad7 323c
000003b0: 9b76 e5bb 18e5 bc3c b3db febb a759 223c
000003c0: 56b0 ecba 0bcb 3bbc 88dc 6e3c 2426 5e3c
000003d0: 5149 103d 6bc0 6dbc 6ff3 2a3c 2acd 4b3c
000003e0: 5202 abbc 5a98 64bc b88a 9abc c1f5 d73c
000003f0: 9d93 1b3c f336 9839 7826 903c ed95 11bc
0.0027754507 0.04207384 0.01013925 -0.027999543 0.011229934 0.020481747 -0.011982076 0.004645973
0.035657503 -0.038275983 -0.0003297488 0.03231995 0.053826835 0.0009585938 -0.028652629 0.003306133
-0.019642748 0.0132204285 -0.005143778 -0.020521862 -0.030075464 -0.011538354 0.0183018 0.010701389
0.029447202 0.03180087 0.030157754 0.004805251 0.01399744 -0.005903904 -0.0008797397 -0.015816431
0.008921579 0.036216125 -0.006471135 -0.008600111 -0.0063679377 -0.0053953957 0.0077961218 0.024076162
-0.017802611 0.008316276 0.03765772 -0.0017349416 0.027495973 -0.024197167 -0.016907804 0.00966763
0.0042687776 -0.04448105 -0.03575697 0.012260115 0.018400582 -0.0062910286 -0.004817488 -0.041277513
0.010523231 0.00039369668 -0.03788456 0.005234871 -0.038517065 0.021525105 0.04139012 0.023910383
-0.00025316613 -0.00795727 -0.028091865 0.025052492 -0.019419797 -0.025711501 -0.033664543 -0.017329967
0.037562624 0.02457474 -0.022945456 -0.025877407 0.018455619 0.0015041825 0.009004903 0.017514877
-0.019968344 0.0012397722 -0.016934056 0.01791055 0.0023669621 -0.03285965 0.013902361 0.011377792
0.0326879 -0.005955067 0.0025225098 -0.0053669307 0.001346524 -0.008910497 -0.0031220422 -0.003924503
-0.024806703 0.005433866 -0.0036121064 0.0067651346 0.005616554 0.04276848 0.01368697 -0.01745635
0.018727373 -0.0039579677 0.011319006 0.018689994 -0.029841857 -0.00033220096 -0.0067903385 -0.018072734
0.0048819114 0.04909894 -0.010471215 0.008868917 0.016656151 -0.030635102 -0.0025530243 -0.031367287
0.0061073946 -0.028417695 -0.015930785 -0.00475383 0.02525494 0.0012895109 0.023342801 -0.04778591
-0.022915356 -0.0024536604 -0.0034478463 -0.02414706 0.0017902103 -0.017975785 0.0059032515 -0.004778508
-0.0044859317 0.0019170162 -0.013731244 -0.00015512937 0.03600347 -0.019274894 0.0014332994 -0.011318318
-0.0012475699 0.011096098 -0.029073508 -0.0017481686 -0.011507837 -0.013796171 0.00018889722 -0.01360312
-0.016034571 0.003545628 0.0051059453 0.010312709 0.0055045867 -0.0043277214 -0.011142897 0.0058205314
-0.019023504 0.015862336 -0.0005289248 0.023950383 0.0040285545 0.0004028852 -0.010061231 0.010039401
0.021759639 0.049461015 0.012900261 0.019028703 0.026548335 0.01283996 -0.012592498 -0.008920231
0.021527126 0.016102616 -0.0028930726 0.022326171 0.027166916 0.0096309 -0.014150224 -0.0147028165
-0.0054224753 0.0012134792 -0.0014942769 -0.009875945 -0.026396263 0.0021511898 0.0039847563 -0.003907679
-0.0054942747 -0.007809944 0.012672502 -0.0023201914 0.0101826405 -0.010502809 0.006216715 -0.010395899
-0.00095240737 0.0060824486 -0.0241811 -0.015521813 -0.03613268 -0.019010749 0.025359903 0.017854903
-0.003307841 -0.0015188509 -0.012327625 0.03236854 0.032283183 -0.011509934 -0.010165692 0.0021190557
-0.009028069 -0.02602059 -0.032171354 -0.030671408 0.008317221 -0.026388243 -0.0018694286 0.028155744
-0.017775694 -0.014694786 -0.023969976 0.0062551294 0.004256447 0.017482048 -0.0003988828 -0.00997133
0.006251948 -0.0046361485 -0.034930713 0.010915676 -0.0070026643 0.02305846 -0.007777655 0.00990907
-0.0018057923 -0.011461983 0.014578946 0.013558898 0.03522617 -0.014511208 0.010434016 0.012439052
-0.02087513 -0.013952339 -0.018864974 0.026362302 0.009495643 0.0002903264 0.017596468 -0.008885843

act.action_out.fc_mean.bias f4 [4]
00000000: 8f1f c8bc f8b7 783c 8248 e9bb b56a 803c
-0.02442911 0.01518058 -0.0071192393 0.015675882

act.action_out.logstd._bias f4 [4, 1]
00000000: 8e87 f5bd 8dc0 bbbd 7dc1 01be 2865 b4bd
-0.11988746 -0.091675855 -0.12671466 -0.088083565
