checkpoint/best_mappo_seed111_run20260211_112812_envmamujoco-ant-2x4_ep7200_critic.pt (torch, 57586 bytes, 11 tensors)

base.feature_norm.weight f4 [126]
000000 f7 38 a7 3f 57 c3 2f 3e 95 83 3e 3f f1 0b 49 3f
       1.3064259 0.1716436 0.7441953 0.78533846
000010 81 fe 6e 3f bc 63 44 3f 87 ea 54 3e 9e ca 4c 3f
       0.9335709 0.7671468 0.2079259 0.7999667
000020 46 a2 47 3f 60 3a 63 3f c8 e7 80 3f a6 40 64 3f
       0.77981985 0.8876095 1.0070734 0.89161146
000030 c5 72 68 3f e3 e2 95 3f 6e c5 cc 3e 0d a6 1f 3f
       0.90800124 1.1709865 0.39994377 0.6236275
000040 fc e3 e7 3e 4d 11 19 3f e5 aa 88 3e f4 d5 40 3f
       0.45291126 0.59792024 0.26692882 0.75326467
000050 97 2c a1 3f a6 c0 06 3e 18 76 34 3f 7b e9 35 3f
       1.2591733 0.13159427 0.70492697 0.7105939
000060 24 51 58 3f 78 19 62 3f df 65 5b 3f 0c c5 50 3f
       0.8449881 0.8832011 0.8570232 0.8155067
000070 5e a9 5d 3f b0 d5 48 3f 92 f9 4c 3f a5 fd 73 3f
       0.8658656 0.7845106 0.80068314 0.95308906
000080 d1 10 7b 3f 19 c3 8c 3f b3 31 2e 3f cb 25 05 3f
       0.98072535 1.0997039 0.68044585 0.5201079
000090 07 3f 11 3f 39 02 33 3f 02 4b 99 3e 70 72 34 3f
       0.567368 0.69925267 0.2994004 0.7048712
0000a0 f3 36 7e 3f b0 c2 46 3e bf 91 2c 3f d0 27 8f 3f
       0.99302596 0.19410205 0.6740989 1.1184025
0000b0 35 ec 13 3f 8e 61 89 3f 6f cf 4c 3f b6 3a a8 3f
       0.577823 1.0732896 0.8000402 1.3142917
0000c0 f3 a5 7c 3f ee 19 6e 3e 7e f5 65 3f c8 f4 92 3f
       0.9869072 0.23252079 0.89827716 1.1480951
0000d0 d0 8d b7 3f 62 9e f6 3f 28 97 1d 40 76 92 2c 40
       1.4340153 1.9267085 2.4623508 2.6964393
0000e0 6a b3 fe 3f 34 4a 9b 3f 4e 47 aa 3e e2 ab 79 3f
       1.9898503 1.213202 0.33257526 0.975279
0000f0 42 a0 f7 3e ad 8b d5 3e ef 1d 9d 3e 9e ec 97 3f
       0.48364455 0.41708127 0.306869 1.1869085
000100 44 bb 27 3e b0 1e 3b 3f 66 e7 83 3f 17 9f 69 3f
       0.1638003 0.730937 1.0304992 0.91258377
000110 a0 33 6c 3f 5b eb 5b 3f 07 4d 50 3f 66 01 21 3f
       0.92266273 0.85906 0.81367534 0.6289276
000120 ab 92 8a 3f e3 a3 51 3f b7 82 81 3f 23 c5 4d 3f
       1.082601 0.81890696 1.0118016 0.8037893
000130 48 bd 55 3f f1 84 2a 3f b5 83 08 3f 60 f7 29 3f
       0.83491945 0.666091 0.5332597 0.6639309
000140 8e ef 22 3f 93 c0 e3 3e 65 9d 09 3f 65 a2 ab 3f
       0.6364678 0.4448286 0.5375579 1.3408934
000150 1f ce f2 3d bb ba 4f 3f 76 43 72 3f 30 19 94 3e
       0.11855721 0.81144303 0.9463419 0.28925467
000160 23 4d 62 3f 7d 95 1c 3f 9b 51 5d 3f 87 f1 66 3f
       0.8839895 0.611656 0.86452645 0.9021229
000170 4b d1 60 3f 71 48 45 3f e2 03 89 3f 78 2b 7b 3f
       0.87819356 0.7706366 1.070431 0.98113203
000180 81 08 52 3f c8 af e0 3e 13 d0 2e 3f 79 a4 b7 3e
       0.82044226 0.4388411 0.68286246 0.3586767
000190 27 e1 1e 3f c4 7f 9e 3e 94 a8 f7 3e 5f e3 90 3f
       0.62062305 0.30956852 0.48370802 1.1319388
0001a0 25 8c a0 3e 1e 72 3c 3f 88 06 e2 3e ae 3a f1 3e
       0.31356922 0.7361163 0.44145608 0.47115082
0001b0 41 ff 5b 3f 3b 5c 61 3f a6 f3 b0 3f 48 48 88 3f
       0.8593636 0.8803136 1.3824356 1.0647058
0001c0 21 e5 89 3e 1a 68 76 3f 83 d0 9b 3f 8f 24 bd 3f
       0.26932624 0.96252596 1.2173008 1.4776782
0001d0 50 1e d1 3f 7a 97 24 40 cc 7a 23 40 d0 fd 06 40
       1.6337376 2.5717454 2.55437 2.1092415
0001e0 ce dd 98 3f d2 24 b8 3e ad b2 3c 3f 25 9c 12 3f
       1.194269 0.35965592 0.7371014 0.5726951
0001f0 da d2 04 3f 66 36 f6 3e
       0.51884234 0.48088378

base.feature_norm.bias f4 [126]
000000 d4 e6 66 be 14 27 42 3b 8e 53 1d 3d fd 1d 9c 39
       -0.22548991 0.0029625343 0.038409762 0.00029776982
000010 06 31 b5 bc 66 9e b5 3c fa f4 00 bd 19 b5 e8 3c
       -0.022118103 0.022170257 -0.031483628 0.028406667
000020 54 dc 71 3c d3 d4 12 3d db 57 f6 3c 0b a3 cf 3c
       0.014762003 0.035847496 0.03007119 0.0253463
000030 03 a3 a3 3b 96 0a 24 3c c7 ba 28 3c da 04 9d 3b
       0.0049937977 0.0100122895 0.010298437 0.004791838
000040 d2 18 b7 3d 7b f6 dd ba 2c 58 bf 3b 79 49 ac bc
       0.08940281 -0.0016934419 0.0058393683 -0.021031128
000050 87 7e fa 3d 6a df 2f bc 28 54 8b bb 59 7e 12 3c
       0.122311644 -0.010734418 -0.0042519756 0.008941256
000060 0a 91 1b bc 03 d8 ee 3b 60 0e 83 3c 54 58 22 3c
       -0.009495029 0.007288934 0.015998065 0.009908754
000070 58 50 8f 3c 6f e5 00 bd c3 0d 3f 3c 16 9a 3f 3c
       0.017494366 -0.031468805 0.011660996 0.011694452
000080 e6 8f 03 bc 59 b2 c1 3d b3 c6 24 3d 76 28 06 3d
       -0.0080299135 0.09457845 0.040228557 0.03275343
000090 62 eb 34 3d 15 a2 6f bc 9d 26 0b 3c c5 1c 34 3d
       0.04416979 -0.014626046 0.008493093 0.04397275
0000a0 6f e6 e4 3c cc e3 28 3e 35 12 ba 3c 0a 97 07 3b
       0.02794191 0.16493148 0.02271376 0.0020689392
0000b0 57 88 a0 bc 10 54 b3 3c 91 f8 8a bb 9e f6 c8 3d
       -0.019596262 0.02189067 -0.004241057 0.098126635
0000c0 d2 06 b6 3b c3 d8 f2 3c 23 ea 08 bd 5a 41 e6 3d
       0.0055550123 0.029644376 -0.033426415 0.112429336
0000d0 72 33 49 be 61 cf 16 be ff a6 aa 3b 92 9d 98 3d
       -0.19648531 -0.14727546 0.0052078958 0.07451929
0000e0 0e 2c 95 3d 71 a3 8e bc 18 81 83 bc 85 6c 31 3c
       0.072837934 -0.01741192 -0.016052768 0.010829096
0000f0 ae 35 44 bc 13 8e 1e 3d 17 23 2b bd 74 8a c4 3d
       -0.011975689 0.03870971 -0.04178151 0.0959672
000100 f7 16 66 bc a9 0c 08 bd d8 46 b4 3c 7a e5 6b 3c
       -0.014043561 -0.0332152 0.022006437 0.014397973
000110 95 0b c5 bb 30 ac a3 3c d3 aa 70 3b 2c 84 7c 3c
       -0.0060133436 0.019979566 0.0036722913 0.015412372
000120 d2 83 fa 3c 94 6e 54 bc b0 ac 76 3c 5e 12 4a bc
       0.030580435 -0.012965817 0.01505582 -0.012333481
000130 56 5d 17 3c ab 66 02 3d e7 61 9b 3d 1c ce 82 3c
       0.009238562 0.031836193 0.07587033 0.015967421
000140 48 00 05 bb 58 98 a1 bb 98 07 95 bc 37 73 09 be
       -0.0020294357 -0.004931491 -0.018192098 -0.13422857
000150 e0 a9 e8 bd 6b 09 57 3b 73 ea 90 3b f6 76 8f bd
       -0.11360526 0.003281201 0.00442248 -0.07005112
000160 6b 3d a7 bc 14 21 ac 3b 33 2b 3e 3b bf d6 64 3c
       -0.020415029 0.0052529667 0.0029017448 0.013967215
000170 52 f8 27 bb d1 dd 65 bc d6 94 b4 3c 56 2f a3 3c
       -0.0025630188 -0.014029936 0.022043627 0.019920032
000180 e6 51 38 3d 0b 44 9d 3d 1a 58 16 bd 74 e2 94 3b
       0.04499998 0.07678994 -0.036705114 0.004543597
000190 18 c9 4e 3d 22 1d 8e bc ff b9 d5 3c 42 06 16 3c
       0.050484747 -0.017347876 0.026089666 0.009156765
0001a0 ae ea b7 bc d1 ce bc 3c d2 31 d0 3c 13 40 2b bc
       -0.022450771 0.023047836 0.025414381 -0.010452288
0001b0 38 86 dd 3b 5f 5f 04 3c 7a 88 d6 3d c3 d6 3c 3d
       0.006760385 0.008079379 0.104752496 0.04610325
0001c0 e2 41 2c 3d ad 52 93 3d c2 7a 1e bc 94 c6 b1 bd
       0.04205502 0.071935035 -0.009672822 -0.08680454
0001d0 a8 f7 9f bd 17 a2 1e bd 30 fa 3f 3d af 3c 20 3d
       -0.078109086 -0.0387288 0.046869457 0.039120372
0001e0 77 16 a6 bd 99 a4 10 3c d2 07 19 3d 3f 49 00 3d
       -0.081097536 0.008828306 0.037360974 0.031319853
0001f0 38 09 93 3d 1b 91 c5 3d
       0.07179493 0.09646817

base.mlp.fc1.0.weight f4 [64, 126]
000000 00 92 ce bc 6d 6b 18 be 1c cc 50 3e 82 33 49 be
       -0.025216103 -0.1488473 0.20390362 -0.19648555
000010 99 17 a5 be e3 00 6f be b0 27 0b be 21 81 33 be
       -0.32244566 -0.23340182 -0.13589358 -0.17529728
000020 37 7d 95 be f4 3b 4e 3e 86 be b5 be a7 6a 49 be
       -0.29197094 0.20140058 -0.3549692 -0.19669591
000030 c7 9e 05 bf b9 c7 26 bd 5f 13 52 be 3f eb d2 be
       -0.521954 -0.040717814 -0.20515202 -0.41195104
000040 7f 6a 2e 3e 79 26 7a 3e 8c 9b 8c be 85 07 89 3d
       0.17032813 0.24428739 -0.27462423 0.06690887
000050 73 fe 8f be a7 6c 6d bd 38 b5 b4 be 4b 5b 87 be
       -0.28123817 -0.057964947 -0.3529451 -0.26436839
000060 97 ce 81 be c3 b4 e0 bc 7a 30 cc bd c5 05 ac be
       -0.25352928 -0.027429944 -0.09970184 -0.33598152
000070 bb 12 eb bd 4c a9 51 be 5f 44 39 be 01 12 74 3d
       -0.11478182 -0.20474738 -0.18092488 0.059587482
000080 02 16 5f be 51 32 2c 3d d0 ad db 3d 40 9e d6 3e
       -0.21785739 0.042040173 0.107265115 0.4191761
000090 f7 b9 be be 20 95 60 3d 20 d7 26 3e 3a 1c 8e 3e
       -0.37251255 0.054829717 0.16293001 0.2775591
0000a0 38 36 4b 3e db 23 19 3e 9a cd 05 be ab f4 9a be
       0.19844902 0.14955084 -0.13066712 -0.30264792
0000b0 de e4 62 be cf 8e b1 be 33 cd b6 be c4 2a 97 3d
       -0.22157618 -0.34679267 -0.3570343 0.07381204
0000c0 f8 39 99 3d 82 43 f2 bc fd 81 d7 bd ff 78 36 3e
       0.0748176 -0.029573206 -0.1052284 0.17819594
0000d0 9a bf 02 3f 66 72 23 3e 65 61 f5 bd b3 f9 39 3e
       0.5107361 0.15961608 -0.11981467 0.18161659
0000e0 0e 87 1a 3e f8 ea 07 3f 06 aa e3 3b 95 66 9b 3e
       0.15090582 0.5309291 0.0069477586 0.303517
0000f0 b7 f8 13 be 62 09 41 3e c2 db 15 3d 04 0a 74 bd
       -0.14450346 0.18851236 0.03658653 -0.059579864
000100 64 9f 57 be b0 50 b2 be d0 36 9d be 16 2d 2f be
       -0.21056896 -0.34827185 -0.3070588 -0.17107043
000110 6a 54 28 be c5 63 fc bd 2c cd 8a be 9f e2 2b be
       -0.16438451 -0.12323717 -0.2710966 -0.16785668
000120 92 71 8e be 24 bd 03 bf 4f f6 8b be 6a d3 3d be
       -0.27821022 -0.5146048 -0.27336356 -0.1853768
000130 cc 17 19 be 50 16 67 be ce 6b 0b 3e 9e 23 af bb
       -0.14950484 -0.22567105 0.13615343 -0.005344822
000140 5a 29 20 3e 86 91 17 3d 4a 85 af bc 91 49 ed 3e
       0.15640774 0.037004016 -0.021425862 0.4634519
000150 9e ed 82 be 9d 5c c5 be bb 80 fc bd a2 2b a1 be
       -0.25571913 -0.3854722 -0.12329241 -0.31478602
000160 0d 6d bd be f1 b4 55 be e8 87 fd be 03 b5 78 be
       -0.36997262 -0.20869805 -0.4951775 -0.242878
000170 4f c5 1d be 85 4a 9d be db 48 14 3e 98 9f 4a be
       -0.15407299 -0.30720916 0.14480917 -0.19787443
000180 d4 1d 36 be e5 ed 35 3c 66 45 02 3e 75 73 2e be
       -0.17784816 0.011104082 0.12721786 -0.17036231
000190 06 bc 4d 3e ab 0a fc bd 7d 29 08 3e 55 6f 54 be
       0.20091256 -0.12306722 0.13297077 -0.20745595
0001a0 91 9d 76 be 2f 23 91 be ef 52 27 bd 93 bc bc be
       -0.24083544 -0.28347155 -0.040850576 -0.3686262
0001b0 ee e7 53 be d2 4e 3a be 7d 5b 32 be 90 b9 52 3e
       -0.20693943 -0.1819413 -0.17417713 0.20578599
0001c0 7b 62 49 be 03 26 93 3e 97 05 a7 3d c8 c7 8d 3e
       -0.19666474 0.28739938 0.08155363 0.27691483
0001d0 ff 2e 99 3e 64 48 aa be a0 76 de 3d 42 d1 29 3d
       0.29918668 -0.33258355 0.1086247 0.04145933
0001e0 3e 3a 03 3f 85 42 24 3e 01 6c 1d 3e c4 74 82 3d
       0.51260746 0.16041 0.15373231 0.063699275
0001f0 96 5a b5 bc 16 64 b9 bd 56 e9 c1 3e f1 da 49 3e
       -0.022137921 -0.09052293 0.37873334 0.19712426
000200 83 3f a4 3e 62 c1 2d 3d 0e 34 0c be 05 91 a9 bd
       0.32079706 0.042420752 -0.13691732 -0.082796134
000210 1e c2 41 3b f6 e4 1f 3e 03 23 1c be d8 86 d0 bd
       0.0029565166 0.15614685 -0.15247731 -0.101819694
000220 cc 7c 32 3c bf 6d bb bd a5 1e 96 be 20 4a c4 bd
       0.010894012 -0.09151792 -0.29320255 -0.09584451
000230 76 09 93 bd d5 61 8d bd 93 1f d4 bd 94 b3 80 be
       -0.07179539 -0.069034256 -0.10357585 -0.25137007
000240 db b6 d6 3d b1 41 e6 bd 08 e4 ce bd c8 9b d6 3d
       0.10484096 -0.112429984 -0.10102087 0.10478932
000250 ba 28 45 be 0e fe 3e 3d 67 b5 a4 be e8 1c da 3d
       -0.19253817 0.046629004 -0.3216965 0.10650045
000260 92 7a 5f 3c 65 5e 53 be cd e7 12 3e 3d b2 a9 bd
       0.013640063 -0.20641477 0.14346237 -0.082859494
000270 66 a3 6a bd 6f 0a 11 3e b8 90 80 bb 15 06 14 3e
       -0.057284735 0.14164136 -0.003923502 0.14455445
000280 d1 bc f6 3d be 90 2d 3e 2a ee 00 3d 51 5f cc bd
       0.120477326 0.16949746 0.03147713 -0.09979118
000290 86 96 c8 bc 14 5c 21 be d6 ef 80 bd 8e c6 93 bd
       -0.024485838 -0.15757781 -0.06295745 -0.07215606
0002a0 7d 35 19 be 3d 0e 86 bd ef 31 11 3c 00 43 6b 3e
       -0.1496181 -0.065456845 0.008862003 0.22974777
0002b0 24 fb 86 3d 9c a1 76 3e df af d5 3d 93 44 44 3d
       0.0659087 0.24085087 0.104339354 0.04791696
0002c0 32 cc e6 3d e8 fe 07 bf 59 c9 0b 3f a9 ce 13 be
       0.11269416 -0.5312333 0.5460411 -0.14434303
0002d0 fe 79 08 bf fc 8b 57 3f 35 19 08 bf 31 ca 3e 3d
       -0.53311145 0.84197974 -0.5316346 0.046579544
0002e0 2a 2e 6f 3e 97 73 0b 3e 68 06 d3 be 1c cd 92 3e
       0.23357454 0.13618313 -0.41215825 0.2867211
0002f0 ea 16 84 be 3d 56 14 3d 69 1c 4c 3e ca 3a 31 bd
       -0.25798732 0.036215056 0.19932713 -0.043268956
000300 c0 c1 2f bd 42 9a 3f 3d 62 0a 85 3e 68 64 50 bd
       -0.042909384 0.04677797 0.25984484 -0.050877005
000310 b1 29 c6 3d 1b 4f b4 3d bf 7c 00 3e 83 40 3b be
       0.09675921 0.08804151 0.12547587 -0.18286328
000320 57 af a8 3c 54 66 3a bd a1 25 b0 bd bd 34 9e 3d
       0.020591421 -0.045507744 -0.08600927 0.07724903
000330 74 f0 31 3d ce 4a b1 3d 0e e4 25 be 28 98 56 3d
       0.043442205 0.08656846 -0.16200277 0.0523912
000340 04 ac 30 be 7d 74 77 bc 69 04 e8 3c 3b 03 60 be
       -0.17253119 -0.015103457 0.028322415 -0.21876232
000350 6b 2a 72 3d a7 b6 58 be b1 59 cd bc 26 78 f6 bd
       0.059122484 -0.21163426 -0.025067182 -0.12034635
000360 81 9b 55 bc ca 82 ad 3e 6d b3 16 be a8 d2 68 3d
       -0.013037563 0.33888847 -0.14716883 0.056841522
000370 d9 a2 98 3d 5b 6e 9b 3c 73 9b a7 3d da 2b 30 be
       0.07452936 0.01897352 0.081839465 -0.17204228
000380 4f d5 50 3e 60 6f 46 be 85 4c 2f be 9f 28 56 3d
       0.20393871 -0.19378424 -0.17119034 0.052284833
000390 af 5d be bd 09 7a 82 3e bb df ed bd ed ce 90 bd
       -0.092952125 0.2548373 -0.11614939 -0.07070718
0003a0 88 53 42 3e 20 af 10 bc fe e7 1b 3e 97 83 eb 3d
       0.18977177 -0.008830816 0.15225217 0.11499708
0003b0 d4 4f 3f 3d 63 ed 60 be f3 43 49 be 46 6d 84 3e
       0.04670699 -0.21965556 -0.19654827 0.2586462
0003c0 c3 45 a6 3b 2f aa b6 3e 3e ec 3e be c5 eb 18 bf
       0.005074234 0.35676715 -0.18644807 -0.59734756
0003d0 33 56 75 3f 23 00 11 bf e7 b2 c0 bd a4 00 e5 3e
       0.95834655 -0.56640834 -0.09409123 0.4472705
0003e0 1e 2e 91 3d f8 d6 a6 be 57 5c 35 3e 57 fb 9a be
       0.07088874 -0.32585883 0.17711006 -0.30269882
0003f0 c8 4a 49 3d 0a 16 dd 3d b0 2d 9a be bf 93 e1 bd
       0.049143583 0.10795219 -0.30112982 -0.110145085

base.mlp.fc1.0.bias f4 [64]
000000 0b 40 56 3e be 4a 86 3d fc a7 07 bd e8 04 31 be
       0.20922868 0.06557225 -0.033119187 -0.17287028
000010 c1 46 01 bd 83 89 0a bc 59 30 9c 3d fe 05 4f bd
       -0.031561617 -0.008455637 0.07626409 -0.050542824
000020 6f 9a 81 3d 12 eb dd 3d fe 15 a9 3d 33 a5 04 3e
       0.06328284 0.10835852 0.08256148 0.12953644
000030 6c 5b b0 bc cf 20 12 3e fb 5d 08 bc db 9a a6 bd
       -0.021527968 0.14270328 -0.008323188 -0.08135005
000040 d8 53 f7 3d b6 de 2d be a7 a7 50 bd 1c 25 dc bc
       0.12076539 -0.16979489 -0.050941136 -0.026873164
000050 b8 c9 e2 bb 83 85 f7 3a 2c 54 50 3d 9f 7d 8d 3e
       -0.0069210194 0.0018884394 0.050861523 0.27634904
000060 bd 91 02 3e bd 49 57 be de d8 75 3c 57 b1 6f be
       0.12750907 -0.21024223 0.015005318 -0.23407494
000070 49 d3 40 3d 54 7f 10 3d b7 90 7b 3d bc b0 2e 3d
       0.047076497 0.03527768 0.061417308 0.042649016
000080 d0 f8 82 bd 2f bf f7 3d cb 0a b6 bc 27 ca 88 bd
       -0.063951135 0.12097012 -0.022221943 -0.066791825
000090 29 d6 d1 3c 89 cc 91 3d 58 1d a3 3e 91 17 f6 3d
       0.025614815 0.0711909 0.31858325 0.12016214
0000a0 e6 d7 09 bd 35 40 0e be 35 7f 3a be 06 01 61 be
       -0.033653162 -0.1389168 -0.18212588 -0.21973047
0000b0 e4 e4 30 be c0 15 94 3e 2c aa 99 bd d6 84 66 3e
       -0.17274815 0.28922844 -0.07503161 0.2251161
0000c0 3b 4b 3e 3d da 21 52 3c 25 61 d7 3d bc 9c 11 3d
       0.046458464 0.012825454 0.10516576 0.035549864
0000d0 ad b1 bc 3c 96 f0 49 3d 2e e4 b8 3c ad 07 21 be
       0.023033941 0.049301706 0.022569742 -0.15725584
0000e0 b8 c8 cd 3d 31 0f 29 3e d9 d8 f7 bd 57 55 73 3e
       0.1004805 0.16509701 -0.12101907 0.23763023
0000f0 fa 76 22 be 1b 40 3e 3e 42 65 73 3d b0 d5 0a bd
       -0.15865698 0.18579142 0.05942274 -0.033895195

base.mlp.fc1.2.weight f4 [64]
000000 4d 53 7a 3f ab a0 98 3f 40 f2 5a 3f 5a f4 7d 3f
       0.97783357 1.1924032 0.85525894 0.99200976
000010 f0 ed 74 3f 20 71 6c 3f 07 d7 7d 3f 34 77 5f 3f
       0.95675564 0.92360115 0.9915623 0.87291265
000020 5a 12 7a 3f 82 d4 9b 3f 6d 00 6d 3f 2f 52 7e 3f
       0.9768425 1.2174227 0.92578775 0.9934415
000030 2a 9c 6c 3f 2a 26 7f 3f cf 5a ac 3f ee 8b 89 3f
       0.9242579 0.9966761 1.3465213 1.0745828
000040 6c f5 85 3f a5 65 76 3f 85 fd 87 3f b1 3c 85 3f
       1.0465522 0.9624885 1.0624243 1.0409147
000050 d3 15 c6 3f 3b 07 a4 3f 03 0e 82 3f c6 a5 8a 3f
       1.547541 1.2814707 1.0160526 1.083184
000060 aa fe a5 3f 7e 7c 52 3f 38 e5 67 3f b2 cc 9c 3f
       1.2968342 0.8222121 0.90584135 1.2249968
000070 4e 37 69 3f 0e 72 7a 3f 26 0e 85 3f e8 ba 84 3f
       0.91100013 0.97830284 1.0394943 1.0369539
000080 51 af 7e 3f 27 06 6b 3f b1 9a 79 3f 54 d3 77 3f
       0.9948626 0.9180626 0.97501665 0.96806836
000090 32 b0 50 3f 82 44 96 3f b6 2c d9 3f 5b 54 94 3f
       0.8151885 1.1739657 1.696677 1.1588243
0000a0 94 f5 83 3f 6f 29 7d 3f d9 b3 6a 3f cd 18 85 3f
       1.030932 0.9889135 0.91680676 1.0398194
0000b0 4f 5f a4 3f 3a ce 2c 3f 10 a3 49 3f 1e bd 9d 3f
       1.2841586 0.67502177 0.7876444 1.2323339
0000c0 01 b2 7e 3f 8f 16 87 3f 61 1e 38 3f 11 ed a7 3f
       0.9949036 1.0553759 0.71921355 1.3119222
0000d0 86 20 76 3f cd 2f 6c 3f 20 c9 91 3f 35 55 66 3f
       0.96143377 0.9226044 1.1389503 0.89973766
0000e0 dc 91 56 3f 61 af 99 3f 79 c7 73 3f c6 0d 82 3f
       0.83816314 1.2006646 0.95226246 1.0160453
0000f0 80 4b 8a 3f 21 d9 85 3f 1a 16 8b 3f 77 8c 78 3f
       1.0804291 1.0456887 1.086612 0.9708933

base.mlp.fc1.2.bias f4 [64]
000000 45 1a 12 3e d1 40 ba bc 5e da 2a 3e bf c8 fe bd
       0.14267834 -0.022735985 0.16684863 -0.12440633
000010 6f 69 6f bd 81 9d 53 bd 47 d9 2e 3d 46 e6 10 3e
       -0.05845016 -0.05166388 0.04268768 0.14150342
000020 04 8c a3 bd d0 ff 08 be 0d 11 e4 3d a6 42 44 3e
       -0.0798569 -0.13378835 0.11136065 0.1916605
000030 55 1d e4 bb 32 9f 99 bd f4 9e 90 3d 75 85 99 3a
       -0.0069615045 -0.07501067 0.07061568 0.0011712747
000040 4d 7b 71 3d 29 8c fd 3c 68 89 ba 3d 23 a1 87 be
       0.05895548 0.030950623 0.091082394 -0.26490125
000050 6b 2c 34 bb 01 89 c5 bd ed e1 27 3d 68 25 12 3d
       -0.0027492295 -0.09645272 0.040986944 0.035680205
000060 b3 ac 91 bd b2 82 3d 3d 22 a7 8b bd 7b d5 2e 3d
       -0.07113018 0.04626722 -0.068189874 0.04268406
000070 49 5c f1 3d 6d a8 ce 3d 95 6e e9 3d a3 bd 35 be
       0.1178518 0.100907184 0.11398045 -0.17748122
000080 37 7b 29 bd 7b 22 0b 3e a7 76 a7 3c 20 5c 29 be
       -0.041377272 0.13587372 0.02044232 -0.16539049
000090 8c 5f c6 bd 4a d3 bc 3d 52 28 e4 3e c0 37 b3 3d
       -0.09686193 0.09219988 0.44562012 0.08750868
0000a0 cd 7f 06 bd bd 48 0c 3d 55 1d c6 bc 9f eb 26 be
       -0.032836724 0.034249056 -0.024183908 -0.1630082
0000b0 70 03 27 3c 8c 28 66 3e b4 82 80 3d 1e 61 ba bd
       0.010193691 0.22476405 0.0627493 -0.09100555
0000c0 0a 80 8b 3d 90 a9 4e be 0b a1 33 3d c4 06 f0 3d
       0.06811531 -0.2018187 0.043854754 0.117200404
0000d0 55 a4 a9 bc 37 87 87 3d ce 78 57 bd 5e 43 8d bc
       -0.020708242 0.06617587 -0.052605443 -0.017244037
0000e0 dc b3 98 bc 36 21 10 3e 3d 15 3e be 8f 6e 0e 3e
       -0.018640451 0.14075169 -0.1856279 0.13909362
0000f0 6f 59 99 bd 05 bc 92 3d 6d f9 64 be 04 6b 5a be
       -0.07487761 0.07164768 -0.22360773 -0.21329886

base.mlp.fc2.0.0.weight f4 [64, 64]
000000 55 1c 82 3e 08 ba 3b 3e aa 69 e7 3d 7a 27 80 3e
       0.2541224 0.18332684 0.11299451 0.25030118
000010 8b 0a 7a 3c 75 40 25 3e 95 c3 0c 3d 27 81 b8 3e
       0.015261303 0.1613787 0.03436621 0.36036035
000020 4f 3c ce 3e f1 67 35 be 79 2d 1b be 5f 9d da be
       0.40280387 -0.17715432 -0.15154065 -0.4269819
000030 a4 4c 84 3e c8 c3 8a bd f3 90 d9 be c7 1e f3 bd
       0.25839722 -0.067756236 -0.424934 -0.11871105
000040 c0 fa 97 be e0 54 bf bd 33 79 29 3e ef a2 f0 3d
       -0.29683495 -0.093423605 0.1655014 0.11749827
000050 77 55 8c be 74 b0 a2 be 37 d4 6c 3d 1b 45 f7 3d
       -0.27408955 -0.31775248 0.05781957 0.12073728
000060 0f 6a e0 bd cd 37 fc 3e 15 52 d4 3e 5f 9a a3 bd
       -0.10957729 0.49261323 0.41468874 -0.07988428
000070 e2 75 0a be 71 31 46 be c9 97 f3 3d 44 90 a3 3e
       -0.13521531 -0.19354798 0.11894185 0.31946003
000080 9d 7d 83 3e b3 e0 04 3e 22 4d b3 3e 89 5b 80 3e
       0.25681773 0.12976341 0.35019785 0.25069836
000090 bf d5 cc bd e9 2c 7e be 0f 97 b1 3b 3b 73 05 3e
       -0.10001706 -0.2482182 0.005419619 0.13032238
0000a0 76 13 70 3d 53 ca ab 3d b9 38 ee be f4 6e 96 3e
       0.05861231 0.083882 -0.4652765 0.29381526
0000b0 26 8b f1 bd cb e5 d7 3d 17 e2 b7 3e be 41 f1 3e
       -0.117941186 0.105418764 0.3591468 0.4712047
0000c0 41 25 73 3e d2 42 ed bc 7e 79 91 3c 74 ca 6b 3e
       0.2374468 -0.028962526 0.017758127 0.23026448
0000d0 cb f5 2f 3e 8c b2 bc b9 fa c7 84 3e 7b 25 d1 3c
       0.17183606 -0.00035991182 0.2593382 0.025530567
0000e0 22 de 80 be ba 39 8e bd ed 96 06 be db 68 cf 3d
       -0.25169474 -0.06944604 -0.13143511 0.101274215
0000f0 ed 39 5a 3d 15 9f 69 bc b7 11 60 3e aa 23 7a be
       0.0532779 -0.0142591195 0.21881758 -0.24427667
000100 ff 44 51 3d f2 65 c2 bd e9 ba b5 be 54 46 c5 3d
       0.05109119 -0.09492101 -0.35494164 0.09632555
000110 96 5e 11 bd 3e da 9a 3c 75 db b1 bd 47 8d 9c be
       -0.035490595 0.018902894 -0.08684436 -0.30576536
000120 cf 19 19 3e c1 50 f3 3d 9a f8 4e bd 7f ad 04 be
       0.14951251 0.11880637 -0.050530054 -0.12956809
000130 9e fc 1e be db 5e c2 3c a0 f6 12 bf 3d bf 56 3e
       -0.15526053 0.023726871 -0.5740757 0.20971389
000140 57 f5 5e be ef 0d c5 be f7 0d e7 bd 55 ac b1 3e
       -0.21773277 -0.38487193 -0.112819605 0.3470179
000150 08 f2 c7 bd f3 3a a4 3d af a4 cf bc 58 0c f3 bc
       -0.09762961 0.08019056 -0.025347082 -0.029668972
000160 a1 9f bc be 48 f5 d4 3e c6 a8 cb 3e 86 4f d0 3d
       -0.36840537 0.41593385 0.397772 0.10171418
000170 96 f7 0a 3e 66 ce f4 be b1 5a df 3c 7c 46 f6 be
       0.13571009 -0.4781372 0.027264925 -0.4810065
000180 92 9a 46 be fb 1d e7 bd 2e b5 11 be 58 f8 7e be
       -0.19394901 -0.11285015 -0.14229271 -0.24899423
000190 6a 51 9f be 51 ab 24 be 1e 96 ff bd ca df 6c 3e
       -0.31116802 -0.16080977 -0.124798045 0.23132244
0001a0 75 ec 4f bc 22 5d 3e 3f f6 c1 3c 3e 49 a2 89 bd
       -0.012690653 0.7436086 0.18433365 -0.067204066
0001b0 0a ae 04 be 6d 8b 50 bd 30 d8 3e 3c 07 0c 57 3e
       -0.12957016 -0.050914217 0.011648223 0.21000682
0001c0 ce 50 33 bd 85 d7 87 3e 93 6a 25 3d 85 41 2d 3f
       -0.043778233 0.26531616 0.04038484 0.676781
0001d0 ce 4f 63 be 8d f8 d6 be 64 20 5f be 16 91 e8 3d
       -0.22198412 -0.41986504 -0.217897 0.11355798
0001e0 40 49 97 bd d7 85 88 3d 50 85 11 be c9 7b 94 3e
       -0.07387018 0.06666153 -0.14211011 0.2900069
0001f0 a3 50 3a 3d 18 2a 6e 3e d5 00 10 bf 43 16 d3 3e
       0.045487057 0.23258245 -0.5625127 0.41227922
000200 22 d2 ac 3e 7b 02 21 bf 04 ee 3b bc 61 e9 c0 be
       0.3375407 -0.6289441 -0.011470322 -0.37678054
000210 f7 0b 0a be 20 ab 08 be eb 33 2b 3e ea d6 1d be
       -0.13481127 -0.13346529 0.16719024 -0.15414014
000220 bf b3 68 be 71 c8 c5 3d ef e8 5c 3c 4c a5 b9 be
       -0.22724818 0.09657372 0.01348327 -0.36258924
000230 c9 fd 9b be 31 2a 27 be 8a bc 5f 3e 17 30 af bc
       -0.3046706 -0.16324688 0.21849266 -0.021385236
000240 e9 2e 71 be 22 45 c9 3d ec 3c 46 bc be 8d 60 bd
       -0.23553051 0.09827639 -0.012099486 -0.054822676
000250 48 fa af 3e 1c 22 2d bf c0 1b 95 3e 82 de 35 be
       0.34370637 -0.6763017 0.29122734 -0.17760661
000260 d7 6b 47 be 6f 02 81 be f2 53 0a bf 29 85 ef bd
       -0.19474731 -0.2519717 -0.5403434 -0.1169532
000270 07 a1 38 be ea 7d a2 bd 5c 90 89 be d3 ae 2a 3e
       -0.18030177 -0.079341725 -0.2686795 0.16668253
000280 b1 41 4d 3e 2e 32 22 bc 28 93 a4 bd 83 3e 85 be
       0.2004459 -0.009899659 -0.0803588 -0.26024255
000290 c4 bb a0 bd dc 1b cf 3c 03 a4 0a 3d 14 76 24 bd
       -0.078483135 0.02528184 0.03384782 -0.04015167
0002a0 f4 3a 88 3b e6 4e 63 3e b4 43 68 3e 1b f6 68 3d
       0.0041574184 0.22198066 0.22682077 0.05687533
0002b0 0e 69 ff 3e c7 c2 d5 bc 3f fa a8 3e 93 a6 8b bc
       0.49884838 -0.026093854 0.33003423 -0.017047202
0002c0 b9 06 a2 bd 99 30 5a 3d 9d a6 6a be cf b2 aa 3e
       -0.079114385 0.053269003 -0.2291512 0.33339545
0002d0 03 ec 1b be 47 f0 a5 3d f4 d7 3c be b8 9c a4 bd
       -0.1522675 0.0810247 -0.18441755 -0.08037704
0002e0 08 59 04 bf 73 c4 0d 3d d4 53 b9 be 37 a7 0a be
       -0.5169835 0.034611177 -0.36196768 -0.1354035
0002f0 94 68 d4 bc 1e 2e 26 3e 92 cb 64 3c 8a 59 16 3f
       -0.025928773 0.1622853 0.013964551 0.58730376
000300 83 32 36 bd 35 72 a8 3e bd dd 7a be 53 ec ee 3d
       -0.044481765 0.32899633 -0.24498649 0.11666169
000310 33 93 9e be ec c6 88 be e5 cc 2d be 4e 77 f9 bc
       -0.3097168 -0.26714265 -0.16972692 -0.030452397
000320 66 25 b8 3e d7 5c 8f be ae f8 98 3e d3 0b 11 bd
       0.35966033 -0.2800052 0.29877228 -0.035411667
000330 95 5d 93 3d 2b c4 f2 bd 32 fd 16 3f 4d 25 c3 3e
       0.07195584 -0.11853822 0.58980095 0.38114396
000340 b5 dd 8c be c9 ff c5 3e 6b 11 8a bc d4 fd 9f be
       -0.275129 0.3867171 -0.016854009 -0.31248343
000350 bd 4a bf 3e e3 5b 6a be 4e b8 cb 3e ec d4 8e 3e
       0.37361708 -0.22886615 0.3978905 0.27896821
000360 95 1f d2 be eb 8d dc bc ec 1d d1 bd 5b b1 7f 3e
       -0.4103972 -0.02692314 -0.10210785 0.2497
000370 97 74 5b 3d bb 12 07 be e7 62 ff bd 1c f7 b3 bd
       0.053577986 -0.13190739 -0.12470036 -0.08787367
000380 37 ad 80 3d b4 42 09 3d 62 81 7b be 9d a8 df bd
       0.06283038 0.03351088 -0.24561074 -0.10920832
000390 54 2e 81 be 3e 99 bf be 74 b3 2a be 33 cc 9b 3d
       -0.25230658 -0.37421602 -0.16670018 0.07607307
0003a0 c3 21 8a be 1f 02 be bd 57 6a b9 3e a2 6b 58 bc
       -0.26978883 -0.09277748 0.36213943 -0.013209255
0003b0 b9 0e b7 3e 99 3c 89 be fd 0a c2 be 49 d4 91 be
       0.3575342 -0.26804045 -0.37899008 -0.28482273
0003c0 8a df aa bd 14 1a c9 be 7b 3f d9 bd 9f b5 09 3f
       -0.08343418 -0.3927771 -0.10607811 0.53792757
0003d0 64 a0 82 3e 88 b4 89 bd 2e 48 07 be 3e 27 07 bc
       0.25512993 -0.06723887 -0.13211128 -0.008249102
0003e0 96 b4 90 3e 93 07 d4 3e 2a 94 f6 bc 15 d7 b9 bd
       0.28262776 0.4141203 -0.030099947 -0.09074227
0003f0 14 cf 1a 3e df 7e 92 bd 61 71 d1 bc 04 01 60 be
       0.15118057 -0.07153105 -0.025566759 -0.21875387

base.mlp.fc2.0.0.bias f4 [64]
000000 8d 29 89 bd ed c4 8b bc 81 5b 9a bc 94 f0 b7 3d
       -0.06697378 -0.017061675 -0.01884246 0.089814335
000010 ee 02 20 be 0b 04 00 3d 7e 43 db 3e 4e 85 40 be
       -0.15626118 0.031253856 0.4282493 -0.18800852
000020 4c 58 f8 bd b1 b6 2f 3e 27 98 c9 bd 18 bf d9 bd
       -0.12126216 0.17159535 -0.09843474 -0.10632151
000030 50 77 1b be 10 4a c4 3e f0 ac 44 3e 5a 5c 26 be
       -0.15182233 0.38337755 0.19206595 -0.16246167
000040 ca cb 8c 3d fc 5b 40 bd ec b9 10 bd 8b a5 43 3e
       0.06874807 -0.046962723 -0.03533356 0.19106118
000050 ee 4d dd bd 77 65 63 bd 5b 93 0e 3f 4b ce 58 be
       -0.108058795 -0.055516686 0.55693597 -0.21172445
000060 0a ec 0b be 10 e3 22 3b af ff e2 bd 67 d7 9d 3a
       -0.1366426 0.0024854578 -0.11083924 0.0012042344
000070 e8 3e f1 bd bc df d9 3e b8 0e 27 3f da d9 0d be
       -0.117795765 0.42553508 0.65256834 -0.13852635
000080 e0 95 81 3d cc c9 a9 bc 14 f6 03 3f 40 27 16 be
       0.063274145 -0.020726107 0.5154736 -0.1466341
000090 36 84 55 3d f5 05 a9 3c c6 87 8f bd c5 69 68 bc
       0.05212804 0.020632723 -0.070083186 -0.014185374
0000a0 0b 4f 3f be 1f 5f e8 3e 22 36 6f 3d 04 55 30 be
       -0.18682496 0.45385072 0.058401234 -0.17219931
0000b0 f8 7c 39 3e 9b 6c 86 3c c3 d8 e2 bd b5 46 20 bd
       0.18114078 0.016409209 -0.110765 -0.03912993
0000c0 f6 e4 3c bd f5 b6 cf 3e ca ee d3 3d ad fa 93 bd
       -0.04611679 0.40569273 0.1034828 -0.07225547
0000d0 e8 93 73 3e 7f d5 0a be 32 36 66 bd c2 00 6a bd
       0.2378689 -0.13558005 -0.05620403 -0.05712963
0000e0 7f 73 ad bd 53 ae d3 bd db 07 8f 3d e4 38 ef bd
       -0.08469295 -0.10335984 0.0698392 -0.11680773
0000f0 0b 3f 8e bd ef 43 1c be 03 fd d1 bd 8b 15 c3 3d
       -0.06945618 -0.1526029 -0.10253336 0.09525593

base.mlp.fc2.0.2.weight f4 [64]
000000 5c 91 3f 3f 3a 56 ef 3e 20 54 12 3f e5 b6 77 3f
       0.74831176 0.46745473 0.57159615 0.9676345
000010 23 54 75 3f 17 58 4b 3f 54 80 bb 3e fc ab 69 3f
       0.9583151 0.7943129 0.36621344 0.9127805
000020 9d 89 52 3f e9 6e 81 3e 35 69 70 3f f5 a7 8f 3f
       0.8224123 0.2527993 0.93910533 1.1223131
000030 e2 79 2e 3f f4 bc 2d 3f d9 cf 6d 3f 40 ee 7f 3f
       0.6815473 0.67866445 0.92895275 0.99972916
000040 29 6c 3f 3f ac f3 f6 3e ca f2 51 3f d9 72 1a 3f
       0.74774414 0.48232782 0.8201109 0.60331494
000050 61 05 57 3f 4b 33 64 3f 00 e1 dd 3e 4f c2 7f 3f
       0.8399258 0.89140767 0.43335724 0.99905866
000060 d9 b5 4d 3f b3 78 27 3f af 10 0c 3f 73 09 66 3f
       0.803556 0.6541855 0.5471296 0.8985817
000070 72 4a 61 3f 88 5f fe 3e e2 b7 2c 3e bf 97 29 3f
       0.8800422 0.4968226 0.1686702 0.6624717
000080 f5 51 54 3f ad cc 82 3f ca 2b da 3e 0d aa 62 3f
       0.82937557 1.0218712 0.42611533 0.88540727
000090 b2 8b 6d 3f 54 cc a0 3e d1 94 4b 3f 01 5e 1d 3f
       0.92791283 0.3140589 0.7952395 0.61471564
0000a0 17 4d 76 3f 8d d4 83 3e 01 22 4d 3f 90 40 3b 3f
       0.9621138 0.257481 0.8013001 0.7314539
0000b0 64 0b 4c 3f e5 7f 22 3f 48 d6 5f 3f 2d aa 25 3f
       0.7970488 0.634764 0.8743634 0.6471279
0000c0 6e 00 f9 3e 1a b0 23 3f bd 5f 2e 3f 06 a0 09 3f
       0.4863314 0.63940585 0.68114835 0.537598
0000d0 04 a2 13 3f e0 b5 64 3f d8 a9 5b 3f da 03 5f 3f
       0.5766909 0.8934002 0.85806036 0.8711525
0000e0 97 b0 19 3f c6 45 5f 3f ab b6 cf 3e 7a 1c 38 3f
       0.6003508 0.8721584 0.40569052 0.7191845
0000f0 3f 76 59 3f 09 89 67 3f 6a 6e 47 3f e2 a2 50 3f
       0.84946054 0.90443474 0.77902853 0.8149854

base.mlp.fc2.0.2.bias f4 [64]
000000 05 82 9a bd 6f d3 89 3d be 92 a3 3d 31 96 83 bd
       -0.075443305 0.06729781 0.07986973 -0.06425131
000010 63 10 d1 bc 3f 24 84 bd 58 31 95 bd 89 8c 96 bc
       -0.02552051 -0.06452226 -0.07284802 -0.01837756
000020 97 59 24 bd a4 a2 8b bb ca bf 4b bc 99 57 1e bd
       -0.040124502 -0.0042613316 -0.012435863 -0.03865776
000030 86 20 8e 3d 49 11 82 bd 15 2c e3 3d 1c 4c f2 bc
       0.06939797 -0.06350953 0.11092392 -0.029577307
000040 bd 90 19 3e 9c 5c ba 3d 14 03 c7 bc 27 cb 22 be
       0.1499662 0.09099695 -0.02429346 -0.15897809
000050 ed f2 43 3b ee 0d d5 bc 66 b4 ad be e8 a0 05 3e
       0.0029899434 -0.026007619 -0.33926696 0.13049662
000060 32 f4 d6 3d 49 9b 76 3d 6f bf 10 3e e3 17 6a bd
       0.10495795 0.060206685 0.14135526 -0.057151686
000070 12 76 54 bc 57 cc f5 bc 32 05 de bd 56 1f 9b 3c
       -0.012967603 -0.030004663 -0.10840835 0.01893584
000080 36 9a 2e be 3e a5 8d 3d 13 b2 44 be d7 ca 7a bd
       -0.17051014 0.06916283 -0.19208555 -0.0612286
000090 41 23 51 3d 74 0e 54 3d 26 9c 96 3d 3b 34 8e 3e
       0.05105901 0.051771596 0.07354002 0.27774224
0000a0 58 b5 42 bd 7b 8d 54 be 2e 75 d5 3d ec e3 00 3e
       -0.047536224 -0.20757096 0.10422741 0.12586945
0000b0 8b 00 57 bc 79 89 52 bc 06 81 21 ba 25 f2 75 3d
       -0.013122688 -0.012850159 -0.00061608886 0.06004538
0000c0 1f ae 60 3e 3f 07 74 be b9 9a a3 3d 4f a6 fa 3d
       0.21941422 -0.23830889 0.079884954 0.12238752
0000d0 fb dc 0e 3e 12 26 44 bd 71 27 fe 3d 2d 1a 27 3e
       0.13951485 -0.04788787 0.124098666 0.16318579
0000e0 1a 9b d3 3d 51 30 2f bd 01 01 e1 bd 4b 68 81 3c
       0.10332318 -0.042770687 -0.109865196 0.015796801
0000f0 fd 4a 89 bd 97 9c 32 bd 9d 24 fb bc f4 e8 d2 3d
       -0.06703756 -0.043606367 -0.030657107 0.102983385

v_out.weight f4 [1, 64]
000000 c3 b2 9b bd 06 51 6f bc 11 6f 72 3c 4a 25 57 be
       -0.076024555 -0.01460672 0.014796988 -0.21010318
000010 77 95 ce bd e1 ef bf bd 79 22 33 bd 64 9a f1 bd
       -0.10087102 -0.09371925 -0.043734048 -0.11797026
000020 73 ba d6 bd 94 bc c5 3c 57 24 cc bd d0 47 3e be
       -0.10484781 0.024137773 -0.09967869 -0.18582082
000030 5b 92 25 3d e2 d0 64 3d 9f 48 47 3e 48 a7 03 be
       0.04042278 0.05586327 0.19461296 -0.12856781
000040 2b f6 a1 3d ae 11 4d 3d bd 1a 87 bd 27 a0 e9 3c
       0.07908281 0.05006569 -0.06596897 0.02851875
000050 6d 7a a5 bd d7 68 e1 bd 0c 31 b2 3d 6a bb 2e 3e
       -0.080799915 -0.11006325 0.08700761 0.1706368
000060 cb c9 eb 3d 35 b6 6a 3d f0 f8 94 3c 37 67 e9 bd
       0.11513098 0.057302672 0.018185109 -0.1139664
000070 3e fc 9f bd 78 3a 96 3c 96 86 8f bc b8 27 ae bd
       -0.07811783 0.018338427 -0.01752023 -0.085036695
000080 47 44 aa bd 1c 15 42 3e 7e 4d b9 bd fc 35 60 be
       -0.08313804 0.18953365 -0.090479836 -0.21895593
000090 11 d0 0c 3e db ef 05 3d 57 29 e2 3d d2 58 d4 3d
       0.13751246 0.032699447 0.11043041 0.10368504
0000a0 f3 01 e2 bd e9 54 83 3b 20 e2 11 3e ef 83 82 3d
       -0.11035528 0.004007925 0.14246416 0.063728206
0000b0 66 53 bf 3d a2 75 a4 bd 83 97 ff bd a0 0d 1c bd
       0.09342079 -0.08030249 -0.124800704 -0.03809893
0000c0 59 4e db 37 c2 e5 5c bd a6 5c 74 3c 22 c4 47 bb
       2.6143318e-05 -0.05393005 0.014914667 -0.0030481895
0000d0 81 ec 62 3c a7 26 ef bd 6a 3d 89 3d 25 94 e7 3d
       0.013850332 -0.11677294 0.06701167 0.11307553
0000e0 4b d5 57 bd 2e 51 08 be a8 c5 b1 3b 9c d0 89 bd
       -0.052693646 -0.13312218 0.005425174 -0.06729242
0000f0 15 cc 01 be 83 e2 e5 bd 3c 90 70 bd ce 53 88 3d
       -0.12675507 -0.11224844 -0.058731303 0.066566095
