checkpoint/best_mappo_seed111_run20260211_112811_envmamujoco-swimmer-2x1_ep200_critic.pt (torch, 28002 bytes, 11 tensors)

base.feature_norm.weight f4 [12]
1.0379338 1.0893775 0.9805939 1.0366417 1.049886 1.0174029 1.0264201 0.9712276
0.9222582 1.0089229 1.0039802 0.96123695
00000000: 04db 843f b970 8b3f 3408 7b3f adb0 843f
00000010: aa62 863f 423a 823f bc61 833f 5fa2 783f
00000020: 1d19 6c3f 6324 813f 6c82 803f a013 763f

base.feature_norm.bias f4 [12]
-0.03349815 0.035404895 -0.0012760336 -0.048596986 -0.02335304 -0.032351285 -0.04518787 0.03285557
0.032607816 0.025817575 -0.00086628867 0.000923576
00000000: 5b35 09bd b904 113d 9540 a7ba a20d 47bd
00000010: e04e bfbc c882 04bd ea16 39bd 9093 063d
00000020: c68f 053d 617f d33c a617 63ba 231c 723a

base.mlp.fc1.0.weight f4 [64, 12]
0.09824569 0.17226678 0.1045799 0.016246043 -0.09369049 0.13277541 0.24499002 0.0668662
-0.1366154 -0.05708262 -0.23537508 -0.08027818 -0.41537318 0.07391254 -0.078747965 0.08087912
0.2500097 0.2409844 -0.12454864 0.25540444 -0.25272015 -0.13387193 -0.11954195 -0.2986614
-0.032091867 0.18941662 -0.24381325 -0.36008948 -0.12387862 -0.11390912 0.02815998 0.33040714
-0.03438518 0.2836814 0.09448778 0.040580068 0.14625233 -0.21503761 0.14680585 0.054699883
0.21372733 0.008542602 0.18516581 0.010227149 0.035183195 0.104100935 0.054031935 -0.22579752
-0.20804498 -0.021342486 -0.017644042 0.07838848 -0.21942359 -0.21124165 0.014604183 -0.19930927
-0.28337783 -0.37261143 -0.123791106 0.15331805 0.09037863 -0.24387981 -0.28183782 0.011053781
-0.072845474 0.10688277 0.23428705 0.10786718 -0.17548396 -0.057713185 0.25189322 0.06532094
-0.07254945 0.2874928 0.025998494 0.45605996 0.16578771 0.07766465 -0.05743222 0.16161668
-0.15648676 -0.08393834 -0.057730243 0.09216207 -0.23442265 -0.35230178 0.0044591557 0.09061047
0.0270027 0.15617485 0.27534422 -0.13041435 0.23391767 0.18390763 0.1275965 -0.16683418
-0.016183065 -0.16087863 -0.081726536 -0.11672311 -0.08386403 -0.12721986 0.08110995 -0.25725266
0.017193124 0.08707619 -0.2745425 -0.093598306 -0.11843223 0.5400629 0.27343327 -0.12039174
-0.11153467 0.066012114 -0.18908864 -0.007301407 -0.37535077 -0.038617667 0.15494758 0.23927635
-0.15891397 0.027385455 -0.12717396 -0.29264674 -0.10909207 0.31572375 0.26722983 0.09737962
-0.077822335 -0.13888603 -0.10274695 -0.112274446 -0.07767284 -0.044762377 -0.046048753 0.15807872
-0.0017027752 -0.11589606 0.103630796 0.4552018 0.2114461 -0.20743638 0.012441817 -0.19676183
0.23536304 -0.3999609 0.021819683 0.22827113 -0.09708334 0.14531092 0.12911823 0.050245546
-0.06581216 -0.07239503 0.08806585 0.3090912 -0.24233995 0.3193895 -0.04254508 0.23852284
-0.22331087 -0.20103738 -0.08706833 0.3072732 0.082570456 -0.04168168 0.0999874 -0.08376468
0.049002532 0.0046720766 0.0869589 0.097181216 -0.120467186 0.19966584 0.2688918 0.09978256
0.1947488 0.012669239 -0.132981 -0.014577776 -0.3512119 0.14711903 -0.06121598 -0.19486344
-0.061595384 -0.31354973 -0.302849 0.114976875 0.0114814965 0.22237271 -0.18606895 0.14634709
-0.12937303 0.06837425 0.005230385 -0.034314193 0.281334 0.059459023 -0.15302862 0.06063789
0.10600554 0.16699307 0.07811664 -0.006451925 0.07732744 0.11310548 -0.32839677 0.08135841
0.19688106 0.16640532 -0.0929259 -0.12014956 0.21020038 0.008250628 -0.09231138 -0.05819711
0.11654592 0.24363165 0.13151425 -0.05849271 -0.23854591 0.09300275 -0.011089938 0.08983942
0.2132152 -0.4997124 0.023761807 -0.08433594 -0.35845354 -0.35586223 -0.052665204 0.20285085
0.09972509 -0.011672464 0.13829397 -0.11916516 -0.03430377 -0.007114888 0.36062336 0.1627112
-0.21843353 -0.1305377 -0.07978929 0.15178327 0.20611553 0.30255806 -0.11875857 0.009730311
0.31999087 0.00054563035 -0.1404841 0.26297656 -0.2839003 0.26990736 0.46236324 -0.0103281
00000000: 0935 c93d b466 303e fd2d d63d 6c16 853c
00000010: cde0 bfbd 47f6 073e aade 7a3e 25f1 883d
00000020: e8e4 0bbe 77cf 69bd 2a06 71be e368 a4bd
00000030: cbab d4be 755f 973d 9d46 a1bd f4a3 a53d
00000040: 4501 803e 9dc4 763e 5b13 ffbd 5fc4 823e
00000050: 8964 81be b915 09be 69d2 f4bd 26ea 98be
00000060: c372 03bd 6ef6 413e 2eaa 79be a65d b8be
00000070: 13b4 fdbd 2f49 e9bd c2af e63c 202b a93e
00000080: 79d7 0cbd b03e 913e cf82 c13d 4937 263d
00000090: 2cc3 153e d232 5cbe 4654 163e fc0c 603d
000000a0: 56db 5a3e 45f6 0b3c 1b9c 3d3e c68f 273c
000000b0: 411c 103d df32 d53d 9750 5d3d 7737 67be
000000c0: be09 55be 70d6 aebc 3d8a 90bc 248a a03d
000000d0: 94b0 60be bb4f 58be 6246 6f3c bb17 4cbe
000000e0: e616 91be edc6 bebe 3186 fdbd 68ff 1c3e
000000f0: 6e18 b93d a1bb 79be 0c4d 90be eb1a 353c
00000100: 0230 95bd 5be5 da3d f2e8 6f3e 78e9 dc3d
00000110: 11b2 33be a964 6cbd 26f8 803e fcc6 853d
00000120: ce94 94bd 4232 933e cbfa d43c b180 e93e
00000130: 41c4 293e a50e 9f3d 0c3e 6bbd d87e 253e
00000140: 113e 20be dde7 abbd 8c76 6cbd 78bf bc3d
00000150: 7e0c 70be e660 b4be 1c1e 923b fb91 b93d
00000160: c434 dd3c 4dec 1f3e ebf9 8c3e 578b 05be
00000170: 1d88 6f3e 4852 3c3e a8a8 023e 94d6 2abe
00000180: 5992 84bc 5ebd 24be 3e60 a7bd 870c efbd
00000190: e8c0 abbd ec45 02be f91c a63d 9fb6 83be
000001a0: 98d8 8c3c 0055 b23d d690 8cbe 78b0 bfbd
000001b0: 998c f2bd 9041 0a3f 72ff 8b3e f28f f6bd
000001c0: 4a6c e4bd 5c31 873d 74a0 41be a440 efbb
000001d0: fa2d c0be 8f2d 1ebd 94aa 1e3e dc04 753e
000001e0: 58ba 22be 7657 e03c e439 02be cbd5 95be
000001f0: aa6b dfbd 8ba6 a13e 59d2 883e f76e c73d
00000200: 5161 9fbd 2438 0ebe fe6c d2bd 25f0 e5bd
00000210: f012 9fbd c158 37bd 9e9d 3cbd 63df 213e
00000220: a82f dfba ea5a edbd 623c d43d 3610 e93e
00000230: 5485 583e 346a 54be c3d8 4b3c ef7b 49be
00000240: 0203 713e adc7 ccbe 31bf b23c e8bf 693e
00000250: a1d3 c6bd 63cc 143e 9237 043e 46ce 4d3d
00000260: 87c8 86bd d843 94bd de5b b43d 3441 9e3e
00000270: f727 78be 0587 a33e c043 2ebd 553f 743e
00000280: 9bab 64be bedc 4dbe e150 b2bd ea52 9d3e
00000290: b31a a93d 69ba 2abd 32c6 cc3d d18c abbd
000002a0: e1b6 483d 3818 993b 8217 b23d f206 c73d
000002b0: 80b7 f6bd 3475 4c3e 30ac 893e cc5a cc3d
000002c0: 3b6c 473e a492 4f3c 2c2c 08be a0d7 6ebc
000002d0: 0cd2 b3be 5fa6 163e 9cbd 7abd 488a 47be
000002e0: 714b 7cbd 9789 a0be 060f 9bbe ff78 eb3d
000002f0: e31c 3c3c acb5 633e dc88 3ebe 03dc 153e
00000300: 5d7a 04be cc07 8c3d a663 ab3b 0a8d 0cbd
00000310: 030b 903e 4e8b 733d 89b3 1cbe 705f 783d
00000320: 6f19 d93d 3b00 2b3e 9efb 9f3d ab6a d3bb
00000330: d95d 9e3d d9a3 e73d 9f23 a8be 3d9f a63d
00000340: 309b 493e 2866 2a3e ef4f bebd f910 f6bd
00000350: c53e 573e a42d 073c c00d bdbd 1860 6ebd
00000360: a1af ee3d 937a 793e acab 063e 0d96 6fbd
00000370: 6145 74be 3a78 be3d 92b2 35bc bbfd b73d
00000380: 1655 5a3e 4eda ffbe 1fa8 c23c 52b8 acbd
00000390: 3987 b7be 9333 b6be 78b7 57bd 22b8 4f3e
000003a0: ab3c cc3d dd3d 3fbc ef9c 0d3e dd0c f4bd
000003b0: 1c82 0cbd 0224 e9bb a0a3 b83e c49d 263e
000003c0: 0aad 5fbe adab 05be 9168 a3bd 136d 1b3e
000003d0: f30f 533e e4e8 9a3e b137 f3bd e26b 1f3c
000003e0: d8d5 a33e a208 0f3a 10db 0fbe dda4 863e
000003f0: 615b 91be 4c31 8a3e e0ba ec3e 3137 29bc

base.mlp.fc1.0.bias f4 [64]
-0.0013802496 0.0006018749 0.06140191 -0.015349243 0.0018140536 0.008805563 -0.023975572 -0.06672413
-0.004309412 0.017157353 0.0030745994 -0.017389962 -0.00715598 0.039893832 -0.006504432 0.022391886
0.02419359 -0.009951539 0.024931772 -0.001436298 -0.026835896 0.020027606 0.0052955593 0.019011306
-0.012049003 -0.017422965 0.01776155 0.026895873 0.021084972 -0.0042785425 0.017108604 -0.01934777
-0.0068978276 0.002592222 -0.025842585 -0.007558215 0.0067747356 0.020915052 -0.021606566 -0.014398883
-0.022454606 -0.025472332 -0.007379161 0.018751554 -0.058357112 -0.011951349 0.047544215 -0.0056068003
0.011604496 -0.02892382 0.053258996 0.028841112 0.04956294 0.06741747 0.075801656 -0.007273712
-0.006257437 -0.005118748 0.0137681365 -0.04000753 0.028919319 0.03090074 -0.011014882 -0.0015332722
00000000: 7ee9 b4ba 24c7 1d3a 9280 7b3d 647b 7bbc
00000010: 8ac5 ed3a 3545 103c 6b68 c4bc a9a6 88bd
00000020: f835 8dbb 948d 8c3c 387f 493b 6575 8ebc
00000030: b67c eabb b767 233d 2123 d5bb 306f b73c
00000040: a331 c63c c80b 23bc b73d cc3c 2a42 bcba
00000050: f4d6 dbbc ef10 a43c 5f86 ad3b 99bd 9b3c
00000060: 2e69 45bc 9bba 8ebc ac80 913c bc54 dc3c
00000070: 64ba ac3c 0433 8cbb 5827 8c3c 377f 9ebc
00000080: 2c07 e2bb 45e2 293b d4b3 d3bc e7aa f7bb
00000090: 9afe dd3b 0b56 ab3c 4100 b1bc 4be9 6bbc
000000a0: b9f2 b7bc 5aab d0bc e4cc f1bb dc9c 993c
000000b0: de07 6fbd 97cf 43bc b9bd 423d 40b9 b7bb
000000c0: c920 3e3c a6f1 ecbc 1b26 5a3d 3244 ec3c
000000d0: 8202 4b3d 2c12 8a3d e63d 9b3d 5258 eebb
000000e0: 300b cdbb 2cbb a7bb c093 613c f0de 23bd
000000f0: 35e8 ec3c 8c23 fd3c c377 34bc 14f8 c8ba

base.mlp.fc1.2.weight f4 [64]
0.98394835 0.99020576 1.0464115 1.0057802 0.99765885 0.996628 1.0086061 1.0058838
0.9962139 1.0658432 0.9455486 1.0276716 1.0532167 1.0133612 1.0298566 0.98123974
0.9724926 0.98605627 0.990471 1.0248175 1.0086422 1.0029722 0.99042517 1.026548
0.9788415 0.9841954 1.0052527 0.98409253 0.9907416 0.9997547 0.96063083 1.0089283
0.97539794 0.96391404 1.0431054 0.9867656 0.9799272 1.0101366 0.990181 1.0450209
0.987646 1.002631 1.0025231 1.0517262 0.9929663 0.98066026 1.0075846 0.957569
1.0005082 0.9394121 1.0453168 1.0044905 1.0316334 0.99366903 1.0576625 1.03449
0.99420464 1.0027299 1.0248402 1.0443572 0.99394333 0.984097 0.9905147 1.0012324
00000000: 0ae4 7b3f 207e 7d3f d0f0 853f 68bd 803f
00000010: 9266 7f3f 0323 7f3f 011a 813f cdc0 803f
00000020: e007 7f3f 8d6d 883f 790f 723f be8a 833f
00000030: cecf 863f d2b5 813f 57d2 833f 8732 7b3f
00000040: 46f5 783f 2f6e 7c3f 828f 7d3f 382d 833f
00000050: 301b 813f 6561 803f 818c 7d3f ed65 833f
00000060: 5b95 7a3f 3bf4 7b3f 1fac 803f 7ded 7b3f
00000070: 3ea1 7d3f edef 7f3f e7eb 753f 9024 813f
00000080: aeb3 793f 12c3 763f 7a84 853f ac9c 7c3f
00000090: 82dc 7a3f 284c 813f 817c 7d3f 3fc3 853f
000000a0: 5ed6 7c3f 3656 803f ad52 803f f79e 863f
000000b0: 0a33 7e3f 8d0c 7b3f 88f8 803f 3e23 753f
000000c0: a710 803f 507d 703f f1cc 853f 2593 803f
000000d0: 900c 843f 1861 7e3f 7c61 873f 2b6a 843f
000000e0: 3284 7e3f 7459 803f f72d 833f 7fad 853f
000000f0: 1273 7e3f c8ed 7b3f 5f92 7d3f 6228 803f

base.mlp.fc1.2.bias f4 [64]
0.0010062755 -0.024096794 0.03353469 -0.030367866 0.027265813 0.0044898223 -0.021743558 -0.06238917
0.02315737 -0.0065031913 0.017529491 -0.020172853 0.014698021 0.039603952 -0.029938333 0.02586948
0.0137614645 -0.00594723 0.014392645 -0.021287195 -0.036586028 0.01920244 0.004362165 -0.0022194346
-0.0020991848 -0.013587742 0.008002283 0.028798299 0.019280791 -0.011979065 0.050872657 -0.042452324
0.019629234 0.011014553 -0.017800331 -0.0045352583 0.0022557392 0.00082832493 -0.0054865866 -0.023538686
-0.022188885 -0.009154187 -0.013682509 -0.018537177 -0.07636253 0.00922988 0.010677162 0.03909094
0.002024506 0.006164291 0.049758222 -0.009167457 0.01550532 0.03425186 0.015548176 0.0032419686
0.012675665 -0.016679348 0.012575507 -0.017590811 0.0077382107 0.017950835 -0.008429102 0.011452374
00000000: 01e5 833a a466 c5bc ac5b 093d 08c6 f8bc
00000010: 8e5c df3c 5c1f 933b 8c1f b2bc c98b 7fbd
00000020: 86b4 bd3c b918 d5bb 029a 8f3c 8a41 a5bc
00000030: f8cf 703c c137 223d 3c41 f5bc 3bec d33c
00000040: c477 613c fbe0 c2bb 21cf 6b3c 7c62 aebc
00000050: 3bdb 15bd 6f4e 9d3c 7ef0 8e3b ef73 11bb
00000060: 7a92 09bb 1f9f 5ebc 021c 033c 69ea eb3c
00000070: c0f2 9d3c d743 44bc d95f 503d 7de2 2dbd
00000080: 7dcd a03c 6276 343c 00d2 91bc 819c 94bb
00000090: 06d5 133b f223 593a d3c8 b3bb 34d4 c0bc
000000a0: 77c5 b5bc 71fb 15bc 9a2c 60bc 47db 97bc
000000b0: f563 9cbd ec38 173c 43ef 2e3c d21d 203d
000000c0: 93ad 043b d2fd c93b 47cf 4b3d 1a33 16bc
000000d0: 070a 7e3c ae4b 0c3d c7bd 7e3c 3577 543b
000000e0: 98ad 4f3c 21a3 88bc 8009 4e3c 9b1a 90bc
000000f0: d190 fd3b a10d 933c 371a 0abc bda2 3b3c

base.mlp.fc2.0.0.weight f4 [64, 64]
0.114439175 -0.08775601 -0.12111503 0.02183315 -0.19697353 0.116518974 -0.29094073 -0.22754575
0.11493232 -0.13768443 -0.033542164 -0.18659419 -0.054524068 -0.11498449 -0.14848323 0.18250239
-0.18077761 0.016884603 -0.19146234 0.08729373 -0.14933506 -0.119960964 -0.18979721 0.107460044
0.008649055 -0.080101535 0.17492217 -0.37841943 -0.031406663 0.30883247 0.10934837 -0.051641382
0.210703 0.4259184 -0.060438327 -0.29952577 0.29348516 -0.35148165 0.25489578 -0.09620476
-0.057839785 -0.051891547 0.053025678 0.14477415 -0.0066545107 -0.12335111 -0.24182718 -0.119258486
0.10200854 -0.28198946 -0.03332572 0.059751812 -0.3502239 0.050295956 0.032050066 0.23350164
0.13831426 -0.06087107 0.0038571947 0.021277696 0.04930416 -0.05922426 0.22892562 0.25626162
0.13971885 0.065832265 0.031590916 -0.16078582 -0.27187043 -0.1649692 -0.1697724 0.16179608
0.13832551 -0.03603624 -0.19674066 0.11964081 -0.16757539 -0.1167333 0.10033383 -0.1690529
0.18084587 0.011257755 -0.28133807 -0.3071174 -0.12976222 -0.103556566 -0.06791568 -0.020216286
0.26215157 0.14922929 0.10000208 0.056618996 0.16598678 0.0348699 0.0040053166 -0.43001384
-0.051179424 -0.060126763 -0.09715948 -0.23969167 0.101824716 0.3219631 -0.10249166 0.047276497
-0.40174216 0.04191736 -0.105013974 0.48357862 -0.16150191 -0.16981785 0.26976743 -0.018418103
-0.06689134 0.020560632 0.034828555 -0.19756888 -0.01711608 -0.38743967 0.052139055 -0.35221863
0.15890352 0.041231573 -0.08595394 -0.042066876 0.3228831 0.1902207 0.033389952 0.123224065
0.053145073 0.3219717 0.046810653 -0.121573 -0.19778273 0.022783345 -0.031473964 -0.027958272
0.32350755 0.21901639 0.12843505 0.170031 0.14345904 -0.30568355 -0.18439862 -0.039035738
-0.037872847 -0.04293942 -0.1269925 -0.0842017 -0.22289133 -0.122705996 -0.25126526 0.056640647
0.049954943 -0.18052027 -0.11257344 -0.2125834 -0.104152456 -0.16714337 -0.31108475 -0.17860274
-0.18169934 -0.06859679 -0.049972463 0.20319746 -0.12750696 -0.28002778 -0.06503352 -0.05328966
-0.18669355 -0.10705644 0.27566913 -0.22786133 0.057710454 -0.34924158 0.20527378 -0.014743533
0.020383045 0.31922317 -0.19995496 0.34671015 -0.18034498 0.11044782 0.13493565 -0.14684562
0.1623047 0.017503759 0.27739438 -0.116224095 -0.22114454 -0.07138157 -0.027694456 -0.13377781
-0.12084412 -0.02866481 -0.21785611 0.06198464 -0.28201348 0.10601333 -0.011338221 0.22977859
-0.0024001815 -0.028525947 -0.20812 0.027598081 -0.089521535 0.24469396 -0.058831364 -0.22545564
-0.13204576 -0.14020738 -0.2122899 0.36940172 -0.0061042774 0.15361685 -0.08585877 -0.01028317
-0.18821666 0.20570737 0.010795689 0.05759546 0.0024904865 -0.08670778 -0.36036378 -0.00056449196
0.12223989 0.092609614 0.08635545 -0.06498073 -0.22181666 -0.050325774 -0.27109072 0.19296244
0.19833308 -0.24158712 0.15288198 0.075147875 0.09924987 -0.41002858 -0.121868595 0.18531936
-0.3831023 -0.27416754 0.13786076 -0.047035627 -0.1258487 -0.2635639 0.086421445 0.21123774
-0.104199514 0.10028562 -0.03024212 0.048904832 0.040213898 -0.23301026 -0.037649374 -0.21340987
00000000: 165f ea3d 6cb9 b3bd 280b f8bd 6fdb b23c
00000010: 6eb3 49be 80a1 ee3d 2ff6 94be c101 69be
00000020: a361 eb3d 26fd 0cbe 8263 09bd 8c12 3fbe
00000030: a154 5fbd fd7c ebbd fd0b 18be e8e1 3a3e
00000040: c41d 39be 9451 8a3c b40e 44be 0ec7 b23d
00000050: 4aeb 18be 18ae f5bd 335a 42be 0314 dc3d
00000060: c4b4 0d3c 460c a4bd cc1e 333e 31c0 c1be
00000070: 46a4 00bd 4a1f 9e3e 0af2 df3d ea85 53bd
00000080: 87c2 573e fa11 da3e 2e8e 77bd 715b 99be
00000090: b043 963e 67f5 b3be b381 823e 0007 c5bd
000000a0: 69e9 6cbd 3b8c 54bd 7431 593d ad3f 143e
000000b0: 150e dabb 829f fcbd 8ba1 77be cb3d f4bd
000000c0: dae9 d03d ec60 90be 8d80 08bd 51be 743d
000000d0: 8c50 b3be 2203 4e3d ee46 033d 0e1b 6f3e
000000e0: 41a2 0d3e f153 79bd fdc8 7c3b 904e ae3c
000000f0: 29f3 493d 2395 72bd 7a6b 6a3e b934 833e
00000100: 7512 0f3e 11d3 863d 7a65 013d 0aa5 24be
00000110: 9a32 8bbe b0ed 28be d1d8 2dbe dfad 253e
00000120: 34a5 0d3e bd9a 13bd 6276 49be 3e06 f53d
00000130: e298 2bbe de11 efbd d37b cd3d 341c 2dbe
00000140: a92f 393e 7272 383c 8b0b 90be 7e3e 9dbe
00000150: 63e0 04be 7715 d4bd 6017 8bbd a09c a5bc
00000160: bb38 863e 90cf 183e e4cd cc3d 52e9 673d
00000170: 70f8 293e bed3 0e3d 083f 833b c62a dcbe
00000180: 84a1 51bd 7b47 76bd 8dfb c6bd bc71 75be
00000190: 7a89 d03d 59d8 a43e 26e7 d1bd 00a5 413d
000001a0: 26b1 cdbe 8ab1 2b3d 9111 d7bd 9e97 f73e
000001b0: c260 25be bbe4 2dbe f51e 8a3e 90e1 96bc
000001c0: 54fe 88bd c56e a83c 63a8 0e3d 7f4f 4abe
000001d0: 0537 8cbc 7e5e c6be c38f 553d 0056 b4be
000001e0: 9bb7 223e 70e2 283d 9f08 b0bd 514e 2cbd
000001f0: ef50 a53e 37c9 423e e7c3 083d e65c fc3d
00000200: a6ae 593d 7ad9 a43e 87bc 3f3d 44fb f8bd
00000210: 8e87 4abe 23a4 ba3c d8ea 00bd bf08 e5bc
00000220: c8a2 a53e d545 603e 7a84 033e 9b1c 2e3e
00000230: ede6 123e 8e82 9cbe fed2 3cbe f0e3 1fbd
00000240: 8f20 1bbd 3fe1 2fbd 520a 02be f171 acbd
00000250: a03d 64be 484d fbbd d7a5 80be 0600 683d
00000260: 8e9d 4c3d 4eda 38be e78c e6bd 76af 59be
00000270: e24d d5bd a227 2bbe 8046 9fbe a3e3 36be
00000280: 640f 3abe 797c 8cbd edaf 4cbd ff12 503e
00000290: 2f91 02be cd5f 8fbe 4b30 85bd 4246 5abd
000002a0: 982c 3fbe 6840 dbbd 8124 8d3e 7b54 69be
000002b0: cc61 6c3d cbcf b2be 4a33 523e dc8e 71bc
000002c0: 58fa a63c 3871 a33e fec0 4cbe fe83 b13e
000002d0: 5bac 38be 7732 e23d 922c 0a3e b35e 16be
000002e0: 3433 263e 0b64 8f3c a306 8e3e e606 eebd
000002f0: b773 62be 8030 92bd 7cdf e2bc 0dfd 08be
00000300: 1f7d f7bd 77d2 eabc ac15 5fbe 9be3 7d3d
00000310: 1264 90be 841d d93d f2c3 39bc 144b 6b3e
00000320: 5d4c 1dbb 3faf e9bc 691d 55be 5f15 e23c
00000330: 1157 b7bd 0e91 7a3e 28f9 70bd d8dd 66be
00000340: 0137 07be 8692 0fbe 8662 59be 3922 bd3e
00000350: 6406 c8bb bc4d 1d3e b9d6 afbd be7a 28bc
00000360: debb 40be f4a4 523e 67e0 303c 38e9 6b3d
00000370: 6e37 233b d993 b1bd 9a81 b8be 6afa 13ba
00000380: e858 fa3d 1caa bd3d 20db b03d 9e14 85bd
00000390: e823 63be 6622 4ebd 67cc 8abe f297 453e
000003a0: d417 4b3e 9d62 77be 188d 1c3e 21e7 993d
000003b0: 8443 cb3d 44ef d1be 3e96 f9bd 5cc4 3d3e
000003c0: fc25 c4be b05f 8cbe 5f2b 0d3e 6ea8 40bd
000003d0: 7bde 00be d9f1 86be bafd b03d b54e 583e
000003e0: 8e66 d5bd 8c62 cd3d 53be f7bc 6f50 483d
000003f0: 54b7 243d 3e9a 6ebe 3b36 1abd 1e88 5abe

base.mlp.fc2.0.0.bias f4 [64]
0.005540967 0.0317519 -0.0007288852 -0.026795847 0.006302553 -0.0041805804 0.07132919 0.019951629
-0.017957706 -0.030544432 -0.017629707 -0.025347922 0.06594158 0.036976296 -0.00032604366 0.024895495
-0.004903678 -0.006750195 -0.0067056394 0.03694199 0.0032865864 0.004731377 0.02100892 0.0025021865
-0.005828281 -0.044101987 0.010681514 0.0362029 0.006232052 -0.007672996 -0.00020546456 0.008732596
0.11432498 0.07240164 0.025543766 0.020934261 0.010311081 0.012082564 0.046972133 0.021431366
0.052550644 -0.013057366 -0.0025653387 0.031978086 -0.042969536 0.003101934 0.022041433 -0.017202517
0.031382676 0.029411998 0.01013562 0.0110603 0.07597967 0.050420146 -0.033383437 -0.0022700566
-0.0291574 0.036795665 -0.019491943 0.005398217 0.010022511 0.005991765 -0.020430451 -0.00019293917
00000000: 0091 b53b 480e 023d a812 3fba f782 dbbc
00000010: a685 ce3b 40fd 88bb 0a15 923d 9971 a33c
00000020: 0a1c 93bc 5138 fabc 2d6c 90bc 72a6 cfbc
00000030: 610c 873d 7574 173d d7f0 aab9 a3f1 cb3c
00000040: 08af a0bb bd30 ddbb fbba dbbb 7c50 173d
00000050: c563 573b ab09 9b3b e61a ac3c b9fb 233b
00000060: 2afb bebb 49a4 34bd 8401 2f3c 7e49 143d
00000070: 3e36 cc3b c16d fbbb f971 57b9 2a13 0f3c
00000080: 3723 ea3d 5047 943d 2941 d13c 547e ab3c
00000090: cfef 283c f2f5 453c da65 403d d590 af3c
000000a0: 583f 573d 90ee 55bc 3e1f 28bb 74fb 023d
000000b0: d300 30bd d149 4b3b 3c90 b43c 4bec 8cbc
000000c0: 1f8b 003d 6ef1 f03c df0f 263c 4336 353c
000000d0: 3b9b 9b3d 5b85 4e3d 12bd 08bd 3bc5 14bb
000000e0: 80db eebc 0db7 163d 91ad 9fbc 87e3 b03b
000000f0: 7535 243c 9156 c43b c35d a7bc b74f 4ab9

base.mlp.fc2.0.2.weight f4 [64]
1.0143554 0.9844713 0.98239225 0.9811083 1.0036315 0.98016495 0.9952194 0.9759191
0.99839 0.98862386 1.0023016 0.96981406 0.9452417 1.0126864 0.976308 0.96144444
0.99473715 1.0485265 0.99681354 0.9765921 0.9673076 0.98266613 1.0072314 0.9899955
1.0176364 0.9717332 0.99510086 0.9970527 0.9868007 1.0055956 1.0382833 0.96872896
0.91244364 0.94241726 1.0159578 0.9948906 0.99646974 0.9960537 0.98307115 0.9770818
1.0237304 0.99998945 0.9774682 1.0097395 0.976939 1.0114375 0.9821577 0.96998113
1.0044829 0.9708414 1.0181653 0.97099113 0.91652167 0.9874263 1.0004255 1.04186
0.9688823 1.0206147 0.9834359 0.96216035 0.9658898 0.96914035 0.9930919 0.99182034
00000000: 66d6 813f 5006 7c3f 0f7e 7b3f ea29 7b3f
00000010: ff76 803f 17ec 7a3f b3c6 7e3f d6d5 793f
00000020: 7d96 7f3f 7416 7d3f 6b4b 803f bc45 783f
00000030: 5cfb 713f b59f 813f 52ef 793f 3921 763f
00000040: 18a7 7e3f 1e36 863f 2c2f 7f3f f101 7a3f
00000050: 79a1 773f 0290 7b3f f5ec 803f 5870 7d3f
00000060: e941 823f 82c3 783f eebe 7e3f d93e 7f3f
00000070: f89e 7c3f 5bb7 803f 78e6 843f 9ffe 773f
00000080: e895 693f 4242 713f e80a 823f 26b1 7e3f
00000090: a418 7f3f 60fd 7e3f 8daa 7b3f 0822 7a3f
000000a0: 9909 833f 4fff 7f3f 5b3b 7a3f 253f 813f
000000b0: ad18 7a3f c976 813f b06e 7b3f af50 783f
000000c0: e592 803f 1089 783f 3e53 823f e092 783f
000000d0: 2aa1 6a3f f8c7 7c3f f10d 803f ab5b 853f
000000e0: ac08 783f 81a3 823f 75c2 7b3f 2450 763f
000000f0: 8e44 773f 9519 783f 453b 7e3f f0e7 7d3f

base.mlp.fc2.0.2.bias f4 [64]
-0.030054439 0.027551802 -0.03044753 -0.030523429 0.030720886 0.03054986 0.03345245 0.029270202
-0.028523352 -0.030533114 -0.029854061 -0.029233888 0.022085382 0.033716865 0.028449232 0.029572913
-0.0309387 -0.03193287 -0.027819276 -0.02386012 0.031275995 -0.03036097 -0.028434077 -0.030481113
-0.026987558 -0.028386422 0.026938742 -0.028105263 -0.027906721 -0.029813066 -0.02958705 0.029966675
-0.015605112 0.009027419 0.031792775 0.030058524 0.0303652 -0.022608083 0.027274787 0.030641051
0.031439763 -0.030355534 0.030649541 0.029440286 -0.028121745 -0.030589178 0.030014189 -0.030583873
0.029888889 -0.038698588 -0.031161936 0.02844966 -0.026653878 0.03023952 -0.028677901 -0.030979145
-0.030356856 -0.02558654 -0.029973436 0.03531098 0.014561748 0.030358823 -0.029855767 0.03151975
00000000: ba34 f6bc 51b4 e13c 196d f9bc 450c fabc
00000010: 5eaa fb3c b343 fa3c 7005 093d 10c8 ef3c
00000020: cea9 e9bc 9520 fabc 8190 f4bc e87b efbc
00000030: 67ec b43c b21a 0a3d 5d0e e93c e542 f23c
00000040: 2873 fdbc 0bcc 02bd 40e5 e3bc 4c76 c3bc
00000050: 421b 003d 92b7 f8bc 95ee e8bc 87b3 f9bc
00000060: 0315 ddbc a48a e8bc a3ae dc3c 023d e6bc
00000070: a39c e4bc 883a f4bc 8b60 f2bc ac7c f53c
00000080: 95ac 7fbc bde7 133c 2439 023d 4b3d f63c
00000090: 71c0 f83c 9634 b9bc 606f df3c f102 fb3c
000000a0: fbc6 003d 2bac f8bc bf14 fb3c c12c f13c
000000b0: 935f e6bc 2896 fabc 51e0 f53c 088b fabc
000000c0: 8bd9 f43c 6982 1ebd 5147 ffbc 430f e93c
000000d0: 3c59 dabc dfb8 f73c ebed eabc fac7 fdbc
000000e0: f1ae f8bc dd9a d1bc da8a f5bc 3fa2 103d
000000f0: 6694 6e3c 11b3 f83c 1594 f4bc da1a 013d

v_out.weight f4 [1, 64]
-0.25475836 0.04073587 -0.13792162 -0.1444041 0.15754476 0.16621819 0.038499374 0.055127785
-0.05895939 -0.17324902 -0.042259395 -0.0764371 0.005234878 0.079164736 0.049257085 0.069642015
-0.054422054 -0.09796106 -0.046949305 0.0038365978 0.047564223 -0.065026306 -0.07287953 -0.072151154
-0.05682083 -0.08651674 0.025834542 -0.035532996 -0.039221324 -0.042415824 -0.12722139 0.09343441
0.0027683547 0.015487954 0.10326687 0.122308545 0.2525771 -0.022432646 0.019501127 0.11530706
0.1278964 -0.29859716 0.3194167 0.13696004 -0.06078817 -0.09107353 0.109919496 -0.09895173
0.1307748 0.0037555553 -0.08197618 0.07531582 0.016714709 0.020870307 -0.10169626 -0.14899726
-0.2578417 -0.042123266 -0.13724467 0.028965047 0.002894356 0.26390544 -0.12267405 0.16072765
00000000: b06f 82be a8da 263d 533b 0dbe abde 13be
00000010: 6a53 213e 1a35 2a3e 85b1 1d3d accd 613d
00000020: 677f 71bd 3168 31be 3018 2dbd 0e8b 9cbd
00000030: 5789 ab3b 1f21 a23d ccc1 493d 79a0 8e3d
00000040: a9e9 5ebd cf9f c8bd ea4d 40bd 6e6f 7b3b
00000050: b4d2 423d 832c 85bd dd41 95bd fcc3 93bd
00000060: f5bc 68bd b02f b1bd f6a2 d33c 0c8b 11bd
00000070: 8aa6 20bd 37bc 2dbd 5346 02be 8a5a bf3d
00000080: 496d 353b 30c1 7d3c 957d d33d e77c fa3d
00000090: c951 813e abc4 b7bc d4c0 9f3c 1c26 ec3d
000000a0: 46f7 023e bae1 98be 968a a33e 413f 0c3e
000000b0: 04fd 78bd c284 babd 791d e13d 34a7 cabd
000000c0: d4e9 053e c31f 763b 21e3 a7bd 2e3f 9a3d
000000d0: 49ed 883c 35f8 aa3c 2146 d0bd bd92 18be
000000e0: d403 84be 7289 2cbd de89 0cbe 1b48 ed3c
000000f0: 3caf 3d3b 9d1e 873e 883c fbbd ca95 243e
