checkpoint/best_mappo_seed112_run20260211_113741_envmamujoco-swimmer-2x1_ep3800_actor.pt (torch, 27042 bytes, 11 tensors)

base.feature_norm.weight f4 [6]
000000 f0 52 6e 3f b9 d9 81 3f fd 19 70 3f f3 82 88 3f
       0.930953 1.0144569 0.93789655 1.0664963
000010 26 45 8a 3f ad 1f 75 3f
       1.0802352 0.9575146

base.feature_norm.bias f4 [6]
000000 c3 32 0f bc db 36 16 3b a1 10 f1 bc 65 ec e7 bb
       -0.00874013 0.002292088 -0.029426875 -0.007077741
000010 a9 e4 8d 3c f2 be f2 3a
       0.017320948 0.0018520041

base.mlp.fc1.0.weight f4 [64, 6]
000000 9a 09 4f 3e 10 3f 0c 3d 53 0b 8b be 19 a8 02 bd
       0.20218506 0.03423983 -0.27157077 -0.03189859
000010 ed 8f 3f be e3 72 23 be a5 c2 56 3e 1e 66 a1 bd
       -0.18707247 -0.15961795 0.20972688 -0.078808054
000020 54 ee 45 ba 41 dc b2 3d cc 05 d4 3d cc 43 c9 3c
       -0.0007550467 0.08733416 0.10352668 0.02456846
000030 70 07 a4 3d f0 47 5b be bf 20 4b be 4b 13 12 3e
       0.08009231 -0.2141416 -0.1983671 0.14265172
000040 27 e6 84 be e8 aa 29 3e 3c 22 60 3d c0 f4 c3 3c
       -0.25956842 0.16569102 0.05472015 0.023920417
000050 b6 f7 5e be b0 10 ff bd b4 ea 56 3e e6 12 7f 3d
       -0.21774182 -0.12454355 0.2098797 0.062273882
000060 c4 64 bb 3e ec 91 2e bd 1d 8d d7 bd 3d 4f 02 be
       0.36600316 -0.04261963 -0.10524962 -0.1272554
000070 08 b6 b7 3d 0a d9 68 3e e8 38 37 be 26 87 af 3e
       0.089702666 0.22739044 -0.17892802 0.34282798
000080 e4 cf 6f 3e 1a 78 af 3c 02 ba 3d be 70 16 35 3c
       0.23419148 0.021419574 -0.18527988 0.011052713
000090 51 82 a2 bc 7a 30 a7 3d eb 3a ce bd ef 7d 06 be
       -0.01983753 0.08163543 -0.100698315 -0.13133977
0000a0 e6 01 ab 3e a9 b7 be 3b 37 bf 45 3e 8f bb 9d 3d
       0.33399886 0.005820234 0.19311224 0.077017896
0000b0 44 a9 1d bc 4c f2 da bd 06 96 9a 3e d5 60 46 3e
       -0.009622876 -0.10690746 0.30192584 0.19372876
0000c0 8a ec 58 3e f4 a5 b6 3d d9 2a 1a be 33 88 ac be
       0.21183982 0.08918372 -0.15055408 -0.33697662
0000d0 66 36 72 bd d3 79 5c 3d 89 5d ab bd 2a 84 34 be
       -0.05913391 0.053827118 -0.0836745 -0.17628542
0000e0 89 08 5c 3e 67 55 0b bd 82 25 03 be 39 2c a7 3e
       0.21487631 -0.034016993 -0.12807277 0.32650927
0000f0 2b 48 cc be f6 4e d6 be ec 0e 89 be 09 ee 94 bd
       -0.3989881 -0.41857117 -0.26769197 -0.07271964
000100 7e 30 cb 3e 28 21 c6 3b 34 c2 05 be 55 61 6e 3e
       0.39685434 0.006046433 -0.13062364 0.23279317
000110 a2 73 c1 3e db 85 93 3e 7b 66 0b be 13 e8 c7 3d
       0.37783533 0.2881306 -0.13613312 0.097610615
000120 4a ae c1 3d c5 49 32 3e 2a 9a 32 bd 69 c2 36 bd
       0.09457071 0.17410953 -0.043604054 -0.044618998
000130 19 35 4d bc df 4b bd be b4 65 49 be 11 56 f4 3d
       -0.0125248665 -0.36971948 -0.19667703 0.11930478
000140 77 2b 88 3d 55 99 c9 3d 92 0c 8f be 21 4d 33 be
       0.06648915 0.09843699 -0.27939278 -0.17509891
000150 67 b8 e9 bc f4 19 08 3e 8a a1 c7 3a bc c8 ac 3d
       -0.028530313 0.1329115 0.0015230638 0.084367245
000160 98 80 ba 3a 0f e8 a2 3e 4b ee 34 3e b4 ff de bb
       0.0014228998 0.31817672 0.17669027 -0.0068053845
000170 47 03 79 3c 10 81 3a 3c fa 67 a9 3d 6a 2a 94 3d
       0.015198535 0.01138331 0.08271785 0.07234652
000180 17 e5 ad bd 43 5f 4e 3e 42 87 10 be 8b 6b 1e 3e
       -0.08490961 0.20153527 -0.14114097 0.15470712
000190 a5 bf 15 3e 33 72 43 be 1f 09 5a be e5 38 9d 3e
       0.14623888 -0.19086532 -0.21292542 0.3070747
0001a0 29 6b 1c 3d eb 9b 72 be 61 6e b7 3d 82 cb 89 3e
       0.038188133 -0.2369229 0.089566 0.26913077
0001b0 2f ed 82 3e 30 b7 6a 3e 00 ea c7 bd 71 15 90 3e
       0.25571582 0.22921443 -0.09761429 0.28141358
0001c0 56 25 67 be 60 a5 8d be c0 82 9f bd da 9f 2d 3e
       -0.22572836 -0.27665234 -0.077886105 0.1695551
0001d0 cd 33 6a 3e 34 69 23 3e a1 4d ce 3e 5b 60 4e bd
       0.22871323 0.159581 0.402936 -0.05038486
0001e0 72 2b 5b 3d 4f e2 48 be a3 d2 8f 3d 72 eb cd 3d
       0.05350823 -0.1961758 0.07022598 0.10054673
0001f0 c9 ab 75 be f8 66 03 bc 77 87 1d be 8d 62 b6 be
       -0.23991312 -0.008020155 -0.15383707 -0.35622063
000200 b0 46 81 be ed 9a 9c bc b9 6e 1a 3e 0b fa 6a bd
       -0.25249243 -0.019116843 0.150813 -0.057367366
000210 a6 38 a8 3d 98 22 95 bd bd 50 39 be 14 61 e1 3c
       0.0821393 -0.07281989 -0.18097205 0.02751211
000220 57 53 86 bc 7c b1 fb bc 37 39 32 3e 92 5c 98 3d
       -0.016397161 -0.03072428 0.17404638 0.074395314
000230 03 fd 01 be ae 77 81 3d e0 c2 82 bd 49 e1 51 3e
       -0.12694173 0.06321655 -0.06384826 0.20496096
000240 1e ce 2d 3e 6b b2 23 3c dc 5f a2 bd e2 03 7a 3e
       0.16973159 0.009991269 -0.0792844 0.24415544
000250 25 0c 38 3b 83 a6 c8 3d 3a c0 09 3d cb 49 dc 3c
       0.002808341 0.097973846 0.033630587 0.026890656
000260 8a d7 19 3c a9 74 05 3f ff 80 aa 3d 1e e2 fc 3d
       0.009389767 0.52131134 0.08325385 0.12347816
000270 ff 0c 26 bd 7b fe 89 3d b0 9c ad be 7a b2 a3 3d
       -0.040539738 0.067379914 -0.33908606 0.07993026
000280 62 f2 3a be 37 08 67 ba 33 e0 f8 bd e0 6d 0e 3d
       -0.18256524 -0.0008813175 -0.121521376 0.034772754
000290 6c 54 c0 be 1d 5e 29 3e 76 86 dd be 35 8b e5 bd
       -0.3756441 0.16539808 -0.43266648 -0.11208192
0002a0 ae 5c 10 be d9 e5 09 bd b9 cd c7 bd 25 fc e1 be
       -0.14097854 -0.033666465 -0.09756035 -0.44137684
0002b0 f4 51 29 bd 9f b7 2e be 2e 45 85 be 48 bf cc 3d
       -0.041337922 -0.17062233 -0.26029342 0.099974215
0002c0 18 13 c1 be 34 71 d7 bd 84 55 56 3d 6b fc 1b 3e
       -0.3770988 -0.10519639 0.052327648 0.15233009
0002d0 6b 90 5b bd d8 a5 09 3f f6 46 c1 bc 27 d2 9f be
       -0.053604525 0.5376868 -0.023593407 -0.3121502
0002e0 b7 7f 48 3b 2b 2e 5e 3e 2d 68 0d be 16 0f a9 be
       0.0030593702 0.21697299 -0.13809271 -0.33019322
0002f0 70 18 07 3e 58 61 b1 3d 95 d8 1d be 9d 69 09 3e
       0.13192916 0.08661145 -0.1541465 0.13419195
000300 dd 50 f0 3d 7a 2d 4a 3d 44 b2 0c 3e 09 b9 f5 bd
       0.117341734 0.049359776 0.13739878 -0.11998183
000310 b0 6c ef 3d ff a7 16 3e 30 26 b2 3e 19 e5 6c be
       0.11690652 0.14712523 0.3479476 -0.23134269
000320 c6 b5 f6 3d 85 a6 9f be e7 a6 74 bc b2 6e 68 be
       0.12046389 -0.31181732 -0.014932371 -0.22698477
000330 7f b6 1d 3b 75 bb 00 bd ff 4a 8c bd f9 8b 69 be
       0.0024065075 -0.031428773 -0.06850242 -0.22807302
000340 34 32 d3 3e 58 1f d9 bd ba a4 5a 3e 34 22 9b bc
       0.4124924 -0.106016815 0.213519 -0.018937208
000350 fb 2d 41 b9 e0 0a a3 bd eb e1 2f 3e 71 63 46 3e
       -0.00018423043 -0.079610586 0.17176025 0.19373871
000360 31 00 b1 3e c1 38 06 be ef e3 38 be 02 6c 0c 3e
       0.3457046 -0.13107587 -0.180557 0.13713077
000370 f8 38 6b 3e 0b d8 9a 3c 04 de 10 3d 1a 3f 14 be
       0.2297095 0.018901845 0.03536798 -0.14477196
000380 96 d0 26 3c 9e a5 68 3e 8e ae 41 3d 09 5d 54 3e
       0.010181567 0.22719428 0.04728561 0.20738615
000390 67 b3 e4 bd 58 cd 34 3e 53 07 2b bc 28 91 ba 3e
       -0.11167031 0.17656457 -0.010438758 0.3643887
0003a0 2c 75 5d be 9d 95 07 3e c8 e0 fb bc 75 72 12 3e
       -0.21626729 0.13240667 -0.030746832 0.14301474
0003b0 7d 7d 0e be 36 7d 66 be bf 2e 99 3d 9a 46 8a 3d
       -0.13915057 -0.22508702 0.07479619 0.067517474
0003c0 2f 37 91 3c f4 85 c5 bd 3d 81 48 bd f1 3a ee 3e
       0.017726509 -0.0964469 -0.048951376 0.46529344
0003d0 b1 c9 9f 3e ea 1e 93 bd d3 9a 6f 3d 79 7b 2d 3e
       0.31208566 -0.07183631 0.05849726 0.16941632
0003e0 53 88 12 be 0b 31 1c 3e 8e 7b 09 3e c1 e8 23 3e
       -0.14309816 0.15253083 0.13426039 0.16006757
0003f0 33 80 10 3d 24 44 50 3e d5 16 d3 3d ff 1f de 3d
       0.03527851 0.20338494 0.10307089 0.108459465

base.mlp.fc1.0.bias f4 [64]
000000 91 86 07 bd 74 06 41 3b 66 4e d1 bc 90 04 9b 3c
       -0.033087317 0.002945331 -0.025550079 0.018923074
000010 a9 bf 7f 3c 13 20 b4 3c 88 62 38 3a d8 fd 8c 3c
       0.01560966 0.02198795 0.0007033725 0.017210886
000020 b8 c1 20 3d 77 69 33 bd 8c d2 44 3d e1 64 87 bc
       0.039247245 -0.04380175 0.048052356 -0.016527595
000030 fd 3f 27 bd 85 33 43 3c 3a e7 80 bc db 49 81 bc
       -0.04083251 0.011914139 -0.015735257 -0.015782287
000040 3f d4 90 3c fb 57 fb bc bc a1 32 3d 12 71 03 3d
       0.017679332 -0.0306816 0.043611273 0.032090254
000050 6f 23 80 3d 9f d9 3f bc b2 5f fb 3c 82 e4 04 3d
       0.062567584 -0.0117096 0.03068528 0.032444485
000060 74 73 04 3d 3d 8f 91 bb cf 85 2e bd 38 15 8b bc
       0.032336667 -0.004442124 -0.04260808 -0.016977891
000070 73 af 38 3d d9 e3 8f bd 4d 81 31 3d 93 7a 14 bd
       0.045089196 -0.0702588 0.0433362 -0.03624971
000080 9d 46 08 bd 8f 8e 6f bd 0b d4 30 3d ec 82 4a 3d
       -0.033270467 -0.058485564 0.04317097 0.049441263
000090 da d0 12 3d ac 4d 4f bd b0 bb 93 ba 77 ba 09 3d
       0.035843708 -0.050611183 -0.0011271145 0.033625092
0000a0 3e 3b ad bc 31 fd ce bc 52 a6 0c bd 78 71 a8 ba
       -0.021146413 -0.025267215 -0.034338303 -0.0012851199
0000b0 0a e9 db bd 46 ab 1f bc 33 1d 72 bb 3a b7 38 bd
       -0.10737808 -0.009745425 -0.0036943674 -0.045096613
0000c0 3a ca 6d 3d 69 94 9b 3d 61 9c 24 bd e8 31 31 3d
       0.058054186 0.07596666 -0.040188197 0.043260485
0000d0 52 ac 47 bc 0f 98 10 bd 58 8f 73 3d 92 ac 64 bb
       -0.01218708 -0.035301264 0.059462875 -0.00348929
0000e0 c0 70 19 bd ce c3 bc bc 74 ef 76 bd ac 22 ae 3c
       -0.037461042 -0.023042586 -0.060286954 0.021256767
0000f0 07 79 25 3d e4 c0 03 3d c9 ae 56 bd b4 fa 18 bd
       0.040398624 0.032166377 -0.052412782 -0.037348464

base.mlp.fc1.2.weight f4 [64]
000000 9b bf 7b 3f 99 68 7f 3f 02 04 85 3f 13 c2 80 3f
       0.9833924 0.9976898 1.0391848 1.0059227
000010 25 72 79 3f 58 de 6f 3f 09 80 84 3f c0 dc 7f 3f
       0.97439796 0.93698645 1.0351573 0.9994621
000020 37 ce 83 3f 84 ba 70 3f 44 d6 81 3f a8 0c 7c 3f
       1.0297307 0.940346 1.0143514 0.9845681
000030 cc cd 80 3f f6 1a 7d 3f 98 1e 84 3f 9b 11 75 3f
       1.0062804 0.98869264 1.0321836 0.9572999
000040 f8 2c 7e 3f b3 9d 82 3f 4b 94 7a 3f a3 4b 78 3f
       0.99287367 1.0204376 0.9788253 0.9699041
000050 a1 bd 84 3f 55 a5 7b 3f a0 2f 7f 3f dd a5 7b 3f
       1.037037 0.9829915 0.99682045 0.9829996
000060 ce 20 80 3f ff 78 80 3f fc cf 7d 3f 11 d0 84 3f
       1.0010011 1.0036925 0.99145484 1.0375997
000070 16 43 82 3f 3c db 77 3f 44 e4 85 3f c7 86 6e 3f
       1.0176723 0.968189 1.0460286 0.93174404
000080 44 f1 81 3f dc 81 80 3f cb 06 89 3f e2 8c 7b 3f
       1.0151753 1.003963 1.0705198 0.98261845
000090 4a 35 7b 3f e8 d5 81 3f b6 30 8a 3f 3f ed 81 3f
       0.9812819 1.0143404 1.0796115 1.0150527
0000a0 c6 fa 6f 3f d5 49 80 3f c0 d7 7f 3f a9 a6 85 3f
       0.93742025 1.0022532 0.99938583 1.0441486
0000b0 7e 2e 72 3f c7 c6 7d 3f c7 06 83 3f 33 d6 84 3f
       0.9460219 0.99131435 1.0236443 1.0377868
0000c0 c9 f3 8b 3f 2d 65 7c 3f cd c7 74 3f f6 fb 86 3f
       1.0933772 0.9859188 0.9561737 1.0545642
0000d0 01 4b 74 3f 8e 38 8a 3f a3 c4 7e 3f 69 91 86 3f
       0.95426947 1.0798509 0.99518794 1.0513126
0000e0 1f 85 78 3f ae f8 81 3f 95 52 7a 3f f2 f7 80 3f
       0.97078127 1.0154016 0.9778226 1.0075667
0000f0 ee a5 83 3f 2b 23 7f 3f ab c8 6c 3f 37 c4 82 3f
       1.0285013 0.9966304 0.92493695 1.021613

base.mlp.fc1.2.bias f4 [64]
000000 30 e3 35 bc 11 35 ce 3c 07 76 cc bc c0 a3 8a 3c
       -0.011101529 0.025171788 -0.024958624 0.016923785
000010 c6 1f 9e 3d 9e f2 5f 3d f5 82 4c bc f2 6e 27 3b
       0.07720904 0.054674737 -0.012482394 0.0025548306
000020 e8 e7 2a 3c 7a 7e 15 bd 74 39 2a bc 01 d1 09 bc
       0.010431267 -0.03649757 -0.010389674 -0.008411647
000030 a3 11 a0 bd be f1 d9 bc 26 01 6d bd 7d 12 14 3d
       -0.07815864 -0.02660453 -0.057862423 0.036150444
000040 a8 ac c9 3c 1c f4 97 bc 7b 09 ce bc 84 94 54 3d
       0.024618462 -0.018549018 -0.025151005 0.051899448
000050 ae 0d 9b 3c 56 ab 2b 3d a1 67 da 3c 02 64 92 bb
       0.018927421 0.041911446 0.026660742 -0.0044674883
000060 14 66 d6 bb ee 4b 9f 3c 54 b4 05 bd 85 aa 29 ba
       -0.0065429304 0.019445386 -0.032642677 -0.0006472248
000070 9a 44 09 3d 92 6f 7f bd ca 62 41 bb d6 cd 0c 3d
       0.03351269 -0.06236226 -0.0029508346 0.034375988
000080 a8 9e 15 3a 61 e5 fe bc a1 89 45 3c ff c3 80 3c
       0.00057075405 -0.031115236 0.012056739 0.015718458
000090 6b 72 fc 3c 64 45 0a 3c 99 b3 d8 bb a5 e2 6e 3d
       0.030816277 0.008439396 -0.0066132066 0.058321614
0000a0 a2 b6 8f bc 9e db fa bc dd 83 77 bd a8 f0 0b bd
       -0.01754314 -0.0306223 -0.06042849 -0.034165055
0000b0 5e f3 94 bd be 2e de bc 3a e7 b8 3c f1 c0 3a bd
       -0.07272981 -0.027121898 0.022571195 -0.04559416
0000c0 ea 4b 30 bc 48 4b 81 3d 24 b4 c4 3c 76 01 aa bc
       -0.010760287 0.06313187 0.024011679 -0.02075265
0000d0 25 a6 02 bc ff 20 e7 bc 27 15 95 3c 55 3d 01 bd
       -0.007974182 -0.028213976 0.018198563 -0.03155263
0000e0 e5 8d f9 bc 35 6d 9e bb 04 12 61 bd c7 b0 48 3d
       -0.030463168 -0.004834796 -0.05494882 0.048996713
0000f0 1c f4 4f bc e6 7c 8a 3d b5 99 52 bd 5b 20 96 bd
       -0.012692478 0.06762104 -0.051416118 -0.0733039

base.mlp.fc2.0.0.weight f4 [64, 64]
000000 17 2d 17 3e fe c3 dc 3d b4 25 2a bf ba 93 17 be
       0.14763294 0.1077957 -0.6646378 -0.14802447
000010 59 24 ce 3d bd 43 f5 bc ae a3 57 bc e6 ef 2f be
       0.100655265 -0.029939527 -0.013161583 -0.17181358
000020 ff 12 68 be d0 ba 81 3e 2b aa 45 be 5f b2 00 3e
       -0.22663496 0.2533784 -0.19303195 0.12568043
000030 c6 e2 bc 3d 34 13 35 be ed 36 cc 3d 9f fa ec bd
       0.09222941 -0.17683107 0.09971414 -0.1157124
000040 87 42 1c 3e 8a c1 a1 be 0f c7 3f be 6a a0 90 be
       0.15259753 -0.3159297 -0.18728279 -0.28247386
000050 2a 9a 5d 3e 8b 05 02 3e 73 4c b1 3d c4 a0 51 be
       0.2164084 0.12697427 0.0865716 -0.20471483
000060 46 f8 f3 3a 72 81 31 bd 13 f0 bb 3c c3 07 ab 3d
       0.001861342 -0.04333634 0.022941625 0.0835109
000070 d1 8b 11 3d 0b ca 1e 3e f7 1b 15 be 3c 6b ef bd
       0.03553373 0.15506761 -0.14561449 -0.11690375
000080 e9 1c ec bd af fc 4f 3e f3 40 3f be ae 83 08 bc
       -0.11528952 0.20311235 -0.1867712 -0.008332176
000090 59 68 98 bd 1e c8 31 be 11 da e9 3e bb 18 d9 bb
       -0.07441778 -0.17361495 0.45674184 -0.0066252626
0000a0 fb 7c 31 3d 97 5e dc 3c 98 83 ff bd 71 f9 2c 3e
       0.04333208 0.026900573 -0.124762714 0.1689203
0000b0 80 d2 43 bd 1d b0 db bd 1a 4b e8 3d 69 f1 bf bc
       -0.04780817 -0.1072695 0.113424495 -0.023430543
0000c0 84 d3 6c 3e 25 ad 25 bd e8 60 ca be d1 d3 75 3e
       0.23127562 -0.040448327 -0.3952706 0.24006583
0000d0 41 bf 8d bd fa c1 dc bd bd d2 9e 3b 9d dc 0a 3d
       -0.069212444 -0.107791856 0.0048468993 0.0339018
0000e0 83 06 91 bb 1a eb 17 3e 78 29 90 3d 48 66 30 be
       -0.004425825 0.14835778 0.070391595 -0.17226517
0000f0 42 25 87 3d 10 75 76 3d 82 db 27 3d 49 f2 64 3e
       0.06598903 0.060170233 0.040980823 0.2235805
000100 72 23 73 bd e4 bd e0 bd 4f ba 48 3e 77 54 01 bf
       -0.059359975 -0.10973719 0.19602321 -0.5051951
000110 69 aa 06 3d 6d 42 92 3d 6b fe 57 3d 5a bb 0f bd
       0.03287736 0.07141576 0.052732866 -0.03509078
000120 85 15 98 3e f5 1f 94 be ff b6 00 bf f9 f1 64 3e
       0.29703918 -0.2893063 -0.5027923 0.2235793
000130 e1 3b 74 3b 57 40 a4 3d 01 8b 2f be 3b fd 06 be
       0.0037267136 0.08020084 -0.1714287 -0.13182537
000140 a3 80 11 be a9 47 5e 3d 1b f0 34 be 70 b8 06 be
       -0.14209227 0.05426756 -0.17669718 -0.13156295
000150 a4 6a 6e bc 54 31 24 be 88 0b 30 3e 5a 8f ba be
       -0.014551792 -0.16034442 0.17191899 -0.36437494
000160 db 61 41 3e d7 08 27 3e b3 80 f0 3d 02 cd 93 3e
       0.18884985 0.16311966 0.117432974 0.28867346
000170 d9 1a 68 bd 41 a3 72 3e bc 28 e2 3d d3 1c f3 bd
       -0.05666623 0.23695089 0.11042926 -0.11870732
000180 fe a3 0c be eb 73 01 3e 91 3b f3 3d 1a a4 41 be
       -0.13734433 0.12641875 0.11876596 -0.18910256
000190 cd 91 2f be 54 a1 e9 bd 1c d8 9a 3d 93 10 cb 3c
       -0.17145462 -0.11407724 0.07560751 0.024788177
0001a0 4f 86 69 bd 13 41 a6 3e e0 90 ab 3d 72 ea 30 be
       -0.057012852 0.32471523 0.08377242 -0.17276934
0001b0 c4 36 b4 3e bb 33 fd bd 3c 0f 4f 3c d4 6a 3b 3e
       0.35198033 -0.123633824 0.0126379095 0.1830247
0001c0 b5 3c 0b 3e d8 66 68 3e 4e 55 12 3d 4a 19 64 3e
       0.13597377 0.22695482 0.035725884 0.22275272
0001d0 fe e8 62 3e 50 65 d9 bd 1e 25 21 3e 80 5a 33 3d
       0.22159192 -0.10615027 0.15736815 0.04378748
0001e0 72 ae 00 bd 36 2d 31 bc 15 e3 9d be c7 15 43 3d
       -0.031416364 -0.010814002 -0.30837312 0.04762819
0001f0 95 25 4f 3e 1f 73 9b 3d 3c 1f 41 3d 66 1c 4d be
       0.2022918 0.07590317 0.047148928 -0.20030364
000200 06 52 27 3e d7 a5 69 3c fe 6d 37 3e 41 e2 bb 3d
       0.16339883 0.014260731 0.17913052 0.09174014
000210 71 e6 2f be 1e d9 cb 3d 3c c9 89 3d e3 56 60 be
       -0.1717775 0.09953521 0.067278355 -0.21908145
000220 55 ce 36 be b8 0a 33 3e 72 65 e3 bd 98 09 65 3e
       -0.17852147 0.17484558 -0.111033335 0.22366941
000230 56 94 e6 bd bb 98 c9 3b 8d a9 01 3e 78 97 14 be
       -0.112587616 0.00615224 0.12662335 -0.14510906
000240 2b cf 49 bd 75 86 c4 bd ed 04 5b bd 4b a5 ab bd
       -0.049269836 -0.09595958 -0.053471494 -0.083811365
000250 b5 7f 30 be c6 81 6b be da d3 19 3e cb b1 78 3e
       -0.17236216 -0.22998723 0.15022221 0.24286573
000260 57 62 51 bd b2 d6 f3 bd 70 8e aa bd 4f e7 ad bd
       -0.051119175 -0.11906184 -0.08327949 -0.08491384
000270 fe fd d3 3e 63 28 b3 bd af e0 13 3e 0e 18 a0 bd
       0.41404718 -0.087479375 0.14441179 -0.07817088
000280 cd 02 b9 be f8 5b 8d be fe 9f b1 bc 4c a3 e5 bd
       -0.3613495 -0.2760923 -0.021682736 -0.11212787
000290 29 ae 37 be 86 45 89 3d 64 02 ec 3c d1 db e8 be
       -0.1793753 0.06702714 0.028809734 -0.45480207
0002a0 79 7b 1a be a9 c9 88 be 76 18 f9 bd 81 c6 0f 3d
       -0.15086164 -0.26716354 -0.12162869 0.035101417
0002b0 7e d3 c4 3d 7b 65 68 bd 49 5d 81 be 31 1c a9 3e
       0.096106514 -0.056737404 -0.25266483 0.3302932
0002c0 14 7c 99 3d b0 fd ca 3d 6d 21 3a be 88 ac 35 be
       0.07494369 0.09911668 -0.18176813 -0.17741597
0002d0 de 25 f3 3d ef e7 2e bd ba 0e a7 3d c8 6f 18 3e
       0.11872457 -0.042701658 0.08157106 0.14886391
0002e0 a4 36 2e be 45 20 33 be 81 9a 1a be 4e da c7 3d
       -0.17013031 -0.17492779 -0.15098001 0.09758435
0002f0 80 50 ec 3d c0 4d 93 3c 47 f3 01 be 2c 00 19 3d
       0.11538792 0.01798141 -0.12690459 0.03735368
000300 75 c7 1f be a8 c2 37 3e 51 8d 2d 3e 21 76 00 3d
       -0.1560343 0.17945349 0.16948439 0.031362657
000310 2c 24 1d 3d 69 a1 e7 3b e6 de 55 3e 4a 42 8d 3e
       0.038364574 0.007068802 0.2088581 0.27589637
000320 ee 94 58 3e 76 92 3d bd ee 67 3b be f0 44 db 3d
       0.21150562 -0.046282254 -0.18301365 0.10706508
000330 9c 2d f0 3e 7c bd 5a 3e 95 2a 50 3e b6 b6 17 bd
       0.46909797 0.21361345 0.20328744 -0.03703948
000340 c8 dc e1 bc e6 5f c4 3d 7c 42 08 bd 4e 38 ef 3d
       -0.027571097 0.09588604 -0.03326653 0.11680661
000350 4a 6e 26 bb 68 64 26 3d 0a 24 60 3d f2 38 1e 3d
       -0.0025395327 0.0406231 0.05472187 0.038628526
000360 73 09 15 be fe 9f 55 be ae d1 d3 3c 2b b8 97 be
       -0.14554386 -0.20861813 0.025856819 -0.29632697
000370 5e 34 e3 3d 4c e7 f4 3d 8c f8 f0 bd f3 36 8f be
       0.110939726 0.11958179 -0.117661566 -0.2797161
000380 6a 2a 50 3e 4f d9 95 be 66 22 94 3d c3 57 a6 3d
       0.2032868 -0.29267356 0.072331235 0.08122208
000390 4d 1f cf 3d 32 a8 19 3e 97 0c 94 bb ae 32 06 3c
       0.10113392 0.15005568 -0.0045181024 0.008190794
0003a0 5b ee 92 be ca 72 85 3e 95 c2 45 3e 34 88 22 3e
       -0.28697476 0.2606414 0.19312508 0.1587227
0003b0 72 c5 5d bd 1d ca 26 3d 7b dc 09 be d1 25 29 be
       -0.054143377 0.040720094 -0.13463013 -0.16518332
0003c0 90 8d 9d be 65 ad dd be 4a 94 e7 be bb 1f 39 bd
       -0.30772066 -0.43296352 -0.45230323 -0.045196276
0003d0 07 5e 1c 3e 3d b4 76 bd b0 24 ad b9 db 0c 4e be
       0.15270244 -0.060230482 -0.00033024466 -0.20122091
0003e0 b3 53 ae 3d 9f ac 94 bd d0 a3 3e 3e e0 52 71 be
       0.08512058 -0.07259487 0.18617177 -0.2356677
0003f0 cf f7 52 3e e7 7b ef 3d 29 c7 db 3c d8 cf 09 3e
       0.20602344 0.11693554 0.026828365 0.13458192

base.mlp.fc2.0.0.bias f4 [64]
000000 23 bf 25 bd 45 c4 c1 3b 77 b0 91 bd a4 49 54 bd
       -0.040465485 0.0059132897 -0.07113736 -0.05182804
000010 3c 0f ac bd 03 ff df bc 60 03 77 bd 7e 3b 3f bd
       -0.08401343 -0.027343279 -0.060305953 -0.046687596
000020 b1 3b d3 bd f8 b0 2f bb 3e b7 17 bd c9 5d b4 bc
       -0.103141196 -0.0026808362 -0.037039988 -0.022017376
000030 0d 24 70 bd 19 b6 a4 bc 4b 51 a3 bc 2c 59 fd bc
       -0.05862813 -0.020106362 -0.019936224 -0.03092631
000040 42 e2 17 bd ab 1b aa bc 1d d4 2e bd 14 f4 c7 bc
       -0.03708101 -0.020765146 -0.042682756 -0.024408378
000050 32 44 65 39 a1 11 aa bc f5 b7 0b 3d 30 43 6b bd
       0.00021864547 -0.02076036 0.034110982 -0.057437122
000060 88 80 84 bd 1b a0 12 bd d7 28 18 3c 43 27 d0 bc
       -0.06469828 -0.03579722 0.009287081 -0.025409346
000070 2c df be bc 44 f4 28 bd 7d 46 29 bd 8b ef 5c 3d
       -0.023299776 -0.041248575 -0.04132699 0.053939383
000080 e1 dd 1a bd ef bd 1c ba 8c 77 29 3d 12 2a 8b bd
       -0.037809256 -0.000597923 0.041373774 -0.06795134
000090 61 ac 88 bd 0d cb 32 3d c3 71 98 3c 0d 9d f8 bc
       -0.06673504 0.043650676 0.018608933 -0.030348325
0000a0 62 68 29 bd 1a 70 80 bc 6b 9a 5e bc 3f 0a 60 bd
       -0.041359313 -0.015678454 -0.013586621 -0.05469727
0000b0 b4 a0 e1 bc 79 c0 65 bd cb 97 69 3c dd 5b 6c 3c
       -0.02754245 -0.05609176 0.014257382 0.014426199
0000c0 2d 7b cf bc 06 72 f0 bb d2 66 26 bd f8 8b ad bd
       -0.02532729 -0.0073378114 -0.0406254 -0.084739625
0000d0 b2 93 47 bd d1 72 14 bc d4 e6 5c 3d c9 d7 de bc
       -0.048724838 -0.0090605775 0.053931072 -0.027202504
0000e0 30 68 ae bd c8 b8 04 bd 67 95 a3 bd 70 40 7a bc
       -0.08515966 -0.032402784 -0.079874806 -0.015274152
0000f0 04 af 0a bd c6 75 11 3d 31 3c 41 bd f3 f9 da bc
       -0.033858314 0.035512708 -0.047176544 -0.026730513

base.mlp.fc2.0.2.weight f4 [64]
000000 b4 2b 8d 3f 29 7b 93 3f b9 68 88 3f 58 32 92 3f
       1.1028962 1.152196 1.0656959 1.1421614
000010 b9 60 8f 3f d7 65 90 3f 62 13 95 3f b8 57 88 3f
       1.1201392 1.1281079 1.164654 1.065177
000020 42 7d 86 3f ae 0b 91 3f bc 22 8f 3f e1 c8 86 3f
       1.0506976 1.1331689 1.1182475 1.0530053
000030 2d 46 84 3f ad eb 8d 3f 5e 97 89 3f 71 3f 8d 3f
       1.0333916 1.1087548 1.0749319 1.1034986
000040 42 5c 8a 3f 8d ea 8f 3f 41 49 84 3f 00 a1 88 3f
       1.0809405 1.1243454 1.0334855 1.0674133
000050 a5 ac 8e 3f db 0a 8f 3f e7 e3 90 3f c0 13 86 3f
       1.1146437 1.1175188 1.131955 1.0474777
000060 65 63 83 3f 15 e9 8c 3f 93 72 90 3f 48 94 8c 3f
       1.0264708 1.1008631 1.1284965 1.0982752
000070 85 31 8e 3f 6a dd 89 3f f9 e7 91 3f ea bb 82 3f
       1.1108862 1.0770695 1.1398917 1.0213597
000080 80 8d 7f 3f 6e 8f 8a 3f 52 ca 88 3f d4 0d 85 3f
       0.99825287 1.0825021 1.0686743 1.0394845
000090 7c 04 92 3f 77 ab 8e 3f ab bb 91 3f 1d cc 90 3f
       1.1407619 1.1146077 1.1385397 1.131229
0000a0 5e 0e 92 3f d2 2a 8f 3f 03 85 91 3f 7b bd 85 3f
       1.1410635 1.1184943 1.1368717 1.044845
0000b0 69 d3 89 3f dc 00 89 3f 6b 6d 91 3f 32 84 83 3f
       1.0767642 1.0703387 1.1361517 1.0274718
0000c0 d8 50 8c 3f b7 7a 90 3f 8c 86 8d 3f a4 d0 88 3f
       1.0962172 1.128745 1.1056685 1.0688672
0000d0 9f f1 8e 3f 15 dd 85 3f e1 47 89 3f df 1c 8b 3f
       1.1167487 1.0458094 1.0725061 1.0868186
0000e0 17 b2 88 3f be 67 8f 3f ef 8e 89 3f 5a bf 90 3f
       1.0679349 1.1203535 1.0746745 1.1308396
0000f0 e6 f7 87 3f 21 c0 8a 3f 37 7f 86 3f 7b 3a 8e 3f
       1.0622528 1.0839883 1.0507573 1.1111597

base.mlp.fc2.0.2.bias f4 [64]
000000 83 d7 e9 ba 3d af ff bb 44 e4 cd bb fb 8f e7 3b
       -0.0017840717 -0.0078028725 -0.006283315 0.0070667244
000010 b9 ed 31 ba de c0 f4 3b 56 7d 15 bc 30 87 cb bb
       -0.00067874376 0.0074692806 -0.009124121 -0.006211184
000020 37 39 af 3b c8 a1 d9 bb 23 c4 be bb 88 f4 b1 3b
       0.0053473967 -0.0066416003 -0.005821721 0.0054307617
000030 07 b2 e1 bb 30 4d 30 3b 5a 26 d0 bb db ff d5 bb
       -0.0068876776 0.0026901476 -0.006352228 -0.0065307445
000040 35 be 03 3c c4 06 08 bc f8 e1 21 bc df e9 ff 3b
       0.008040954 -0.008302394 -0.009880535 0.007809862
000050 98 38 0d 3c f5 6f d5 3b 23 18 02 3c d3 94 0e bc
       0.00861945 0.0065135905 0.007940325 -0.008702475
000060 09 91 4f 3c 0a 4e a2 bb 47 a5 d0 bb 7d 63 06 bc
       0.012668856 -0.0049531506 -0.006367359 -0.008202431
000070 11 44 fb 3a e6 46 00 bc 8d 50 b2 bb 5e ca 42 bc
       0.0019170066 -0.0078294035 -0.0054417313 -0.011889068
000080 6c e0 7c 3b 96 ac c6 3b 04 7c 87 3b 69 14 02 bb
       0.0038585914 0.0060630543 0.004134657 -0.0019848591
000090 7b 5d 02 bc e8 de bf 3b 66 12 eb 3b cc 7d d1 3b
       -0.007956858 0.00585543 0.007173824 0.00639317
0000a0 f0 4f 03 bb 2a e9 a6 3a 96 96 85 3b c4 32 2b 3c
       -0.002003666 0.0012734283 0.004076789 0.010449115
0000b0 e7 b3 06 3c 8b c4 6c bb 85 93 02 3c 45 49 14 3c
       0.008221603 -0.003612789 0.007969742 0.009050672
0000c0 8c 04 b9 bb 5f 55 07 3c 05 0e e8 ba da 72 03 bc
       -0.005646294 0.0082601 -0.0017704373 -0.008022988
0000d0 f0 10 dd 3a 7d 0b 15 bc 84 f9 01 3c ee cc 63 bb
       0.001686601 -0.009096977 0.007933024 -0.0034759599
0000e0 57 1d 04 bc 3a 98 fd 3b dc ab cc bb b3 d7 8b 3b
       -0.008063636 0.007739094 -0.006246073 0.0042676567
0000f0 fb 44 03 bc 57 48 82 3b cb e4 02 3c 22 18 00 bc
       -0.008012052 0.0039759087 0.007989119 -0.007818254

act.action_out.fc_mean.weight f4 [1, 64]
000000 6e 1d a4 3d 55 00 f9 3d 96 d6 4d 3d 50 de d1 bd
       0.08013426 0.121582665 0.050253473 -0.10247481
000010 04 cf c2 3d 90 00 bf bd 63 3e 04 3e f8 8f 3b 3d
       0.09512141 -0.09326279 0.12914424 0.045791596
000020 93 d1 36 bd b1 6e e6 3d f2 61 b2 3d 98 ea 36 bd
       -0.04463346 0.112515815 0.08710088 -0.04465732
000030 62 be 9e 3c 1e 50 a6 bd 22 8b 48 3d 34 0f a7 3d
       0.019377891 -0.0812075 0.048960812 0.08157197
000040 f7 54 63 bd 7b 27 bf 3d de f0 a9 3c e7 4f 56 bd
       -0.05550095 0.09333702 0.020744737 -0.052322295
000050 1a 9f be bd ea 6f b9 bd d1 5b cf bd 07 16 10 3d
       -0.0930769 -0.09054549 -0.101249345 0.035177257
000060 4f 6e 25 bc 7c a1 a0 3d 37 a4 d1 3d f5 10 9b 3d
       -0.0100971 0.07843301 0.102363996 0.07571594
000070 5a 99 ab bd bb 62 6e 3d 0e 32 d1 3d e8 31 2c 3c
       -0.08378859 0.058199625 0.10214625 0.010509945
000080 fa 01 1e 3c 73 f4 7f bd 7b 20 67 bd fc 58 d3 3c
       0.009644026 -0.062488984 -0.05642746 0.025799267
000090 3f d2 d8 3d c6 c9 a3 bd 0a f9 e9 bd 81 86 cd bd
       0.10586976 -0.079974696 -0.114244536 -0.1003542
0000a0 6a c9 d8 3d f4 ee b2 bd 47 bb e1 bd 64 51 06 bd
       0.10585292 -0.08736983 -0.110220484 -0.032792464
0000b0 20 41 54 bd d5 e2 57 3d f3 6f d6 bd 0d 13 87 bc
       -0.05181992 0.05270656 -0.10470571 -0.016488576
0000c0 90 80 8b 3d a5 73 cd bd 98 e0 a6 3d bb cf 48 3d
       0.06811631 -0.10031823 0.081483066 0.049026232
0000d0 18 dc b9 bd a6 09 01 3d 18 75 6e bd bc bb 89 3d
       -0.09075183 0.031503342 -0.058217138 0.067252606
0000e0 6c 3f 3d 3d 48 63 bd bd 61 78 5d 3d a9 62 cb bd
       0.046203062 -0.09247452 0.05406988 -0.09930927
0000f0 2e 4b 3e 3d c9 16 84 bd 34 8d 15 bd 4d b9 a6 3d
       0.046458416 -0.064496584 -0.036511615 0.08140812
