checkpoint/best_mappo_seed113_run20260211_183159_envmpe-cooperative_predator_prey_ep5000_agent1_critic.pt (torch, 37938 bytes, 11 tensors)

base.feature_norm.weight f4 [48]
0	0x3f5f818e	0.8730706
1	0x3f6e08db	0.9298226
2	0x3f456931	0.77113634
3	0x3f2d17c7	0.67614406
4	0x3f4b9c72	0.7953559
5	0x3f461e47	0.7738995
6	0x3f551b37	0.8324465
7	0x3f2866e0	0.65781975
8	0x3ed7b2df	0.42128655
9	0x3f55d242	0.8352395
10	0x3f2dccb8	0.678905
11	0x3f880375	1.0626055
12	0x3fa42a09	1.2825328
13	0x3fbcadda	1.4740555
14	0x3fa3f572	1.2809279
15	0x3fd05616	1.6276271
16	0x3f9bcb10	1.2171345
17	0x3f9343d0	1.150507
18	0x3f555522	0.8333303
19	0x3f3d3230	0.73904705
20	0x3f40d240	0.75320816
21	0x3f5de60a	0.86679137
22	0x3f841e04	1.032166
23	0x3f551efb	0.832504
24	0x3f18c3c4	0.59673715
25	0x3f6179dd	0.88076574
26	0x3f765d2e	0.9623593
27	0x3f7183d5	0.94341785
28	0x3fdbbf2e	1.7167718
29	0x3fcbeb74	1.593123
30	0x3fb654f9	1.4244682
31	0x3fd9ddc6	1.7020805
32	0x3fa6bec4	1.3026967
33	0x3f812e82	1.0092318
34	0x3f6b797c	0.91982245
35	0x3f605538	0.87630033
36	0x3f66333b	0.8992192
37	0x3f54b7d4	0.83093
38	0x3f47dc94	0.7807095
39	0x3f24338e	0.64141166
40	0x3f5ab2c8	0.8542905
41	0x3f3f3615	0.746919
42	0x3f828f9b	1.0200075
43	0x3f74197a	0.95351374
44	0x3fc294e2	1.5201685
45	0x3fe72ffb	1.8061517
46	0x3fd21575	1.6412798
47	0x3fc4f2d1	1.5386602

base.feature_norm.bias f4 [48]
0	0xbd940985	-0.07228378
1	0x3dbde89f	0.092728846
2	0x3db08789	0.08619601
3	0xbda4e327	-0.08051138
4	0xbdd52155	-0.10406748
5	0x3e63a80f	0.22232078
6	0x3b5ff24a	0.0034171515
7	0x3d41efe0	0.047347903
8	0x3d1f6a72	0.038919874
9	0xbcfb28fa	-0.030659188
10	0x3e241a64	0.16025692
11	0x3d92461a	0.07142277
12	0x3df2500f	0.11831676
13	0xbdbffbb5	-0.09374181
14	0xbd856fa6	-0.06515436
15	0xbdce1a68	-0.1006363
16	0xbda137ec	-0.078719944
17	0x3baa82eb	0.005203595
18	0xbe7e1742	-0.2481356
19	0x3d33628b	0.04379515
20	0x3cc1172d	0.023570621
21	0x3e0347b3	0.1282032
22	0xbde84493	-0.113412045
23	0x3e318d5a	0.17339078
24	0x3d7de7e6	0.061988734
25	0x3e4999fa	0.19687644
26	0x3e3afe59	0.18261088
27	0xbd3c213e	-0.04593014
28	0x3dc2df65	0.095152654
29	0xbd5eb996	-0.054376207
30	0xbe04c6c6	-0.12966451
31	0xbc5b6cb6	-0.013392618
32	0xbd2a643b	-0.041599493
33	0xbd93b496	-0.072121784
34	0xbe13679a	-0.1439499
35	0xbca7e8d4	-0.020496763
36	0xbd123395	-0.035693724
37	0x3dd19f36	0.10235445
38	0xbe2bac70	-0.16764998
39	0x3dafc313	0.08582129
40	0x3dd244c6	0.10267024
41	0xbdb1cae4	-0.086812764
42	0xbdc2aca4	-0.09505585
43	0x3c9f4097	0.019439979
44	0x3d26c453	0.040714573
45	0xbcb3698e	-0.021900918
46	0x3b60b5a2	0.003428795
47	0x3d62964d	0.05531912

base.mlp.fc1.0.weight f4 [64, 48]
0	0xbe1cb1c8	-0.15302193
1	0xbe72e8ba	-0.2372159
2	0x3d8f8f8d	0.07009802
3	0xbd9f2b59	-0.0777194
4	0xbcd0b901	-0.025478842
5	0x3ed26c81	0.41098407
6	0x3e48e3dc	0.19618171
7	0x3da5a093	0.08087268
8	0x3e662f94	0.22479087
9	0xbe657025	-0.22406061
10	0xbe7f5c29	-0.249375
11	0x3eb33b96	0.35006398
12	0x3e0cbf97	0.1374496
13	0xbec9f4a3	-0.39444456
14	0x3e9399c2	0.28828245
15	0xbd4cb0ee	-0.04997342
16	0x3e170ba2	0.14750531
17	0x3eb16416	0.34646672
18	0x3d01ce36	0.0316908
19	0xbd9eac41	-0.077476986
20	0xbed34eff	-0.41271207
21	0x3cc03b8a	0.02346589
22	0x3f03cfc1	0.5148888
23	0xbd0bac27	-0.034099724
24	0x3e55fed3	0.20897989
25	0x3f0c46c0	0.54795456
26	0x3e2601e4	0.16211659
27	0x3e2f5307	0.17121516
28	0xbe77ea1d	-0.24210401
29	0xbe71e6f8	-0.23623264
30	0x3df4a103	0.11944773
31	0xbdc6afad	-0.09701476
32	0x3e544152	0.20728043
33	0x3ee7c4b8	0.45267272
34	0xbe68c049	-0.22729601
35	0x3e3b5940	0.18295765
36	0xbf18a843	-0.59631747
37	0x3e01977a	0.1265544
38	0x3f0e96ac	0.5569866
39	0xbe6abcd8	-0.229236
40	0x3f141cd9	0.5785652
41	0xbda52574	-0.08063784
42	0x3e36ef63	0.17864756
43	0xbe366f80	-0.17815971
44	0x3d7826ce	0.060583882
45	0xbf5b424d	-0.8564804
46	0x3e3e2ba9	0.18571343
47	0x3e69d6a8	0.22835791
48	0x3f1b3734	0.6063111
49	0xbedf9c12	-0.4367376
50	0xbe8ccb13	-0.27498683
51	0xbea33f22	-0.31884104
52	0x3e1efd9f	0.15526436
53	0xbe7149bf	-0.23563288
54	0xbd2bec2a	-0.04197327
55	0x3e0a135f	0.13483952
56	0xbb4b64f7	-0.0031035522
57	0x3e54ff8d	0.2080061
58	0x3d5d544b	0.054035466
59	0xbda3613a	-0.07977529
60	0x3d91eba4	0.07125023
61	0xbd0015db	-0.031270843
62	0x3d91babe	0.07115696
63	0x3ea1cf3c	0.3160342
64	0x3eeb631c	0.45974052
65	0xbe409012	-0.18804958
66	0x3e3f1b58	0.18662775
67	0xbefe111d	-0.4962243
68	0x3ceafad5	0.02868406
69	0xbeb05eb1	-0.34447244
70	0x3c212d49	0.009837457
71	0xbe1a8d96	-0.15093073
72	0xbc892022	-0.016738955
73	0x3e3feab3	0.18741874
74	0xbdc0f6e9	-0.094220944
75	0xbe3f389c	-0.18673939
76	0xbdc5f65e	-0.096661314
77	0x3e20b54a	0.15694156
78	0x3e89352f	0.26798388
79	0xbde5c731	-0.11219633
80	0x3f296925	0.6617606
81	0xbe149549	-0.14510073
82	0x3e8b6bb0	0.27230597
83	0xbf2ad9d8	-0.66738653
84	0x3c32c944	0.010912243
85	0xbdf08cec	-0.11745629
86	0xbed2a613	-0.4114233
87	0x3dcd6d6d	0.10030637
88	0xbe17edfa	-0.14836875
89	0xbbcc4655	-0.00623397
90	0x3e4f4fa6	0.20245227
91	0x3cfb08cf	0.030643849
92	0x3e312a93	0.17301397
93	0xbe442e71	-0.19158341
94	0xbd4c392b	-0.049859207
95	0x3d79cd4a	0.060986795
96	0x3e261b6b	0.16221397
97	0xbed9e9e7	-0.42561266
98	0xbbe8e840	-0.0071077645
99	0x3e14fd6e	0.14549801
100	0xbec518e5	-0.38495556
101	0xbe7d414d	-0.24731942
102	0x3edf4a50	0.43611383
103	0xbed59e58	-0.4172237
104	0xbdeb0fd0	-0.11477625
105	0xbc5b9d91	-0.013404266
106	0xbe228c1a	-0.15873757
107	0xbe9b6b85	-0.30355468
108	0xbe3c229b	-0.18372576
109	0x3ee3c216	0.44484013
110	0xbe63840a	-0.22218338
111	0x3e7834f7	0.24238954
112	0x3e40fe05	0.18846901
113	0xbdf9be54	-0.12194505
114	0xbed7bc80	-0.42136002
115	0xbc0d574f	-0.008626773
116	0x3e4a1b79	0.19737042
117	0x3dbf8722	0.093519464
118	0x3edd6d45	0.4324743
119	0xbd87efa3	-0.06637504
120	0xbd91cf85	-0.07119659
121	0xbce4265a	-0.027850319
122	0x3e67c52f	0.22633813
123	0xbe33d6fa	-0.17562476
124	0xbd437e8f	-0.047728118
125	0x3edba1aa	0.42896777
126	0xbf246156	-0.6421102
127	0x3e69a8d2	0.22818306
128	0x3ee3f48c	0.44522512
129	0xbc985648	-0.01859583
130	0xbe53e768	-0.20693743
131	0x3e002549	0.12514223
132	0xbeab16dd	-0.3341588
133	0x3c925c5f	0.017866312
134	0x3f0e03ab	0.55474347
135	0x3e4daf8d	0.20086499
136	0x3e5761a3	0.21033339
137	0x3e86117a	0.2618521
138	0x3cf060e8	0.029343084
139	0x3e0093a3	0.12556319
140	0x3e5f28f4	0.21792966
141	0x3f0fca48	0.5616803
142	0x3c1cbef7	0.009567014
143	0x3e2d7e5e	0.16942737
144	0xbe04bae9	-0.12961926
145	0xbea588b2	-0.32330853
146	0x3ea6bd02	0.32566077
147	0x3e4d1588	0.20027745
148	0xbf11716b	-0.5681369
149	0x3b40ee3c	0.0029438874
150	0xbe084cff	-0.13310622
151	0xbb615208	-0.003438117
152	0xbea04f0d	-0.3131031
153	0xbeecd0f6	-0.46253175
154	0xbbbd0716	-0.005768667
155	0xbe645ddb	-0.22301428
156	0xbe31f829	-0.17379822
157	0x3f034cb9	0.51288944
158	0xbf2f9ab9	-0.68595463
159	0x3ea05c3d	0.31320372
160	0x3e162b15	0.14664872
161	0xbdecd63b	-0.11564299
162	0x3c51e371	0.012810574
163	0x3ec4aa5e	0.3841123
164	0x3c6689d0	0.014070943
165	0x3dac1390	0.08402169
166	0x3d7bd9ec	0.061487123
167	0xba6fcae3	-0.0009147359
168	0x3eaf618c	0.3425411
169	0xbe72178e	-0.23641798
170	0xbebc7009	-0.36804226
171	0xbd889785	-0.06669525
172	0xbe0da468	-0.13832247
173	0x3f2cfd17	0.67573684
174	0xbf8fd0d4	-1.1235604
175	0x3f12544d	0.5715988
176	0x3da8bdd8	0.08239335
177	0xbedd88d4	-0.43268454
178	0x3d4ed591	0.05049664
179	0x3db275bc	0.08713862
180	0x3e1b33e0	0.15156507
181	0xbdd41081	-0.1035471
182	0x3d94f8aa	0.072739914
183	0xbd679399	-0.056537244
184	0x3e0c6577	0.13710581
185	0xbe3f28d8	-0.18667924
186	0xbe613d0d	-0.21995945
187	0xbe86fb1e	-0.26363462
188	0xbe4af691	-0.1982062
189	0x3f36dac7	0.7142758
190	0xbf83c583	-1.0294651
191	0x3f0e60a3	0.55616206
192	0x3e395c8a	0.18101707
193	0x3ea627fc	0.3245238
194	0x3eea9f06	0.4582445
195	0xbe4607ad	-0.19338866
196	0x3e6dcc2e	0.2322242
197	0x3d017061	0.031601314
198	0xbd2ec8e7	-0.042672064
199	0xbed0ac9c	-0.4075669
200	0xbedf8179	-0.43653467
201	0xbe2feb77	-0.17179666
202	0xbdae5449	-0.0851217
203	0xbe9dce92	-0.30821663
204	0x3e441e76	0.19152245
205	0x3eb80d26	0.3594753
206	0xbe5325a2	-0.20619825
207	0x3da6ba00	0.081409454
208	0x3d90963f	0.07059907
209	0xbe612559	-0.21986903
210	0x3ee3bc8d	0.4447979
211	0xbd7992b5	-0.060930926
212	0x3f048b5c	0.51775146
213	0xbe86cce5	-0.26328197
214	0x3ea27ca0	0.31735706
215	0xbd0befb5	-0.03416415
216	0xbce1ddff	-0.027571676
217	0x3e75de08	0.2401048
218	0xbe091c19	-0.13389625
219	0xbdc7748d	-0.09739027
220	0xbe59692b	-0.21231525
221	0xbc866d84	-0.016409643
222	0xbe2edfda	-0.1707758
223	0x3cde4075	0.027130345
224	0xbed44626	-0.4145977
225	0x3d4caedc	0.049971446
226	0x3f361bdb	0.71136254
227	0xbe080a33	-0.1328514
228	0x3ef247be	0.4732036
229	0xbd373e01	-0.044736866
230	0xbcdbb13b	-0.026817909
231	0xbe3ca6bb	-0.18422978
232	0xbdd3391f	-0.10313629
233	0xbe1cdfc2	-0.15319732
234	0xbe34390d	-0.17599888
235	0xbe8b3cf1	-0.27194932
236	0xbe684065	-0.22680815
237	0x38122ce2	3.4850913e-05
238	0x3de22eec	0.11044106
239	0x3d92447d	0.07141969
240	0xbec19005	-0.3780519
241	0xbe463582	-0.19356349
242	0xbdbf250a	-0.093332365
243	0x3d943c6c	0.07238087
244	0xbe570de3	-0.21001391
245	0xbbab3901	-0.0052253013
246	0x3e7092b2	0.2349346
247	0xbea2a40e	-0.3176579
248	0xbd87b70f	-0.066267125
249	0x3d7789e7	0.06043425
250	0xbdc74210	-0.09729397
251	0xbea82120	-0.32837772
252	0xba41ef29	-0.00073980034
253	0xbe30736a	-0.17231527
254	0x3e910bc4	0.2832929
255	0x3d4499be	0.047998182

base.mlp.fc1.0.bias f4 [64]
0	0x3d024315	0.031802256
1	0xbe324ec2	-0.17412856
2	0x3e5d130a	0.21589294
3	0x3e26f63e	0.16304871
4	0x3dec1658	0.11527699
5	0xbe71ec7a	-0.23625365
6	0xbe2a1f35	-0.16613467
7	0x3ec2c8d4	0.38043845
8	0x3e8eb330	0.27871084
9	0xbc02fae4	-0.007994387
10	0x3e9d4c6b	0.30722365
11	0x3e4c7a4c	0.19968528
12	0xbd7c2760	-0.06156099
13	0x3bb01fe1	0.005374894
14	0xbe8caecc	-0.2747711
15	0xbb3492c1	-0.0027553292
16	0x3e25738a	0.16157356
17	0x3e0bb0f7	0.13641725
18	0x3e1a0d97	0.15044247
19	0xbe20d966	-0.15707931
20	0xbe78aad1	-0.24283911
21	0xbd82c701	-0.06385613
22	0xbd084206	-0.03326609
23	0x3c5243ad	0.012833518
24	0x3e22d8d1	0.15903021
25	0x3d9e5e13	0.07732787
26	0x3dbc90ae	0.09207283
27	0xbe220f6d	-0.15826197
28	0x3d018e87	0.031630065
29	0xbea148d9	-0.3150089
30	0xbe4a7e77	-0.19774805
31	0x3eb380ff	0.35059354
32	0xbd6ad0e8	-0.057328135
33	0xbe890321	-0.267602
34	0x3c982616	0.018572848
35	0xbcfcfd84	-0.030882604
36	0x3d9b2d08	0.075769484
37	0x3e2b1d9f	0.16710518
38	0x3e9309b2	0.28718334
39	0x3e1d25f5	0.1534651
40	0xbdbe4987	-0.09291368
41	0x3d594218	0.053041548
42	0xbdf98db4	-0.12185231
43	0xbd3c713b	-0.046006422
44	0xbd9e3eba	-0.07726808
45	0xbe073fbc	-0.13207906
46	0x3d73cbdf	0.0595206
47	0xbd5742bd	-0.05255388
48	0xbd28748f	-0.041126784
49	0xbd904bd0	-0.0704571
50	0xbd2efbca	-0.042720594
51	0xbd38bd17	-0.045102205
52	0xbd838ca4	-0.064233094
53	0x3e063f32	0.13110045
54	0xbd60e826	-0.054908894
55	0x3e5555c7	0.20833503
56	0xbe3435ce	-0.1759865
57	0x3e06ace0	0.13151884
58	0xbc907e70	-0.017638415
59	0x3d414a9c	0.047190294
60	0x3c1c543b	0.0095415665
61	0x3cc59e3f	0.02412331
62	0xbd8ef20b	-0.0697976
63	0xbe8dda88	-0.2770579

base.mlp.fc1.2.weight f4 [64]
0	0x3fa3c753	1.2795204
1	0x3f7983e2	0.9746686
2	0x3f985b2f	1.1902827
3	0x3f9c159b	1.2194093
4	0x3f6e08bf	0.92982095
5	0x3f7ad3bb	0.97979325
6	0x3f77e655	0.96835834
7	0x3fab2b94	1.3372674
8	0x3f721446	0.94562185
9	0x3fac4d5f	1.3461112
10	0x3f9dac7a	1.2318261
11	0x3f812c13	1.0091575
12	0x3f73cc17	0.9523329
13	0x3f67da03	0.90567034
14	0x3f567af4	0.8378136
15	0x3f830300	1.023529
16	0x3f89f5e9	1.0778171
17	0x3f9f0f3b	1.2426523
18	0x3f4b4717	0.7940535
19	0x3f7b5310	0.9817362
20	0x3f551848	0.83240175
21	0x3f7c5fab	0.9858348
22	0x3f81a0a0	1.0127144
23	0x3f6d9169	0.92800003
24	0x3f8af873	1.0857071
25	0x3f3def96	0.74193704
26	0x3f7b72db	0.9822213
27	0x3f6e2f90	0.93041325
28	0x3f926f00	1.1440125
29	0x3f57ed8e	0.84346855
30	0x3f7ae122	0.97999775
31	0x3f8be26b	1.0928472
32	0x3facfeed	1.3515297
33	0x3faf0ae1	1.3675195
34	0x3f47a621	0.7798787
35	0x3fa69156	1.3013103
36	0x3f70ca3e	0.940586
37	0x3f7fedd8	0.99972296
38	0x3faede88	1.3661661
39	0x3f899d59	1.0751144
40	0x3f8d49da	1.1038163
41	0x3f47f220	0.7810383
42	0x3f71a643	0.9439432
43	0x3f743699	0.9539581
44	0x3f8ef00b	1.1167005
45	0x3f95ffb4	1.1718659
46	0x3f7f220b	0.9966132
47	0x3f637fe5	0.88867027
48	0x3fa6fb26	1.3045394
49	0x3f4decda	0.8043953
50	0x3f695ff3	0.9116203
51	0x3f9a200c	1.204103
52	0x3f95f8c5	1.1716543
53	0x3f6aa0bc	0.9165151
54	0x3f8b1e19	1.086856
55	0x3f74992e	0.95546234
56	0x3f4ded19	0.8043991
57	0x3fb6937d	1.426376
58	0x3f784583	0.96981066
59	0x3f5405f0	0.8282156
60	0x3f889413	1.0670189
61	0x3fb0e123	1.3818706
62	0x3fa9fc04	1.3280034
63	0x3f838947	1.0276269

base.mlp.fc1.2.bias f4 [64]
0	0xbdf27a87	-0.118397765
1	0xbd055cf6	-0.032559358
2	0x3d1308da	0.035897113
3	0x3e017a21	0.12644245
4	0x3d5f54c7	0.05452421
5	0xbda3d349	-0.07999284
6	0xbdec2ed1	-0.11532367
7	0x3e040027	0.12890683
8	0x3e0d772c	0.13814992
9	0xbd13a296	-0.036043726
10	0x3d2ad127	0.04170337
11	0xbda25727	-0.07926779
12	0x3de427e4	0.11140421
13	0xbd7519bf	-0.059839007
14	0xbd7cccec	-0.061718866
15	0xbd216137	-0.039399352
16	0x3e734dd0	0.23760152
17	0xbd8b440a	-0.06800087
18	0x3e1bb6fa	0.15206519
19	0x3d3f2f7b	0.04667614
20	0xbe07ab0d	-0.13248844
21	0xbc9a1474	-0.018808581
22	0xbe151038	-0.14556968
23	0x3db70124	0.089357644
24	0xbda7c589	-0.08191974
25	0x3e437cbe	0.19090554
26	0xbe392613	-0.1808093
27	0xbdaa13f8	-0.0830459
28	0x3e6117ee	0.21981785
29	0x3d82d231	0.06387747
30	0xbd1015c5	-0.03517701
31	0x3e30f124	0.17279488
32	0x3c0e731d	0.008694437
33	0xbe79e613	-0.24404173
34	0x3e3d5a97	0.18491589
35	0x3d64f1f0	0.055894792
36	0x3be61add	0.0070222453
37	0xbd2b776f	-0.041861948
38	0x3e4afa13	0.19821958
39	0x3e470af5	0.19437774
40	0xbc9e6873	-0.019336915
41	0x3d53b2a9	0.051684055
42	0x3e0cc038	0.137452
43	0xbc57ff1a	-0.01318338
44	0x3d1b0538	0.037846774
45	0xbdea71b4	-0.114474684
46	0xbd12754c	-0.035756394
47	0x3da3851c	0.07984373
48	0xbe2d3f8d	-0.16918774
49	0x3d27f6fd	0.04100703
50	0xbc2a7dae	-0.010405941
51	0xbdb6809b	-0.08911248
52	0xbc199a9e	-0.0093752425
53	0x3e176565	0.14784773
54	0xbdcb8296	-0.09937017
55	0x3e276a35	0.16349109
56	0xbdd33fba	-0.10314889
57	0xbcecaf74	-0.028892256
58	0x3d9fedd7	0.07809036
59	0x3dcac1ed	0.0990027
60	0x3e715202	0.2356644
61	0xbe025c6a	-0.12730566
62	0xbd961453	-0.07328095
63	0xbe01f58d	-0.12691326

base.mlp.fc2.0.0.weight f4 [64, 64]
0	0x3eb5b379	0.3548849
1	0x3dc0af66	0.094084546
2	0xbcc580eb	-0.024109324
3	0xbd17e8b9	-0.037087176
4	0xbe282b03	-0.16422658
5	0xbd664ecd	-0.056227494
6	0xbe4acabf	-0.19803904
7	0x3d57979b	0.052634817
8	0xbe40640a	-0.18788162
9	0xbe08b729	-0.1335112
10	0x3e8d136a	0.27553874
11	0x3e856289	0.2605174
12	0xbe9ae536	-0.30253
13	0xbc93504b	-0.017982623
14	0x3e0a7913	0.13522749
15	0x3e78eeaa	0.24309793
16	0xbcc55d9c	-0.024092488
17	0x3f124289	0.57132775
18	0xbe90051d	-0.281289
19	0xbe7d923b	-0.24762814
20	0xbc749e7f	-0.014930367
21	0xbd0f7ecc	-0.035033032
22	0x3d0c4ccb	0.034252923
23	0xbf020b15	-0.5079816
24	0x3e73dc8c	0.238146
25	0xbd9e09ab	-0.07716688
26	0x3eda0686	0.42583102
27	0x3df4e887	0.119584136
28	0xbea654bf	-0.3248653
29	0xbe420002	-0.18945315
30	0x3ea4dc2c	0.32199228
31	0xbf382190	-0.7192621
32	0xbe2ca277	-0.1685885
33	0x3e6e7c41	0.23289587
34	0xbe83c9b2	-0.2573982
35	0xbe62e10d	-0.22156163
36	0x3e8e995f	0.27851388
37	0xbe676c4c	-0.22599906
38	0x3ec3fba8	0.38277936
39	0xbf2c9df9	-0.6742855
40	0x3de58126	0.11206274
41	0x3e0f4c5e	0.13993976
42	0xbda84a55	-0.08217303
43	0x3d29636e	0.04135459
44	0x3e8601b8	0.26173186
45	0x3ec93eb0	0.3930564
46	0xbe747b93	-0.23875265
47	0x3d8484d6	0.06470649
48	0x3ea254e3	0.31705388
49	0xbe11cfda	-0.14239445
50	0xbea60487	-0.3242533
51	0x3e5d1dfd	0.21593471
52	0x3e989a14	0.29805052
53	0xbe5d10d2	-0.21588448
54	0xbdafd824	-0.085861474
55	0xbcf81951	-0.03028551
56	0x3d302bc4	0.04301049
57	0x3f203d85	0.6259387
58	0x3dc35169	0.09537012
59	0xbe8d71bc	-0.27625835
60	0x3de13742	0.10996868
61	0xbe84d9f7	-0.25947544
62	0x3eb2ac0f	0.34896895
63	0x3ea05f85	0.31322876
64	0x3e8e5d66	0.27805632
65	0xbe391e77	-0.18078028
66	0x3ef8293b	0.48468956
67	0x3e58ca3d	0.21170898
68	0xbe51b27b	-0.20478241
69	0xbefc7be8	-0.49313283
70	0xbe875be1	-0.26437286
71	0x3e483da3	0.19554763
72	0xbee8acbc	-0.45444286
73	0xbea70a43	-0.32625017
74	0xbddfafdd	-0.10922215
75	0xbdb18d06	-0.08669476
76	0x3e56a0f2	0.20959833
77	0x3d914a4c	0.07094249
78	0x3e95bc58	0.29245257
79	0x3eaff0a8	0.34363294
80	0xbe84e186	-0.2595331
81	0xbe01ef75	-0.12689002
82	0xbd534c7f	-0.051586624
83	0x3e8b01c8	0.27149796
84	0xbd6ac6c9	-0.057318483
85	0x3e23e486	0.16005144
86	0xbef73d79	-0.48289087
87	0x3e1fba52	0.1559842
88	0xbdb94f4b	-0.09048327
89	0xbdeae281	-0.114689834
90	0x3f162485	0.58649474
91	0xbe5cde3e	-0.21569154
92	0x3e9ae26c	0.3025087
93	0x3d7fddda	0.062467434
94	0x3d3c802f	0.046020683
95	0xbef1d603	-0.4723359
96	0xbe816957	-0.2527568
97	0x3eb49a4d	0.35273972
98	0x3e8bcbf8	0.27304053
99	0xbd85d493	-0.06534686
100	0x3de213ce	0.11038934
101	0xbebd8e86	-0.370228
102	0x3eb0d341	0.34536174
103	0xbdeed6e8	-0.11662084
104	0x3e2afefe	0.16698834
105	0xbe4ef501	-0.20210649
106	0x3ebffa32	0.3749557
107	0xbe19bc3f	-0.15013216
108	0x3e47d498	0.19514692
109	0x3ee20de3	0.4415122
110	0xbe751b0b	-0.23936097
111	0x3dc0eaa6	0.09419756
112	0xbe70eb59	-0.23527278
113	0x3d48ef8d	0.04905658
114	0x3e9473e5	0.2899467
115	0xbca499f5	-0.020092944
116	0xbe49eecf	-0.19720004
117	0x3cf92aca	0.030415911
118	0x3ed9116d	0.42396107
119	0x3e43ac9e	0.19108817
120	0x3e500d4b	0.20317571
121	0x3db3beda	0.087766364
122	0x3e8e43c6	0.27786082
123	0x3e21147f	0.15730475
124	0xbe61588a	-0.22006431
125	0xbf050598	-0.5196166
126	0xbc14f586	-0.0090917405
127	0x3ed43a76	0.41450852
128	0xbf16338d	-0.5867241
129	0x3e25d443	0.16194253
130	0xbd437152	-0.047715493
131	0x3dff82ea	0.12476142
132	0xbd48dc3e	-0.049038164
133	0xbc8cbcf5	-0.017179945
134	0x3d39ebb0	0.045390785
135	0xbd766477	-0.060154404
136	0x3e6e6da6	0.23284015
137	0x3f087aa0	0.5331211
138	0xbd142485	-0.03616764
139	0x3d36de7c	0.04464577
140	0xbc94cc63	-0.018163865
141	0xbd1aa8ff	-0.037758823
142	0x3e95a504	0.2922746
143	0xbeaab2ed	-0.33339635
144	0x3eb7ac64	0.3587371
145	0x3d5f989f	0.05458891
146	0xbed2ceda	-0.4117344
147	0x3c5e0eca	0.013553331
148	0xbe419e22	-0.18907979
149	0xbba1bc0f	-0.0049357484
150	0x3f25ad70	0.6471777
151	0x3e649480	0.22322273
152	0xbda1f61f	-0.07908272
153	0x3d29e876	0.041481458
154	0x3e4eb68a	0.2018682
155	0x3f11fbf1	0.5702506
156	0x3dd77067	0.10519486
157	0x3dc5057d	0.096201874
158	0xbe04f812	-0.12985256
159	0x3d9e17dd	0.07719395
160	0x3e4a20a4	0.19739014
161	0x3cf4edc4	0.029898532
162	0x3c5fcb5f	0.013659327
163	0x3e4ece71	0.20195939
164	0x3baf70b2	0.0053540105
165	0xbdddea50	-0.10835707
166	0xbeb9bf26	-0.36278647
167	0xbecfcb77	-0.4058492
168	0x3c8fb407	0.017541898
169	0x3e197562	0.14986184
170	0xbe087afe	-0.13328168
171	0x3d37bc30	0.044857204
172	0xbde0b5e9	-0.109721966
173	0x3d945fb6	0.07244818
174	0xbe90664f	-0.28203055
175	0xbee9da4e	-0.45674366
176	0x3ee71cb1	0.45139077
177	0x3e6a4565	0.22878034
178	0xbdd5e744	-0.10444501
179	0x3dd00dd9	0.10158891
180	0xbe7a87dd	-0.2446589
181	0xbe894acc	-0.26814878
182	0xbdc4f933	-0.096178435
183	0xbe8f9bcd	-0.28048554
184	0x3eaafb7c	0.33394992
185	0x3e979e86	0.2961313
186	0xbcbe4b38	-0.023229226
187	0xbc0081bb	-0.00784343
188	0xbc5af9d7	-0.0133652305
189	0x3e68d12b	0.22736041
190	0x3d8c8d71	0.06862915
191	0x3e16b31a	0.1471676
192	0x3eac7ad2	0.33687454
193	0x3e61b653	0.22042207
194	0x3edbe05e	0.42944616
195	0xbc807c28	-0.015684202
196	0xbeaf1234	-0.34193575
197	0x3e52502f	0.205384
198	0x3e362dc0	0.1779089
199	0xbde958b9	-0.11393876
200	0x3ea82efa	0.3284834
201	0x3d8eec88	0.069787085
202	0x3d0fe0cb	0.03512649
203	0xbdc875aa	-0.09788068
204	0x3e508687	0.20363818
205	0xbe443994	-0.1916259
206	0x3e84c75d	0.25933352
207	0xbf31d203	-0.6946108
208	0x3e9fb0e5	0.31189647
209	0x3e29e78c	0.16592234
210	0x3e3567c0	0.17715359
211	0xbedffbce	-0.437468
212	0x3ea0643d	0.31326476
213	0xbdd330a3	-0.10312011
214	0xbd30de16	-0.043180548
215	0x3ee72d2e	0.45151657
216	0xbe912bb3	-0.28353652
217	0xbd9170e9	-0.07101614
218	0xbc9f8eaf	-0.019477217
219	0x3da6e154	0.08148447
220	0xbe187ff1	-0.14892556
221	0x3cd21686	0.025645506
222	0xbdf63f55	-0.120237984
223	0xbea49046	-0.32141322
224	0xbdb70a1e	-0.089374766
225	0x3e25ca90	0.16190553
226	0xbbc95fbb	-0.006145445
227	0xbdc3c548	-0.09559113
228	0x3e864776	0.26226395
229	0xbe678209	-0.22608198
230	0xbe85e3f0	-0.26150465
231	0x3f12af54	0.5729878
232	0x3db95fa7	0.09051447
233	0xbd889e7a	-0.06670852
234	0x3ef8732f	0.48525378
235	0xbedc82f4	-0.4306866
236	0x3f555e22	0.8334676
237	0x3decc349	0.11560685
238	0x3d83207a	0.06402679
239	0xbcc5e0b8	-0.024155006
240	0x3eb7827d	0.35841742
241	0xbecfd033	-0.4058853
242	0x3ea8d478	0.329746
243	0xbd8595b1	-0.06522692
244	0xbd81172f	-0.0630325
245	0xbd534388	-0.051578075
246	0x3ee88d6a	0.4542039
247	0x3e91d71d	0.2848443
248	0xbe380b8e	-0.17973158
249	0xbe7d144b	-0.24714772
250	0xbd3dad4b	-0.046307843
251	0x3be10cda	0.006867987
252	0x3aae895e	0.0013316085
253	0xbe229105	-0.15875633
254	0x3e9d3f10	0.30712175
255	0x3e81a17e	0.2531852

base.mlp.fc2.0.0.bias f4 [64]
0	0xbe4ac1dd	-0.19800515
1	0xbdec3ebf	-0.11535405
2	0xbe0d601b	-0.13806193
3	0xbc7c5397	-0.015400789
4	0x3dec0352	0.11524071
5	0x3d7b12cb	0.06129722
6	0xbdaad2bb	-0.08340975
7	0x3ed698b1	0.4191337
8	0x3cfe4162	0.031037036
9	0xbeb5093b	-0.35358605
10	0xbe70f01d	-0.23529096
11	0xbe6281b3	-0.22119789
12	0xbe274785	-0.16335876
13	0x3c897663	0.016780084
14	0xbbb3868c	-0.0054786857
15	0x3bdc37aa	0.006720503
16	0x3d62edec	0.05540268
17	0xbe40fd0c	-0.1884653
18	0x3d5acef2	0.053420015
19	0xbe1ea6b7	-0.15493284
20	0xbe1c5325	-0.15266092
21	0x3d0c9d35	0.03432961
22	0xbd8d21f5	-0.068912424
23	0xbe0530f2	-0.13006952
24	0xbe5b25d8	-0.21401155
25	0x3e13c11d	0.14429136
26	0xbe44d3e6	-0.19221458
27	0x3d2814c7	0.04103544
28	0xbe03b696	-0.1286262
29	0xbd7ebb12	-0.062190123
30	0xbe10ed96	-0.14153132
31	0xbd1bb311	-0.038012568
32	0xbd80c3ab	-0.06287321
33	0xbe4c3bb3	-0.19944648
34	0x3dbd5cbc	0.09246203
35	0xbd817295	-0.06320683
36	0x3f24d33c	0.6438482
37	0x3dfcd084	0.12344459
38	0xbd255403	-0.040363323
39	0xbdf6ab8d	-0.120444395
40	0xbe2540ee	-0.1613805
41	0xbd30003c	-0.042968974
42	0xbd6b36fa	-0.057425477
43	0xbda1ae1d	-0.078945376
44	0xbe227e53	-0.15868501
45	0xbe6ec4ae	-0.23317215
46	0xbd77580b	-0.0603867
47	0x3ea45d4c	0.3210243
48	0xbe37f447	-0.17964278
49	0xbe65f76d	-0.22457667
50	0xbdd3b9fc	-0.10338208
51	0xbe3d1122	-0.18463567
52	0xbd8a897a	-0.06764503
53	0xbe42a237	-0.19007193
54	0xbdee3e70	-0.11633003
55	0x3ecb3fed	0.3969721
56	0x3e88e2a7	0.26735422
57	0x3c8c6da3	0.017142123
58	0xbd5e54cc	-0.054280087
59	0xbdaa3ee7	-0.08312779
60	0xbd1769f0	-0.036966264
61	0x3e84829e	0.25880903
62	0xbe03c0b8	-0.12866485
63	0x3f33e193	0.70266074

base.mlp.fc2.0.2.weight f4 [64]
0	0x3f7a9ac2	0.9789239
1	0x3e9c75ae	0.30558532
2	0x3ec9f988	0.3944819
3	0x3f279701	0.6546479
4	0x3f2ebf9e	0.68261135
5	0x3f2c9d92	0.67427933
6	0x3f03b2e7	0.5144486
7	0x3f4d4216	0.80178964
8	0x3f00b60e	0.50277793
9	0x3eff78ef	0.49896953
10	0x3f476716	0.7789167
11	0x3f25e6b4	0.6480515
12	0x3f3fba60	0.7489376
13	0x3ec9c29f	0.39406297
14	0x3ed79615	0.4210669
15	0x3f371a65	0.7152465
16	0x3f45ffe6	0.77343595
17	0x3f40194a	0.7503859
18	0x3ee95c66	0.45578307
19	0x3ef28d0d	0.47373238
20	0x3f586998	0.84536123
21	0x3f41cc92	0.75702775
22	0x3f2eca20	0.6827717
23	0x3f513ec2	0.81736386
24	0x3f49c1f1	0.78811556
25	0x3f474889	0.77845055
26	0x3ee4dcf1	0.44699815
27	0x3f27f8ba	0.656139
28	0x3f399bda	0.72503436
29	0x3f5daffe	0.8659667
30	0x3f015473	0.50519484
31	0x3f56156b	0.8362643
32	0x3f301307	0.68779033
33	0x3f201aca	0.62540877
34	0x3ea171ff	0.31532285
35	0x3eeaffa6	0.4589817
36	0x3ec8c7b8	0.39214873
37	0x3ede60c5	0.43433204
38	0x3ef02528	0.46903348
39	0x3e419823	0.18905692
40	0x3efa9be0	0.48947048
41	0x3edab623	0.42717084
42	0x3f4d8fa3	0.802973
43	0x3f3a9380	0.7288132
44	0x3f174387	0.59087414
45	0x3f24fbc7	0.6444668
46	0x3f3f5d72	0.7475196
47	0x3d4b4d52	0.049634285
48	0x3f5f325d	0.87186223
49	0x3f08f995	0.5350583
50	0x3f631f90	0.88720036
51	0x3f2519a8	0.64492273
52	0x3ebae63b	0.36503777
53	0x3f40af0b	0.75267094
54	0x3f107054	0.564214
55	0x3e9e9c9e	0.30978864
56	0x3e64271b	0.22280543
57	0x3f3afb2c	0.7303951
58	0x3f5e89f6	0.8692926
59	0x3f4f9634	0.81088567
60	0x3f160ed7	0.58616394
61	0x3f0fa9bf	0.56118387
62	0x3ee30b3a	0.44344503
63	0x3f3fd7ff	0.7493896

base.mlp.fc2.0.2.bias f4 [64]
0	0xbe43c145	-0.19116695
1	0xbda10b51	-0.078634866
2	0x3e03faa5	0.12888582
3	0x3e99027f	0.29884717
4	0x3eb7d1cf	0.3590226
5	0xbe4e2b32	-0.20133665
6	0xbe078142	-0.13232902
7	0xbd17aaee	-0.037028246
8	0x3da28490	0.079354405
9	0x3e4d8e53	0.20073824
10	0xbe2a8866	-0.16653594
11	0xbe09fac7	-0.1347457
12	0x3ec2fd15	0.3808371
13	0xbdafa7ab	-0.08576902
14	0x3e2590ef	0.16168569
15	0x3e8d052d	0.2754301
16	0x3e8527e2	0.2600699
17	0xbc2a1179	-0.010380142
18	0x3da193e6	0.078895375
19	0x3e0e0855	0.13870366
20	0xbe2f1e68	-0.17101443
21	0xbdd67373	-0.10471239
22	0x3e093284	0.13398176
23	0xbe806978	-0.25080466
24	0x3b2a6596	0.0026000491
25	0x3e30d0d6	0.17267165
26	0xbe132523	-0.14369635
27	0xbdec119a	-0.11526795
28	0x3eacbfff	0.3374023
29	0x3ea356a2	0.31902033
30	0x3e69ec6c	0.22844094
31	0x3e90da0a	0.2829135
32	0x3e9a31fb	0.30116257
33	0xbe8d0f97	-0.27550957
34	0xbe08adc1	-0.13347532
35	0x3dbb79b2	0.09154071
36	0xbe8b5d29	-0.27219513
37	0x3d3af948	0.04564789
38	0x3e65a6e0	0.22426939
39	0xbe95ac18	-0.2923286
40	0xbd402b13	-0.04691608
41	0x3e25b9f8	0.16184223
42	0x3e88763c	0.26652706
43	0x3ebf5cdd	0.37375537
44	0x3e137481	0.14399911
45	0xbe2baa81	-0.16764261
46	0x3e8e9a8b	0.27852282
47	0xbe2d649d	-0.16932912
48	0xbe6191c3	-0.2202826
49	0x3e3407b1	0.17581059
50	0x3e915dda	0.28391916
51	0xbce0e0a8	-0.027450874
52	0x3e1f8fe1	0.15582229
53	0x3e8503cf	0.25979468
54	0x3e7b1220	0.24518633
55	0xbe321f48	-0.17394745
56	0xbeeebea0	-0.4662981
57	0x3ea115c0	0.31461906
58	0x3ea8ba66	0.3295471
59	0x3e967d29	0.29392365
60	0xbdb278b2	-0.08714427
61	0x3c066155	0.008201917
62	0x3c1b38d7	0.009474001
63	0xbda03f14	-0.07824531

v_out.weight f4 [1, 64]
0	0xbe687050	-0.22699094
1	0xbcc6872d	-0.024234379
2	0x3cbc9891	0.023021968
3	0x3d0028ca	0.0312889
4	0x3e3be5e2	0.18349412
5	0xbd0aa523	-0.033848893
6	0xbda5f3d4	-0.08103147
7	0x3e21387c	0.15744203
8	0x3d3a4b58	0.04548201
9	0xbd1251e5	-0.035722632
10	0xbdb9d212	-0.09073271
11	0xbdb1fde9	-0.08691008
12	0x3e85dcdc	0.26145065
13	0xbd4e1bae	-0.050319366
14	0xbd1ce9f0	-0.038309038
15	0x3da577a2	0.08079459
16	0x3e1099ce	0.14121172
17	0xbde9b5da	-0.114116386
18	0x3d514445	0.051090498
19	0xbd783fad	-0.0606076
20	0xbe41d0d7	-0.18927322
21	0xbddc7fcd	-0.107665636
22	0xbd88a956	-0.06672923
23	0xbe1fe576	-0.15614876
24	0xbd851ea0	-0.06499982
25	0x3dcfcb8c	0.10146245
26	0xbd0a7fea	-0.033813395
27	0xbdf5f41a	-0.12009449
28	0x3d8fe4f7	0.070260935
29	0x3e75061f	0.23928116
30	0xbc9bd74a	-0.019023556
31	0x3e107159	0.14105739
32	0x3e19e090	0.1502707
33	0xbd917614	-0.071026
34	0xbc1437ac	-0.009046476
35	0x3d8cd85a	0.06877203
36	0x3d9e315c	0.07724258
37	0x3ca5d8c6	0.020244967
38	0x3dc54653	0.09632554
39	0xbd4497a1	-0.047996167
40	0xbaa88301	-0.0012856425
41	0x3d4eb37e	0.050464146
42	0x3e31235e	0.17298648
43	0x3df3a476	0.11896603
44	0x3d9c9386	0.07645325
45	0xbdd374a6	-0.10324983
46	0x3e210222	0.1572347
47	0xbb361524	-0.0027783597
48	0xbe2fd255	-0.17170079
49	0xbc222943	-0.009897533
50	0x3e4b9c9c	0.1988396
51	0xbc29c1cf	-0.010361149
52	0x3c8f791f	0.01751381
53	0x3db6d44c	0.08927211
54	0x3d8fad9b	0.070155345
55	0xbbb0075d	-0.0053719715
56	0xbe08398f	-0.13303207
57	0x3dae76ca	0.08518751
58	0x3e1ed960	0.1551261
59	0x3dcc126d	0.09964452
60	0xbd1206b8	-0.03565094
61	0x3c379e43	0.011207166
62	0x3d2f91f5	0.042863805
63	0x3e2375cf	0.15962909
