checkpoint/best_mappo_seed111_run20260211_183208_envmamujoco-halfcheetah-6x1_ep1200_agent4_critic.pt (torch, 39394 bytes, 11 tensors)

base.feature_norm.weight f4 [54]
1.2145331 0.96463555 1.3198951 1.211817 1.3080347 1.208798 1.1633561 0.9954568
0.99376243 1.2974772 0.699405 0.99892396 1.5917635 1.3273219 1.287477 1.1941124
1.0140984 0.9136532 1.0704095 0.4934275 1.1444398 1.3987715 1.2923803 1.1478897
0.88594836 0.8923382 1.5811703 1.389774 0.78233075 1.476126 1.2352029 1.3036255
1.3116785 1.1639577 1.1729887 0.8790039 1.2461483 0.65604013 1.1767392 1.2552302
1.3073963 1.2615446 1.2311152 1.1089877 0.908678 1.0609322 0.52063197 1.1217047
1.3261348 1.3558735 1.2218611 0.92325974 0.9023225 1.3829647
00000000: d275 9b3f 5bf2 763f 53f2 a83f d21c 9b3f
00000010: ae6d a73f e5b9 9a3f dae8 943f 42d6 7e3f
00000020: 3767 7e3f bc13 a63f 350c 333f 7bb9 7f3f
00000030: e8be cb3f afe5 a93f 0ccc a43f add8 983f
00000040: facd 813f 2de5 693f 2e03 893f 87a2 fc3e
00000050: 017d 923f f20a b33f b86c a53f 0dee 923f
00000060: 83cd 623f 4770 643f ca63 ca3f 1de4 b13f
00000070: d446 483f b2f1 bc3f 211b 9e3f 33dd a63f
00000080: 15e5 a73f 91fc 943f 7e24 963f 6606 613f
00000090: ca81 9f3f 3ff2 273f 649f 963f 62ab a03f
000000a0: c358 a73f 4b7a a13f 2f95 9d3f 4ff3 8d3f
000000b0: 1f9f 683f a0cc 873f 2348 053f 0594 8f3f
000000c0: c9be a93f 438d ad3f f265 9c3f c05a 6c3f
000000d0: 9bfe 663f fd04 b13f

base.feature_norm.bias f4 [54]
-0.013468884 -0.03514224 -0.003138813 -0.034156278 -0.041505896 -0.08367147 -0.016723858 0.06191338
0.0016625103 -0.02798145 0.11330415 0.047104154 -0.047549617 0.03757208 0.034205202 0.015190067
-0.055556163 0.21375789 0.116095185 0.06831304 -0.094372086 -0.031857196 -0.12676151 -0.02138149
0.03136784 -0.030883871 0.00746912 -0.030966377 0.06283848 0.016875602 -0.04769916 0.020987269
-0.07431998 0.015308908 0.054532535 -0.032404643 0.0208127 -0.015042601 0.05331682 0.046616603
0.021706084 -0.04138279 0.03398148 -0.09200585 0.013555542 0.018247154 0.007957056 0.0066965306
0.015545914 -0.07545843 -0.039954487 -0.026747214 0.059216935 0.0022782087
00000000: 98ac 5cbc 4ff1 0fbd 8bb4 4dbb 74e7 0bbd
00000010: 1602 2abd f35b abbd 7900 89bc e298 7d3d
00000020: 97e8 d93a 5b39 e5bc 020c e83d 49f0 403d
00000030: 63c3 42bd 2ee5 193d c11a 0c3d c2df 783c
00000040: dc8e 63bd 59e3 5a3e 50c3 ed3d b5e7 8b3d
00000050: 2746 c1bd b17c 02bd c5cd 01be 3c28 afbc
00000060: 907b 003d 2c00 fdbc 85bf f43b 33ad fdbc
00000070: 76b1 803d b43e 8a3c 3260 43bd 7eed ab3c
00000080: 1335 98bd 37d2 7a3c 825d 5f3d bbba 04bd
00000090: 657f aa3c 3e75 76bc bd62 5a3d 0df1 3e3d
000000a0: f5d0 b13c 0081 29bd 2a30 0b3d 906d bcbd
000000b0: 1018 5e3c 0e7b 953c 505e 023c 926e db3b
000000c0: 4ab4 7e3c f389 9abd 51a7 23bd f91c dbbc
000000d0: 758d 723d 004e 153b

base.mlp.fc1.0.weight f4 [64, 54]
0.106891915 -0.05647917 0.23431514 -0.009264767 0.06294091 0.20146282 -0.2599058 -0.09496724
0.1257369 -0.062893964 -0.14788257 -0.07938635 0.19807559 0.069942616 0.17323875 -0.1951675
-0.06761181 -0.14542347 -0.21144094 0.11791052 0.31683007 -0.13104665 0.00805094 -0.16060331
-0.009152018 0.20528628 -0.24423765 0.32969952 -0.23741269 0.015919846 -0.18970753 0.15092665
-0.11844704 -0.13041212 -0.035368774 0.013564168 -0.061614323 -0.019082487 0.071827434 0.47529173
0.3183643 -0.32289407 -0.18075489 0.021999339 0.08553899 0.29213247 -0.3481684 0.012381725
0.23889323 -0.18607366 -0.1529318 -0.14360516 0.057017043 0.4289258 0.0329339 -0.36557564
-0.18098138 0.29199395 0.34877253 -0.3783333 -0.07571228 -0.26420274 0.07332474 0.13766025
-0.10757223 0.35260028 -0.044102885 -0.17899564 0.013500612 -0.06716432 -0.10703393 -0.13866323
0.23224215 -0.11510352 -0.31800655 -0.18531221 -0.07957452 -0.33383566 -0.35331073 0.10371764
0.1891944 0.4641985 -0.009105532 -0.29532263 0.06654881 0.12348242 -0.15588364 0.17743468
0.25631115 -0.039254036 0.60352844 0.014785842 0.12007141 0.15694207 0.43826824 0.04697194
-0.1312352 -0.0708465 0.13152464 0.19399057 0.17297019 0.16072765 0.15593256 0.0071080816
-0.16599329 0.030081194 -0.0094762165 0.015499766 -0.09427333 -0.16593169 -0.10007229 0.2686586
-0.08002563 -0.049786977 -0.37173215 -0.18314515 -0.09089631 0.04841967 -0.05495996 -0.049804002
-0.08905763 0.26010406 0.3019369 -0.57012177 0.03555571 -0.18599352 0.2696918 -0.1471239
-0.13911304 0.25279763 0.29608873 -0.26413688 0.26232186 -0.35744262 0.28992936 -0.036032718
-0.07324004 -0.02808452 0.15671255 -0.017908016 0.24851991 -0.15393779 0.2577263 -0.099665225
-0.2026397 -0.07859779 0.14034472 -0.10788685 0.3382091 0.20483696 -0.5082003 0.07197669
0.0063490802 0.18451302 -0.063794635 0.22209413 0.16790769 -0.009916342 -0.5829915 -0.16741347
-0.41870797 -0.07156777 -0.13382526 0.08382742 0.0006944136 0.12456358 0.29992074 0.13613579
-0.36580297 0.2286652 0.1786767 0.121998355 -0.3791985 -0.35281685 -0.3733128 0.32189876
-0.043939903 -0.099410474 -0.067705296 -0.008610626 0.2356 -0.025274767 -0.02189792 -0.017573504
0.0481958 0.008435463 0.0554948 -0.26066014 0.035123236 0.0745553 -0.022495504 -0.515399
0.13769133 0.21882568 -0.36191148 -0.2618267 0.035375196 -0.025370361 0.07032271 -0.17503239
-0.19907889 -0.053713243 0.048603155 -0.096629314 0.14602004 0.0968733 0.02119001 0.11693728
0.10769631 -0.05492558 0.56017226 0.2298429 0.1743466 -0.11830336 -0.22123377 0.09890488
-0.095041536 -0.12088365 -0.28032205 0.46876645 -0.1493725 0.07758657 -0.18911637 0.04958087
0.042003144 0.23946193 0.20107612 0.1354569 0.01616641 -0.12279953 0.20856173 0.10880403
0.03875421 0.17631955 -0.30811477 -0.15251176 0.035871323 -0.4271094 0.03189741 0.04937417
-0.077004075 0.0688835 -0.10923552 0.36848947 0.034333084 -0.38015908 0.08990827 -0.65202683
-0.0779653 -0.24144 -0.08756778 -0.041673984 -0.02461631 -0.27009785 0.27441132 0.13656166
00000000: 26ea da3d b456 67bd 4ff0 6f3e 40cb 17bc
00000010: 2ae7 803d 454c 4e3e 5f12 85be 2f7e c2bd
00000020: 2dc1 003e 8dce 80bd 876e 17be 5095 a2bd
00000030: 54d4 4a3e 133e 8f3d 8065 313e fdd9 47be
00000040: 1078 8abd e4e9 14be f983 58be 127b f13d
00000050: 8d37 a23e 1831 06be 17e8 033c 3275 24be
00000060: 59f2 15bc 9136 523e 6f19 7abe 60ce a83e
00000070: 501c 73be 566a 823c b142 42be 848c 1a3e
00000080: 5d94 f2bd c18a 05be d9de 10bd 3e3c 5e3c
00000090: 4d5f 7cbd e052 9cbc 431a 933d 7059 f33e
000000a0: a500 a33e 5f52 a5be cf17 39be f537 b43c
000000b0: 112f af3d 6392 953e 2143 b2be b8dc 4a3c
000000c0: 6da0 743e 188a 3ebe 279a 1cbe 3b0d 13be
000000d0: b48a 693d 2a9c db3e b2e5 063d bb2c bbbe
000000e0: 2f53 39be 3b80 953e 5092 b23e e7b4 c1be
000000f0: 0a0f 9bbd 9545 87be 482b 963d cff6 0c3e
00000100: d44e dcbd 0688 b43e 3aa5 34bd a24a 37be
00000110: ac31 5d3c 728d 89bd 9b34 dbbd bcfd 0dbe
00000120: e3d0 6d3e 65bb ebbd c1d1 a2be 7cc2 3dbe
00000130: f7f7 a2bd 82ec aabe 25e5 b4be ea69 d43d
00000140: 2dbc 413e 6dab ed3e 5f2f 15bc 8734 97be
00000150: be4a 883d 5ae4 fc3d f69f 1fbe 70b1 353e
00000160: 373b 833e d7c8 20bd d780 1a3f 5140 723c
00000170: 00e8 f53d 6cb5 203e b264 e03e a665 403d
00000180: 8562 06be f817 91bd 65ae 063e 77a5 463e
00000190: 191f 313e ca95 243e c9ac 1f3e e9ea e83b
000001a0: 25fa 29be d66c f63c 2242 1bbc bbf2 7d3c
000001b0: 6012 c1bd ffe9 29be b3f2 ccbd 9f8d 893e
000001c0: 7ae4 a3bd 6eed 4bbd ad53 bebe 678a 3bbe
000001d0: d827 babd b453 463d b21d 61bd 48ff 4bbd
000001e0: d963 b6bd 5c2c 853e 7997 9a3e 80f3 11bf
000001f0: dda2 113d 1675 3ebe 0b15 8a3e a6a7 16be
00000200: a673 0ebe b16e 813e f198 973e f33c 87be
00000210: 0d4f 863e b802 b7be 9f71 943e 0b97 13bd
00000220: e0fe 95bd 8211 e6bc 4179 203e d5b3 92bc
00000230: 017c 7e3e dea1 1dbe b4f4 833e 481d ccbd
00000240: c880 4fbe e1f7 a0bd 87b6 0f3e c8f3 dcbd
00000250: be29 ad3e c8c0 513e 6a19 02bf 8468 933d
00000260: f20b d03b fbf0 3c3e c3a6 82bd a56c 633e
00000270: feef 2b3e 2778 22bc ee3e 15bf 706e 2bbe
00000280: e460 d6be 1f92 92bd 7d09 09be b6ad ab3d
00000290: 4f09 363a 311b ff3d 368f 993e 2e67 0b3e
000002a0: 874a bbbe 3627 6a3e 06f7 363e 46da f93d
000002b0: 4e26 c2be 69a4 b4be db22 bfbe eacf a43e
000002c0: 54fa 33bd b897 cbbd 13a9 8abd 9513 0dbc
000002d0: 2041 713e 070d cfbc 4463 b3bc 4ff6 8fbc
000002e0: f668 453d e534 0a3c 844e 633d 3f75 85be
000002f0: 62dd 0f3d 73b0 983d 7e48 b8bc 30f1 03bf
00000300: f5fe 0c3e d713 603e 764c b9be 260e 86be
00000310: 95e5 103d 81d5 cfbc 5a05 903d b13b 33be
00000320: 56db 4bbe 6b02 5cbd 1a14 473d 97e5 c5bd
00000330: 4786 153e 8265 c63d ac96 ad3c d07c ef3d
00000340: e28f dc3d a5f9 60bd 7367 0f3f f05b 6b3e
00000350: ea87 323e 0849 f2bd 1b8b 62be a48e ca3d
00000360: 23a5 c2bd d991 f7bd 5f86 8fbe 2802 f03e
00000370: 1bf5 18be b5e5 9e3d b9a7 41be 4f15 4b3d
00000380: 7d0b 2c3d 8235 753e e6e6 4d3e 37b5 0a3e
00000390: 6b6f 843c 527e fbbd 3591 553e a6d4 de3d
000003a0: bcbc 1e3d 1d8d 343e 38c1 9dbe 0b2c 1cbe
000003b0: cfed 123d 15ae dabe dca6 023d 923c 4a3d
000003c0: 50b4 9dbd cb12 8d3d dfb6 dfbd a7aa bc3e
000003d0: d9a0 0c3d 36a4 c2be d421 b83d 3beb 26bf
000003e0: 45ac 9fbd 0c3c 77be bc56 b3bd 57b2 2abd
000003f0: 25a8 c9bc 444a 8abe a47f 8c3e d2d6 0b3e

base.mlp.fc1.0.bias f4 [64]
-0.03630114 0.05532655 0.027388819 -0.044166826 0.009748122 -0.04847557 0.0061578713 -0.08659872
-0.0011196688 0.115289934 0.085374504 0.069981635 0.03377212 0.065571465 -0.005955942 0.03978381
0.027010843 0.06763358 0.0053332075 -0.057305794 0.060509317 -0.026898252 0.0846203 0.0071359
0.032314315 -0.07233405 0.053791318 0.010011448 0.10360802 -0.065560736 0.063174486 -0.03571774
-0.0074281916 0.04054269 0.0041546873 0.095663734 0.10148991 0.082575865 0.07498706 0.07695344
0.031334616 0.050817657 0.031251065 -0.035954576 0.023507057 -0.009342427 0.02504771 -0.021925496
0.035714906 0.09699843 0.06183568 0.040469225 0.031425644 0.024616268 0.028683044 0.095368385
0.038327795 0.02977134 -0.0010418957 0.07656549 -0.072814934 0.022524077 0.007566246 0.023686728
00000000: 81b0 14bd 189e 623d 845e e03c 46e8 34bd
00000010: 96b6 1f3c 528e 46bd f8c7 c93b ab5a b1bd
00000020: dac1 92ba 211d ec3d d4d8 ae3d 8852 8f3d
00000030: a254 0a3d 554a 863d 102a c3bb 59f4 223d
00000040: d845 dd3c 7983 8a3d 30c2 ae3b 7bb9 6abd
00000050: 9ed8 773d b959 dcbc 684d ad3d 45d4 e93b
00000060: 045c 043d e023 94bd 4954 5c3d 0e07 243c
00000070: 7130 d43d b544 86bd a061 813d c44c 12bd
00000080: 3068 f3bb 1710 263d 0b24 883b 59eb c33d
00000090: f1d9 cf3d 891d a93d d192 993d c499 9d3d
000000a0: ba58 003d 2d26 503d 1e01 003d 1b45 13bd
000000b0: df91 c03c fb10 19bc db30 cd3c 199d b3bc
000000c0: cb49 123d 1da7 c63d 6947 7d3d 0fc3 253d
000000d0: 2db8 003d 0ea8 c93c b4f8 ea3c 8050 c33d
000000e0: 9bfd 1c3d 06e3 f33c 3890 88ba 5ece 9c3d
000000f0: ff1f 95bd 6a84 b83c 46ee f73b ab0a c23c

base.mlp.fc1.2.weight f4 [64]
0.9138078 1.0183285 1.1474744 0.9740267 0.97921157 1.1934973 1.0400779 0.97850895
1.138831 0.9759628 0.96403384 1.0684676 1.1401649 1.1504807 1.0804076 0.97780234
1.0636926 1.0493199 0.9919049 0.9459318 0.9093428 0.99486715 1.0506592 0.97044206
0.98002803 0.9977685 1.0874206 0.8159487 0.95084697 1.0173136 1.0037969 0.9448609
0.95670706 1.0275301 0.8725849 0.98021924 0.9169336 0.98193705 1.0745858 0.9356578
0.98726785 0.94292116 0.9746585 0.89394206 1.1060909 0.98856723 0.9178199 0.9812218
0.8919612 1.0016397 0.9987279 1.0809046 1.0665079 1.0339388 1.095127 0.9506025
1.0891523 0.9951672 0.93307143 1.024474 1.2400821 1.0488554 0.9674592 0.89545596
00000000: 4fef 693f 9758 823f 71e0 923f d059 793f
00000010: 9cad 7a3f 85c4 983f 4621 853f 907f 7a3f
00000020: 37c5 913f b3d8 793f ecca 763f 8cc3 883f
00000030: ecf0 913f f442 933f cc4a 8a3f 4151 7a3f
00000040: 1427 883f 1d50 863f 7bed 7d3f 9628 723f
00000050: b1ca 683f 9daf 7e3f 007c 863f e46e 783f
00000060: 1ee3 7a3f c26d 7f3f 9930 8b3f 04e2 503f
00000070: b56a 733f 5537 823f 6b7c 803f 67e2 713f
00000080: c1ea 743f 1b86 833f b961 5f3f a6ef 7a3f
00000090: 29bc 6a3f 3a60 7b3f 078c 893f 4587 6f3f
000000a0: 96bd 7c3f 4863 713f 3883 793f 63d9 643f
000000b0: 6394 8d3f be12 7d3f 3ff6 6a3f 5a31 7b3f
000000c0: 9257 643f bb35 803f a2ac 7f3f 155b 8a3f
000000d0: 5583 883f 1b58 843f 1f2d 8c3f af5a 733f
000000e0: 5869 8b3f 47c3 7e3f c5dd 6e3f f721 833f
000000f0: 03bb 9e3f e540 863f 68ab 773f 9a3c 653f

base.mlp.fc1.2.bias f4 [64]
0.032462165 0.06656305 -0.024101103 -0.020182285 -0.033682574 -0.040641103 -0.023611013 -0.04087266
-0.01325016 0.055088647 0.013181852 -0.0115267765 0.017972052 -0.045436338 -0.005331814 0.0340017
-0.0075032245 0.04456541 0.01641606 0.022968022 0.06740319 -0.02310547 0.014230877 -0.010445885
0.027195947 0.014789222 -0.003216383 -0.0070329057 -0.00536197 -0.059905317 0.009836849 -0.011358373
0.011304189 -0.010075478 -0.0010039407 0.044244595 0.025583198 0.036134284 0.0054119523 0.01852788
0.02976575 0.02278371 -0.044031166 0.010920335 -0.027240189 0.023206672 0.03361072 -0.024838917
-0.025174234 -0.0042434367 0.034721315 -0.024080498 0.03749248 -0.022008069 0.0028971331 0.07210845
-0.016786313 0.036959477 -0.03430805 0.039444488 -0.036967695 0.01662192 -0.0022989993 0.06037834
00000000: 0cf7 043d 3552 883d ad6f c5bc 5255 a5bc
00000010: bdf6 09bd 4977 26bd e26b c1bc 176a 27bd
00000020: 3317 59bc a2a4 613d b2f8 573c ceda 3cbc
00000030: 203a 933c 741b 3abd 7fb6 aebb 5e45 0b3d
00000040: 9cdd f5bb 388a 363d f97a 863c 6f27 bc3c
00000050: af0a 8a3d af47 bdbc a028 693c 3825 2bbc
00000060: 09ca de3c 7e4e 723c f4c9 52bb 4a74 e6bb
00000070: 77b3 afbb 475f 75bd bc2a 213c 7818 3abc
00000080: 3535 393c 9e13 25bc a996 83ba d239 353d
00000090: db93 d13c 8b01 143d bf56 b13b c8c7 973c
000000a0: 4dd7 f33c e7a4 ba3c 065a 34bd 34eb 323c
000000b0: d126 dfbc eb1b be3c 65ab 093d fc7a cbbc
000000c0: 323a cebc 870c 8bbb f037 0e3d 7744 c5bc
000000d0: b791 193d 444a b4bc d4dd 3d3b 98ad 933d
000000e0: 7383 89bc d262 173d 9986 0cbd 8b90 213d
000000f0: 706b 17bd b12a 883c cfaa 16bb 474f 773d

base.mlp.fc2.0.0.weight f4 [64, 64]
-0.14497705 -0.29080075 -0.40900326 -0.45052946 0.046509895 -0.20204003 0.3843449 0.19290344
-0.22032775 0.42354676 0.18607898 -0.027481293 0.015474324 -0.2864568 -0.068949625 0.42555425
0.09686056 -0.09210711 0.20297997 -0.0142916385 0.10493361 0.06164659 -0.37563214 -0.16622347
-0.25641736 -0.010575184 0.14401081 0.19901203 -0.17405139 -0.13851276 -0.2652631 0.049721222
0.10402511 0.22040579 -0.0279443 0.06631442 0.06733969 -0.042250287 -0.26328906 0.24078614
-0.15433441 0.041689757 -0.013429318 -0.19365932 0.38879573 -0.50449586 0.4358861 0.25165248
-0.3055737 -0.3676531 -0.04915453 0.04677365 -0.18892245 0.2384634 -0.027528426 0.3655983
-0.22590892 0.079197064 -0.35695177 0.30747104 0.44111803 0.15970208 0.08039969 -0.12860307
-0.03557604 0.16277261 -0.38348603 -0.0023804447 0.18778327 -0.03432624 0.08492492 0.022518214
-0.08958335 0.2334883 0.14611542 -0.25163713 0.029256228 0.17996843 -0.03921641 -0.1607224
0.16754882 0.0050231717 0.16084176 -0.29763654 0.019326234 0.11658694 -0.3428967 -0.10217159
-0.10755773 0.014117523 0.13457239 -0.010030733 0.034462567 -0.114125036 0.033420328 -0.3348999
0.18479066 -0.20819548 0.33647925 0.023779321 -0.09632647 -0.096687645 0.10074493 -0.10267068
0.18347292 -0.059983507 0.243642 0.053917117 0.22780792 0.21514845 0.084771134 -0.34922653
0.16652526 -0.3078207 -0.019032722 -0.27778655 -0.0010225252 0.26606792 0.0038789432 0.012465812
-0.12590513 0.27551642 -0.38080934 0.14404905 -0.13020279 -0.21297461 0.12262143 -0.21833417
0.28409138 0.12598623 -0.21407096 0.04239486 -0.09540781 0.021588033 -0.046799466 -0.092863254
0.03772476 -0.20386958 0.016904801 -0.41816655 0.16637272 0.090459764 0.13010356 -0.06853224
0.26264665 0.24964969 0.33628348 -0.14198874 0.022690129 0.010109106 -0.08152677 0.09058051
-0.4047262 -0.0071947826 -0.17284442 0.14641353 0.015247985 -0.3541502 0.20243084 -0.12680401
-0.32046023 0.36920992 0.0057634194 0.06281659 0.04169476 -0.23132549 -0.50237465 0.042747963
0.12770317 0.31799263 -0.007989928 0.09321728 0.3292146 -0.19129284 -0.08973513 -0.120050915
-0.19612512 0.20137338 0.030168407 -0.22391719 -0.40849707 0.0059821326 -0.34394863 -0.15633574
0.0703518 -0.14612515 0.15600578 0.090931565 -0.18341719 -0.02041994 -0.080847874 -0.19811964
-0.051359013 0.072052315 -0.34779698 -0.18870945 0.13824134 0.30813438 0.08937066 0.12776794
0.3522362 0.30793443 -0.35059038 0.23465532 -0.36754674 -0.34275237 0.24251166 -0.21137789
-0.115216725 -0.16910993 0.015110401 -0.16859359 0.054319713 0.012203415 -0.05939673 0.01009044
-0.0043333033 0.22116949 0.18734586 0.12424394 -0.097724356 -0.032165207 0.06970209 -0.06460492
0.051278535 0.21027713 -0.09476144 0.37295228 0.11276625 -0.07560199 -0.07414543 0.055054694
0.30302504 0.25051892 -0.29050758 0.19434904 0.004581978 0.0691963 -0.25040793 0.19664398
-0.11499106 0.3396037 0.101767264 -0.2848476 -0.14758253 -0.019016003 0.211081 -0.29753652
0.096676655 -0.030977523 -0.060537033 0.23820591 0.07375443 -0.06676008 -0.4213576 -0.20560797
00000000: dd74 14be d6e3 94be e068 d1be ccab e6be
00000010: 2981 3e3d 95e3 4ebe dbc8 c43e 7b88 453e
00000020: 999d 61be 1fdb d83e 7d8b 3e3e 7320 e1bc
00000030: 0588 7d3c 77aa 92be 7635 8dbd 3fe2 d93e
00000040: d45e c63d a7a2 bcbd fbd9 4f3e 7a27 6abc
00000050: 6fe7 d63d 2281 7c3d db52 c0be 7c36 2abe
00000060: 2349 83be 8943 2dbc 9277 133e cfc9 4b3e
00000070: 873a 32be 4ad6 0dbe 91d0 87be 7ba8 4b3d
00000080: 1e0b d53d 0eb2 613e 72eb e4bc dbcf 873d
00000090: 64e9 893d a30e 2dbd d3cd 86be a490 763e
000000a0: d709 1ebe e1c2 2a3d a406 5cbc a14e 46be
000000b0: 3c10 c73e a426 01bf 772c df3e 98d8 803e
000000c0: 2874 9cbe 073d bcbe 4356 49bd ba95 3f3d
000000d0: e374 41be c02f 743e 4b83 e1bc b32f bb3e
000000e0: ab54 67be 1232 a23d 62c2 b6be d86c 9d3e
000000f0: 39da e13e f188 233e 98a8 a43d 86b0 03be
00000100: 2fb8 11bd ddad 263e 4858 c4be 3c01 1cbb
00000110: 424a 403e ac99 0cbd 1eed ad3d 1e78 b83c
00000120: 7a77 b7bd 8f17 6f3e 489f 153e 95d6 80be
00000130: c2aa ef3c a549 383e 63a1 20bd 6a94 24be
00000140: eb91 2b3e 6b99 a43b b4b3 243e d163 98be
00000150: 0d52 9e3c 22c5 ee3d 2890 afbe 573f d1bd
00000160: 3a47 dcbd 2f4d 673c 58cd 093e f257 24bc
00000170: 9f28 0d3d 63ba e9bd c1e3 083d 0078 abbe
00000180: c339 3d3e 3231 55be 0247 ac3e dacc c23c
00000190: d046 c5bd 2c04 c6bd 5c53 ce3d 0145 d2bd
000001a0: 53e0 3b3e 44b1 75bd 4a7d 793e 32d8 5c3d
000001b0: 7b46 693e e04f 5c3e 7d9c ad3d d2cd b2be
000001c0: 9985 2a3e ad9a 9dbe 83ea 9bbc 0a3a 8ebe
000001d0: 4106 86ba 0e3a 883e de35 7e3b 683d 4c3c
000001e0: 46ed 00be 7d10 8d3e 71f9 c2be 9881 133e
000001f0: e153 05be 0416 5abe f220 fb3d fe92 5fbe
00000200: 6d74 913e 8902 013e 6b35 5bbe 3ca6 2d3d
00000210: 2b65 c3bd 63d9 b03c ccb0 3fbd 172f bebd
00000220: 4785 1a3d 30c3 50be f07b 8a3c ed19 d6be
00000230: 9c5d 2a3e f842 b93d de39 053e a25a 8cbd
00000240: 9f79 863e 2ba4 7f3e 592d ac3e 7f65 11be
00000250: a6e0 b93c aaa0 253c 82f7 a6bd 4682 b93d
00000260: 4638 cfbe 36c2 ebbb 21fe 30be 6eed 153e
00000270: afd2 793c 2d53 b5be 084a 4f3e e9d8 01be
00000280: 5d13 a4be 1509 bd3e 11db bc3b fca5 803d
00000290: 20c8 2a3d 97e0 6cbe a09b 00bf 7d18 2f3d
000002a0: 9fc4 023e eecf a23e 30e8 02bc b4e8 be3d
000002b0: d18e a83e 45e2 43be 0dc7 b7bd 41dd f5bd
000002c0: 06d5 48be d334 4e3e bc23 f73c 8c4a 65be
000002d0: 8726 d1be c405 c43b 091a b0be 7a16 20be
000002e0: 9b14 903d d5a1 15be fbbf 1f3e 543a ba3d
000002f0: b7d1 3bbe b847 a7bc 9293 a5bd e0df 4abe
00000300: d45d 52bd 2a90 933d 7212 b2be 0d3d 41be
00000310: 238f 0d3e cac3 9d3e f707 b73d 99d5 023e
00000320: 4e58 b43e 95a9 9d3e 9580 b3be 7c49 703e
00000330: 162f bcbe 3d7d afbe fa54 783e 7273 58be
00000340: bff6 ebbd 272b 2dbe 9e91 773c cca3 2cbe
00000350: 597e 5e3d d5f0 473c fc49 73bd 5f52 253c
00000360: 62fe 8dbb 417a 623e 98d7 3f3e 9b73 fe3d
00000370: b523 c8bd aabf 03bd f8bf 8e3d 964f 84bd
00000380: 7109 523d e352 573e 4912 c2bd 9af3 be3e
00000390: fef1 e63d 37d5 9abd 8fd9 97bd 0881 613d
000003a0: 1926 9b3e 0444 803e 69bd 94be 6f03 473e
000003b0: 6b24 963b cab6 8d3d 7835 80be 0a5d 493e
000003c0: 6f80 ebbd 89e0 ad3e 5b6b d03d 8bd7 91be
000003d0: e01f 17be 73c7 9bbc 9e25 583e b556 98be
000003e0: 69fe c53d 93c4 fdbc aef5 77bd 40ec 733e
000003f0: 900c 973d 82b9 88bd 2fbc d7be e58a 52be

base.mlp.fc2.0.0.bias f4 [64]
0.11360695 0.03036131 0.0012120074 0.061272178 0.0014858503 -0.06969892 0.14490764 0.005978315
-0.012281679 0.010887251 0.03629127 0.020489192 -0.008265244 0.03173778 -0.03227409 0.027582971
-0.05705546 0.06283331 -0.024210943 0.044295583 -0.03858594 -0.025263315 0.04758442 0.03397298
0.19305477 -0.0154730845 0.01802225 0.037218794 -0.092050575 0.026573606 0.0143119935 0.03417473
0.04362292 0.017467836 0.048790444 0.078517094 0.05362907 0.03773036 -0.004049932 -0.04319558
-0.0010353812 0.008996047 -0.008753499 0.021864474 -0.047436334 -0.00012530987 -0.024644036 -0.014591526
0.025857566 0.027558055 0.05853528 0.044420276 -0.02911111 -0.0021914013 -0.024732513 -0.015870497
0.008438935 -0.048570644 0.023347117 -0.0082592545 0.010484012 -0.025927374 0.006004039 0.04275232
00000000: c3aa e83d 48b8 f83c 38dc 9e3a 89f8 7a3d
00000010: ddc0 c23a 4fbe 8ebd ab62 143e bee5 c33b
00000020: 1839 49bc 7160 323c 28a6 143d f3d8 a73c
00000030: f26a 07bc 79ff 013d d631 04bd aff5 e13c
00000040: fcb2 69bd c0ae 803d 0756 c6bc 496f 353d
00000050: 4a0c 1ebd 03f5 cebc e1e7 423d 4027 0b3d
00000060: 26b0 453e d282 7dbc 66a3 933c bc72 183d
00000070: 0385 bcbd e4b0 d93c da7c 6a3c cdfa 0b3d
00000080: f2ad 323d b518 8f3c 7dd8 473d 92cd a03d
00000090: 28aa 5b3d 268b 1a3d 4bb5 84bb d9ed 30bd
000000a0: a1b5 87ba 2864 133c d66a 0fbc 201d b33c
000000b0: 9a4c 42bd 9d65 03b9 4ae2 c9bc 4c11 6fbc
000000c0: 3fd3 d33c 6ec1 e13c b1c2 6f3d 09f2 353d
000000d0: 6c7a eebc 9d9d 0fbb d79b cabc d802 82bc
000000e0: 7543 0a3c 03f2 46bd 7442 bf3c d351 07bc
000000f0: 22c5 2b3c a565 d4bc 88bd c43b 0f1d 2f3d

base.mlp.fc2.0.2.weight f4 [64]
0.7940976 0.97957724 1.0878412 0.9205731 0.9406443 0.9036646 0.9162053 0.9398305
1.013167 0.9671163 0.96460617 0.9616358 0.93661517 0.92734194 0.92244625 0.97937316
1.0211203 0.94354975 0.9672183 1.0119913 0.9364169 0.98374647 0.9525266 0.9813856
0.97257197 0.96915716 0.8543984 0.9868542 1.0218871 0.946422 1.0118641 0.96479464
1.0525815 0.98152184 0.914282 0.9714526 1.0144955 0.8842441 0.9510881 0.9833101
0.93729764 0.9657207 0.92790174 0.9485953 0.9139296 0.9640054 0.986705 0.9207067
0.9849934 1.0241053 1.0429808 0.9594621 0.97368 0.96527547 0.98785585 0.9447592
0.9057767 0.92807025 0.9155219 0.9563939 0.92711526 0.9788181 0.94992286 0.978712
00000000: fb49 4b3f 93c5 7a3f 613e 8b3f aeaa 6b3f
00000010: 11ce 703f 9056 673f 6e8c 6a3f bb98 703f
00000020: 75af 813f ef94 773f 6ef0 763f c42d 763f
00000030: 03c6 6f3f 4866 6d3f 7025 6c3f 33b8 7a3f
00000040: 12b4 823f 7a8c 713f 9e9b 773f ee88 813f
00000050: 05b9 6f3f cfd6 7b3f c9d8 733f 163c 7b3f
00000060: 7afa 783f af1a 783f dbb9 5a3f 7aa2 7c3f
00000070: 32cd 823f b648 723f c384 813f c8fc 763f
00000080: feba 863f 0445 7b3f 630e 6a3f 1eb1 783f
00000090: fdda 813f d25d 623f 827a 733f 36ba 7b3f
000000a0: bdf2 6f3f 7939 773f f88a 6d3f 24d7 723f
000000b0: 4af7 693f 0fc9 763f b398 7c3f 6fb3 6b3f
000000c0: 8728 7c3f e215 833f 6580 853f 4f9f 753f
000000d0: 1843 793f 4b1c 773f 1fe4 7c3f bddb 713f
000000e0: fbe0 673f 0396 6d3f a55f 6a3f 3bd6 743f
000000f0: 6d57 6d3f d393 7a3f 252e 733f df8c 7a3f

base.mlp.fc2.0.2.bias f4 [64]
-0.11657407 -0.018888308 -0.011991283 -0.0033820225 0.01726716 -0.008806944 0.003985812 -0.006357311
-0.025914967 -0.00810672 0.007956638 0.014654828 -0.0029297015 0.0102960635 -0.009439653 -0.010811266
-0.020087333 0.016570091 -0.009853475 -0.034547683 0.011590005 -0.0085124485 -0.010660509 0.0065327566
-0.010953195 0.0079534 -0.039999522 -0.010304165 -0.00012929455 0.022169985 0.019241478 0.011990622
0.016418958 -0.0045703333 0.01224082 0.00978671 0.014307919 -0.025656706 0.015053938 -0.012196898
-0.014232939 0.016116714 0.0024476293 0.019015422 -0.010231839 -0.006211077 -0.0127040325 0.015585822
-0.039045814 -0.014082999 0.02536392 -0.010879418 -0.015943868 -0.00341414 0.01103956 -0.010967626
0.0059619793 -0.012010411 0.011621874 -0.007945856 0.011248335 -0.014834687 -0.004989362 0.018968156
00000000: 63be eebd a7bb 9abc 1677 44bc eca4 5dbb
00000010: dc73 8d3c 004b 10bc 6a9b 823b fd50 d0bb
00000020: a04b d4bc 0cd2 04bc 8f5c 023c ce1a 703c
00000030: 3c00 40bb d2b0 283c c6a8 1abc bc21 31bc
00000040: 318e a4bc 00be 873c 7870 21bc df81 0dbd
00000050: 01e4 3d3c cc77 0bbc 6aa9 2ebc bc10 d63b
00000060: 0875 33bc fa4e 023c 8ad6 23bd cdd2 28bc
00000070: 3e93 07b9 d49d b53c 4ea0 9d3c 5074 443c
00000080: 0d81 863c bcc2 95bb b88d 483c 7058 203c
00000090: c36b 6a3c 032e d2bc cba4 763c 80d5 47bc
000000a0: 4631 69bc 3307 843c 6868 203b 3bc6 9b3c
000000b0: 71a3 27bc 4a86 cbbb 9324 50bc ad5b 7f3c
000000c0: 81ee 1fbd 61bc 66bc ffc7 cf3c 963f 32bc
000000d0: b79c 82bc c4bf 5fbb 45df 343c 8fb1 33bc
000000e0: b55c c33b 51c7 44bc ac69 3e3c 562f 02bc
000000f0: f04a 383c 300d 73bc cd7d a3bb 1b63 9b3c

v_out.weight f4 [1, 64]
0.0051328596 -0.04405562 -0.101852864 -0.0020104065 0.10675379 -0.106823444 0.035261188 -0.05781449
-0.0602072 -0.07680649 0.098708004 0.31043774 -0.0439949 0.11795798 -0.14846274 -0.11054706
-0.08354944 0.016378978 -0.10526755 -0.07518092 0.0720698 -0.10934988 -0.13244365 0.12852296
0.031037822 0.07278331 0.00039185805 -0.045734297 -0.075873405 0.032521375 0.085566655 0.12931325
0.12994435 -0.050681427 0.06649001 0.052692458 0.084494196 -0.01126324 0.08358759 -0.23224583
-0.036860906 0.17982918 0.0015234178 0.040015783 -0.08074876 -0.031690042 -0.10458175 0.16323318
-0.047097024 -0.049251758 0.07474037 -0.08034869 -0.059260998 -0.06874911 0.15782432 -0.090627834
0.025944911 -0.004549381 0.09990096 -0.052360285 0.10790609 -0.09372119 -0.04286309 0.112872235
00000000: 8c31 a83b aa73 34bd 3c98 d0bd 06c1 03bb
00000010: bba1 da3d 40c6 dabd 096e 103d e3ce 6cbd
00000020: d39b 76bd b94c 9dbd 6c27 ca3d b2f1 9e3e
00000030: ff33 34bd f493 f13d 9e06 18be 7f66 e2bd
00000040: f81b abbd 352d 863c 8396 d7bd 74f8 99bd
00000050: 5599 933d d4f2 dfbd 4f9f 07be 869b 033e
00000060: 0843 fe3c 6b0f 953d 4c72 cd39 e353 3bbd
00000070: 8463 9bbd 2235 053d 923d af3d b16a 043e
00000080: 2210 053e 5497 4fbd ea2b 883d 0cd4 573d
00000090: 4b0b ad3d 7489 38bc f82f ab3d dad1 6dbe
000000a0: 76fb 16bd 2425 383e 6bad c73a 97e7 233d
000000b0: 9b5f a5bd 6bcd 01bd f52e d6bd 9926 273e
000000c0: cfe8 40bd 36bc 49bd 7b11 993d db8d a4bd
000000d0: a9bb 72bd 55cc 8cbd b39c 213e 169b b9bd
000000e0: 6c8a d43c f912 95bb e098 cc3d bd77 56bd
000000f0: defd dc3d e5f0 bfbd 3591 2fbd 8f29 e73d
