checkpoint/mappo_seed112_run20260211_185142_ep2000_agent0_critic.pt (torch, 26898 bytes, 11 tensors)

base.feature_norm.weight f4 [12]
00000000: 4484 863f 562e 9f3f f0d1 673f e59f 863f
00000010: 4277 753f 982e 753f aa6b 823f d059 853f
00000020: 2b16 4d3f 48c7 843f bdad 7c3f c394 7c3f
1.0509114 1.2436016 0.90554714 1.0517546 0.958851 0.9577422 1.0189106 1.0418034
0.8011195 1.0373316 0.98702604 0.9866449

base.feature_norm.bias f4 [12]
00000000: 6bb3 373d 75dd 8ebc 923c 95bd 50f1 93bc
00000010: 2a58 0e3c e538 56bc 5515 bd3b 5d2b 8439
00000020: b8f2 aa3a 961f 08bd 38c2 183b 6f91 80bd
0.04484884 -0.017439583 -0.072869435 -0.018059403 0.008688012 -0.013075088 0.0057703652 0.0002520931
0.0013042307 -0.033233248 0.0023309123 -0.06277739

base.mlp.fc1.0.weight f4 [64, 12]
00000000: 0948 37be 94a9 88be fc83 963e 92ea 56be
00000010: f4b5 ee3d d04f 1e3d b335 383d 373a 8abe
00000020: bff7 d3bd 13f5 203e 2654 333d 48ee 253d
00000030: a944 03bd acd9 48be c777 50be 8afb 20be
00000040: 7ab9 8bbe 0a76 1bbd e872 b5bd 01b5 393e
00000050: 3227 a83c b247 15be 658b 50bd 763b c73e
00000060: 9889 b53d 4b5f adbe 9013 443e 7d9b 06be
00000070: 55fb c93d f134 3a3e 2aba 9cbd efc6 55be
00000080: e4db f93d 4e49 9fbd 136a f9bd 88da bd3c
00000090: 9cb0 fa3d fd39 28be 0a5a 7cbe ca6d 8e3d
000000a0: 7dc7 9dbe 9c40 74be 408d b1bc 1db3 9ebe
000000b0: cb62 3ebe 880c 59be 15e4 c33e fe38 19be
000000c0: f37c fcbd 221c dabd 7f4f 413e 71b4 6abd
000000d0: df3e 3e3d b4c7 023e 364d 963e 5af5 00be
000000e0: e3bd 91be f0f8 ca3b 3f43 a83e 8c9e 92bd
000000f0: 309c 4c3d 3a9b 51be ffd9 91bc b688 eabd
00000100: c457 ee3c 1f8d 863d edbf 0b3d b72b 10bd
00000110: a373 03bd b9b3 cb3d c54a 3abe 962d 853e
00000120: 5a2f fe3d 1620 313d 430f a23e a9c7 6cbd
00000130: 2bb6 3a3e 1299 0fbd 0152 ab3d be7a 5a3e
00000140: 2887 8b3e 6bdf 62be 9592 23be 8dae 8dbe
00000150: 9830 3b3e 2295 a53d bc0c 22be 828e efbe
00000160: 5618 4ebe 9e0d 2f3e cb71 623c 5d32 e63d
00000170: 642e c3bd feab 3d3e 1d29 583c f0cf 69be
00000180: 4b60 0bbc 515a 883c 956a 2ebe 6a58 62be
00000190: bc4b b03d 1b02 43be 72cf c93d 78ef 743d
000001a0: 49c2 91be cce7 8f3d 18cd e83d 4825 92bd
000001b0: b373 223e e269 a1be e677 c73d d0b7 993d
000001c0: 8b88 8c3e ad73 83bd 709a b3be 2f8f 10be
000001d0: c9ba 71bc e352 7a3d cfcb 0a3c d92f 83be
000001e0: 7874 8b3d 004a 163d bb99 933e a780 85bb
000001f0: 4f34 88bb 4ff3 213e de4e ebbe 5e57 a4bd
00000200: 832d efbd 00f7 173e ed10 31be 187e d73d
00000210: 0c43 09bd 8d7b 6bbc c144 c23d 4b28 8abe
00000220: 4f6c c73b 15e3 193e 1d1c 9ebd a709 fabd
00000230: 54f6 74bc 0ef2 b53e 67f7 893e 06e2 b83d
00000240: b757 acbe 81da 0abd dc44 d03d 0a1e 57bd
00000250: 0013 233e d4d8 20be 3b81 8e3d e2d8 d3bd
00000260: da1c 703e 8b38 81be 6632 283e 3cfb 403d
00000270: 7983 35be b72f d33d de12 8cbd 5b1c a4be
00000280: 8ddf 81bd e30c 6d3d c208 ffbd 5b6d 893d
00000290: ab4e 58be b666 a73e c78a 5fbe 9a98 82bb
000002a0: 9280 d6bd 3ad0 9f3d 83aa b1be 344e e0bd
000002b0: 0d07 6c3d 1a74 68be 399f 013c b7e3 0fbd
000002c0: 7538 f13d a029 933e 009d bc3e 18c0 c83d
000002d0: 2529 93be 6cc0 60be 8c6f 293e 074c f83d
000002e0: 2bf1 f33d 05c3 4dbd dac9 263e 8345 9c3e
000002f0: 4be3 973e 7be2 2b3e e27f 513e 09c2 33be
00000300: 3683 20be 187c 7e3e 6114 003d 4199 fc3d
00000310: 0e23 3abe ac9f d0b9 1758 e33d 0e40 13be
00000320: 67fb c8bc 2e44 8cbd b650 b0bd 1f63 8abe
00000330: 61c5 163e fa31 1b3c 46b4 543d 87b0 4abe
00000340: b5f0 babd c4dd 03be a6c5 3e3e aa10 0dbe
00000350: 8524 69be 35d8 3e3e f895 ad3d 06e0 1b3e
00000360: c045 90bd c59f 1abd 59b7 803d eca7 8bbe
00000370: 37f0 f93c 5442 56be 99b0 c33d 055c 38bc
00000380: d1e3 9f3d 5e7a aa3d 44ae 87b9 c871 1e3d
00000390: 6d04 8a3e aef7 b3bd 8329 0dbe f5f6 efbd
000003a0: 17ac 72bd 468a 83be 0aea 81bd e2c3 a1be
000003b0: 0ef1 8ebe 7cce 05bd b3e3 603d 0240 c6bd
000003c0: b3d0 fa3d ae11 0b3d f7ed b83d 1783 2abe
000003d0: 7502 7e3d fd8b e03d e7a3 7c3e 228a 31be
000003e0: e9ca ba3c f5c6 02bd 905e a63e 9456 413e
000003f0: 7681 643e 1f7d 583d 9670 683e e6b0 26be
-0.17898573 -0.26691878 0.2939757 -0.20987919 0.116557986 0.038650334 0.044973087 -0.2699754
-0.10349988 0.15718488 0.043781422 0.040510446 -0.0320479 -0.19614285 -0.20358191 -0.15720955
-0.27289945 -0.037954368 -0.08859807 0.18135454 0.020526502 -0.14578131 -0.050914187 0.38912553
0.088641346 -0.33861765 0.19148088 -0.13145252 0.09862391 0.18184258 -0.076526955 -0.20876668
0.12200144 -0.07777654 -0.12178435 0.023175493 0.12240717 -0.16428371 -0.24643722 0.06954534
-0.3081626 -0.23852772 -0.021673799 -0.30996028 -0.18592374 -0.21196187 0.3825995 -0.14963147
-0.1232852 -0.10649897 0.18877982 -0.05730099 0.046446677 0.12771493 0.29355782 -0.12593594
-0.28465185 0.0061942264 0.32863805 -0.07159147 0.04995364 -0.2046937 -0.017804144 -0.11451857
0.029094584 0.065698855 0.03411858 -0.03519794 -0.0320927 0.09946389 -0.18192585 0.26011342
0.12411375 0.04324349 0.3165227 -0.0578076 0.18233554 -0.03505809 0.083652504 0.21335885
0.27251554 -0.2215554 -0.15973885 -0.27672234 0.18280256 0.080850855 -0.1582517 -0.46788412
-0.20126471 0.17095038 0.013821076 0.11240075 -0.09530333 0.18522641 0.013193396 -0.22833228
-0.008506845 0.016644629 -0.17032845 -0.2210404 0.08608195 -0.19043772 0.0985402 0.059798688
-0.2846854 0.070266336 0.113672435 -0.07136017 0.15864448 -0.31526095 0.09739666 0.075057626
0.27447924 -0.06418548 -0.35078764 -0.1411712 -0.014754006 0.061114203 0.008471443 -0.25622442
0.06809324 0.036691666 0.28828225 -0.0040741744 -0.0041566263 0.15815471 -0.45958608 -0.080244765
-0.116786025 0.14840317 -0.17291613 0.10522097 -0.033511207 -0.0143727185 0.0948577 -0.26983866
0.0060859094 0.15028031 -0.07720206 -0.12208872 -0.014951307 0.35536236 0.26946566 0.090274855
-0.3366067 -0.033899788 0.10169384 -0.05251888 0.15925217 -0.15707713 0.069582425 -0.103441015
0.23448506 -0.2523845 0.16425475 0.047114596 -0.17725934 0.10311835 -0.06839536 -0.32052884
-0.06341467 0.057873618 -0.12452842 0.06710311 -0.2112376 0.3269555 -0.21830283 -0.0039854767
-0.104737416 0.07803388 -0.34700403 -0.10952416 0.05762391 -0.22700539 0.007911497 -0.035129275
0.117783464 0.28742695 0.36838531 0.09802264 -0.28742328 -0.21948403 0.16546458 0.12123876
0.119112335 -0.050234813 0.16287938 0.30521783 0.29665598 0.16785614 0.2045894 -0.17554487
-0.15675053 0.24852026 0.031269435 0.12333918 -0.18177435 -0.00039791816 0.11100786 -0.14379904
-0.02453394 -0.06848942 -0.086091444 -0.27028748 0.14723732 0.009472365 0.051929735 -0.19793902
-0.091279425 -0.12877566 0.18630084 -0.13775888 -0.22767837 0.18637164 0.0847587 0.15222177
-0.07044554 -0.037750024 0.06284971 -0.27276552 0.030510051 -0.2092374 0.09555168 -0.011252408
0.078071244 0.08324121 -0.00025879045 0.03868273 0.26956502 -0.087874755 -0.13785367 -0.11717025
-0.05924615 -0.25691432 -0.063434675 -0.3159476 -0.27918285 -0.032667622 0.05490465 -0.09680177
0.122468375 0.033952408 0.09029763 -0.1665157 0.062014062 0.10964201 0.24671899 -0.1733785
0.022801833 -0.03192802 0.3249402 0.18880683 0.2231501 0.0528537 0.22699198 -0.16278419

base.mlp.fc1.0.bias f4 [64]
00000000: b7d5 fabc db73 4abc 8985 a03d 9389 92bb
00000010: 072a ebbc fcfc 90bc 92a7 843b 4189 87bc
00000020: e68e 693d f3ec 30bb 37fe 843d 18cb aabc
00000030: 5b45 8a3d 870e 09bd 6491 b03c 514e 27bd
00000040: c878 7a3c 6186 7fbb a980 52bd c9b5 b8bc
00000050: a222 f9bc 6292 6f3d 45d0 85bc c8df b8bc
00000060: 3205 edbc 6a6e 29bd c726 c4bd 3a41 f53d
00000070: e444 55bc 9eb5 90bd 11a9 d23c 854d 0ebd
00000080: 3911 c7bc a12a adbb ca9b 213d 6bcb 9dba
00000090: 28fc 43bd 1e12 363d 10b6 5c3c 7578 23bb
000000a0: d0bc 14bd 9f8d b5bd 148e a4bd 0232 803d
000000b0: 3636 ddbb d55f b63d 77ba 993d cd56 10bd
000000c0: 368a 043d 07a9 23bd 87d4 5b3c 05b6 54bd
000000d0: 36c5 bc3a 9f02 b13d 5327 793c 8cf9 42bd
000000e0: 88a2 0b3d 3edb 153d 6a23 b53b da7a 1bbb
000000f0: 7a4e 8ebc 312b 913d 4384 993a dfab dc3c
-0.030619485 -0.012356724 0.0783797 -0.0044719665 -0.028706564 -0.017698757 0.0040482963 -0.01654494
0.057021044 -0.0026996701 0.064938 -0.020848796 0.0675151 -0.03346112 0.021553703 -0.040846173
0.015287586 -0.0038990008 -0.05139223 -0.02254762 -0.030412022 0.05848921 -0.016334662 -0.022567645
-0.028933141 -0.041365065 -0.09577709 0.119753316 -0.013016913 -0.07065891 0.025715383 -0.034741897
-0.024300205 -0.005284623 0.039455213 -0.0012038773 -0.047847897 0.04445087 0.013471141 -0.0024943624
-0.036312878 -0.08864903 -0.08034912 0.06259538 -0.006750847 0.08904997 0.075062685 -0.03523903
0.03235837 -0.03995612 0.01341737 -0.0519314 0.0014402035 0.08643078 0.0152071295 -0.047601268
0.03409055 0.03658604 0.0055279033 -0.0023724348 -0.017371405 0.07088316 0.0011712391 0.026937423

base.mlp.fc1.2.weight f4 [64]
00000000: 4e52 823f 8829 7d3f 72c5 7e3f db43 813f
00000010: 0b0b 733f 5336 823f c488 743f a1b4 7d3f
00000020: 047e 813f 387b 803f 0fc0 893f 1b35 803f
00000030: 42c9 823f 3034 823f f862 773f 98c6 7d3f
00000040: bca7 833f ad7b 7b3f db03 7e3f 7263 843f
00000050: 337b 813f 2e30 783f cf63 8b3f 271b 803f
00000060: 581c 733f 8e33 7b3f 7301 7d3f 92c8 893f
00000070: ee93 7b3f 7ddf 7c3f e174 823f 1269 793f
00000080: 68be 883f f4c0 773f f491 843f 1223 843f
00000090: a632 823f 9c6c 793f c32c 773f 3845 803f
000000a0: 2991 7e3f 13ae 813f 35af 7a3f 6002 7e3f
000000b0: c41a 7a3f 098c 843f b72a 833f 7bdc 823f
000000c0: 8c24 803f d91c 833f df92 7b3f 3677 733f
000000d0: ba4f 843f 8c7e 673f 727c 8a3f 584e 7f3f
000000e0: f5ba 873f 26b4 713f 0967 833f 48b5 653f
000000f0: 187e 7d3f 1f68 813f e837 853f a655 813f
1.0181367 0.98891497 0.9952003 1.0098833 0.94938725 1.0172828 0.9552119 0.9910374
1.0116582 1.0037603 1.0761737 1.0016207 1.0217669 1.0172176 0.9663539 0.99131155
1.0285563 0.9823559 0.9922463 1.0342848 1.0115722 0.96948516 1.0889834 1.0008286
0.94965124 0.9812554 0.98830336 1.0764334 0.982726 0.98778516 1.0191919 0.9742595
1.0683107 0.967788 1.0357041 1.0323203 1.0171707 0.9743135 0.96552676 1.0021124
0.99440247 1.0131248 0.97923595 0.99222374 0.9769709 1.0355235 1.024741 1.0223535
1.0011153 1.0243179 0.9827098 0.95103776 1.0336831 0.9042747 1.0819228 0.9972892
1.060393 0.9441551 1.0265819 0.8972974 0.9902053 1.01099 1.0407686 1.0104263

base.mlp.fc1.2.bias f4 [64]
00000000: 130b 003c aa7f b33c 1221 8b3c d308 013d
00000010: 8b38 283c 4dbb a9ba 77e7 833d 0cc8 c33a
00000020: cac2 083c 29a9 cfbc cc78 fa3b e1a7 ffbc
00000030: 1dd0 9d3d faf2 e13c 45cf 643d 57e2 c4bb
00000040: 7b63 88bd 4324 69bd 6486 85bd 6f89 9bbc
00000050: f2ff d9bc 4d65 c03c f8e9 98bb 71d1 613c
00000060: 7214 4c3d e1d7 fabb f811 50bc 39be 8c3d
00000070: f6cf 4bbc d425 0bbd 3695 6bbb e957 523c
00000080: b5c6 413b 3464 b83c 9b27 b0bc 4139 1cb9
00000090: 8d94 fdbc 7421 143c 2fc7 7f3d 294a bebc
000000a0: f0dd c6bb fbc4 08bd 7aa5 cebc f1f0 823c
000000b0: 71c4 343b 08e7 a13d 4f7a 733c a876 dabc
000000c0: 62e8 353d aad4 efbc fb32 f2bb e23e 1cbd
000000d0: 588b 023b 2054 563d 2149 e9bc f1d7 a4bc
000000e0: ac24 4cbc 4fc6 093d 40b0 993c 9c85 c13a
000000f0: e8a4 fbbb e876 533d d5a5 fdbc 4e6e 7a3d
0.00781514 0.02191146 0.016983543 0.031502556 0.010267387 -0.0012949497 0.06440633 0.0014936938
0.008347223 -0.025349217 0.0076437946 -0.03120798 0.0770571 0.02758168 0.05586173 -0.006008427
-0.066595994 -0.056919347 -0.065197736 -0.018986432 -0.026611302 0.023485804 -0.004666563 0.013782845
0.049824186 -0.0076551293 -0.012699597 0.068722196 -0.0124397185 -0.033971623 -0.003594709 0.012838342
0.0029567902 0.022508718 -0.02150326 -0.00014898648 -0.030954624 0.009041179 0.062445816 -0.023228722
-0.0060689375 -0.03339098 -0.02522539 0.01598403 0.0027582909 0.07905394 0.014860704 -0.026667908
0.04441107 -0.02927621 -0.0073913313 -0.038145907 0.001991948 0.05232632 -0.028477253 -0.0201225
-0.012459915 0.033636387 0.0187608 0.001476455 -0.0076795705 0.05162707 -0.030962864 0.06114035

base.mlp.fc2.0.0.weight f4 [64, 64]
00000000: 7afd 94bd 7041 c1bd 2aaf c4bd d30a f43c
00000010: 42ac 313e 85e9 cd3d c658 d6bd 63ee 523c
00000020: 4179 e6bc d3f2 9cbe 4d0d ad3e 7c9d 42be
00000030: 8a2f 64be 9dff c33d e2ed 913d 9c85 923e
00000040: ff7a 97bd dbe2 903e f5a1 3bbd a30c c53d
00000050: 375f c4be 63be e1bd 4973 843e d8b2 b2bd
00000060: 3ef5 9f3e 67b7 d83d 9ed0 3fbd 6389 30be
00000070: ec14 debc 33d7 503d fc04 d7bd d7ed be3d
00000080: 5c9d ffbd 5606 0ebe 29a1 59bd e9ea cc3d
00000090: 7d29 79ba 0be9 9f3d 6c81 03be ea0a 073e
000000a0: 2ac4 c23d ec28 29be 47e2 01bf 48a2 24be
000000b0: 83bd 2a3e de54 d8bd dad6 de3c 54c9 25bd
000000c0: c6da 46be 68ee 9bbe 8f16 08be 256a a7be
000000d0: 3d7b 873b a2b1 b33e fb45 b0bd 5aa5 033d
000000e0: dd2a 92bd 8381 fabd 87a8 cdbe ec25 0b3e
000000f0: 3027 eb3d d1ee 52be 0dfb 493d 80fb 443e
00000100: 0e31 d13d 7417 973e fe94 573e fd41 543c
00000110: 8233 66be d7e1 0cbe da3c 9abe f86e 553e
00000120: a87c 09be d5f1 09be a4b3 6c3e 405b be3e
00000130: b738 00bf c466 253e 1399 cabd bce4 19be
00000140: 22de b33e c957 18bd f4a8 12bd aa9d 083e
00000150: 3738 593e 134a f33d 0f2d 0bbe 6191 a93e
00000160: 1f6d 013e ca74 9a3d 1dc1 63bd 27ae 993e
00000170: 5892 fb3c 357a 39be f49d a4bc a539 843d
00000180: e155 1ebe 529a 47bd ce06 093e 9fc5 30bd
00000190: e555 f53c 7c36 703e c548 85be 81a4 1abc
000001a0: 6865 65bd 8c92 4bbe 418d 72be 1533 853e
000001b0: 1082 a93e 7f87 733e 7b57 3e3e 99d2 323d
000001c0: e944 3abd a4f1 fa3d ef53 d6bd f03c a3bb
000001d0: f3d2 5c3e a360 f43c c263 1dbd 2666 a23d
000001e0: e074 30be 0845 8fbd d21f cd3d 1931 6f3e
000001f0: 407c c43b 58d7 02bd 675e 9c3c 5f5f 103c
00000200: 3974 143e 8c52 a6bd 1528 283e 106f 3b3e
00000210: 69a0 b4be 65ea 793e e988 043e 6407 40be
00000220: a61a 8bbd f2d3 153e b9a0 3a3d 606c 273c
00000230: 29df 9cbe 635b debd ca61 f23d e717 a5bb
00000240: 9275 afbe a6f6 243e 10f6 50bd e285 c4be
00000250: 30fe 31be 5e0d d03d 4c00 7b3e 174c 413e
00000260: 4984 6bbd 8f72 723e 249d ebbd 7fc8 a23e
00000270: 97d5 6a3d 0d4f 4fbd fa01 f6bc dcbe 63be
00000280: 0d36 003f cad8 e5bd 8c76 95be b3d7 00be
00000290: 1851 7abe dfbe 85bd 79c2 213e 8c4a 34bc
000002a0: b129 a6be 0011 e8be 9d22 af3d 6617 5bbe
000002b0: a86e 0c3e 18e0 353e 2f1a 033f fa8e 453e
000002c0: f10a f13e 4344 b23d ecbb 40be c2e5 28be
000002d0: 3be9 54be 1818 063e e616 0ebe 825a 8a3e
000002e0: c414 a03e 23a3 0c3d 3d0f 453e 6418 4ebd
000002f0: 2105 f53d b172 98be d57f 153e 482e 8b3e
00000300: 22cf 4bbe 9a32 aa3c 9cc3 873c 8e67 65be
00000310: 0918 f63d 2eb5 a43d 8180 e13c 2750 7ebd
00000320: 4c04 97bc 6fc8 293e 93a0 0bbd 4d6f 9ebd
00000330: 6de3 1e3e 434b 51bb 420a 69be 8ba9 2dbe
00000340: ceae 4f3e 018d aa3c bb31 b4be 7602 833e
00000350: 179e 97be 5036 cc3d 95b3 c6be f4c7 823e
00000360: 0dc0 d1bb bbf3 7d3e 555d ad3c effb aebd
00000370: 835e 86bd 2ef9 20bc d3ae e03d 3dde 56bb
00000380: 3070 19be ec97 e13c 0c16 2ebe 6763 5a3d
00000390: 8b32 0e3f 3b2b 95be e2f7 bb3e 5ada 09be
000003a0: 37aa f13d 95cf 723d 3301 8bbe 4944 77bd
000003b0: 2fd5 e4bd 494e d53e dfcb 973d 5540 713e
000003c0: 2dbf 523e d30a ff3d e54c 283e 0f96 d0bd
000003d0: a689 28be 6183 a03c 6b32 3a3c c7ac e13d
000003e0: 4528 e0bd 8560 22bd 0c85 e9bd 88d9 81bd
000003f0: 8fdc 833d c832 7ebe 6cca 3dbc 3d91 253e
-0.07274909 -0.09436309 -0.096037224 0.029790318 0.17350867 0.10054306 -0.10466151 0.012874219
-0.02813399 -0.3065401 0.3379921 -0.19005388 -0.2228376 0.09570239 0.07125451 0.2861756
-0.073965065 0.28298077 -0.04580875 0.09621551 -0.38353893 -0.110226415 0.25869206 -0.08725518
0.31241792 0.10581856 -0.046829812 -0.17239909 -0.027109586 0.05098648 -0.104989976 0.09322708
-0.12481186 -0.13869604 -0.05313221 0.10005743 -0.00095047784 0.07808121 -0.1284234 0.13187757
0.095100716 -0.16519517 -0.50735897 -0.1607753 0.16673855 -0.10563062 0.027202059 -0.040475205
-0.19419393 -0.30455327 -0.13289855 -0.3269817 0.004134564 0.3509646 -0.08607098 0.032140113
-0.07137082 -0.12231734 -0.4016764 0.13588685 0.11482084 -0.20598914 0.049311686 0.19236565
0.102144346 0.2951008 0.2105293 0.012955186 -0.22480586 -0.13758026 -0.3012455 0.20843112
-0.13426459 -0.13471158 0.23115402 0.37178993 -0.5008654 0.16152483 -0.09892478 -0.15028661
0.3513041 -0.037193093 -0.035805658 0.13341394 0.2121285 0.11879363 -0.13591407 0.33118728
0.12639283 0.07541807 -0.05560409 0.3001568 0.03070943 -0.18113025 -0.02009485 0.06456307
-0.15462448 -0.048731156 0.13381502 -0.043157216 0.029948184 0.23458284 -0.2603208 -0.009438635
-0.05600491 -0.19880122 -0.23686697 0.26015535 0.33107042 0.23782156 0.18588059 0.043657873
-0.045475874 0.122531205 -0.10465228 -0.0049816296 0.21564846 0.029831236 -0.038425215 0.079296395
-0.17232084 -0.069955885 0.10015835 0.23358573 0.005996257 -0.03194365 0.019087983 0.008811801
0.1449746 -0.08121213 0.1642154 0.18304086 -0.35278633 0.2440582 0.12942852 -0.1875282
-0.06792192 0.14631632 0.045563433 0.01021871 -0.30639008 -0.108572744 0.11835058 -0.00503825
-0.34269387 0.16109714 -0.051015913 -0.38383394 -0.17382121 0.101587996 0.24511832 0.18876682
-0.057499204 0.23676513 -0.115045816 0.3179359 0.0573326 -0.050612498 -0.03003024 -0.22240776
0.50082475 -0.1122299 -0.29192007 -0.12582283 -0.24444997 -0.065305464 0.15796842 -0.0110041015
-0.32453683 -0.4532547 0.08551524 -0.21395645 0.13714087 0.17761266 0.5121183 0.19292822
0.4707866 0.08704426 -0.18821687 -0.16493896 -0.20792095 0.13095129 -0.13875923 0.27022177
0.31265843 0.034335267 0.19244094 -0.05031623 0.11963869 -0.29775003 0.14599545 0.27183747
-0.19903234 0.020776082 0.016572766 -0.22402784 0.12016303 0.0804237 0.027527096 -0.062088158
-0.018434666 0.16580366 -0.034088682 -0.07736073 0.15516444 -0.0031935729 -0.2275782 -0.16959207
0.20281526 0.020819189 -0.3519419 0.25587815 -0.296128 0.09971297 -0.38808885 0.25543177
-0.006401068 0.24800007 0.021162668 -0.08544146 -0.065609954 -0.009825034 0.10970845 -0.0032786273
-0.14984202 0.027538262 -0.17000598 0.053317454 0.5554587 -0.29134545 0.36712557 -0.13462201
0.11800044 0.059279997 -0.27149352 -0.060367856 -0.11173474 0.4166129 0.07411932 0.23559697
0.2058074 0.124532364 0.16435583 -0.101848714 -0.16458759 0.019593896 0.01136456 0.11019283
-0.10945181 -0.03964283 -0.1140233 -0.06340319 0.064385526 -0.24824059 -0.011583906 0.16168685

base.mlp.fc2.0.0.bias f4 [64]
00000000: e160 0a3d e370 15bd 4d8b d83d a7f9 0f3d
00000010: e8b1 afbd 8c77 52bd c10c 5c3c b2ab e13c
00000020: 8071 c8ba 6f0a be3c eb09 b1bc 7599 713d
00000030: 1376 0ebd 6011 5ebc 185b 423c 2068 653c
00000040: 8bed 493b bcae 30bd 0c51 d5bc 4b94 2c3c
00000050: 5137 863c e792 cb3c d3d2 e1bb 9680 733d
00000060: fceb 0abd 30e3 2cbd 66fc 623d 7ac2 86bc
00000070: 0fa6 48ba f327 28bd c221 fc3c c546 a63c
00000080: 7263 5abd f142 2c3d 495c dbbc acae 953c
00000090: 80a2 9cbd 7251 1abb e1e6 3cbd 8168 643d
000000a0: bc6b 573d 9eae 3dbc 8caa 84bd 9a09 913d
000000b0: aeca 08bd ec36 4cbb 2753 91ba 3689 30bd
000000c0: 8760 793d 9b43 ee3c 4c2e 3abc 0665 82bc
000000d0: b6ca 2a3d 2c96 2c3c 6f6f 083d d11b e43c
000000e0: 2487 23bd 14d0 febc e1bf 49bc 407f 0dbc
000000f0: f3eb 923c d7c7 003c be56 683d 0c91 14bc
0.033783797 -0.03648461 0.105734445 0.035150196 -0.08578855 -0.05138354 0.013430775 0.027547691
-0.0015292615 0.023198335 -0.021611175 0.05898424 -0.034780573 -0.013553947 0.011862539 0.014001876
0.0030811753 -0.04313539 -0.026039623 0.010533403 0.016383799 0.024850322 -0.0068915873 0.0594488
-0.03391646 -0.04220885 0.055416487 -0.016450156 -0.0007654139 -0.041053724 0.030777816 0.020297417
-0.053317495 0.042056028 -0.026777403 0.018271767 -0.07648182 -0.002354708 -0.04611862 0.055763725
0.052592978 -0.0115772765 -0.06477842 0.070819095 -0.033396415 -0.0031160666 -0.0011087403 -0.043099605
0.06088307 0.029084971 -0.011363577 -0.015917312 0.041697226 0.010533851 0.033309396 0.027845295
-0.039923802 -0.031105079 -0.012313814 -0.008636296 0.017934775 0.0078601455 0.05672335 -0.009067785

base.mlp.fc2.0.2.weight f4 [64]
00000000: b877 783f c7b9 7f3f 429d 883f ced9 713f
00000010: 33dd 853f 827a 833f f5fb 7d3f 23f9 733f
00000020: 0bec 7e3f bfc0 793f ede7 753f 5f5d 833f
00000030: aff0 7a3f 26f4 833f 7e95 6e3f efd9 6d3f
00000040: b170 7f3f e7f0 773f a2d1 833f 0c15 783f
00000050: 83d3 703f c032 7e3f 1b14 823f 1927 7e3f
00000060: 02b6 753f eb45 7f3f 5be3 7d3f 4330 7b3f
00000070: b60e 7a3f 6c15 763f 4a25 813f ec3d 893f
00000080: 7da2 823f 2acc 893f 56a9 7e3f f8f3 803f
00000090: 7a41 7f3f 14cd 813f 7851 823f 7e73 7f3f
000000a0: 2a2c 793f fce6 6b3f 9a9d 7f3f 6bc9 783f
000000b0: fd0c 773f e13e 7a3f be55 7b3f e800 823f
000000c0: beda 7f3f 8d5c 7b3f d1d7 763f 7bbc 7f3f
000000d0: e6f5 753f 30b2 6a3f 0f91 803f 5a79 793f
000000e0: c164 7e3f c9d4 783f 53a6 823f f615 7d3f
000000f0: d000 813f 2866 7f3f 63f5 713f b43f 7f3f
0.97057676 0.9989285 1.0672991 0.9447297 1.045813 1.0271761 0.9921258 0.9530203
0.99578923 0.9755973 0.96057016 1.026287 0.98023504 1.0308883 0.93196857 0.92910665
0.9978133 0.9685196 1.029835 0.96907115 0.9407274 0.9929619 1.0162386 0.9927841
0.95980847 0.9971606 0.9917504 0.98120517 0.976787 0.9612644 1.0089505 1.0722022
1.0205837 1.0765431 0.99477136 1.0074453 0.99709284 1.014071 1.0181112 0.997856
0.97333014 0.9214933 0.99849856 0.9718234 0.96504194 0.97752196 0.9817771 1.0156527
0.9994315 0.98188096 0.9642306 0.99896973 0.96078336 0.9167814 1.0044268 0.9745079
0.9937249 0.97199684 1.0207008 0.98861635 1.0078373 0.99765253 0.94515055 0.9970658

base.mlp.fc2.0.2.bias f4 [64]
00000000: 42ce c53c ef92 8abc 19d5 b03c 7728 b63c
00000010: 1635 a1bc 6c8f b5bc de9f a93c b897 c13c
00000020: 38d8 bf3c 3cdb c73c 9b7b afbc 1155 403c
00000030: 7270 acbc 1b35 94bc 14b5 c33c 0247 bc3c
00000040: a7c1 b63c 1dce b1bc 666b bfbc de12 c53c
00000050: 25a6 b83c f322 c23c 50a2 d3bc 7c23 b63c
00000060: d7f2 bfbc f31a bdbc 2b3a ac3c cc71 81bc
00000070: 9c59 dbbc 1954 bebc 1648 a63c 4e77 223d
00000080: c21b bcbc 1511 b63c 75ff bfbc 4de0 ba3c
00000090: 58e6 4cbc 0d99 f53b 4827 95bc d6dd 983c
000000a0: 5910 b33c ee1f c13c 34cf b33b 621a bc3c
000000b0: 2cf9 aabc 52eb b6bc 535c c7bc ab8f a5bc
000000c0: b02d 7c3c a371 bf3c ef29 b63c 94df bbbc
000000d0: 7da6 bd3c b308 793d e54d bc3c e088 b23c
000000e0: 29ea aabc 12ca bbbc d42e be3c 14f3 bebc
000000f0: be3b d93c e791 b53c 6277 073d 0caf c43c
0.024146203 -0.016915767 0.021585988 0.022236092 -0.019678634 -0.022163115 0.020706113 0.023631915
0.02341853 0.024396531 -0.021421244 0.011739031 -0.021049712 -0.018091729 0.023890056 0.022983078
0.022309138 -0.021704728 -0.023366641 0.024056848 0.022540161 0.023698306 -0.025834233 0.022233717
-0.023431225 -0.02308414 0.02102383 -0.015801333 -0.026776128 -0.02323346 0.020298045 0.03966456
-0.022962455 0.022224942 -0.023437241 0.022812033 -0.01250609 0.0074950517 -0.018207207 0.018660467
0.021858381 0.023574796 0.005487347 0.022961799 -0.020870768 -0.022329006 -0.024336016 -0.020210108
0.015391752 0.023369616 0.022236792 -0.022933759 0.023150677 0.06079931 0.022986362 0.021793783
-0.02086361 -0.022923503 0.023215689 -0.023309268 0.026517745 0.022164298 0.033072837 0.02400925

v_out.weight f4 [1, 64]
00000000: 0ee2 693d 5e1e bcbc be44 a33d ca44 8a3d
00000010: fcf7 7fbd b9c0 dbbd 31b6 433d 4bb7 a93d
00000020: 5f20 f13d 02b9 d03d 0dc1 4abd 6840 5a3d
00000030: 60c8 d1bd 003d 33bd fb3e 83b9 32d4 6d3e
00000040: 38df da3d 0a71 cebd 2355 97bd 1d98 9d3d
00000050: 5c62 033e b645 1a3e eb0d 4bbd 0c8c 303d
00000060: b46a 1cbe f6e5 25be 9817 e53c 7c7c c2bc
00000070: b3dc 38bc 7d2f b0bd 06b9 843d a249 893d
00000080: 1f88 73be 4de6 eb3d d735 0bbe 4ca8 003e
00000090: c901 fbbc 3d91 083d 1670 35bd 84cf 3f3d
000000a0: 73d7 b03d 2122 9e3e a3f4 c7bc 4f42 9c3c
000000b0: 7034 0abd 6df4 a0bd 3b21 bebc a271 a5bd
000000c0: fb5a 013d e81a 5e3e 06f2 023e f25e 67be
000000d0: f60a 313e 1318 db3b 2a7d b73d ae97 a73d
000000e0: 5811 23bd bb6f f9bd 3b00 0e3e 1b2f 73be
000000f0: 94e5 a43d d3c6 263e 168f ad3c 1934 f83d
0.05710035 -0.022963699 0.07972096 0.06751402 -0.062492356 -0.10730118 0.047781173 0.082869135
0.117737524 0.101915374 -0.049500514 0.05328408 -0.102432966 -0.043759346 -0.0002503319 0.23225477
0.10687107 -0.10080154 -0.073892854 0.07695029 0.1283049 0.15065655 -0.04957382 0.04310231
-0.15275079 -0.16201004 0.027965352 -0.023741 -0.011283088 -0.08602808 0.06480603 0.067034975
-0.23782395 0.11518536 -0.13594757 0.125642 -0.0306405 0.033341635 -0.044296347 0.04682876
0.08634844 0.30885413 -0.024408644 0.019074587 -0.033741415 -0.078591205 -0.023209205 -0.08078314
0.031580906 0.21689951 0.12787637 -0.22594813 0.17289338 0.0066862195 0.0895942 0.081832275
-0.039811462 -0.12179514 0.13867275 -0.23748438 0.08051601 0.16286783 0.021186393 0.12119312
