checkpoint/mappo_seed111_run20260211_112748_ep6000_actor.pt (torch, 29237 bytes, 13 tensors)

base.feature_norm.weight f4 [16]
0	0x3f812c2d	1.0091606
1	0x3f6e22f9	0.93022114
2	0x3f69258f	0.91072935
3	0x3f7398c5	0.9515498
4	0x3f6a9375	0.9163125
5	0x3f6b7b4a	0.91985
6	0x3f72ffe1	0.9492169
7	0x3f656992	0.8961421
8	0x3f6535f4	0.8953545
9	0x3f6e0876	0.9298166
10	0x3f7dd12e	0.9914731
11	0x3f757927	0.9588799
12	0x3f9b5a71	1.2136976
13	0x3f988bd7	1.1917676
14	0x3f813050	1.0092869
15	0x3f877d3f	1.0585097

base.feature_norm.bias f4 [16]
0	0xbce7f4c8	-0.028314963
1	0x3c5193be	0.012791572
2	0xbb4f7163	-0.0031653277
3	0xbd24a853	-0.04019959
4	0xbd79fb30	-0.061030567
5	0xbbe754f3	-0.0070596873
6	0xbc2464d9	-0.01003381
7	0x3d82ac73	0.06380548
8	0xbbe06782	-0.0068482766
9	0x3b9d8635	0.0048072585
10	0x3b7db225	0.0038710919
11	0x3d2db849	0.042412076
12	0xbc7eec47	-0.015559263
13	0xbcece4a1	-0.028917613
14	0x3b20456b	0.0024455439
15	0x3dc4670c	0.09589967

base.mlp.fc1.0.weight f4 [64, 16]
0	0x3e487bb8	0.19578445
1	0xbe2fff35	-0.17187198
2	0x3d7ef63b	0.062246542
3	0xbdd19d3a	-0.10235067
4	0xbdc1a397	-0.094550304
5	0x3ee0211d	0.43775263
6	0xbe595f1c	-0.21227688
7	0xbbdf9665	-0.0068233483
8	0xbdc9e50e	-0.09858142
9	0x3a99df36	0.0011739496
10	0x3cb961ec	0.0226297
11	0x3eaad006	0.33361834
12	0xbddb4533	-0.10706558
13	0x3eb19475	0.34683576
14	0xbe73fc0f	-0.23826621
15	0x3e122837	0.14273153
16	0xbcf9f578	-0.030512556
17	0x3c42b676	0.011884322
18	0xbeb652c4	-0.3561002
19	0xbec7ec9d	-0.3904771
20	0xbdd9eac2	-0.106404796
21	0xbe0a45f8	-0.13503253
22	0xbcfebec1	-0.031096818
23	0x3e077cff	0.13231276
24	0x3deeb7b0	0.11656129
25	0xbcee0808	-0.029056564
26	0xbe13f2bf	-0.14448069
27	0xbe28a1a1	-0.16467907
28	0xbe8d273a	-0.2756899
29	0x3ecc26a8	0.39873242
30	0xbe6049fe	-0.21903226
31	0x3e05fb88	0.13084233
32	0xbb8bef21	-0.0042704497
33	0xbd3f81f0	-0.046754777
34	0x3d78ebf6	0.060771905
35	0x3e475220	0.19464922
36	0x3dfeb9de	0.12437795
37	0xbe8126e6	-0.2522499
38	0xbe1a1aa6	-0.15049228
39	0x3e3b72c7	0.18305503
40	0xbd22e9d6	-0.039773785
41	0x3e275cb8	0.16343963
42	0xbc7c51e4	-0.015400384
43	0x3e89f4b1	0.26944497
44	0x3e2522ba	0.16126528
45	0xbe12ab4c	-0.14323157
46	0x3de52906	0.11189465
47	0x3d05dbf2	0.03268046
48	0x3ea0c94d	0.3140358
49	0x3e93505b	0.28772244
50	0x3da4ea93	0.08052554
51	0x3dac5863	0.08415296
52	0xbe1fde9a	-0.1561226
53	0x3db26e2a	0.087124184
54	0x3ebb2116	0.3654868
55	0x3e817fa6	0.252927
56	0x3cf2499c	0.029576115
57	0xbd871e33	-0.06597557
58	0x3c94604e	0.018112328
59	0x3c43bd66	0.011947012
60	0xbc9598a3	-0.01826126
61	0xbf11fd41	-0.5702706
62	0xbc8bd312	-0.01706842
63	0x3eba0690	0.36333132
64	0xbdc58c2d	-0.09645877
65	0xbd8c2601	-0.06843186
66	0xbdc7d826	-0.09758024
67	0xbd6db75e	-0.0580362
68	0x3e56cd9b	0.2097687
69	0x3dd43323	0.10361316
70	0xbe432bc1	-0.1905966
71	0xbde3e739	-0.111280866
72	0x3daccf9b	0.08438035
73	0xbcdffbad	-0.027341688
74	0xbe50b235	-0.2038048
75	0xba8023c4	-0.0009776284
76	0x3e26b8eb	0.16281478
77	0xbe1d3228	-0.15351164
78	0x3dae30e9	0.085054226
79	0xbe3f764f	-0.18697475
80	0xbe129dda	-0.14318028
81	0xbe3f764d	-0.18697472
82	0x3d54dee3	0.051970374
83	0x3e7d30e1	0.24725677
84	0x3d52a263	0.051424395
85	0xbdf57339	-0.119848676
86	0xbcd3dbe1	-0.025861682
87	0xbd7ebf3e	-0.0621941
88	0xbdb115ee	-0.08646761
89	0x3eb1f20d	0.34754983
90	0xbe9dd54a	-0.3082679
91	0xbd5f1815	-0.054466326
92	0x3ea6bddd	0.3256673
93	0xbe10b0b0	-0.14129901
94	0xbe6ecf18	-0.23321187
95	0x3e146611	0.1449206
96	0x3ddcd5b3	0.107829474
97	0x3e426ae9	0.18986095
98	0xbde0e6e8	-0.10981542
99	0x3e7ddec1	0.24792005
100	0xbdd680e8	-0.10473806
101	0x3e23433d	0.15943618
102	0x3d6939d7	0.056939926
103	0x3d727fbb	0.059203845
104	0xbc92ddb5	-0.017927984
105	0xbd31b8bc	-0.043389067
106	0xbd4f9f2f	-0.05068892
107	0x3e93c38c	0.28860128
108	0xbec8dc81	-0.3923073
109	0xbdb03d34	-0.086054236
110	0x3e84c089	0.25928143
111	0xbcecdc31	-0.02891359
112	0xbb106be1	-0.0022036957
113	0xbde39b11	-0.11113561
114	0x3d7a5f92	0.0611263
115	0xbd8654fe	-0.0655918
116	0x3c65df08	0.014030226
117	0x3e4f987f	0.20273016
118	0x3e078ac2	0.13236526
119	0x3cf7bfde	0.030242857
120	0xbca8cc72	-0.0206053
121	0xbe410cd8	-0.18852556
122	0x3d62f8e6	0.05541315
123	0xbe608fdd	-0.2192988
124	0xbe9c2948	-0.30500245
125	0xbee0d65b	-0.4391354
126	0xbe378803	-0.17922978
127	0xbc2e1e06	-0.010627275
128	0xbe2e53a2	-0.17024091
129	0xbe02c20d	-0.12769337
130	0xbd07fdd5	-0.033201057
131	0x3e1e2dfd	0.1544723
132	0xbe6ed56e	-0.23323604
133	0x3ca41cd5	0.02003328
134	0x3e69b7a6	0.22823963
135	0x3db2b0d1	0.08725131
136	0x3e1b79d3	0.15183191
137	0xbbcf1523	-0.0063196584
138	0xbe9fa9e6	-0.3118431
139	0x3e53cbb6	0.20683178
140	0x3ccd8f93	0.025092876
141	0xbdc6a8e0	-0.09700179
142	0x3e40bfba	0.18823138
143	0x3d43e2d0	0.047823727
144	0x3de6519a	0.11246033
145	0xbe77b2ba	-0.24189273
146	0x3e47cdb4	0.19512063
147	0x3e010aea	0.1260182
148	0x3d2ccb63	0.042186152
149	0xbe220bd2	-0.15824822
150	0x3c6c739f	0.014431863
151	0xbe401419	-0.18757667
152	0x3ddd1fd1	0.10797084
153	0x3d669507	0.056294467
154	0x3dc84e42	0.097805515
155	0xbd9feb87	-0.07808595
156	0xbe48b7a2	-0.196013
157	0x3e17f6d5	0.14840253
158	0xbe5db1f5	-0.21649916
159	0x3e7bc49d	0.24586721
160	0x3ddf280f	0.108963124
161	0xbe8ee358	-0.27907825
162	0xbdbead17	-0.09310358
163	0x3e07fe2c	0.13280553
164	0xbeac237d	-0.33620825
165	0xbcdbc7c4	-0.026828654
166	0x3d14db57	0.03634199
167	0x3e30b79a	0.17257538
168	0x3e337752	0.17525986
169	0xbdd49708	-0.103803694
170	0x3e2ea69b	0.17055742
171	0xbe68e375	-0.22743018
172	0x3e312b60	0.17301702
173	0xbd8c1398	-0.06839675
174	0x3eab1598	0.33414912
175	0xbdf62829	-0.12019379
176	0x3e850206	0.25978106
177	0x3d726701	0.059180263
178	0xbc97f668	-0.018550113
179	0x3f131d4e	0.5746659
180	0x3d09d215	0.033647615
181	0x3e6b5f86	0.22985658
182	0x3c187c88	0.009307034
183	0xbd785e54	-0.060636833
184	0x3ec05254	0.3756281
185	0xbcde027d	-0.027100796
186	0x3d82247a	0.063546136
187	0xbd0b7421	-0.034046296
188	0x3c2c9b15	0.010535021
189	0x3e73d162	0.23810342
190	0xbe207eac	-0.15673321
191	0xbe92047c	-0.28519046
192	0x3dbaf5c3	0.091289066
193	0x3da99d93	0.08282008
194	0x3d3a6c8e	0.045513682
195	0x3dab5269	0.08365328
196	0xbcbba8cc	-0.022907637
197	0xbc7f6fb5	-0.015590598
198	0x3e1dd6c2	0.15413955
199	0xbebebbfa	-0.3725279
200	0x3c0b270d	0.008493197
201	0xbed4fec0	-0.4160061
202	0xbd646c71	-0.05576748
203	0x3d51d38f	0.05122715
204	0xbd947641	-0.07249118
205	0xbe07f240	-0.13276005
206	0xbea0ac49	-0.31381443
207	0x3d6e0d05	0.058117885
208	0xbe25cec4	-0.16192156
209	0x3d84c6cd	0.06483231
210	0xbe32cdfc	-0.1746139
211	0x3cb404f0	0.02197501
212	0x3e47ec53	0.19523744
213	0xbbf0b194	-0.0073453877
214	0xbe40e370	-0.1883676
215	0xbe3212bc	-0.17389959
216	0x3e051d2b	0.12999408
217	0xbead1db0	-0.33811712
218	0xbe5f8c39	-0.21830834
219	0x3e309969	0.17246021
220	0xbdfd9876	-0.12382595
221	0xbdf708b2	-0.120622054
222	0xba5dc07b	-0.0008459163
223	0xbe42957d	-0.19002338
224	0xbec19f89	-0.37817028
225	0x3d9391f8	0.07205576
226	0x3e1866fc	0.14883035
227	0x3de21b03	0.11040308
228	0xbd968b57	-0.07350796
229	0x3d67c2d1	0.056582276
230	0x3e722e70	0.23650527
231	0x3de0a4cc	0.109689325
232	0x3e298ae4	0.16556889
233	0xbe9de934	-0.30841982
234	0xbe3f1337	-0.18659674
235	0xbddc597d	-0.10759256
236	0xbe0a744a	-0.13520923
237	0xbcee7841	-0.029110076
238	0x3e178043	0.14795022
239	0x3ec2b0f1	0.3802562
240	0xbe928ce0	-0.28623104
241	0xbe9a27bf	-0.3010845
242	0xbd26836f	-0.04065269
243	0x3d3bf0ec	0.045884058
244	0xbe92a72d	-0.2864317
245	0x3df616e9	0.120160885
246	0x3e61aa75	0.2203768
247	0xbea1506b	-0.31506667
248	0xbecc15b1	-0.398603
249	0xbd041f4a	-0.032256402
250	0xbeba36ff	-0.36370084
251	0xbe0bbb8f	-0.13645767
252	0x3e759989	0.2398435
253	0xbd432f94	-0.047652796
254	0xbda22f65	-0.07919196
255	0xbe71128e	-0.23542234

base.mlp.fc1.0.bias f4 [64]
0	0x3beb4c82	0.0071807513
1	0x3c8578b6	0.016292911
2	0x3d497c38	0.04919073
3	0x3d002c4b	0.03129224
4	0xbd72d6de	-0.059286945
5	0xbc3d1c17	-0.011542342
6	0x3d4151d3	0.047197174
7	0x3c59b94a	0.013288805
8	0x3c450b2c	0.012026589
9	0xbd181627	-0.0371305
10	0xbc0bdad2	-0.008536058
11	0xbdfb9f5f	-0.12286257
12	0xbccd45ea	-0.025057752
13	0xbca9cc43	-0.020727282
14	0x3c2a42fa	0.010391945
15	0x3bb5cef6	0.0055483533
16	0x3c1825d8	0.009286366
17	0x3d0ccc92	0.03437478
18	0xbc1af781	-0.009458424
19	0x3bb35f17	0.005473982
20	0xbca4c119	-0.020111607
21	0xbca2036c	-0.019777022
22	0x3d311f2f	0.04324263
23	0xbd66a05e	-0.05630528
24	0x3b602156	0.0034199557
25	0x3c810cf3	0.015753245
26	0xbbcc59c0	-0.006236285
27	0x3d019af9	0.031641934
28	0x3c46169b	0.0120903505
29	0xbc807390	-0.015680104
30	0x3c4e8bc4	0.012606565
31	0x3af17aa7	0.0018423394
32	0x3d2fc233	0.042909812
33	0xbce1483d	-0.027500266
34	0xbcf8227c	-0.030289881
35	0xba86bb56	-0.0010279219
36	0x3ccefe4d	0.025267744
37	0x3a1c4769	0.00059615687
38	0x3bba5db5	0.0056874403
39	0xbd1ed356	-0.038775764
40	0xbc68ee19	-0.014216923
41	0xbcfa87b0	-0.030582279
42	0xbc1da9d7	-0.0096230125
43	0x3cb467c5	0.022022137
44	0x3ca0bde6	0.0196218
45	0xbcc8a28b	-0.024491569
46	0xbcc71469	-0.024301725
47	0x3ca3acaf	0.019979803
48	0x3cc9f754	0.024654068
49	0xbb0af131	-0.002120089
50	0x3d880f33	0.06643524
51	0x3d5024b9	0.05081627
52	0xbd04153d	-0.032246817
53	0x3dc0c531	0.09412611
54	0x3d192a97	0.037394132
55	0xbc8b818c	-0.017029546
56	0x3a4c2f09	0.0007788991
57	0x3cd3657c	0.025805227
58	0xb9866ab5	-0.00025637975
59	0x3c956aaa	0.018239338
60	0xbd6f0781	-0.058356766
61	0xbafa9c38	-0.0019120043
62	0x3d52803d	0.05139183
63	0x3dda1a3e	0.106495366

base.mlp.fc1.2.weight f4 [64]
0	0x3f80d654	1.0065408
1	0x3f869ace	1.0515993
2	0x3f840677	1.0314473
3	0x3f8949e5	1.0725676
4	0x3f786660	0.9703121
5	0x3f739196	0.9514402
6	0x3f8874c7	1.0660638
7	0x3f838bee	1.0277078
8	0x3f7933ac	0.9734447
9	0x3f7befa6	0.9841255
10	0x3f724ce0	0.9464855
11	0x3f68c854	0.90930676
12	0x3f7d566d	0.9896
13	0x3f7364b1	0.9507552
14	0x3f7810dd	0.9690073
15	0x3f75a401	0.95953375
16	0x3f772595	0.9654172
17	0x3f851016	1.0395534
18	0x3f83fc53	1.0311378
19	0x3f843cec	1.0331092
20	0x3f7cafd8	0.98705816
21	0x3f7506e0	0.95713615
22	0x3f852fc2	1.04052
23	0x3f7a3e35	0.9775117
24	0x3f84dd78	1.0380087
25	0x3f7e24d5	0.9927495
26	0x3f7a7de5	0.9784835
27	0x3f82671c	1.0187716
28	0x3f831b11	1.0242635
29	0x3f6f1525	0.9339164
30	0x3f83ab65	1.028668
31	0x3f78fbe6	0.97259367
32	0x3f86cce5	1.0531279
33	0x3f83bc85	1.0291907
34	0x3f79efe6	0.9763168
35	0x3f86379b	1.048572
36	0x3f87b635	1.060248
37	0x3f84c03a	1.0371163
38	0x3f80ca81	1.0061799
39	0x3f722542	0.945881
40	0x3f766261	0.96243864
41	0x3f81a337	1.0127934
42	0x3f74d39a	0.9563538
43	0x3f82ae8f	1.0209521
44	0x3f854e5d	1.041454
45	0x3f745abd	0.95450956
46	0x3f813b01	1.0096132
47	0x3f7c4290	0.98539066
48	0x3f72cbb5	0.9484208
49	0x3f797032	0.9743682
50	0x3f7eeea2	0.99582875
51	0x3f8f0064	1.1171994
52	0x3f7aff1d	0.9804552
53	0x3f8d1e16	1.1024806
54	0x3f7875b7	0.9705462
55	0x3f84922f	1.0357112
56	0x3f71b23a	0.9441258
57	0x3f80efab	1.0073141
58	0x3f7f2c75	0.9967721
59	0x3f7b993e	0.98280704
60	0x3f7e2c18	0.9928603
61	0x3f7f4c35	0.9972566
62	0x3f7517b5	0.957393
63	0x3f888bca	1.066766

base.mlp.fc1.2.bias f4 [64]
0	0xbcc9aed5	-0.0246195
1	0xbca0cb49	-0.019628184
2	0x3d4437ef	0.047904905
3	0xbc49914a	-0.012302706
4	0xbd108c99	-0.035290334
5	0x3d675fe3	0.05648793
6	0xbb5374b5	-0.0032265608
7	0xbb52bda9	-0.0032156503
8	0x3b3fb455	0.0029251773
9	0xbc24ae10	-0.010051265
10	0x3b139e73	0.0022524863
11	0xbd6e84f6	-0.05823227
12	0x3c72375e	0.014783708
13	0x3d1ba86b	0.038002413
14	0x3d23ac12	0.03995902
15	0xbb96eda9	-0.004605968
16	0x3b564d36	0.003269983
17	0xbc46d02f	-0.012134596
18	0xbcdbd8f7	-0.026836855
19	0xbcf204dc	-0.029543333
20	0x3c4b9001	0.01242447
21	0x3cb7ec1c	0.022451453
22	0x3b7668cc	0.0037599085
23	0xbc28aa12	-0.010294454
24	0xba07ac50	-0.0005175518
25	0x3d383dae	0.044980697
26	0xbbf976ff	-0.0076130624
27	0x3c33d801	0.010976792
28	0xbc6281e6	-0.0138249155
29	0x3d730891	0.05933434
30	0x3d07e728	0.033179432
31	0x3c011247	0.007877893
32	0x3b2de8e8	0.0026536528
33	0xbd009b99	-0.03139839
34	0xb8c77e52	-9.5125884e-05
35	0xbc50cd92	-0.012744324
36	0xbcbf7c26	-0.023374628
37	0xbbe70dcb	-0.007051205
38	0x3c9784b2	0.018495891
39	0xbc109694	-0.008824963
40	0x3a815f8b	0.0009870393
41	0xbc8d3301	-0.017236235
42	0x3c18347c	0.009289857
43	0x3cde6cb6	0.027151447
44	0xbab2661d	-0.0013610754
45	0x3beb39cf	0.007178522
46	0xbc83f826	-0.016109537
47	0x3d09056c	0.033452436
48	0x3d3535e1	0.044240836
49	0x3b9a14cb	0.0047021857
50	0x3cb4120b	0.02198126
51	0xbc9d92be	-0.019235011
52	0x3ba6907f	0.0050831432
53	0x3cd66a2d	0.026173675
54	0x3d1e3f8c	0.03863482
55	0xbccfd338	-0.025369272
56	0x3c90ac06	0.017660152
57	0x3d53cf85	0.051711578
58	0x3cd03d5e	0.025419887
59	0xbcbfe4bf	-0.023424504
60	0xbd240d68	-0.040051848
61	0x3af1c7ce	0.0018446387
62	0x3c8cef59	0.017203974
63	0x3d759130	0.059952915

base.mlp.fc2.0.0.weight f4 [64, 64]
0	0xbe8d0126	-0.2753994
1	0xbe18aa54	-0.14908725
2	0xbe31a411	-0.17347743
3	0x3e7abd15	0.24486192
4	0xbe346c40	-0.17619419
5	0x3d70ee34	0.05882092
6	0x3cc0e0f2	0.023544762
7	0xbc99f8db	-0.018795421
8	0xbbfbf525	-0.0076891356
9	0xbe9af66e	-0.30266136
10	0xbeb0de1a	-0.3454445
11	0x3e0f9935	0.14023288
12	0x3dcf2a33	0.10115471
13	0x3d8d92ad	0.06912742
14	0x3dddf5d8	0.108379066
15	0xbd613db8	-0.0549905
16	0x3e82460c	0.25444067
17	0xbd8cb873	-0.068711184
18	0x3e064e6e	0.13115856
19	0x3dee108a	0.11624248
20	0xbea0f7c2	-0.31439024
21	0x3d664aa4	0.056223527
22	0x3d429029	0.047500763
23	0x3ee13891	0.4398847
24	0xbd489934	-0.04897423
25	0xbe807e45	-0.25096336
26	0x3af1821e	0.0018425619
27	0x3e26a69b	0.16274492
28	0x3d54b7e4	0.051933184
29	0x3e085357	0.13313042
30	0xbdd77de0	-0.105220556
31	0xbe68c6bd	-0.22732063
32	0x3e155d05	0.14586265
33	0xbe95773c	-0.2919253
34	0xbe848aea	-0.25887233
35	0xbea29455	-0.31753793
36	0xbe170ff6	-0.14752182
37	0xbdbf9edb	-0.09356471
38	0xbd94d825	-0.07267789
39	0x3da5a19e	0.08087467
40	0x3e5af99a	0.21384278
41	0xbe4e072c	-0.20119923
42	0xbe8cb17d	-0.27479163
43	0x3d697d3f	0.05700421
44	0x3d9ec9ee	0.07753359
45	0xbd21a85a	-0.039467193
46	0xbe161f51	-0.14660384
47	0xbea798cc	-0.32733762
48	0xbeafcd9b	-0.34336552
49	0x3d82eba1	0.06392599
50	0xbda3e32f	-0.08002316
51	0x3dcb2d61	0.09920765
52	0xbe231ceb	-0.15929
53	0xbe6b51fd	-0.22980495
54	0x3d7c07d4	0.061530903
55	0x3e6a6f25	0.22893961
56	0xbdd76122	-0.105165735
57	0xbdd8d7e8	-0.10588056
58	0xbd6b0f9d	-0.057387937
59	0x3da4ef67	0.08053475
60	0xbe17a14d	-0.14807625
61	0x3df92605	0.12165455
62	0xbcc93a17	-0.024563832
63	0x3de54bd4	0.11196104
64	0x3d1e1556	0.038594566
65	0x3e8a0393	0.26955852
66	0x3e4a5e77	0.19762598
67	0x3b862ba3	0.0040945574
68	0xbd99d5d6	-0.07511489
69	0x3daf0443	0.08545735
70	0x3da41935	0.0801262
71	0x3e089efd	0.13341899
72	0xbe02fb23	-0.12791114
73	0xbe80e733	-0.2517639
74	0x3d026cfc	0.031842217
75	0x3dc42834	0.09577981
76	0x3dc98319	0.09839458
77	0x3eb44555	0.35209146
78	0x3c3dad5b	0.011576976
79	0x3eafa9ff	0.34309384
80	0xbe044f8e	-0.12920973
81	0xbe95a7d1	-0.29229596
82	0x3e5bf445	0.214799
83	0xbdf399c2	-0.11894561
84	0x3e546b23	0.20743994
85	0xbe544c80	-0.20732307
86	0x3eb8e28c	0.36110342
87	0xbd32a758	-0.043616623
88	0x3e37d1a5	0.17951067
89	0x3d2c8962	0.042123206
90	0xbde2c915	-0.110735096
91	0x3bd1c3d5	0.006401519
92	0x3e77baef	0.24192403
93	0x3d2d49c7	0.042306688
94	0x3e791f5c	0.24328369
95	0x3decf337	0.11569827
96	0xbe176080	-0.14782906
97	0xbd42bd35	-0.047543723
98	0xbdf5e6cf	-0.12006914
99	0xbdc28118	-0.09497279
100	0x3ddbdb99	0.10735244
101	0xbddedce5	-0.10881976
102	0x3e65ff6c	0.22460717
103	0x3cdd6f93	0.027030742
104	0x3d56df7c	0.052459225
105	0xbe108c06	-0.14115915
106	0x3e4340c0	0.19067669
107	0x3e4519d3	0.19248132
108	0x3d8e6ce8	0.06954366
109	0x3c1a2835	0.009409
110	0x3d851276	0.06497662
111	0xbe7782de	-0.24171016
112	0xbcb85c8b	-0.022505065
113	0xbe6fdbf3	-0.23423748
114	0x3ca3d611	0.019999536
115	0xbdb04634	-0.0860714
116	0xbe66baa3	-0.22532134
117	0xbea198f1	-0.31561998
118	0xbe215e29	-0.15758575
119	0xbd8de1f5	-0.069278635
120	0x3e67fc4d	0.22654839
121	0x3e091d7f	0.13390158
122	0xbe8abcdd	-0.27097216
123	0x3e4e6f45	0.20159633
124	0x3ea1d7e6	0.3161003
125	0xbe2a22bb	-0.16614811
126	0x3d991885	0.0747538
127	0xbed1a080	-0.40942764
128	0xbe0e808d	-0.13916226
129	0x3c20547d	0.009785769
130	0x3e90d4f6	0.28287476
131	0xbe2ee5ab	-0.17079799
132	0xbe9f08fc	-0.31061542
133	0xbeb1528f	-0.346333
134	0x3e3928b5	0.18081935
135	0xbd81a3e4	-0.06330088
136	0x3cc4a850	0.024006039
137	0xbdd52f2c	-0.10409388
138	0x3eca4083	0.39502344
139	0x3d8c9333	0.068640135
140	0xbd8e5a7a	-0.06950851
141	0x3ea45499	0.32095793
142	0x3e95a17a	0.2922476
143	0xbd3a9706	-0.045554183
144	0x3e469639	0.19393243
145	0xbe6f445e	-0.23365924
146	0xbd7c694a	-0.06162385
147	0xbd20ccda	-0.03925786
148	0x3e1edc36	0.15513691
149	0x3e8f0546	0.2793371
150	0xba140164	-0.0005645959
151	0x3d354650	0.04425651
152	0x3e8ed17f	0.27894208
153	0xbe57702d	-0.21038885
154	0x3e837a43	0.25679216
155	0xbe3de6c9	-0.18545069
156	0x3b9e61fd	0.0048334585
157	0xbcc77ee0	-0.02435249
158	0xbe22be47	-0.15892898
159	0xbd835976	-0.06413548
160	0x3d1102c1	0.035403017
161	0x3e926567	0.2859299
162	0xbe6914a1	-0.22761776
163	0xbd2c8874	-0.04212232
164	0x3e0b3113	0.13592939
165	0xbe8b559a	-0.27213746
166	0xbde147b1	-0.11000002
167	0xbcf18e97	-0.029486937
168	0x3dcef8a7	0.101060204
169	0xbd578684	-0.05261852
170	0xbe13f1a2	-0.14447644
171	0x3e6e5c5d	0.23277421
172	0xbdfb536d	-0.122717716
173	0x3de9eb46	0.11421828
174	0x3e4d4c27	0.20048581
175	0xbde825e6	-0.113353536
176	0x3d106de1	0.03526104
177	0xbd0da84d	-0.034584332
178	0x3d9b79cb	0.075915895
179	0xbd573ab6	-0.052546225
180	0x3eab9268	0.33510137
181	0x3d8e23f5	0.06940452
182	0x3b52ef72	0.0032186178
183	0x3b2076f6	0.0024484969
184	0xbea00247	-0.31251737
185	0xbcda31f6	-0.026635151
186	0x3ec1bcc5	0.37839332
187	0x3dd222ad	0.1026052
188	0xbd52a132	-0.05142326
189	0xbc6448a9	-0.013933339
190	0xbe7c9b48	-0.2466861
191	0xbd877450	-0.06613982
192	0x3e49da4a	0.19712177
193	0x3d2c54ec	0.042073175
194	0x3c9f1c59	0.019422697
195	0x3d3cb431	0.04607028
196	0xbe9254fb	-0.2858046
197	0x3e0d90ce	0.1382477
198	0xbe925f5b	-0.28588375
199	0xbcae7009	-0.021293657
200	0xbedb9080	-0.42883682
201	0xbc86af42	-0.016440991
202	0x3cdfd4a8	0.027323082
203	0x3d204f83	0.03913833
204	0x3d00b9d1	0.03142721
205	0xbe25cbb5	-0.1619099
206	0x3eb68d1a	0.35654527
207	0xbeac537a	-0.33657438
208	0xbc9c7c40	-0.019102216
209	0x3c2e7d54	0.010649998
210	0x3da12420	0.078682184
211	0x3e8d435e	0.2759046
212	0x3d13f88e	0.036125712
213	0x3ebb14e7	0.36539385
214	0xbc7caa4f	-0.015421464
215	0xbdf8bb7c	-0.12145135
216	0xbe1b76ea	-0.15182081
217	0xbd87db23	-0.06633594
218	0x3d7651a0	0.060136437
219	0x3e7126f6	0.23550019
220	0xbea56951	-0.32306913
221	0x3eb9d386	0.36294192
222	0x3e41a761	0.18911506
223	0x3e5aa671	0.21352555
224	0xbe52185d	-0.20517106
225	0xbe4bee83	-0.19915204
226	0xbdc4c696	-0.0960819
227	0x3eaf370a	0.3422168
228	0xbc6e6a68	-0.014551736
229	0x3e147461	0.1449752
230	0x3d8fbd4d	0.07018528
231	0xbda4603f	-0.0802617
232	0xbdafe17e	-0.08587931
233	0x3d508db6	0.050916396
234	0x3e52c589	0.20583166
235	0x3e800d1f	0.2501001
236	0xbd910066	-0.07080154
237	0x3e340a3f	0.17582034
238	0x3d163146	0.036668085
239	0x3c9a7e7a	0.018859137
240	0xbe4136b6	-0.18868527
241	0x3ec66ffc	0.38757312
242	0xbdc00191	-0.09375299
243	0x3b0b2df6	0.0021237112
244	0x3bdd10db	0.006746394
245	0x3e10a3a9	0.14124931
246	0xbd300ef6	-0.042983018
247	0xbde82493	-0.11335101
248	0x3e57df2a	0.21081224
249	0x3db52026	0.088440225
250	0x3e6a5121	0.2288251
251	0x3e033513	0.12813215
252	0x3e151fa2	0.14562848
253	0x3dfcf1e4	0.123508245
254	0x3dc9c1c7	0.09851413
255	0xbd69e6e4	-0.05710496

base.mlp.fc2.0.0.bias f4 [64]
0	0xbc4952df	-0.012287824
1	0xbbcb1992	-0.0061981166
2	0xba96d78b	-0.0011508329
3	0x3cc6d391	0.024270805
4	0xbceb3c4e	-0.028715279
5	0xba158ddc	-0.00057050376
6	0xbbc9988e	-0.006152219
7	0x3d0e0dfd	0.03468131
8	0x3d122d5e	0.035687797
9	0xbcde788d	-0.027157092
10	0x3b82b46b	0.0039887927
11	0x3b397043	0.0028295673
12	0xbd35b939	-0.044366095
13	0x3c9b9267	0.018990709
14	0xbaff4b42	-0.0019477385
15	0xbbe0e956	-0.0068637533
16	0xbcf1d2e7	-0.029519511
17	0x3bda8b8e	0.0066694682
18	0x3cd381f7	0.025818808
19	0x3c815f39	0.015792476
20	0xbcd0d89e	-0.025493916
21	0x3c580f04	0.013187174
22	0xbcc41027	-0.023933483
23	0x3c20b776	0.0098093655
24	0xbcc61af5	-0.024182776
25	0x3bd50e4d	0.006501949
26	0x3c26bf37	0.010177425
27	0x3db3c48f	0.08777725
28	0xbd561bbd	-0.052272547
29	0x3b7ae87d	0.0038285546
30	0xbb967894	-0.0045920108
31	0xbc5afdd5	-0.013366182
32	0x3c9f8a9a	0.01947527
33	0xbc8414c2	-0.01612318
34	0xbdd6b7cc	-0.10484275
35	0x3c9a0f91	0.01880625
36	0x3c8624ca	0.016374964
37	0x3c2bca8d	0.010485304
38	0xbcea7e02	-0.028624538
39	0xbcb57709	-0.022151487
40	0x3ca2fd74	0.019896246
41	0x3b4d139a	0.00312922
42	0x3c83146c	0.016000949
43	0x3d6c3a37	0.057672706
44	0x3d2b006d	0.041748453
45	0x3bb1a2ff	0.005421042
46	0x3ca9ca52	0.020726357
47	0xbd2d9490	-0.04237801
48	0x3c5c880d	0.013460171
49	0xbc95cb54	-0.018285431
50	0xbc878e4c	-0.016547345
51	0x3c074456	0.008256039
52	0xbb597dfc	-0.0033186665
53	0xbdb3f9ae	-0.08787857
54	0x3bf02424	0.007328527
55	0xbc40030f	-0.011719479
56	0x3b847d4f	0.0040432583
57	0xbbb96e4b	-0.0056589
58	0xbc0bfd97	-0.008544347
59	0xbd221de0	-0.039579272
60	0x3ca67461	0.020319166
61	0xbd219515	-0.039448816
62	0x3d3813b1	0.044940654
63	0xbd125417	-0.035724726

base.mlp.fc2.0.2.weight f4 [64]
0	0x3f8a07db	1.0783647
1	0x3f90cece	1.1313112
2	0x3f920158	1.140666
3	0x3f93084b	1.1486906
4	0x3f8d067e	1.1017606
5	0x3f874bee	1.0570047
6	0x3f8afa62	1.0857661
7	0x3f95ccdb	1.1703142
8	0x3f86c8e3	1.0530056
9	0x3f9067bb	1.1281656
10	0x3f8973af	1.0738429
11	0x3f8d02e3	1.1016506
12	0x3f854f99	1.0414916
13	0x3f89a121	1.0752298
14	0x3f8e5ba3	1.1121715
15	0x3f9124e5	1.1339384
16	0x3f8acf4d	1.0844513
17	0x3f935198	1.1509275
18	0x3f8ac31d	1.0840794
19	0x3f94279a	1.1574585
20	0x3f8ebe23	1.1151775
21	0x3f91730c	1.1363235
22	0x3f8df49d	1.1090275
23	0x3f8f7228	1.1206713
24	0x3f8c4867	1.0959595
25	0x3f8d6cc4	1.1048818
26	0x3f8acba1	1.0843393
27	0x3f9abd30	1.2088985
28	0x3f88ceee	1.068815
29	0x3f8fb836	1.1228092
30	0x3f8a3d40	1.0799942
31	0x3f8f8ff2	1.1215804
32	0x3f95661e	1.1671789
33	0x3f857afc	1.0428157
34	0x3f82d43b	1.0221018
35	0x3f8e08e9	1.1096469
36	0x3f8abcae	1.083883
37	0x3f8e3a17	1.1111478
38	0x3f8e46c4	1.1115346
39	0x3f87d807	1.0612801
40	0x3f9787c6	1.183831
41	0x3f8f40e7	1.1191682
42	0x3f90ce59	1.1312972
43	0x3f97f496	1.1871517
44	0x3f8deb8b	1.1087507
45	0x3f92c723	1.1467022
46	0x3f990f6a	1.1957829
47	0x3f8d03b6	1.1016757
48	0x3f8d5ad1	1.104334
49	0x3f896cb0	1.0736294
50	0x3f87b3af	1.060171
51	0x3f903ff5	1.1269518
52	0x3f8f0a12	1.1174948
53	0x3f83b541	1.0289689
54	0x3f936caf	1.1517543
55	0x3f930ca2	1.148823
56	0x3f8d9557	1.10612
57	0x3f8e307a	1.1108544
58	0x3f8c9544	1.0983052
59	0x3f945c88	1.1590738
60	0x3f940545	1.1564108
61	0x3f89ec7a	1.0775292
62	0x3f96b9dd	1.1775471
63	0x3f859f07	1.0439156

base.mlp.fc2.0.2.bias f4 [64]
0	0x3d211163	0.039323222
1	0x3a085803	0.0005201103
2	0x3c20a1e7	0.0098042255
3	0xbc786612	-0.015161054
4	0xbb7ed59b	-0.0038884643
5	0x3aace8f3	0.0013191983
6	0xbb0dc317	-0.0021631175
7	0xbb2f6b61	-0.0026766884
8	0x3caff9a9	0.021481352
9	0xbce5476b	-0.027988156
10	0x3c85bf17	0.01632647
11	0x3d1f17dc	0.038841113
12	0xbd736f18	-0.05943212
13	0xbba472f2	-0.0050185854
14	0x3d26b084	0.040695682
15	0xbb5e3678	-0.0033906978
16	0xbcb1dd95	-0.021712104
17	0xbb7f6010	-0.003896717
18	0x3ba397c1	0.0049924557
19	0x3b5fca1b	0.0034147564
20	0x3aaad8b3	0.0013034552
21	0x3c47aa04	0.012186531
22	0xbc48bb49	-0.0122516835
23	0xbd1d2be2	-0.038371928
24	0xbc8fa374	-0.017533995
25	0xbcded1f1	-0.027199717
26	0x3c8ebbaa	0.01742347
27	0x3a61526d	0.0008595351
28	0x3d0a759c	0.033803567
29	0x3cb4beac	0.022063576
30	0x3b7db974	0.0038715275
31	0x3c98dad8	0.01865904
32	0xbcd587c6	-0.026065718
33	0xbc9e5a5b	-0.019330194
34	0x3d034ef7	0.03205773
35	0xbcca4d5a	-0.024695087
36	0xbc1cbade	-0.009566037
37	0xbd1c66d7	-0.038184013
38	0x3c96ab38	0.01839219
39	0xbcd34f60	-0.025794685
40	0x3b136502	0.0022490625
41	0xbc4af2c7	-0.012386984
42	0xb9f43222	-0.00046576658
43	0xbaaa28b0	-0.0012982097
44	0x3bf8301c	0.0075740945
45	0xbce7a602	-0.0282774
46	0xbcc482c0	-0.023988128
47	0xbb1c0b9a	-0.0023810626
48	0x3cc8bd23	0.02450425
49	0x3c975d21	0.018477025
50	0x3d61012a	0.05493275
51	0x3ce0d063	0.027443117
52	0x3bc9dea5	0.0061605745
53	0xbd2782bc	-0.040896162
54	0x3b7fa6a9	0.003900925
55	0xbb3ffd08	-0.0029295105
56	0x3c7b0590	0.01532115
57	0x3c8859c9	0.016644375
58	0x3be76ac2	0.007062287
59	0xbd2ec6b9	-0.042669985
60	0x3c969078	0.018379435
61	0xbc985857	-0.018596811
62	0x3c07a047	0.008277959
63	0x3b407717	0.0029367858

act.action_out.fc_mean.weight f4 [5, 64]
0	0xbbd4b013	-0.0064907162
1	0xbd64b2cc	-0.055834576
2	0xbc5b93f4	-0.013401974
3	0x3d14f776	0.03636881
4	0xbbda4aa1	-0.0066617285
5	0x3d0bf964	0.034173384
6	0xbc60131a	-0.013676429
7	0xbd30da0c	-0.043176696
8	0xba4e3a9c	-0.000786701
9	0x3bfbaf22	0.0076807896
10	0x3cf352ca	0.029702563
11	0xbc26dcd1	-0.010184483
12	0xbc13e70b	-0.009027253
13	0xbd8c7a1d	-0.06859229
14	0x3d6ebbf2	0.058284707
15	0x3d6d1b0d	0.057887126
16	0xba3842d7	-0.0007029003
17	0x3c80c369	0.015718179
18	0x3b82d047	0.0039921138
19	0xbd152f97	-0.03642234
20	0x3d06d6e9	0.032919798
21	0xbd2bf2f7	-0.041979756
22	0x3a85f2c8	0.0010219449
23	0xbd0fa5b0	-0.03507012
24	0xbd17f4ec	-0.03709881
25	0xbd86bb7e	-0.0657873
26	0xbb1b881b	-0.0023732248
27	0x39b08a13	0.0003367221
28	0xbc59741e	-0.013272313
29	0x3d2f6cb4	0.042828277
30	0x3b51cc30	0.0032012574
31	0x3c48a26f	0.012245758
32	0xbd2ac693	-0.04169328
33	0xbc77ad6b	-0.01511703
34	0xbc97e924	-0.018543787
35	0xbcab10db	-0.02088206
36	0x3d4cee4e	0.050031953
37	0x3cd341d5	0.025788227
38	0xbbe8b098	-0.0071011297
39	0x3b958b3d	0.0045637176
40	0x3d670b56	0.056407295
41	0xbc431e99	-0.0119091505
42	0x3d041b54	0.032252625
43	0xbc707dba	-0.014678413
44	0xbb8009f4	-0.0039074365
45	0x3c9565d0	0.018237025
46	0xbb994f25	-0.004678624
47	0xbd8ebb01	-0.06969262
48	0x3d0bd528	0.03413883
49	0x3d286b71	0.04111809
50	0x3b584d1f	0.0033004952
51	0xbd77dc42	-0.06051279
52	0x3cb9893a	0.022648443
53	0xbd2f3b74	-0.04278131
54	0x3d087cab	0.033322018
55	0x3c0e71c3	0.008694115
56	0xbd63c189	-0.05560449
57	0x3d752ea5	0.059858937
58	0xbb0d3ca3	-0.0021551035
59	0x3ca24ead	0.019812906
60	0x3c221bde	0.009894339
61	0x3ad43b37	0.0016191964
62	0x3c57df3a	0.01317578
63	0x3c3b7b61	0.01144299
64	0x3d1a7039	0.03770468
65	0xbce70f2f	-0.028205482
66	0xbd84834f	-0.064703576
67	0x3d372f24	0.04472269
68	0x3d701c05	0.05862047
69	0xbce79433	-0.02826891
70	0x3cf45145	0.029823909
71	0xbdc9a4f1	-0.09845913
72	0xbcd38a30	-0.025822729
73	0x3d58a2af	0.052889522
74	0xbc889a2b	-0.016675076
75	0x3d54f1da	0.05198846
76	0xbcff8a1a	-0.031193782
77	0x3d12ebd0	0.03586942
78	0x3c016869	0.0078984285
79	0xbc5f364f	-0.013623788
80	0xbc950529	-0.018190937
81	0x3de71988	0.112841666
82	0xbd07d604	-0.033163086
83	0x3d8fb402	0.07016756
84	0xbd989777	-0.074507646
85	0x3d481e3a	0.04885695
86	0xbc3dbb58	-0.011580311
87	0x3ce88469	0.02838345
88	0x3caf7632	0.021418665
89	0xbbb847c7	-0.005623791
90	0xbd251894	-0.040306643
91	0x3d78a69b	0.060705762
92	0xbd37c97c	-0.044869885
93	0xbd09996e	-0.033593588
94	0x3c1eb99e	0.009687809
95	0xbd9bb863	-0.07603528
96	0xbcdef402	-0.027215961
97	0xbb8224b8	-0.0039716624
98	0xbd4d41d2	-0.0501116
99	0x3bb68751	0.00557033
100	0xbc20c16e	-0.009811742
101	0x3d3b7e34	0.045774654
102	0x3d25f99f	0.04052126
103	0xbd335b7f	-0.04378843
104	0x3daf76f8	0.08567613
105	0x3d5b8423	0.053592812
106	0xbce37acf	-0.02776852
107	0x3da120c3	0.07867577
108	0x3d89bbeb	0.06725296
109	0x3d49fdde	0.049314372
110	0xbddb12af	-0.10696923
111	0xbd931037	-0.07180827
112	0xbda3582b	-0.07975801
113	0xbc0da77f	-0.008645891
114	0xbc62ba5b	-0.013838376
115	0xbcd3770e	-0.025813606
116	0xbdd2f6bb	-0.10300966
117	0xbce1adff	-0.027548788
118	0xbd9b06dd	-0.075696684
119	0xbd4ea620	-0.050451398
120	0xbdba28f2	-0.09089841
121	0xbd154abe	-0.036448233
122	0xbd2bdb68	-0.04195729
123	0x3d379481	0.04481936
124	0x3d92eea1	0.07174421
125	0x3d91fa45	0.07127813
126	0x3dd38f5e	0.103300795
127	0x3d1e98c7	0.03871992
128	0x3d8188ec	0.06324944
129	0x3dd970e7	0.106172375
130	0xbd22f1f1	-0.039781515
131	0xbe01c9ff	-0.12674712
132	0xbd3b1b99	-0.045680616
133	0x3d31a2d4	0.043368176
134	0x3c3d6ded	0.011561853
135	0x3e02d179	0.1277522
136	0xbd70d43e	-0.05879616
137	0xbd5e7383	-0.05430938
138	0xbc0ec9ae	-0.008715076
139	0xbd90e918	-0.07075709
140	0x3cca16ea	0.02466913
141	0x3d1a62c5	0.03769185
142	0xbcd1c407	-0.025606168
143	0xbc149f5b	-0.009071196
144	0x3d6e6b93	0.05820806
145	0xbdc068d1	-0.09394992
146	0xbd18cf78	-0.037307233
147	0xbd0d277d	-0.034461487
148	0x3d9385b7	0.072032385
149	0x3d576e1a	0.052595235
150	0x3c4f989b	0.012670661
151	0xbdec4d32	-0.11538161
152	0x3bccb774	0.0062474553
153	0x3cd84d21	0.026403965
154	0xbcece2a0	-0.028916657
155	0xbd1474d6	-0.036244236
156	0xbc24a23f	-0.010048448
157	0x3d22615e	0.039643638
158	0xbd209837	-0.039207663
159	0x3dc2bcfb	0.095087014
160	0x3de87b3c	0.1135163
161	0xbd5c0566	-0.053716086
162	0xbb6db685	-0.003627212
163	0x3d092bfa	0.033489205
164	0xbd93b481	-0.07212163
165	0xbd530bf4	-0.05152507
166	0xbda6ff32	-0.081541434
167	0x3c3a0fbf	0.011356293
168	0xbd592b1b	-0.053019624
169	0xbd961a4c	-0.073292345
170	0x3d42cc25	0.04755797
171	0xbcf9fd9f	-0.030516444
172	0xbd938be2	-0.07204415
173	0xbd34a584	-0.04410316
174	0x3e18d2ab	0.14924113
175	0x3c34d63e	0.011037407
176	0x3a536330	0.00080637913
177	0x3caedcf0	0.021345586
178	0x3d8abd02	0.06774332
179	0x3d9fc1fe	0.07800673
180	0x3d71c1a1	0.05902255
181	0x3c31ed8a	0.010859856
182	0x3db7e47a	0.08979125
183	0x3d016fd9	0.031600807
184	0xbb84dfca	-0.004054998
185	0xbc112df9	-0.008861058
186	0x3d25fab7	0.040522303
187	0x3d81b53d	0.063333966
188	0xbd4c1fae	-0.0498349
189	0xbbabafad	-0.005239448
190	0xbdc74dfc	-0.09731671
191	0xbc23ea3d	-0.010004577
192	0x3d158f7b	0.036513787
193	0xbd850bb9	-0.064963765
194	0x3dad5de4	0.08465174
195	0xbd298379	-0.041385148
196	0x3d8f7773	0.07005205
197	0xbd2d268d	-0.042273093
198	0xbd8bf231	-0.06833304
199	0x3c81ea35	0.015858749
200	0xbd0ade1b	-0.033903223
201	0xbdc3a4e4	-0.09552935
202	0x3d8c7da4	0.068599015
203	0x3d930ef6	0.07180588
204	0xbd19dd55	-0.037564594
205	0xbc99bc2a	-0.018766481
206	0x3dc0e580	0.09418774
207	0xbd86ad76	-0.06576054
208	0x3d5ed0b2	0.054398246
209	0xbca8ba1d	-0.020596558
210	0x3d986e1a	0.07442875
211	0x3dde05c7	0.10840946
212	0x3d3bc11f	0.04583847
213	0x3dc04136	0.09387438
214	0xbd71ca30	-0.05903071
215	0x39a163a7	0.0003078256
216	0xbdbfd6b6	-0.09367125
217	0xbdb0275c	-0.08601257
218	0x3c8e580d	0.01737597
219	0xbdddfc68	-0.10839158
220	0x3d48d9f5	0.049035985
221	0x3d90764c	0.07053813
222	0x3d8834a2	0.06650664
223	0xbc5e64f7	-0.013573877
224	0xbd0af0e5	-0.03392114
225	0xbcb96ec5	-0.022635827
226	0xbbe7a6ee	-0.00706946
227	0x3d9b6a0b	0.075885855
228	0xbc7e76f4	-0.01553129
229	0xbd7b5bae	-0.06136673
230	0x3d850e6a	0.0649689
231	0x3c3c24ae	0.0114833545
232	0xbd6bb944	-0.05754973
233	0x3ca9ce5b	0.02072828
234	0xbd03c676	-0.03217169
235	0xbe1b5e6d	-0.1517274
236	0xbd72692d	-0.059182335
237	0xbdf75128	-0.12076026
238	0xbc6ec4ea	-0.014573315
239	0x3d0d9028	0.034561306
240	0x3d25a5e8	0.040441424
241	0x3d11d6d7	0.035605278
242	0x3c2dbaff	0.010603665
243	0x3d91caff	0.071187966
244	0x3cc34e55	0.023841063
245	0xbc81ee46	-0.015860688
246	0x3d529a5f	0.05141675
247	0xbd6bd682	-0.057577617
248	0x3cc25718	0.02372317
249	0x3c586044	0.013206545
250	0xbda03657	-0.078228645
251	0xbdedfcd6	-0.1162049
252	0x3dce0036	0.10058634
253	0xbd69df76	-0.057097875
254	0x3ceeb53e	0.029139157
255	0x3d2f6ca5	0.04282822

act.action_out.fc_mean.bias f4 [5]
0	0x3c8e8f6c	0.017402373
1	0x3b7bdd0b	0.0038431312
2	0x3ba6a09a	0.005085063
3	0x3d01f418	0.031726927
4	0x3d1eeb0c	0.038798377

act.action_out.logstd._bias f4 [5, 1]
0	0xbdcf0b7e	-0.10109614
1	0xbdfc7826	-0.12327604
2	0xbe2f7ee5	-0.1713825
3	0xbe385f4e	-0.18005106
4	0xbe80db66	-0.25167388
