checkpoint/mappo_seed111_run20260211_112812_ep8000_critic.pt (torch, 56866 bytes, 11 tensors)

base.feature_norm.weight f4 [126]
00000000: 3f49 b83f 2d0d 133e 412c 5c3f 9727 433f
00000010: 15a6 2a3f 96d6 783f fa98 9d3e c2ae 133f
00000020: 2ab4 503f c01c 763f dfc7 513f d7a7 573f
00000030: b6ea 5f3f 6e7a 123f 5749 ff3e ebf9 113f
00000040: 29ff a03e 39f9 ef3e 6a55 a33e cf7a 093f
00000050: 8aea 9d3f 2922 233e f8d3 7d3f 42a9 5a3f
00000060: dada 693f 37f0 5d3f 425e 6c3f fa4b 373f
00000070: afcf 1f3f f109 713f a677 693f 7458 893f
00000080: ff81 183f 6791 643f 8650 b53e 4f2f e13e
00000090: f22b e43e 9dfb 1b3f 6630 203e 1df5 183f
000000a0: 1744 643f 7289 313e 3810 653f 5fc7 713f
000000b0: 3ab2 403f bc78 123f 5544 083f b1f8 923f
000000c0: 5ee6 6f3f e599 5a3e 677e 943f ee2a 3d3f
000000d0: 1b7f b53f 6eb5 f23f e55a 3440 c6ba 2a40
000000e0: e55e 0e40 ed0c 973f 0a84 093f c9bb 783f
000000f0: 5667 fb3e 3149 fe3e a2e5 9c3e 1e25 8a3f
00000100: 0483 643e 6255 643f 42be 593f 1fa8 863f
00000110: dd15 7b3f 6c91 2f3f aad6 463f dc8c 4f3f
00000120: cd69 563f a876 6d3f b1fa 693f b7cd 4e3f
00000130: 0fa5 943f 004c 1e3f 1d49 153f db99 363f
00000140: 2510 3b3f e7e2 c53e 8c75 5a3f 8bfc 893f
00000150: afee 3e3e eb13 6e3f 3e0b 7c3f a227 2e3f
00000160: 56fe 523f 5299 633f f261 4b3f cb50 1e3f
00000170: 32c5 503f 4aa1 333f 7760 863f 0ef7 153f
00000180: 8cd9 793f 579a 1d3f cb26 db3e 30ba 203f
00000190: be23 153f 085c 043f 6964 323f 5529 793f
000001a0: e45a 923e a826 ec3e 1e96 153f 9d90 373f
000001b0: 62f1 423f 54a9 133f c79a 9d3f 2149 9b3f
000001c0: 004f 713e 0422 5d3f 2b23 533f 65df cd3f
000001d0: d81c cb3f 0d59 2540 7a27 2140 5e67 0840
000001e0: 83be 983f 12ae b43d b1c4 3a3f a9a7 e63e
000001f0: a5d0 043f 5ad5 043f
1.4397353 0.14360495 0.86005026 0.76232284 0.6665967 0.9720243 0.30780774 0.57688534
0.8152491 0.9613762 0.81945604 0.8424048 0.87467515 0.5721806 0.4986064 0.5702197
0.31444672 0.4686983 0.31901103 0.53703016 1.2337201 0.15931 0.99151564 0.85414517
0.91349566 0.86694664 0.92331326 0.71600306 0.62426275 0.94155794 0.91198194 1.0730119
0.5957336 0.89284366 0.35412997 0.43981406 0.44564778 0.60930806 0.15643463 0.59749013
0.89166397 0.17337587 0.8947787 0.9444484 0.7527195 0.57215476 0.53229266 1.1482145
0.9371089 0.21347769 1.1601075 0.7389363 1.4179415 1.8961618 2.8180478 2.6676497
2.224542 1.180082 0.537171 0.9716154 0.49102277 0.49665216 0.30643946 1.0792577
0.22315603 0.89192784 0.85055935 1.0520056 0.98080236 0.6858127 0.776713 0.8107431
0.8375519 0.9275918 0.9139815 0.80782646 1.1612872 0.61834717 0.58314687 0.71328515
0.7307151 0.38649675 0.8533561 1.0780195 0.18645738 0.9299914 0.98454654 0.68029225
0.82419336 0.88905823 0.7944633 0.6184203 0.81550896 0.7016798 1.0498189 0.585801
0.97597575 0.6156363 0.42803034 0.627841 0.58257663 0.5170293 0.69684464 0.9732869
0.2858497 0.46123242 0.58432186 0.7170504 0.7614957 0.5768025 1.2312859 1.2131692
0.23565292 0.8638003 0.8247554 1.60838 1.5868177 2.5835602 2.5180345 2.131309
1.193314 0.08822264 0.7295638 0.4504979 0.51880866 0.5188805

base.feature_norm.bias f4 [126]
00000000: b5a6 d4bd 3974 8b3b 88da 2d3d 5087 35bc
00000010: d712 573c e180 9d3c 3576 7f3d 756c 993c
00000020: 4464 873d fc64 0bbc 8588 b63c c044 793c
00000030: 8976 0a3d 9998 013d 4891 edbc 6757 803d
00000040: a4fd a63d f225 6b3d 8dda e33b 8fa8 91bc
00000050: 2505 debd 69f3 21bc f32b 8e3c ba6f 003d
00000060: 212b 2c39 a30c 71bb efd1 c63c d82a 6e3c
00000070: 9874 063d a09a 2a3d 443f 563c 5832 fc3c
00000080: 0b47 c5bb 8701 6d3d e83a 023c 0c11 4d3d
00000090: ff75 db3b 10c7 2f3d f3c7 88bc 92ce d33c
000000a0: 7318 f3bc 8acc ee3d 52a8 d33c 7433 e039
000000b0: 58e5 013c 4763 153c d1ef e03c be8b 363d
000000c0: 1b6d 853d 8a4e b6bc 57f7 cb3d bb47 66bd
000000d0: 968b 38be 867a 05bd 8f0d 503d 04a3 973d
000000e0: c01a c03d 9be5 7abc 24ae ef3a 2987 2d3c
000000f0: 7133 df3d fb98 703d 2da7 ed3a 7b14 643e
00000100: 2732 e73b 28c9 cb3c 30ee 9b3c 2965 413c
00000110: ef59 6e3c 8c9a b93c 1e0a f53c 7fcb 263d
00000120: c70e dabb 5ec6 8e3c 2644 fa3c f0ed 193d
00000130: 5837 1c3d 135a 953b 7fe7 323d e4d6 203c
00000140: 256c 083d 4013 e1bb b060 463b 6010 843e
00000150: 704b 933c f4c7 493d 7fb4 4e3c 2274 56bb
00000160: b2bd 2a3d 1277 8f3c c023 bf3c e081 683d
00000170: 41d9 463d 7430 9f3c f20e 543c 6444 f43c
00000180: 3bac 363d 2a78 683d ed7b b83c d518 6bbc
00000190: be84 cc3c 044c 8c3d 9f55 8f3c 696c f03d
000001a0: 72f1 0d3d de01 2a3c c90b d63c 16a5 c63c
000001b0: bff1 013c 1e5e a83c 574f aa3d 78bf c5bd
000001c0: 2f46 62bd 2c97 cf3c 7622 05bd 47c5 dbbc
000001d0: 2afb 47bd 2b70 573d 8fc6 853d d1b3 643d
000001e0: f5d9 5fbd dfa5 ba3c 3427 c23d 0162 0a3d
000001f0: 20dc af3d fd3f 023d
-0.10383359 0.004255798 0.042444736 -0.011079624 0.01312705 0.019226493 0.06236859 0.018728474
0.06610921 -0.008507963 0.022281894 0.015214145 0.03380445 0.03163967 -0.02899994 0.06266671
0.08153847 0.057409234 0.0069535435 -0.01778057 -0.10840825 -0.009884694 0.017354941 0.03135655
0.00016419265 -0.0036781214 0.024270026 0.014536582 0.032826036 0.04165137 0.013076607 0.030785725
-0.006020432 0.057862785 0.007948615 0.050065085 0.006697416 0.04291445 -0.016696906 0.025855336
-0.029674744 0.116601065 0.025837097 0.00042762945 0.007928215 0.009117908 0.027458103 0.044566862
0.06514951 -0.022254247 0.09959286 -0.05622075 -0.18021998 -0.03258755 0.05079418 0.0740414
0.09380102 -0.015313531 0.0018286151 0.010591307 0.108984835 0.058739644 0.0018131487 0.22273438
0.007055539 0.024876192 0.019034475 0.011803904 0.014547809 0.022656702 0.02991205 0.040721413
-0.0066545936 0.017428573 0.030550074 0.03758043 0.038138717 0.004557857 0.043677803 0.009816859
0.03330626 -0.00686875 0.0030270033 0.25793743 0.017980307 0.049262956 0.012616276 -0.003272303
0.041684814 0.017512832 0.023332477 0.056764483 0.048547033 0.019432284 0.012943016 0.029817767
0.044597846 0.056755222 0.02252003 -0.014349182 0.02496564 0.06850436 0.017496882 0.117394276
0.03465409 0.010376422 0.026128666 0.024248641 0.007931172 0.020552691 0.08315914 -0.096556604
-0.055242714 0.025340639 -0.032503568 -0.026827468 -0.048823513 0.052597206 0.06532013 0.05583555
-0.05465122 0.022784172 0.09480134 0.03378487 0.085869074 0.031799305

base.mlp.fc1.0.weight f4 [64, 126]
00000000: 38a4 b2be d5e3 b1bc fbc7 cb3e d7d3 493d
00000010: 46ee 9fbd e135 823d fd54 c73c 7ed6 a9bc
00000020: 1199 993d 9ffc 7e3e 7af1 fcbd ac6d e43c
00000030: 1592 2dbe a7f7 503e cfb8 7fbe 0b16 263e
00000040: 5cfa 8b3e 6680 aa3e 6a19 983d efb0 27be
00000050: f1b5 b5be 17fa 643d 9e9c ffbc 901e aa3c
00000060: 3799 0d3e 8db3 9b3d 998b 4f3e 589b eabb
00000070: ca03 bf3d 5c77 943d 4a35 513d 8344 a63d
00000080: d173 893d 2e31 723c 47b9 183e a467 06bd
00000090: 4983 1bbe 53bf 1bbd 0b91 24bd bdb4 f3bd
000000a0: 643c 323e 6441 3c3d 29cb 5f3e 04af 09be
000000b0: ca96 243e f4a3 a3bd eed3 153d dd4c 5ebc
000000c0: fb9c 193d 8ef7 46be 8432 513c 0b96 55be
000000d0: 4ba3 133f 4b21 b1be 530f e93c e858 943d
000000e0: 79de 6bbd cf14 f13e 2db3 1cbd 268d c53e
000000f0: c021 14be cc65 a73c 8ccb 3bbe fcb7 3b3e
00000100: dfe0 70be 921e bdbd 1d8e b7bc 355c a13d
00000110: b06b 573b 1105 113e 2cd0 5ebd 31b4 abbc
00000120: 3a0e 1abd d3b8 8cbe 678d 7abb 8eed 513e
00000130: a3cb 53be a030 023f 8e88 2c3e 81fb 15be
00000140: 4be2 8d3d 3e4c c0bd 150e 4a3e 6020 363e
00000150: 05c3 3e3d 513b a3bd 2940 0c3e 2dc5 96bd
00000160: 487c 12be 764a 833d e9b6 80be d62c 72be
00000170: c975 89ba 2f24 e2bd 00d8 213e 06b7 66bc
00000180: 3e9d 933d 072f c93c 536a c43d 88df c7bd
00000190: 551c 0abe 1b3d 583d 5627 5d3e a937 e9bd
000001a0: 023d 3bbe aac9 9d3d 894b 65bb 2ecf 2a3c
000001b0: ce98 4d3e b170 c13d ae06 65be 7c52 3fbe
000001c0: c182 12be 087f 4d3e b57b 0e3e 4c12 853e
000001d0: 0744 54be 9c89 22be 5174 b2bb 6102 10be
000001e0: 54a9 e93e b9e9 c33c 548b 543e 6908 ac3d
000001f0: 521a 54be 0a8b 92be d169 313e 6ab9 263e
00000200: 0aff e13d 96bd eabd 7577 92be 75fb 0cbe
00000210: 43c7 d2bd 65aa 91bd 33a9 84be 9bbd 60be
00000220: b4ba 42be 1d1e a5be aaef c5be 986b 31be
00000230: 0844 16be 8d5a 233e 0b1f 18be 67e1 573c
00000240: cc59 c7be 7e40 84be 0eda 143e 0f1b c93d
00000250: 01c6 b0be 42a3 3bbe 4f22 e5be 4f96 1fbe
00000260: baa3 64be 08b3 99be 3ae7 13bd c9b6 28be
00000270: 17fe 8ebe 94cf febd 8a4e eabd a9f6 ecbd
00000280: 1163 0dbd 1138 1dbe eba8 3c3d 9e06 13be
00000290: 5694 f83d bc43 24be 11e1 353e 7b8b 383e
000002a0: 7421 a5be 39a1 e7bd 6d5d 8cbd 34a1 fb3d
000002b0: ae80 19bc c1aa 1f3d 51ed babd 9c0b 02be
000002c0: 87e5 a8be e8d2 543e 6a2a 2d3f e85b 9ebe
000002d0: 7e18 a83c d9be a23e 7418 c33e 8351 b6bd
000002e0: 68bf 51be 7dbd e53e 1ae8 ebbd 3f29 923e
000002f0: 8938 b2bd bc29 04be e758 17be 05af 18be
00000300: cb8a 5cbe 6252 c1bd c0ec 083e 52a0 58be
00000310: 21a4 22bd bc0d 39be a764 06be 082f c0be
00000320: 6c15 9bbe ef0d 50be 057f 96be c393 e23d
00000330: bf7d 603e d9a8 0cbe 2464 74bd 2432 883e
00000340: 264a 4dbe 6de6 14be ef5b 82bd 2e67 dabe
00000350: e910 16be b9ed 37be 1b7c eebd b950 7dbe
00000360: 47ce 1bbe 942f 043e 450d 84be da5f e7bd
00000370: 71dc 3cbe f5eb 2bbe 5e71 1fbe 5ed9 88be
00000380: dfba c53e 490d 333d 3140 273e 75ae 08be
00000390: b7ff 5b3d 6ca1 45be a9af eebd 0a36 78be
000003a0: e907 ad3c 1806 10be 14a8 8fbc ff8b 10bd
000003b0: c127 ffbd e43b 013f 566e 8cbd 93cf ec3e
000003c0: 8e7e 63be 8503 ea3e 8271 b8be 82a2 84bd
000003d0: 0966 e53e 00ea ab3e 94de 69be c4c9 813c
000003e0: 402c b93e 5950 2fbd d824 483e c17b 00be
000003f0: 742b 753d 665c a23d 23b9 25be bbd5 e5bc
-0.34890914 -0.021715084 0.3980101 0.04927429 -0.07809119 0.06357933 0.024332518 -0.02073216
0.07499898 0.24901055 -0.123507455 0.027884327 -0.16950257 0.20406972 -0.24972843 0.16219346
0.27339447 0.33301085 0.07426722 -0.16376089 -0.35490373 0.055902567 -0.03120261 0.020766526
0.13827978 0.07602606 0.20268096 -0.0071596317 0.093268946 0.072493285 0.05107621 0.08118536
0.06711543 0.014782233 0.14914428 -0.032813683 -0.151868 -0.038024258 -0.040177386 -0.118997075
0.1740585 0.0459608 0.21854843 -0.1344567 0.16073146 -0.07990256 0.036579065 -0.01356813
0.037503224 -0.19430372 0.0127683915 -0.20858018 0.5767104 -0.34595713 0.02844969 0.0724352
-0.057585213 0.47086188 -0.038256813 0.3858425 -0.14466 0.020434283 -0.18339366 0.18331903
-0.23523282 -0.092343464 -0.022406632 0.07878915 0.0032870583 0.14162089 -0.054397747 -0.020959945
-0.037611224 -0.2748476 -0.0038231255 0.20500776 -0.2068315 0.50855446 0.16848966 -0.14646722
0.069279276 -0.09389542 0.19731934 0.17785788 0.046572704 -0.07970298 0.1369635 -0.07361827
-0.14305222 0.06410687 -0.2513955 -0.23649916 -0.0010487373 -0.11042058 0.15805054 -0.014081722
0.07207726 0.024558557 0.09590592 -0.09759432 -0.1348737 0.05279265 0.21597037 -0.113875695
-0.18284991 0.0770448 -0.003498765 0.010425372 0.20077822 0.09445322 -0.2236583 -0.18683809
-0.14307691 0.2006799 0.13914378 0.25990522 -0.20729075 -0.15872806 -0.005445995 -0.14063407
0.45637 0.023915159 0.20756274 0.084000416 -0.20713165 -0.28621703 0.17325522 0.16281667
0.11034973 -0.11461942 -0.28606763 -0.13767798 -0.102919124 -0.07112578 -0.2591034 -0.21947329
-0.19016534 -0.32249537 -0.38659412 -0.173262 -0.1467439 0.15952511 -0.14855592 0.013176299
-0.38935697 -0.25830454 0.14536306 0.09819614 -0.34526065 -0.18323997 -0.44752738 -0.15584682
-0.22328082 -0.30019403 -0.036109187 -0.16475977 -0.2792823 -0.12441936 -0.114407614 -0.11570484
-0.034518305 -0.15353419 0.04605953 -0.14357993 0.12137668 -0.16041464 0.17761637 0.18021958
-0.32252085 -0.11310048 -0.06853757 0.122866064 -0.009369059 0.038981203 -0.09127296 -0.12699741
-0.32987615 0.2078358 0.67642844 -0.30929494 0.020519491 0.3178623 0.38104594 -0.08902266
-0.20483172 0.4487113 -0.11518879 0.28547093 -0.087021895 -0.12906545 -0.14780007 -0.14910515
-0.2153732 -0.094395414 0.13371563 -0.21154907 -0.039707307 -0.18071645 -0.13124333 -0.37535882
-0.3028978 -0.20317815 -0.29393783 0.110633396 0.21922968 -0.13736285 -0.059665814 0.26600754
-0.20047817 -0.14541025 -0.06365191 -0.42656845 -0.14654888 -0.17961778 -0.11644765 -0.24737824
-0.15215407 0.12908775 -0.25791374 -0.11297579 -0.18443467 -0.16789229 -0.1557059 -0.26728338
0.38619134 0.04371384 0.16333081 -0.133478 0.053710666 -0.19299859 -0.11654598 -0.24239364
0.021121936 -0.14064825 -0.0175362 -0.03528976 -0.12458754 0.5048201 -0.068569824 0.46252117
-0.22216246 0.4570581 -0.360241 -0.064763084 0.4480441 0.33576965 -0.22838813 0.01584328
0.36166573 -0.042801235 0.19545305 -0.12547208 0.059855893 0.0792778 -0.16183905 -0.028056016

base.mlp.fc1.0.bias f4 [64]
00000000: 115a d8bd 8d0c 103d 299e 343e 3436 bcbe
00000010: 1f19 1d3d 5034 fd3d d3d9 333e d73a ea3d
00000020: 2d11 a5bc de50 873e 372e 1cbc 5989 8e3e
00000030: 1995 fabd f40b d43d a7e0 03bb 54bf 77be
00000040: 8204 fb3c ad03 35be ebb4 4bbc 61b7 50be
00000050: f1cd f83d ea0f 573d 1045 a0bd 2d0e 5e3d
00000060: 4359 09be 5a21 1cbe 3b7a d9bc 0636 60be
00000070: 4578 bfbc 4d02 9b3d f189 afbc 4fca aa3c
00000080: b2de 85be 01d0 5b3e 7fcc 8e3d 35bd f53d
00000090: bd37 083e 5b18 1bbe 3539 d03d 64cc 673d
000000a0: 193a 91be b2f2 9ebd 04fd 32be 90fc d1bd
000000b0: f618 04bd 9fcd 393d 9c97 143c 1153 d63d
000000c0: 4245 723d 5eae 52bd 1451 a5bd f0b2 2fbd
000000d0: 1469 6f3d 8ee3 09bd fe60 8b3c 6115 c63c
000000e0: 9781 a2bc df20 a93d 9b64 a03d 1c89 86be
000000f0: 08f1 cebd bdc6 253e 79ee f43d ad45 e43d
-0.10564054 0.03516822 0.17638458 -0.36760104 0.038354035 0.123634934 0.17563562 0.11437004
-0.020149792 0.26428884 -0.009532503 0.27839163 -0.12235469 0.103538424 -0.0020122917 -0.2419408
0.030641798 -0.17677183 -0.012433271 -0.20382454 0.12148655 0.05250541 -0.078256726 0.054212738
-0.13412957 -0.15247098 -0.026547542 -0.21895608 -0.023372779 0.07568798 -0.02142808 0.020848421
-0.26146466 0.21466066 0.06972598 0.11998979 0.13302512 -0.1514601 0.101671614 0.056591406
-0.28364637 -0.07761134 -0.1747933 -0.102532506 -0.032250367 0.04536211 0.00906935 0.104650624
0.05914808 -0.05143582 -0.08072105 -0.042895257 0.05844982 -0.03366428 0.017014023 0.024180116
-0.019837184 0.08258223 0.07831689 -0.2627648 -0.10104567 0.16189094 0.119595475 0.11146102

base.mlp.fc1.2.weight f4 [64]
00000000: 9aa7 7c3f b66d 813f 40b6 803f 8aaf 8f3f
00000010: f909 213f b104 663f 35db 893f 1b8e 7b3f
00000020: 7245 823f d37d a43f 2a31 863f ab8f a43f
00000030: 7be7 4d3f 3e98 863f d890 623f 1ded 6a3f
00000040: 7052 a63f ca1d 2f3f 8445 7b3f 0457 7c3f
00000050: 05f7 ce3f f2da 803f da4c 853f 029f 7b3f
00000060: 9c53 723f 19e6 823f 6d39 503f bcd2 713f
00000070: 9e64 913f 4d30 d53f b59f a03f ba24 4d3f
00000080: da42 d23f 43b1 843f 887c 743f 1eb3 853f
00000090: 8480 5e3f 1b2a 8c3f 20e0 813f c49b b13f
000000a0: 7354 913f f0ee 973f 1078 463f 483a 4e3f
000000b0: aae8 9e3f ad3c 8d3f 057a 5c3f f586 873f
000000c0: 93e0 683f 79d2 863f fc70 393f 245f 853f
000000d0: 13e4 763f 2a53 7c3f 2abe 773f 2836 863f
000000e0: ab51 4c3f 0468 863f ed7c 5e3f 671c 8d3f
000000f0: 36dc 933f 1cf8 943f 71a4 863f 443e 753f
0.9869324 1.0111606 1.0055618 1.1225445 0.6290584 0.8985091 1.0770022 0.9826371
1.0177443 1.2850899 1.0483754 1.2856344 0.80431336 1.0515211 0.88502264 0.91768056
1.2993908 0.6840483 0.9815295 0.98570275 1.6169134 1.0066817 1.0414078 0.982895
0.9465883 1.022647 0.81337625 0.9446218 1.1358831 1.6655365 1.2548739 0.80134165
1.6426651 1.0366596 0.9550252 1.0445287 0.8691485 1.095035 1.0146523 1.3875661
1.1353897 1.1869793 0.7752695 0.8055768 1.2414753 1.1034142 0.8612369 1.0588061
0.90967673 1.0532981 0.72438025 1.041966 0.96441764 0.985644 0.9677454 1.0485277
0.79812115 1.0500493 0.8690937 1.1024293 1.1551578 1.1638217 1.0518934 0.95798135

base.mlp.fc1.2.bias f4 [64]
00000000: 63a8 1ebe f037 c43c f876 aeba f70c 28bb
00000010: 5878 99bc f0f7 153e dae3 863e 9d36 86bd
00000020: dc43 32bc 90a5 f7bd e9a4 3e3e a7fb 543e
00000030: 1732 0bbe b5c4 67be 8555 903c cc16 9b3c
00000040: 8733 843e d9ca 0e3d be5b fa3d 20dc af3c
00000050: 166e f03d 2c41 38bd b66c 783d 265f 393d
00000060: 94bb 533d 340c 1dbe e30f 823d ac22 133e
00000070: e7d1 2fbb 761a d63d 1ac1 3f3d 37ee 023d
00000080: 608a 42be d50c 843d 02c5 7f3e b1f3 2bbd
00000090: c51c 56bd 145b 54bd 78ee 003e dbac 1d3a
000000a0: f0d7 71bd 38f5 99bd d11c 413e 8f09 243e
000000b0: bcf3 be3d 5cf0 0f3d be3f 14be 0360 54be
000000c0: fc6d e43d 3f17 143d ac3e b53b c975 3b3e
000000d0: ffb1 c73c ee00 623a 349a 053d 3e2f c83d
000000e0: aeb3 c53d c83d 1fbe 7e37 a93e b031 d33c
000000f0: 85b2 f3bd cbe1 70bb 89b9 693d ebec bcbd
-0.15493922 0.023952454 -0.0013310602 -0.0025642493 -0.018734142 0.14645362 0.26345712 -0.065533854
-0.010880437 -0.120921254 0.18617596 0.20799123 -0.13593327 -0.22633632 0.017618904 0.018931769
0.25820562 0.03486142 0.1222453 0.021467268 0.11739747 -0.044984028 0.06065055 0.045256756
0.05169256 -0.15336686 0.063506864 0.14368695 -0.0026827992 0.10454266 0.046815015 0.03196546
-0.18998098 0.0644776 0.24977496 -0.04198045 -0.05227353 -0.05184467 0.12590969 0.0006014832
-0.059043825 -0.07517475 0.18858649 0.16019271 0.093238324 0.035141334 -0.1447744 -0.2073975
0.1115379 0.03615498 0.0055311527 0.1830665 0.024376867 0.00086213544 0.032617763 0.09774636
0.09653412 -0.15550911 0.3305015 0.025780529 -0.11899284 -0.0036755677 0.057061706 -0.09224876

base.mlp.fc2.0.0.weight f4 [64, 64]
00000000: f846 953e 4d32 103f 7cca bf3d 1c46 c83e
00000010: bdbd 80bd 9059 e83e 3c38 113e 9e37 4f3e
00000020: ff96 f83e 5b0e 23bd 2a76 f7be 1ef4 a1be
00000030: 7086 8d3e 3506 ccbc fe9a 2b3e c47a 143d
00000040: 6c88 bdbd 231e 44be 383c ac3e a801 c4bc
00000050: d4ac f6bd a4f0 c2be 74b2 b63e b3b4 723d
00000060: 9da1 57be 488c e43e 5492 01be 9a58 033e
00000070: d839 1bbe 65eb 5dbe 1bdd 22be d162 1c3d
00000080: 3ac4 2c3e 7f6f d93d 0132 54be 061c b73e
00000090: a731 36be df78 9ebe 3d0f bdbd 3afa 723e
000000a0: 861b 23be 419b f23d 6791 7cbe c241 1f3d
000000b0: 76d6 dc3e 7553 c63d 457d 5a3e ed49 083f
000000c0: 6036 9e3e 57dd 773b aa1d 923d 9752 d23e
000000d0: 4ec9 813e c91e e5bd 593f a33c c518 5f3e
000000e0: a405 8ebe b098 9c3d e08a ebbe 394d 1abe
000000f0: 91bf ccbd 2056 46be 5d72 98ba 9fda 7ebd
00000100: 2ebf c63d 4177 02bd 9a93 99be e567 723e
00000110: 7bb0 523e 88b3 73be 7690 013e a9b7 3f3d
00000120: f5e2 473e f10b 3ebe 7693 bdbe eabc ba3c
00000130: 4509 c9be 0b31 a1be f3e5 cbbb 7159 223e
00000140: 0e3a 3bbe 9ff3 f2be 1196 eebd 4988 723e
00000150: 03a4 a0be 8482 15be 225b c13d 966a ebbe
00000160: 9b0c 89bd 3688 f43e e866 99be 1647 61be
00000170: ccfa 73bd 46de 6abe 3245 8e3e a3d8 74bd
00000180: 01a7 c4be 0783 083e 44c9 753e 96cf 30bf
00000190: fe11 acbd 19af 3e3e c0a4 61bd fa9d b73e
000001a0: a6a2 fa3d bea1 1a3f bc2c 663d b72e 09bd
000001b0: 15f8 66be 91d8 ee3c d979 323e 5f8f 3cbe
000001c0: 3c0b ccbe 6f59 933e 2144 37be 64d7 a63e
000001d0: 059f a9be aec1 b2bc 04c2 ce3e 02be f83d
000001e0: 4acc b83e 9789 fa3d 6278 3a3e 96dd 503d
000001f0: 974e bd3e 9190 613d 2616 debd 3bb6 573e
00000200: 32d2 283e ba29 62be 662a 823e e2a6 8ebe
00000210: dc0f 1b3e 1330 0e3e 8344 a63e 4d53 92bd
00000220: 2357 b0be 90cf 393e 525a 093e ba31 a7be
00000230: ed4b b1be 1087 aabe e3b7 f0bd 7f11 90bd
00000240: 07c2 b6bd 8c50 093e 1b92 e8bd f8ee 5f3c
00000250: 0056 b13e f18e debc 1df7 5d3d 0ffd 12be
00000260: 41d4 c7bd e6c6 ebbc b5c7 b9be 2199 babe
00000270: c838 2ebd d335 e73b cd05 86be 3ba9 1c3e
00000280: 4059 a23d acef bb3d e845 b23d 4c15 17bf
00000290: 055b c83c d249 573e ba6d a4be 2ddc 10bf
000002a0: a8bf 1bbe b18b 323e 4b20 d1bb bcfe bcbc
000002b0: d0ca 073f 4af8 923d e129 1b3e 8ae6 a3bd
000002c0: 90b2 f4bd 6eab d53d e3a5 fa3d ac66 dabd
000002d0: cee6 2fbf af78 1b3e f955 55ba 413d 413d
000002e0: 02e5 7bbe 8fcb a9bd 295a 18bf 6ff7 a7bd
000002f0: f9e3 833d c6d5 cabd c728 713d feaa 673e
00000300: aa6e 60bc ba55 393d d48b 2abe 0c91 893e
00000310: 29ea 1bbf 1dfc 03bf cff0 b4bd c1e2 51bd
00000320: dc4e be3e 2bbc 593d cf9f 4fbe 5201 203e
00000330: e884 c8bc a0f6 f0be 22b5 e43d e5fb a33e
00000340: 45cc 71be 218b 623e ef51 9dbc f0c8 acbe
00000350: 337d 04bd 5f56 923e 82e5 663d 2595 d43e
00000360: dbc6 02bf 76e7 6c3e 562c 783d c2c4 e13e
00000370: ce6a 933e dbe9 21be d97e bcbd ebcc eebd
00000380: e2b2 b93c 0530 ddbd 3059 9e3e f140 70be
00000390: 1b47 e4be d8a8 b2be 2d50 413e b189 2abe
000003a0: 9c8b 2c3e 2e67 fe3e 3eb0 643e 7621 b73e
000003b0: 6ecd fcbc 0577 a93d 3f3b 99be 07da 1ebe
000003c0: 065d 843d 798e 3e3d eca8 55bd a757 783e
000003d0: af61 a13e baf9 7abb 6219 9dbe b937 a1bd
000003e0: b923 94bd eb0c 47be e248 ed3c 6c8d 68bd
000003f0: 55b2 25be 88b4 96bd 7a2c 6b3e f9f0 9abe
0.29155707 0.5632675 0.09364793 0.3911599 -0.0628619 0.4538083 0.14181608 0.2023606
0.485527 -0.039808612 -0.4833234 -0.3163156 0.2764163 -0.024905303 0.16758344 0.03624989
-0.09254536 -0.19152121 0.33639693 -0.023926571 -0.12044683 -0.3807422 0.35683024 0.05925436
-0.21057744 0.44638276 -0.12653476 0.12826768 -0.15158784 -0.21671827 -0.15904658 0.038180176
0.1687173 0.10616969 -0.207222 0.35763568 -0.17792378 -0.30951592 -0.09231422 0.23728266
-0.15928468 0.118460186 -0.24664842 0.03888107 0.4313237 0.09683887 0.21336849 0.532378
0.3090086 0.0037821138 0.07134564 0.41078636 0.25348896 -0.111875124 0.019927667 0.21786793
-0.27738678 0.0764631 -0.4600439 -0.1506852 -0.09997476 -0.19368792 -0.0011630763 -0.062220212
0.097044334 -0.03185201 -0.29995424 0.23672445 0.20575134 -0.23798954 0.12652764 0.04680601
0.19520171 -0.18559243 -0.37026566 0.02279516 -0.39264885 -0.3148273 -0.0062224804 0.15854432
-0.18283865 -0.47451493 -0.11649717 0.23684801 -0.3137513 -0.14600569 0.0944121 -0.45979756
-0.066918574 0.4776017 -0.29961324 -0.21999773 -0.05956535 -0.22936353 0.27787167 -0.059776913
-0.38408664 0.13331233 0.24002558 -0.6906675 -0.08401869 0.18621482 -0.05508876 0.35862714
0.12238054 0.6040305 0.056195006 -0.033491816 -0.22555573 0.029156001 0.17429294 -0.18414067
-0.3985232 0.2877917 -0.17897083 0.32586205 -0.33129135 -0.02182087 0.40382397 0.12145616
0.3609336 0.122332744 0.18209985 0.05099257 0.36974022 0.05506951 -0.10844068 0.21065609
0.16486433 -0.2208623 0.25422972 -0.27861696 0.15142769 0.13885526 0.32474145 -0.071447946
-0.3444148 0.18145585 0.1341336 -0.32655126 -0.3462824 -0.3330617 -0.117538236 -0.07034587
-0.089237265 0.13409632 -0.113559924 0.013667814 0.34635925 -0.02716777 0.054190744 -0.14354347
-0.09757281 -0.028781366 -0.36285177 -0.36444953 -0.04253462 0.007055977 -0.261763 0.15298931
0.07927179 0.09176573 0.0870474 -0.5901687 0.024457464 0.21024254 -0.32114965 -0.5658596
-0.1520983 0.174361 -0.0063820234 -0.023070686 0.5304384 0.07176264 0.15152694 -0.08002956
-0.119481206 0.10433088 0.12238672 -0.10664114 -0.68711555 0.15182756 -0.0008138116 0.047177557
-0.24599078 -0.08290779 -0.59512573 -0.08201491 0.06439967 -0.09904055 0.05887678 0.22623822
-0.013698259 0.04524777 -0.16654903 0.26868474 -0.60904175 -0.5155657 -0.08834993 -0.05124164
0.3716954 0.053157967 -0.20275806 0.15625504 -0.024477437 -0.4706316 0.11167361 0.32028118
-0.23613079 0.22123386 -0.019204108 -0.33747053 -0.03234596 0.2858152 0.05637122 0.41520038
-0.5108468 0.2313517 0.060589157 0.44095427 0.28792423 -0.15811865 -0.09203882 -0.11660179
0.022668306 -0.108001746 0.3092742 -0.23462273 -0.445855 -0.34894443 0.18878241 -0.16654088
0.16850132 0.49688095 0.22332856 0.35767716 -0.030859675 0.08274654 -0.29928014 -0.15512858
0.06463055 0.04652259 -0.05216305 0.24252187 0.3151984 -0.0038295821 -0.30683428 -0.078719564
-0.07233376 -0.19438522 0.028965417 -0.056775495 -0.1618131 -0.07358652 0.22966185 -0.30261973

base.mlp.fc2.0.0.bias f4 [64]
00000000: c544 b4bd 32b5 2ebe c66f 0cbd 4b49 95bc
00000010: dee7 543e 98cb 333d d213 1e3e be55 473d
00000020: d52b aabc d8b0 c73d e35a 44be 0c0e 8bbc
00000030: 5f15 aebd 338e 8c3d e6ed febd 3be4 0b3d
00000040: cf8b 453e 717b 403e 491e 75be 5a9f 173f
00000050: d0c8 2f3d 437c 383d 8624 093f 188b 61be
00000060: c713 ff3b 0a84 303d 3c3d 83bd 0f45 8fbd
00000070: 4e8a dc3d a51c 013f bd63 493e 0418 51bd
00000080: 3c31 83be 546f 34bd 4621 393e 45b5 673c
00000090: 70a9 9d3c dc4b 07bd 8bc4 80bd 330f 683c
000000a0: c607 80bc 313c 0c3e 8d3c d43c 968f bdbc
000000b0: a369 d3bd e50f 30bd 16d2 063f 10b0 1cbd
000000c0: 080d 9f3c 59f4 b23e 2277 063d 227d c63d
000000d0: 996a f73d 1bd2 00bd 5b4e 0abc dfd4 0dbe
000000e0: b751 babc a6cb 2ebe affc 11ba 02c5 5fbd
000000f0: 7df4 90bb 1881 9c3d d22e 14be f5fe b5bd
-0.08802179 -0.17061308 -0.034286283 -0.018223425 0.20791575 0.043895334 0.15437248 0.048665754
-0.020772854 0.09750527 -0.19175296 -0.016974472 -0.0850017 0.0686306 -0.12447719 0.034153204
0.19291614 0.18797089 -0.23937334 0.59227526 0.04291612 0.04504038 0.53571355 -0.22025716
0.00778434 0.043094672 -0.06408164 -0.06995594 0.10768567 0.50434333 0.19666953 -0.051048294
-0.256235 -0.044051483 0.18079099 0.014142339 0.019245833 -0.03303133 -0.062874876 0.01416378
-0.015628707 0.13694836 0.02590778 -0.023139756 -0.10322883 -0.04298391 0.52664316 -0.038253844
0.019415393 0.34952047 0.032828458 0.09691836 0.12080879 -0.031450372 -0.008441533 -0.13850735
-0.022744043 -0.17069873 -0.0005568964 -0.05463124 -0.0044236765 0.0764181 -0.14470986 -0.0888652

base.mlp.fc2.0.2.weight f4 [64]
00000000: 85ab 563f 3aab 083f 52fd 4a3f e094 503f
00000010: 6ce8 733f 3f97 603f 7e53 dc3c 8ed9 5d3f
00000020: a809 733f e8f5 1a3f 07ea 703f a66e 7b3f
00000030: 15bb 4e3f 990f 993d f5d0 5e3f 4e67 843f
00000040: 0926 2c3f f392 583f 29e5 693f 3d5c 143f
00000050: e2ce 483f 24e0 5d3f 0ce6 fb3e fcf1 7c3f
00000060: d6fb 5e3f 8c7b 583f 9af6 743f 7f91 4e3f
00000070: 370e 093f 1b50 ab3d 22c7 bd3e 4fbd 1f3f
00000080: cdc4 813f 56e7 433f 9d86 a43e e997 493f
00000090: 5c64 783f be47 563f fc92 4e3f 6c5c 593f
000000a0: 4558 3e3f 8cc2 213f 4b25 413f 8309 4e3f
000000b0: b706 253f 2075 4b3f 096f a13e ad78 b03e
000000c0: 7eaa 523f 69fb fa3e 81d9 5a3f 9490 be3e
000000d0: 6ab5 e93e 512e 243f 2538 5f3f e2f1 7d3f
000000e0: 0400 523f 9335 413f 71da 543f c707 303f
000000f0: f4d0 553f 4dc3 7a3f d580 813f 1ed4 213f
0.8385547 0.5338627 0.79292786 0.81477165 0.9527652 0.87730783 0.02689528 0.8666009
0.9493661 0.60531473 0.941071 0.9821571 0.80754215 0.07473678 0.87037593 1.0344026
0.6724554 0.84599227 0.91365296 0.57953244 0.7844068 0.86670136 0.4919895 0.9880674
0.8710302 0.8456352 0.95688784 0.8069076 0.53537315 0.08364888 0.3706599 0.62398237
1.0138184 0.76524866 0.32133952 0.7874742 0.97028136 0.8370322 0.8069303 0.8490665
0.7435344 0.6318748 0.7544753 0.80483264 0.6446337 0.79475594 0.31530026 0.34467068
0.822914 0.49019936 0.85488135 0.3721968 0.4564622 0.64133173 0.87195045 0.9919721
0.82031274 0.7547237 0.83145815 0.6876187 0.8352196 0.97954255 1.0117441 0.6321429

base.mlp.fc2.0.2.bias f4 [64]
00000000: ef31 26bd 17b7 b53d ed3d 7a3d 8107 f2bc
00000010: 3d0f b6bc ebb0 69bd d5c4 c03a ce1e 92bd
00000020: fce3 0ebd 8b6a f03a ea76 d0bc 3d20 d8bc
00000030: 804f f43d 1301 04be eedc cf3d ea5b 3ebd
00000040: 18ba 03bd 5c1c f03c ae05 27bc de14 7abe
00000050: 5ab4 b3bc 5215 2ebd 5f5c 92be 93c5 083e
00000060: d8b2 493d 2daa f23c 1576 bf3d 5640 48bd
00000070: 00c3 273d b4cc 24bd 2852 063b 5545 db3d
00000080: 4a16 3abc 2902 f63d cf5d 643c 857c 38bd
00000090: 5e84 893d 8178 f23d c1a6 cd3d 0261 2abd
000000a0: 22f8 e1bd 837b c13b 4fbe 823d 440b 043d
000000b0: 5088 333e 0054 5ebd d548 ddbd fe81 af3a
000000c0: 8b54 bd3d 3152 a9bc a4f5 de3d bd44 3dbd
000000d0: 637d 42bd c676 ab3c 2214 033e fe1b ed3d
000000e0: 2e1e 25bc beb0 c93b 748b 4fbd 344b 633d
000000f0: 7e4b 1cbd e947 03bd b7ef 4abc a8ae 523e
-0.040574964 0.08872812 0.061094213 -0.029544594 -0.022224063 -0.057053488 0.0014707098 -0.07134782
-0.03488539 0.0018342299 -0.025447328 -0.02638256 0.11929226 -0.12891035 0.10149561 -0.046474375
-0.032159895 0.029310398 -0.010194225 -0.24422023 -0.021936584 -0.0425008 -0.285861 0.13356619
0.049242824 0.029622162 0.09348694 -0.04888948 0.04095745 -0.040234283 0.0020495746 0.107065834
-0.011357853 0.12012131 0.013938381 -0.045040626 0.067147 0.118393905 0.100415714 -0.04159642
-0.11033656 0.0059046163 0.06383955 0.032237306 0.17532468 -0.054279327 -0.10804907 0.0013390181
0.09244641 -0.020669075 0.10886696 -0.046208132 -0.04748286 0.020930659 0.12800649 0.11577605
-0.010077996 0.0061551025 -0.050670102 0.05549164 -0.038157932 -0.032051 -0.012386254 0.20574439

v_out.weight f4 [1, 64]
00000000: 132a 15be 1bce 64bb 4a10 db3b 0805 b8bd
00000010: 141c cdbd 55b2 13be 1286 733b 06b3 ddbd
00000020: 7d55 33be 07e2 9dbd 7135 cdbd 5f8d f9bd
00000030: 1e16 743d de38 18b9 da11 0a3e 294c 1bbe
00000040: dee1 0bbd b1a9 913d 227d f8bd 15f7 693d
00000050: cdb6 82bd 1fe8 10be 7bf5 2d3d c08d 163e
00000060: 8a6f 1b3e de7c 933d 35f4 433e ddcf e6bd
00000070: e6fd 833a ed23 1b3c 50a5 1cbc b052 a23b
00000080: f6b2 d4bd 9076 b13d 2b2d 8f3c 783e 10be
00000090: bfd3 1f3e 63f1 de3d aab5 fe3d fcfa aabd
000000a0: 26f0 2dbd 5d8c 253d d9c8 de3d e209 ae3d
000000b0: 1214 bc3c 81a8 98bd 7dbe db3b 6c8c 3a3c
000000c0: 38a7 c63d 642c 3abd f7f5 fbbd 6e1a f8bb
000000d0: e9af 1fbd 27bf 46bd 6fd9 c83d ccdd 203e
000000e0: f288 c0bd 1fb9 72bd a53d 9bbd 49bc 2c3d
000000f0: 04c5 fbbd 0895 2dbe 8a56 20be bc7d 09bb
-0.14566831 -0.0034912887 0.0066852914 -0.08985335 -0.10015121 -0.14423497 0.003715877 -0.10825162
-0.1751308 -0.07709127 -0.10019959 -0.121851675 0.059591405 -0.00014517034 0.13483372 -0.15165772
-0.03415095 0.07112444 -0.12133242 0.0571204 -0.06382523 -0.14151047 0.042470437 0.14702511
0.15179268 0.07201551 0.19136126 -0.112701155 0.0010070174 0.009469015 -0.009560898 0.004953705
-0.103856966 0.08665192 0.017477592 -0.1408633 0.15608118 0.108858846 0.124369934 -0.08348653
-0.04246535 0.040417064 0.108781524 0.08497979 0.022958789 -0.074540146 0.0067060576 0.011386018
0.09699863 -0.04545249 -0.123027734 -0.00757151 -0.03898612 -0.04852214 0.09807097 0.15709609
-0.0940112 -0.059258576 -0.07580117 0.04217175 -0.12293437 -0.16951382 -0.15658012 -0.0020979485
