checkpoint/mappo_seed112_run20260211_185131_ep2000_agent1_critic.pt (torch, 30098 bytes, 11 tensors)

base.feature_norm.weight f4 [24]
1.039844 0.55107826 1.0765417 0.79918474 1.0828598 0.9527994 1.0165092 1.1795363
1.0426981 1.2309018 1.2472931 0.9254567 1.0968332 0.5779859 1.1529509 0.7928293
1.0949805 0.88299125 1.1009713 1.2108647 1.0937634 1.1736792 1.2171679 0.96803606
00000000: 9c19 853f 7713 0d3f 1ecc 893f 5f97 4c3f
00000010: 269b 8a3f a9ea 733f f91c 823f 0cfb 963f
00000020: 2277 853f 318e 9d3f 4da7 9f3f bbea 6c3f
00000030: 0865 8c3f e2f6 133f e593 933f dcf6 4a3f
00000040: 5228 8c3f b70b 623f a1ec 8c3f 9dfd 9a3f
00000050: 7000 8c3f 1f3b 963f 28cc 9b3f 36d1 773f

base.feature_norm.bias f4 [24]
0.01610979 -0.010425067 0.00506925 -0.010505743 -0.017830567 0.004799132 -0.0009470806 0.01623432
-0.024563216 -0.0009323097 0.002011151 -0.008593572 -0.03549282 -0.004637623 -0.011237327 0.034328617
-0.014747391 -0.025430167 -0.024411893 0.037030168 -0.016202323 0.0052522803 -0.002306865 -0.07343207
00000000: aef8 833c e6cd 2abc f31b a63b 4820 2cbc
00000010: 6911 92bc 0942 9d3b 8145 78ba d6fd 843c
00000020: cc38 c9bc 3f66 74ba 84cd 033b 0ecc 0cbc
00000030: eb60 11bd 34f7 97bb c41c 38bc 2a9c 0c3d
00000040: 0b9f 71bc ed52 d0bc 73fb c7bc f2ac 173d
00000050: bcba 84bc 521b ac3b c62e 17bb 8e63 96bd

base.mlp.fc1.0.weight f4 [64, 24]
0.12796167 0.044857193 -0.58972925 0.0042160093 0.07201605 0.269773 0.3141428 0.24638343
-0.16539627 0.09256319 0.48730764 -0.16103497 -0.21523394 -0.004826043 -0.05632998 -0.032061175
-0.20663522 0.30397618 -0.2694301 0.14365244 -0.19330306 0.024171242 0.17184569 -0.06838216
0.21654427 0.21546768 0.035839077 -0.078619234 -0.002429659 0.10241949 -0.18372482 0.049767245
-0.0882125 -0.094576 0.13659917 0.23122087 0.07198039 0.10913584 0.07414747 -0.24187154
-0.26871476 -0.030403337 0.14505707 0.1207209 -0.23211196 0.2881372 0.067782484 -0.0610027
-0.24530157 0.12934479 -0.15903999 -0.037464004 0.28504685 -0.44732335 -0.19529594 0.33302528
0.2116811 -0.100388125 -0.12136302 0.11677752 -0.48632887 0.053376865 -0.15748125 -0.098519824
0.10450247 -0.15938093 0.32353753 0.030650748 0.2676061 0.18444706 0.20143066 0.11014627
-0.16149795 0.03643867 -0.10668526 0.013649045 -0.3090387 0.10304314 -0.098221615 0.036519244
0.0052539115 -0.16250798 0.16787106 0.08356834 0.40797055 0.009874983 0.019438146 -0.17853333
0.0073208255 0.022899365 -0.14453845 -0.21349867 -0.2651512 -0.2981923 0.07680716 -0.3219233
0.12626685 -0.11588415 -0.062021505 0.042286407 0.26209015 -0.16059837 0.025898365 -0.22242539
-0.051106352 -0.36899152 0.14340124 -0.10380253 0.28883454 0.1258219 0.071709394 0.17161475
-0.2641334 0.009593432 -0.2357569 -0.38262945 0.293951 -0.0020533826 0.2539418 -0.2547816
0.3182714 0.15559934 -0.107015535 0.27776903 0.19996293 0.18611862 -0.22792207 0.5200144
0.1932447 -0.16740724 -0.09307675 0.24903814 -0.12857327 0.06267694 0.281055 0.064151384
0.028579019 0.013331582 -0.102030806 0.5309598 0.03513982 -0.17710328 0.09700666 0.079390936
0.18857755 -0.004420363 0.025444899 -0.071642645 -0.1770511 0.16458805 0.18553017 -0.2888743
-0.4407394 -0.2829081 -0.071060434 0.23838036 -0.08470261 0.0134977605 -0.07228538 -0.030393742
0.25747442 -0.047786236 -0.06225212 -0.24506027 0.0004699476 -0.34493357 0.3121042 0.014856713
-0.36701623 -0.06745573 0.15814212 0.09702418 0.035848387 0.19266367 0.14836113 -0.058341287
0.079001494 -0.20819081 -0.27930233 0.024776828 0.008064378 0.023353118 -0.005812034 -0.13306077
0.10046113 0.28476077 -0.25932494 -0.0683295 0.04036506 0.15171918 -0.16958144 0.08785556
0.10585602 0.101637095 0.055907294 -0.31102064 -0.0809978 0.35507464 0.039172236 0.16050677
-0.17159396 -0.1938249 0.09911993 -0.27188316 -0.07302468 0.06470688 0.07702508 0.27257222
0.22886397 0.118570484 -0.0052573616 0.043875437 -0.23766312 -0.21690969 0.013438959 0.33211774
-0.036531206 0.13171381 -0.037641663 0.060345113 -0.02180737 0.06620283 -0.15571545 0.08309695
-0.35534906 0.0143753635 0.21365215 -0.14984854 -0.18386391 0.09156635 0.44282657 0.24103421
-0.12777983 0.1039355 -0.15719114 0.13654977 -0.28918386 0.15019841 0.71175957 -0.08390383
-0.2602825 0.009849272 -0.27337772 -0.25690132 -0.04373202 -0.22934687 0.2129905 0.04604077
-0.24955082 0.06684255 -0.32202798 0.20510527 -0.07641041 -0.37862697 0.046975885 -0.081009805
00000000: 6208 033e 2dbc 373d 7ff8 16bf 7326 8a3b
00000010: 277d 933d b01f 8a3e 53d7 a03e f04b 7c3e
00000020: a45d 29be c591 bd3d 6380 f93e 5ae6 24be
00000030: 4966 5cbe c823 9ebb 44ba 66bd 9452 03bd
00000040: 2f98 53be c4a2 9b3e bef2 89be a019 133e
00000050: 3df1 45be c502 c63c 51f8 2f3e f20b 8cbd
00000060: c8bd 5d3e 8fa3 5c3e ffcb 123d 1f03 a1bd
00000070: ea3a 1fbb 4fc1 d13d 5c22 3cbe bdd8 4b3d
00000080: c1a8 b4bd 10b1 c1bd a7e0 0b3e 2ac5 6c3e
00000090: 746a 933d 9c82 df3d a1da 973d 2cad 77be
000000a0: fb94 89be 6b10 f9bc d789 143e 853c f73d
000000b0: c2ae 6dbe b886 933e 8bd1 8a3d f8dd 79bd
000000c0: 5630 7bbe f672 043e 61db 22be db73 19bd
000000d0: a9f1 913e 9107 e5be a9fb 47be 4a82 aa3e
000000e0: eec2 583e 4a98 cdbd 2d8d f8bd 0d29 ef3d
000000f0: 1900 f9be b3a1 5a3d c442 21be c3c4 c9bd
00000100: 6405 d63d c134 23be b6a6 a53e 4717 fb3c
00000110: ab03 893e b1df 3c3e d743 4e3e 5e94 e13d
00000120: b85f 25be b740 153d cd7d dabd 3ea0 5f3c
00000130: 523a 9ebe 4808 d33d 6a28 c9bd 3495 153d
00000140: 0129 ac3b 7e68 26be 64e6 2b3e e125 ab3d
00000150: 84e1 d03e aeca 213c bf3c 9f3c 71d1 36be
00000160: 89e3 ef3b 7397 bb3c e301 14be 659f 5abe
00000170: e6c1 87be a9ac 98be 134d 9d3d 21d3 a4be
00000180: 194c 013e ab54 edbd 430a 7ebd 8334 2d3d
00000190: ae30 863e e673 24be cf28 d43c 7bc3 63be
000001a0: e554 51bd 75ec bcbe c6d7 123e 6c96 d4bd
000001b0: 1fe2 933e 75d7 003e 60dc 923d c7bb 2f3e
000001c0: 7e3c 87be c52d 1d3c 426a 71be 02e8 c3be
000001d0: bf80 963e 0b92 06bb a904 823e bc72 82be
000001e0: 78f4 a23e 6f55 1f3e f62a dbbd be37 8e3e
000001f0: 15c3 4c3e e195 3e3e 6764 69be aa1f 053f
00000200: f0e1 453e ce6c 2bbe 069f bebd db03 7f3e
00000210: b6a8 03be c45c 803d 71e6 8f3e cd61 833d
00000220: 8c1e ea3c b56c 5a3c 87f5 d0bd fbec 073f
00000230: c6ee 0f3d 905a 35be 6eab c63d b797 a23d
00000240: 791a 413e b1d8 90bb d271 d03c 61b9 92bd
00000250: e24c 35be c589 283e 9ffb 3d3e 55e7 93be
00000260: 98a8 e1be 55d9 90be 2288 91bd fb19 743e
00000270: 9078 adbd b625 5d3c 5b0a 94bd 4cfc f8bc
00000280: b0d3 833e 80bb 43bd 14fc 7ebd 14f1 7abe
00000290: 4d63 f639 229b b0be 1fcc 9f3e 9269 733c
000002a0: 8de9 bbbe 3b26 8abd 02f0 213e 9db4 c63d
000002b0: c2d5 123d a049 453e fbeb 173e 46f7 6ebd
000002c0: 89cb a13d f92f 55be b700 8fbe c6f8 ca3c
000002d0: 7420 043c 0a4f bf3c e072 bebb 1541 08be
000002e0: 91be cd3d 2acc 913e 3dc6 84be 56f0 8bbd
000002f0: d555 253d 465c 1b3e c2a6 2dbe 9eed b33d
00000300: 0acb d83d 1c27 d03d 0cff 643d 193e 9fbe
00000310: 2de2 a5bd 58cc b53e 1173 203d e35b 243e
00000320: 54b6 2fbe 097a 46be 64ff ca3d 4534 8bbe
00000330: f78d 95bd 0a85 843d 53bf 9d3d 968e 8b3e
00000340: 515b 6a3e 15d5 f23d f245 acbb bbb6 333d
00000350: f65d 73be 931d 5ebe 142f 5c3c 560b aa3e
00000360: bfa1 15bd fcdf 063e 252e 1abd 702c 773d
00000370: 5fa5 b2bc 5995 873d df73 1fbe bc2e aa3d
00000380: 50f0 b5be a586 6b3c a1c7 5a3e e571 19be
00000390: d246 3cbe 2387 bb3d 2aba e23e acd1 763e
000003a0: b7d8 02be 23dc d43d b7f6 20be b4d3 0b3e
000003b0: e80f 94be 9dcd 193e e035 363f c5d5 abbd
000003c0: bf43 85be d75e 213c 2af8 8bbe 9288 83be
000003d0: 5920 33bd e8d9 6abe 2e1a 5a3e 3f95 3c3d
000003e0: 408a 7fbe bfe4 883d dae0 a4be 1e07 523e
000003f0: 107d 9cbd 65db c1be c969 403d 78e8 a5bd

base.mlp.fc1.0.bias f4 [64]
0.038995408 -0.0130036725 -0.006968537 -0.015439031 0.06693235 -0.011540113 -0.046430364 0.039084356
-0.014766761 0.02649928 0.020329503 -0.00946303 0.0015628061 -0.08721415 -0.05564582 0.029043386
0.015549002 -0.00456469 0.06469375 -0.007913447 -0.025711257 -0.00089854334 0.028291576 0.00906522
-0.024188993 0.0056486423 -0.07293095 0.0012987809 -0.0060871164 -0.105239816 -0.008801171 -0.050225247
-0.06311513 0.03791375 -0.046964448 0.021966875 -0.01804357 0.047066435 0.05402943 0.009105905
-0.0019325224 0.046968043 0.018510409 -0.032757584 0.00037273744 0.103723414 -0.04973273 0.031203019
0.04871854 0.026206749 -0.10354722 0.034433972 -0.064047724 0.040142756 0.09204873 0.013313173
0.049343966 0.0591578 0.07800846 0.09565097 0.0055339737 -0.06727688 0.012295752 0.06139288
00000000: a6b9 1f3d 5b0d 55bc 5358 e4bb fdf3 7cbc
00000010: d413 893d be12 3dbc c42d 3ebd eb16 203d
00000020: 49f0 71bc 0515 d93c 0f8a a63c d30a 1bbc
00000030: 12d7 cc3a 559d b2bd dfec 63bd 65ec ed3c
00000040: 3ec1 7e3c 6593 95bb 287e 843d 67a7 01bc
00000050: 6aa0 d2bc 398c 6bba bcc3 e73c 4a86 143c
00000060: ff27 c6bc 3f18 b93b d25c 95bd db3b aa3a
00000070: 6f76 c7bb f987 d7bd c932 10bc fdb8 4dbd
00000080: 8142 81bd 734b 1b3d cb5d 40bd e0f3 b33c
00000090: 1cd0 93bc bcc8 403d f74d 5d3d ef30 153c
000000a0: b14c fdba 9061 403d 24a3 973c d12c 06bd
000000b0: f96b c339 f16c d43d 8cb4 4bbd 799d ff3c
000000c0: 188d 473d 89af d63c 9110 d4bd a30a 0d3d
000000d0: 742b 83bd bb6c 243d 0b84 bc3d 7f1f 5a3c
000000e0: e61c 4a3d 734f 723d e6c2 9f3d a8e4 c33d
000000f0: 5656 b53b 76c8 89bd 1f74 493c 1a77 7b3d

base.mlp.fc1.2.weight f4 [64]
1.0472103 0.9510865 0.9601625 0.9419183 0.98373085 0.9756093 1.055561 0.9730408
0.95438206 1.1841038 0.9711947 1.2542119 0.96196693 0.9514453 1.0460238 0.9324086
1.0176098 0.91720986 1.1639963 0.90188795 0.9449568 0.9459619 0.8881308 0.8737645
0.9918357 1.0248662 0.9414767 0.9444333 0.9523271 0.90984577 1.0853184 0.98717505
1.0297352 1.0622889 0.92892665 1.1544796 1.0372995 1.0709838 1.1864713 0.9733791
1.0845417 1.0358585 0.97369385 0.8980012 1.1478462 1.0169114 0.96024704 0.98167235
1.0224234 0.9873234 0.94314563 1.0595938 0.8372305 1.0471839 0.9519342 1.0051216
1.0741829 0.9012819 1.0368605 1.1453674 0.9166653 0.9758854 1.0032452 1.0690761
00000000: fd0a 863f 687a 733f 36cd 753f 8f21 713f
00000010: c9d5 7b3f 88c1 793f 9f1c 873f 3419 793f
00000020: 6252 743f b790 973f 37a0 783f 048a a03f
00000030: 7743 763f eb91 733f 1ce4 853f 54b2 6e3f
00000040: 0a41 823f 44ce 6a3f d5fd 943f 21e2 663f
00000050: b0e8 713f 8f2a 723f 8a5c 633f 08af 5f3f
00000060: f2e8 7d3f d12e 833f 9e04 713f 61c6 713f
00000070: b5cb 733f a7eb 683f b7eb 8a3f 81b7 7c3f
00000080: 5dce 833f 15f9 873f 23ce 6d3f fdc5 933f
00000090: 3bc6 843f ff15 893f 4bde 973f 5f2f 793f
000000a0: 43d2 8a3f 0397 843f 0044 793f 68e3 653f
000000b0: a0ec 923f 272a 823f c0d2 753f e14e 7b3f
000000c0: c5de 823f 3ac1 7c3f fe71 713f c5a0 873f
000000d0: bd54 563f 1f0a 863f f6b1 733f d3a7 803f
000000e0: d37e 893f 69ba 663f d8b7 843f 669b 923f
000000f0: 94aa 6a3f a0d3 793f 576a 803f 7cd7 883f

base.mlp.fc1.2.bias f4 [64]
-0.003873558 0.017268768 0.039401967 0.050664343 -0.018347684 -0.0071397913 -0.037142344 0.046273254
-0.042371683 -0.015362273 0.015845586 -0.0069811866 -0.018878903 0.009026209 -0.020460457 -0.0014083437
0.064420626 -0.019087855 -0.02435372 0.03242531 -0.003723 0.037796825 0.010985224 -0.008411946
-0.011993919 0.0469884 -0.03518987 0.04846926 0.00067901105 0.05776777 -0.02362625 -0.028864166
-0.034766085 -0.0030199597 0.009131906 -0.024444029 0.022861706 0.033968907 -0.01862554 -0.032740235
0.018745989 0.030059831 -0.006208769 0.009746236 -0.03623603 0.096340396 -0.010741605 0.0011015724
0.05104446 -0.05297306 -0.05052149 -0.01214555 0.038529616 0.031159922 0.09372548 -0.024370253
-0.037530087 0.04037751 -0.013989234 -0.01413737 0.042176757 -0.037439164 0.025939282 -0.0011361687
00000000: 85db 7dbb 3b77 8d3c f563 213d 6a85 4f3d
00000010: e24d 96bc e9f4 e9bb 9222 18bd 0689 3d3d
00000020: ee8d 2dbd 0bb2 7bbc 9ace 813c 70c2 e4bb
00000030: eea7 9abc aae2 133c b09c a7bc 2c98 b8ba
00000040: f6ee 833d 225e 9cbc 7481 c7bc 67d0 043d
00000050: 93fd 73bb d8d0 1a3d 5efb 333c 42d2 09bc
00000060: 2482 44bc e976 403d 4123 10bd b487 463d
00000070: a9ff 313a e69d 6c3d d68b c1bc 8b74 ecbc
00000080: e266 0ebd 84ea 45bb fd9d 153c d83e c8bc
00000090: 7948 bb3c fb22 0b3d 9794 98bc a01a 06bd
000000a0: 3091 993c 0940 f63c ee72 cbbb adae 1f3c
000000b0: 3b6c 14bd 1d4e c53d 8ffd 2fbc a362 903a
000000c0: ff13 513d 48fa 58bd 9fef 4ebd 21fe 46bc
000000d0: 3bd1 1d3d 1843 ff3c 25f3 bf3d 20a4 c7bc
000000e0: 26b9 19bd e362 253d 1a33 65bc 6da0 67bc
000000f0: 89c1 2c3d cf59 19bd 9e7e d43c 7feb 94ba

base.mlp.fc2.0.0.weight f4 [64, 64]
-0.08574922 0.104920976 0.01377248 -0.18181396 -0.016138664 -0.04582077 -0.044353496 -0.11466422
-0.055021636 0.23777877 0.11678946 -0.30382296 -0.22073786 -0.045274712 -0.28802836 -0.2044235
-0.12593518 -0.08807016 -0.15033114 -0.12962362 0.3711992 -0.022013968 -0.19908023 -0.09013245
0.13994338 0.15723778 0.2350982 0.15854418 -0.052672185 -0.09804659 0.0001303673 0.18849194
-0.31769836 0.10820851 -0.078403965 0.24265954 0.156007 -0.16098526 0.09448551 -0.10505954
0.10779137 -0.31694707 0.24141365 0.23246716 -0.003062257 -0.034809504 0.254391 -0.085240014
-0.11086463 0.17818326 0.15675932 0.16089123 -0.14297414 0.2787123 -0.30804765 -0.0038655167
0.34089497 -0.31232378 -0.23752509 -0.13177812 -0.30947098 0.043061983 0.12670596 0.22890286
-0.10226741 -0.036626805 0.08059362 -0.08078991 -0.1032326 0.22009036 -0.010443654 -0.13140006
0.29999787 0.10522892 0.30371845 0.021626642 0.009185027 0.42557335 0.06975977 -0.24045418
-0.14433526 0.14860727 -0.1853244 0.19681978 -0.20950973 -0.0737676 -0.43749604 0.24239896
-0.086764745 -0.08740116 -0.15377186 -0.1518713 0.012916658 0.2878984 -0.13905594 -0.2666994
-0.13942847 -0.12305234 0.06938591 0.10753756 0.32497314 -0.25183582 -0.13701165 0.019347461
0.08417351 0.41477442 0.021318052 0.17696944 -0.00027435544 0.07500837 0.21640904 0.033095185
-0.12881587 -0.0268839 -0.17559303 -0.2545343 -0.10426477 -0.12543896 0.24556856 -0.26427165
-0.11057763 -0.06663276 -0.14710404 -0.26987073 -0.1564388 0.062086374 -0.028312169 0.0055794977
0.18757184 -0.42429534 -0.21371852 0.0779335 0.20407128 -0.31345084 -0.23314193 0.13941862
0.19804291 -0.038024038 -0.30823153 0.18393855 0.3223955 -0.23547393 -0.22526574 -0.24141803
0.091786385 0.35328296 -0.1321029 0.016596109 -0.12650597 -0.02043813 0.03759399 0.29360288
-0.036612865 -0.47869545 0.19064145 0.059150424 0.12907346 0.083746456 -0.41331387 0.10630013
-0.27917114 0.031595614 -0.2413072 -0.009162996 0.052838515 -0.22088045 -0.2510497 0.1316202
-0.03332745 -0.00042876456 0.09929955 0.10300847 -0.023926638 -0.12526749 -0.103283815 -0.18691409
-0.34104514 -0.17914794 -0.05139863 -0.0298358 -0.39861953 -0.08119114 -0.15701881 0.15285428
-0.28128466 -0.19361697 -0.35786664 0.06807543 0.26536041 0.19693077 -0.044530734 0.21796405
0.17837206 0.16492772 -0.45284244 -0.28051755 0.033747166 0.040852644 -0.21314912 0.08013301
-0.31046215 -0.21192728 -0.0025972002 0.22094065 -0.0076406584 0.21104103 0.14903763 0.39259514
0.15060373 -0.059261765 0.30190977 0.10492786 0.12168648 0.18282649 -0.104853086 -0.30718285
-0.22603095 -0.061889987 -0.17296587 0.28554595 -0.14708973 0.17481591 0.43931627 -0.1322196
0.18168023 -0.26633066 -0.08541507 0.071232624 -0.25015768 0.12486217 -0.14236794 -0.28655806
0.313094 -0.0015896602 0.14061745 -0.046484146 -0.094006605 -0.054864526 0.26890245 -0.24736752
0.28046092 0.16133934 -0.037552506 0.1594765 -0.02465754 0.0753937 -0.123260036 -0.10885338
0.21851854 -0.27606896 -0.05637815 -0.78281254 -0.18054505 0.09108317 -0.057190537 -0.35995612
00000000: 499d afbd cfe0 d63d f8a5 613c 702d 3abe
00000010: 3b35 84bc 8fae 3bbd 03ac 35bd 13d5 eabd
00000020: 5e5e 61bd 477c 733e 502f ef3d af8e 9bbe
00000030: 1b09 62be fa71 39bd 7478 93be 6554 51be
00000040: 27f5 00be 215e b4bd 68f0 19be 0ebc 04be
00000050: d20d be3e a356 b4bc b0db 4bbe 5d97 b8bd
00000060: 514d 0f3e f102 213e 95bd 703e 6859 223e
00000070: cabe 57bd a7cc c8bd 35b3 0839 0804 413e
00000080: 5ca9 a2be 6c9c dd3d 4292 a0bd be7b 783e
00000090: 4dc0 1f3e 52d9 24be 9e81 c13d 7529 d7bd
000000a0: b9c1 dc3d e346 a2be 2435 773e df0b 6e3e
000000b0: 26b0 48bb 6994 0ebd 8a3f 823e 5192 aebd
000000c0: ff0c e3bd ac75 363e 8485 203e acc0 243e
000000d0: d067 12be 61b3 8e3e 6cb8 9dbe 9c54 7dbb
000000e0: c989 ae3e e7e8 9fbe c739 73be d8f0 06be
000000f0: fb72 9ebe c361 303d 35bf 013e 8365 6a3e
00000100: 9371 d1bd fd05 16bd 450e a53d 2e75 a5bd
00000110: 9d6b d3bd 5e5f 613e dc1b 2bbc bd8d 06be
00000120: 5299 993e 4382 d73d fc80 9b3e 5b2a b13c
00000130: cc7c 163c c0e4 d93e 36de 8e3d 9f39 76be
00000140: 9fcc 13be 812c 183e aec5 3dbe 208b 493e
00000150: b889 56be 7813 97bd 7bff dfbe 6f37 783e
00000160: b7b1 b1bd 61ff b2bd 5f76 1dbe 2684 1bbe
00000170: 64a0 533c 6b67 933e ae64 0ebe d38c 88be
00000180: 56c6 0ebe dd02 fcbd 331a 8e3d a73c dc3d
00000190: e162 a63e a0f0 80be c84c 0cbe 917e 9e3c
000001a0: 2963 ac3d 505d d43e 32a3 ae3c 7a37 353e
000001b0: 5dd7 8fb9 fd9d 993d 559a 5d3e d18e 073d
000001c0: 4fe8 03be a03b dcbc a9ce 33be 5252 82be
000001d0: c588 d5bd 1273 00be 5376 7b3e 9d4e 87be
000001e0: 8676 e2bd c276 88bd 71a2 16be 7f2c 8abe
000001f0: 7e31 20be 484e 7e3d ecee e7bc 38d4 b63b
00000200: d512 403e 3d3d d9be 07d9 5abe 999b 9f3d
00000210: 10f8 503e a17c a0be c2bc 6ebe c1c3 0e3e
00000220: c3cb 4a3e 18bf 1bbd 86d0 9dbe 635a 3c3e
00000230: 0611 a53e 1420 71be 10ac 66be 4a36 77be
00000240: 80fa bb3d 81e1 b43e fc45 07be 90f4 873c
00000250: c88a 01be dd6d a7bc 28fc 193d 1e53 963e
00000260: 5ff7 15bd 9217 f5be 8337 433e b747 723d
00000270: d52b 043e 4383 ab3d e09d d3be e2b3 d93d
00000280: 85ef 8ebe 676a 013d 3c19 77be 6420 16bc
00000290: 336d 583d 7c2e 62be 9689 80be 72c7 063e
000002a0: 5d82 08bd cecb e0b9 905d cb3d 1bf6 d23d
000002b0: cc01 c4bc 1f46 00be 7786 d3bd 6866 3fbe
000002c0: 789d aebe 8f72 37be 5f87 52bd 356a f4bc
000002d0: dc17 ccbe 8a47 a6bd 8ac9 20be d585 1c3e
000002e0: 8b04 90be 8743 46be 4c3a b7be 226b 8b3d
000002f0: 52dd 873e 38a8 493e dc65 36bd f831 5f3e
00000300: 2aa7 363e d0e2 283e f7da e7be ff9f 8fbe
00000310: 783a 0a3d 1a55 273d c343 5abe c71c a43d
00000320: e5f4 9ebe 7703 59be ca35 2abb 443e 623e
00000330: 7d5e fabb 241b 583e 529d 183e 3b02 c93e
00000340: dd37 1a3e 77bc 72bd eb93 9a3e 6be4 d63d
00000350: c336 f93d de36 3b3e 37bd d6bd 1247 9dbe
00000360: a874 67be 5b80 7dbd f71d 31be 1433 923e
00000370: b19e 16be f102 333e 10ee e03e 9364 07be
00000380: 620a 3a3e 7e5c 88be 19ee aebd 69e2 913d
00000390: ab14 80be bdb7 ff3d e7c8 11be bdb7 92be
000003a0: db4d a03e 255c d0ba 05fe 0f3e 2966 3ebd
000003b0: 8986 c0bd a0b9 60bd 95ad 893e e94d 7dbe
000003c0: 9398 8f3e 2436 253e a8d0 19bd cf4d 233e
000003d0: 9cfe c9bc 0368 9a3d c26f fcbd 85ee debd
000003e0: 53c3 5f3e e958 8dbe c6ec 66bd 6766 48bf
000003f0: cde0 38be d089 ba3d a040 6abd 2b4c b8be

base.mlp.fc2.0.0.bias f4 [64]
-0.021447767 0.012208892 -0.0139581 -0.043533303 0.026706982 0.032075137 -0.012061555 -0.007466576
0.032531228 -0.018851422 -0.026575625 0.0033128394 0.01707661 0.00979527 0.062445045 -0.058088943
-0.036559694 -0.06515372 0.024753785 -0.0448882 -0.04671831 0.030173456 -0.03350576 -0.0057348944
0.00513038 0.036209 0.03035122 0.09704149 0.010061854 0.011030462 0.03906961 -0.022734009
0.030578338 0.07429042 0.10169326 -0.0019369053 0.018716779 0.09840251 -0.0073050004 0.060337093
0.021147031 0.021586752 -0.025145646 0.015324407 -0.03537992 -0.023786744 0.035042755 -0.03345315
-0.018376369 -2.9698607e-05 -0.018341882 -0.03038731 -0.0059535825 0.10252133 -0.006417267 -0.0023943463
-0.0150751695 -0.03876972 0.023902465 0.033970874 -0.054136913 -0.00096992275 -0.01698274 -0.058588184
00000000: 3ab3 afbc ce07 483c 84b0 64bc fa4f 32bd
00000010: 9ac8 da3c 3861 033d d49d 45bc 2eaa f4bb
00000020: 773f 053d 4c6e 9abc 20b5 d9bc 391c 593b
00000030: 3fe4 8b3c 577c 203c 60c6 7f3d acee 6dbd
00000040: 9ebf 15bd 506f 85bd 73c8 ca3c b0dc 37bd
00000050: b35b 3fbd 532e f73c 563d 09bd c8eb bbbb
00000060: bf1c a83b e34f 143d 1fa3 f83c b0bd c63d
00000070: 79da 243c 1cb9 343c 7507 203d ac3c babc
00000080: 6c7f fa3c 9325 983d 8e44 d03d c2df fdba
00000090: ee53 993c 4187 c93d c95e efbb 0724 773d
000000a0: 8a3c ad3c b3d6 b03c 3efe cdbc 3913 7b3c
000000b0: 89ea 10bd 6bdc c2bc fe88 0f3d 2c06 09bd
000000c0: 0a8a 96bc 4621 f9b7 b741 96bc cfee f8bc
000000d0: 4516 c3bb b4f6 d13d f047 d2bb 77ea 1cbb
000000e0: d8fd 76bc ffcc 1ebd 1acf c33c 0b25 0b3d
000000f0: abbe 5dbd 6a42 7eba 631f 8bbc 2afa 6fbd

base.mlp.fc2.0.2.weight f4 [64]
0.9726877 0.9352587 1.0650008 0.9682745 0.995733 0.9836707 1.0397886 1.0196056
0.9589376 0.9112496 0.9829602 0.909205 0.9651343 0.9706285 0.9769285 0.959735
1.0197012 0.93449277 0.9634453 0.97752917 1.0216442 1.0401878 1.0865822 1.0551666
0.9122523 1.0039744 1.0163254 0.86795175 1.0264496 1.04747 1.040938 0.9357877
1.0607907 1.0033205 0.99613965 0.95754343 0.95469016 1.0314627 1.1284006 1.0473713
1.0150137 0.94783074 1.0096401 0.9568736 0.9887612 0.94992864 1.0515487 0.91113216
0.9390007 0.92958987 1.0162998 1.0052439 1.0225748 0.8995642 0.9972218 0.94244033
1.0600607 1.0216801 0.95612586 1.0158545 1.0388591 0.91753507 0.94763297 1.1249683
00000000: 1002 793f 1d6d 6f3f f251 883f d6e0 773f
00000010: 5ce8 7e3f d8d1 7b3f cb17 853f 7082 823f
00000020: ef7c 753f a747 693f 48a3 7b3f a9c1 683f
00000030: 0b13 773f 1c7b 783f fc17 7a3f 31b1 753f
00000040: 9285 823f eb3a 6f3f 5aa4 763f 5a3f 7a3f
00000050: 3dc5 823f e024 853f 2015 8b3f b30f 873f
00000060: 5e89 693f 3c82 803f f316 823f 1632 5e3f
00000070: b362 833f 7f13 863f 753d 853f c88f 6f3f
00000080: fdc7 873f ce6c 803f 0203 7f3f 9121 753f
00000090: 9366 743f f806 843f 6e6f 903f 4310 863f
000000a0: f8eb 813f 09a5 723f e33b 813f abf5 743f
000000b0: 741f 7d3f 862e 733f 2699 863f f53f 693f
000000c0: 5a62 703f 9af9 6d3f 1d16 823f d5ab 803f
000000d0: bbe3 823f d749 663f ee49 7f3f c543 713f
000000e0: 12b0 873f 6ac6 823f aac4 743f 8507 823f
000000f0: 56f9 843f 94e3 6a3f 1398 723f f6fe 8f3f

base.mlp.fc2.0.2.bias f4 [64]
0.013240866 -0.0069924765 0.0071901414 -0.010267389 -0.026382605 -0.01786402 0.021152295 0.016265618
-0.0061102915 0.01285326 -0.0117258085 0.011499336 0.01312912 -0.0027694916 0.0005461688 -0.0090515455
-0.021481536 -0.0129357595 0.013078244 -0.012723031 -0.011420922 -0.014111635 0.012270029 -0.016329937
0.012448351 -0.0002721191 0.011377111 0.032111887 0.011413062 -0.014108436 0.016001865 -0.0090766875
-0.0022977996 0.01055671 0.032454327 0.011933813 0.010821573 0.009278929 0.010737332 0.013467819
0.015319959 -0.0152992215 0.007537118 0.014419708 0.018535828 0.06542654 0.014904709 0.016268596
-0.007903679 0.009392905 0.01941651 0.019502189 -0.01473175 0.031121429 0.0029172918 -0.027884394
-0.0076447995 -0.0033263566 -0.012109765 0.013556656 -0.016783562 -0.004669816 -0.0067164074 0.016364181
00000000: 38f0 583c 2521 e5bb 479b eb3b 8d38 28bc
00000010: 5520 d8bc 9157 92bc 9447 ad3c 793f 853c
00000020: d738 c8bb 7b96 523c 9b1d 40bc b667 3c3c
00000030: 851b 573c 5c80 35bb c52c 0f3a ef4c 14bc
00000040: 0cfa afbc 82f0 53bc 2246 563c 4374 50bc
00000050: d21e 3bbc 7d34 67bc 3b08 493c 5cc6 85bc
00000060: 2bf4 4b3c 35ab 8eb9 1067 3a3c c187 033d
00000070: dafd 3a3c 1227 67bc 5816 833c 63b6 14bc
00000080: ae96 16bb 0df6 2c3c d4ee 043d 0a86 433c
00000090: f84c 313c a606 183c a2eb 2f3c 21a8 5c3c
000000a0: 9100 7b3c 96a9 7abc eef9 f63b a440 6c3c
000000b0: 73d8 973c 5afe 853d e132 743c b845 853c
000000c0: 6f7e 01bc b3e4 193c 5f0f 9f3c 0ec3 9f3c
000000d0: 705d 71bc 5ef2 fe3c 0930 3f3b d06d e4bc
000000e0: 3a81 fabb 01ff 59bb 0968 46bc bd1c 5e3c
000000f0: ae7d 89bc 4105 99bb 4f15 dcbb 2d0e 863c

v_out.weight f4 [1, 64]
-0.1789611 0.064952485 -0.07103342 -0.021196056 0.034928884 0.06727104 -0.12936914 -0.33260193
0.02669291 -0.19013298 0.10729878 -0.19237275 -0.08546318 0.047552917 -0.036482926 0.0014710776
0.07334071 0.07234449 -0.05252549 0.18983845 0.12238002 0.08486093 -0.14297514 0.22453971
-0.18479174 0.030607326 -0.11882591 -0.0057905056 -0.10031185 0.12196899 -0.08033041 0.044583373
-0.07183119 -0.044601522 -0.0005550884 -0.15140422 -0.13636887 -0.07711992 -0.18543519 -0.1414753
-0.12992795 0.012684058 -0.07976255 -0.21152446 -0.114432916 -0.02677747 -0.08662568 -0.17776366
0.06729046 -0.055140838 -0.13045318 -0.086989336 0.1324864 0.010006939 -0.04599216 -0.018365746
0.0692297 0.048527885 0.05137176 -0.1271686 0.16746111 0.016262734 0.04389412 0.075761504
00000000: 9441 37be cf05 853d f879 91bd 5aa3 adbc
00000010: 9711 0f3d 66c5 893d 5879 04be cd4a aabe
00000020: 17ab da3c 38b2 42be 76bf db3d 5dfd 44be
00000030: 5207 afbd d9c6 423d 1f6f 15bd 2cd1 c03a
00000040: a733 963d 5929 943d f824 57bd 0365 423e
00000050: 60a2 fa3d 91cb ad3d 1368 12be bded 653e
00000060: 0c3a 3dbe 37bc fa3c 005b f3bd 48be bdbb
00000070: 4d70 cdbd e1ca f93d 4584 a4bd 0e9d 363d
00000080: 3b1c 93bd 16b0 36bd 5a83 11ba b509 1bbe
00000090: 48a4 0bbe 0cf1 9dbd b9e2 3dbe e7de 10be
000000a0: d50b 05be ccd0 4f3c 8c5a a3bd de99 58be
000000b0: ce5b eabd 6d5c dbbc ce68 b1bd ad07 36be
000000c0: 95cf 893d 5cdb 61bd 8595 05be 7727 b2bd
000000d0: 84aa 073e 25f4 233c 4662 3cbd c373 96bc
000000e0: 4dc8 8d3d 2dc5 463d 326b 523d 7c38 02be
000000f0: ed7a 2b3e 6d39 853c 52ca 333d d928 9b3d
