checkpoint/mappo_seed113_run20260211_112812_ep4000_critic.pt (torch, 68002 bytes, 11 tensors)

base.feature_norm.weight f4 [168]
0	0x3fb5bddf	1.4198569
1	0x3e9d1c9f	0.306859
2	0x3f8253a1	1.0181772
3	0x3f7da222	0.9907552
4	0x3f74c892	0.95618546
5	0x3f7b429a	0.981485
6	0x3f6e9344	0.9319346
7	0x3f7622ba	0.9614674
8	0x3f82e9c5	1.0227591
9	0x3f67d4bf	0.90559
10	0x3f4eed41	0.8083077
11	0x3f62ac55	0.8854421
12	0x3f6d4d7b	0.9269635
13	0x3f80a308	1.0049753
14	0x3f710598	0.9414916
15	0x3f53d600	0.82748413
16	0x3f8129d3	1.0090889
17	0x3f8483e6	1.0352752
18	0x3f75e673	0.9605476
19	0x3f50d555	0.8157552
20	0x3f6c5463	0.92316264
21	0x3eb967bd	0.3621196
22	0x3f4cdba7	0.8002266
23	0x3f8f9fb6	1.1220615
24	0x3f682429	0.90680176
25	0x3f642d19	0.89131314
26	0x3f59985b	0.849981
27	0x3f9f1c35	1.2430483
28	0x3f76ca81	0.96402746
29	0x3f99c146	1.2012107
30	0x3f802f96	1.0014522
31	0x3f9e0cc2	1.2347643
32	0x3fb28e4e	1.3949678
33	0x40142f35	2.3153813
34	0x400c026b	2.1876476
35	0x3fd9bf8a	1.7011578
36	0x3fa01ea0	1.2509346
37	0x3f0687aa	0.52550757
38	0x3f871ccc	1.0555663
39	0x3eeca3ad	0.46218625
40	0x3f119cd7	0.56879944
41	0x3e8a2eee	0.2698893
42	0x3f97cea8	1.1859941
43	0x3ea45c84	0.32101834
44	0x3f86a8d3	1.0520271
45	0x3f743491	0.9539271
46	0x3f8219f5	1.0164171
47	0x3f771dec	0.9653003
48	0x3f7db2a0	0.99100685
49	0x3f8137b6	1.0095127
50	0x3f836510	1.0265217
51	0x3f8c0173	1.0937942
52	0x3f424eda	0.7590157
53	0x3f4a1822	0.78943074
54	0x3f61f580	0.8826523
55	0x3f86c2b2	1.0528166
56	0x3f3ac928	0.7296319
57	0x3f5e6039	0.86865574
58	0x3f30322f	0.68826574
59	0x3f94dd82	1.1630099
60	0x3f1c0182	0.609398
61	0x3f5aa0c0	0.85401535
62	0x3fa12617	1.2589749
63	0x3efb2af8	0.4905622
64	0x3f4c06b5	0.79697734
65	0x3f6442c7	0.89164394
66	0x3f561fd2	0.83642304
67	0x3f520b90	0.8204889
68	0x3f2cdea9	0.6752725
69	0x3fad28dd	1.3528095
70	0x3f5aa22d	0.8540371
71	0x3f83a95f	1.0286063
72	0x3f8c2859	1.0949813
73	0x3f99f3d8	1.202754
74	0x3fb4506c	1.4087043
75	0x4015ee54	2.3426714
76	0x4002b5fc	2.0423574
77	0x3ff8bd68	1.9432802
78	0x3f95a5e5	1.1691252
79	0x3ebb080f	0.36529586
80	0x3f55926c	0.8342655
81	0x3f1f2f9e	0.62182033
82	0x3f251385	0.6448291
83	0x3f3ad2f0	0.72978115
84	0x3fb4b07c	1.4116359
85	0x3ea519cf	0.32246253
86	0x3f537c2d	0.8261135
87	0x3f845754	1.033915
88	0x3f570c4e	0.8400315
89	0x3f61aef6	0.88157594
90	0x3f6baf5d	0.9206446
91	0x3f93dd44	1.15519
92	0x3f8775e4	1.0582852
93	0x3f908f7e	1.129379
94	0x3f768520	0.9629688
95	0x3f8d3c20	1.1033974
96	0x3f60dc99	0.87836605
97	0x3f8154bd	1.0103985
98	0x3f81be09	1.0136119
99	0x3f71c9eb	0.9444873
100	0x3f616978	0.8805156
101	0x3f893e74	1.0722184
102	0x3f8450a4	1.033711
103	0x3f6e6212	0.93118393
104	0x3f658d97	0.89669174
105	0x3f085bcc	0.5326507
106	0x3f5dd05d	0.8664606
107	0x3f7c5aad	0.9857586
108	0x3f47da74	0.7806771
109	0x3f8c1c42	1.0946124
110	0x3f3eab67	0.7448029
111	0x3fa515f3	1.2897323
112	0x3f6b7b24	0.9198477
113	0x3f88a4bf	1.0675277
114	0x3f95ef59	1.1713668
115	0x3f9160eb	1.1357702
116	0x3faffa11	1.3748189
117	0x400e4556	2.222982
118	0x40091d88	2.1424274
119	0x40040bf0	2.0632286
120	0x3f9ec595	1.2404047
121	0x3f0d1895	0.55115634
122	0x3f2a0a24	0.66421723
123	0x3f040584	0.51570916
124	0x3ef2befa	0.4741133
125	0x3f331681	0.69956213
126	0x3fb51c23	1.4149212
127	0x3ea822fb	0.32839188
128	0x3f76159f	0.9612674
129	0x3f6afa85	0.9178851
130	0x3f4908d2	0.78529084
131	0x3f774b49	0.9659925
132	0x3f58ed66	0.8473724
133	0x3f633a68	0.88760996
134	0x3f5fa3e9	0.8735948
135	0x3f8cd4aa	1.10024
136	0x3f786445	0.97028
137	0x3f7bfcc7	0.9843258
138	0x3f5c197d	0.8597639
139	0x3f8929c7	1.0715874
140	0x3f490133	0.78517455
141	0x3f470ced	0.777541
142	0x3f6633f7	0.8992304
143	0x3f4191e9	0.75613266
144	0x3f515a4f	0.81778425
145	0x3f72911c	0.9475267
146	0x3f8a6b74	1.0814042
147	0x3ed49164	0.41517174
148	0x3f6b9fb3	0.92040557
149	0x3f53752b	0.8260066
150	0x3f8b9f4e	1.0907991
151	0x3f5854ab	0.84504193
152	0x3f2cfcc3	0.67573184
153	0x3f8801d6	1.062556
154	0x3f86647d	1.0499417
155	0x3f8cfc3e	1.1014478
156	0x3f9a346d	1.2047249
157	0x3f97ee10	1.1869526
158	0x3fb7793c	1.4333873
159	0x400a53e1	2.1613696
160	0x3ffab99c	1.9587893
161	0x3ff082bb	1.8789896
162	0x3f955c02	1.1668704
163	0x3f1912e7	0.5979447
164	0x3f4d5c89	0.8021932
165	0x3f0f176e	0.55895126
166	0x3f133039	0.57495457
167	0x3ea09eff	0.31371304

base.feature_norm.bias f4 [168]
0	0xbd3dc39e	-0.046329133
1	0xbcc0ba37	-0.023526294
2	0x3d6da3ca	0.05801753
3	0x3b2041c4	0.0024453262
4	0x3d516df9	0.05113027
5	0x3cc12aae	0.023579922
6	0x3da65c38	0.08123058
7	0x3c368b6a	0.011141637
8	0x3cff3f1d	0.031158024
9	0x3c873add	0.01650756
10	0x3d52aed4	0.05143626
11	0x3d0d621f	0.034517404
12	0x3d34fc61	0.044186
13	0x3c16bad6	0.009199819
14	0x3ca2bff1	0.019866915
15	0xbba46272	-0.0050166184
16	0xbcde53c8	-0.02713956
17	0xbc1f81e2	-0.009735556
18	0x3dd89939	0.105761
19	0x3c51f92b	0.012815754
20	0x3e0529d8	0.13004243
21	0x3bd7077b	0.006562171
22	0x3c2a35b9	0.010388785
23	0xbbf4eb98	-0.007474374
24	0x3cb5e691	0.02220467
25	0x3cbf7724	0.02337224
26	0xbc038c3b	-0.008029039
27	0x3d609709	0.05483154
28	0x3d889c51	0.0667044
29	0xb9cc8440	-0.00039008446
30	0xbd6f7e02	-0.05846978
31	0xbdfdcb6c	-0.12392315
32	0xbdbc8937	-0.09205859
33	0x3d04dc7d	0.032436837
34	0xbc5e5542	-0.013570132
35	0x3cdedc0e	0.02720454
36	0x3c20f30a	0.00982357
37	0xbc4476da	-0.011991227
38	0x3d45dbb4	0.04830523
39	0x3c9b6732	0.018970106
40	0xba61da76	-0.0008615622
41	0x3da13554	0.078715
42	0x3de61d39	0.112360425
43	0x3c723736	0.014783671
44	0x3c092da4	0.008372698
45	0x3cd4427f	0.025910614
46	0x3c4b1657	0.012395463
47	0x3c971d42	0.018446568
48	0x3d245c47	0.040127065
49	0x3d251d0d	0.040310908
50	0xbce7fe2e	-0.028319445
51	0x3c2e6139	0.010643297
52	0x3cb1bd3b	0.021696677
53	0x3ccae403	0.024766928
54	0x3b6aa524	0.0035803998
55	0x3c646452	0.013939934
56	0xbdbbd1a7	-0.091708474
57	0x3cf3e79a	0.029773522
58	0xbcb8f9a6	-0.02257998
59	0x3d33f618	0.043935865
60	0xbb578fdf	-0.003289215
61	0xbe0d071f	-0.13772248
62	0x3d134061	0.03595007
63	0xbcc922c2	-0.024552707
64	0xbd0eae99	-0.034834478
65	0xbb2a8bda	-0.00260233
66	0x3a7e969d	0.0009711774
67	0xbcbb0928	-0.022831514
68	0x3d018e16	0.031629644
69	0x3c936584	0.017992742
70	0x3dc1ab96	0.094565555
71	0x3c6c880d	0.014436734
72	0xbd447d1b	-0.047970872
73	0xbe283129	-0.16425003
74	0xbe1a310c	-0.15057772
75	0x3d45f561	0.048329715
76	0x3c15ab3a	0.009135062
77	0xba82377a	-0.0009934746
78	0x3c8ce5c4	0.017199405
79	0xbe07c729	-0.13259567
80	0x3d84a6a3	0.06477096
81	0x3db03a47	0.086048655
82	0x3cb456f0	0.022014111
83	0x3d53643f	0.051609274
84	0xba5bd7e2	-0.0008386356
85	0xbc5e887a	-0.013582343
86	0xbafc867e	-0.0019266156
87	0x3d1ce119	0.038300607
88	0x3bae7190	0.0053235963
89	0x3d0130bc	0.031540617
90	0x3d29fe76	0.04150244
91	0xba0c1d57	-0.0005344948
92	0x3c81ce48	0.015845433
93	0x3c7aa4a9	0.015298047
94	0xbca403e1	-0.02002138
95	0x3d18fca7	0.037350323
96	0x3d4eebfb	0.050518017
97	0xbc02df64	-0.007987831
98	0xbbafa07e	-0.0053597083
99	0xbcacf902	-0.02111483
100	0xbac628eb	-0.0015118396
101	0xbc2ec102	-0.010666134
102	0xbd5bd807	-0.053672817
103	0xbdbe6bb3	-0.09297886
104	0xbb4ea336	-0.0031530387
105	0x3d9dfe04	0.07714465
106	0x3cc82b4e	0.024434712
107	0xbd0afd02	-0.033932693
108	0x3d13c748	0.03607872
109	0x3d62d099	0.055374715
110	0x3cadf36e	0.02123424
111	0x3cb40e83	0.021979576
112	0x3d79e8ae	0.061012916
113	0x3ddadff5	0.10687248
114	0xbabba438	-0.0014315909
115	0xbe413dd3	-0.1887124
116	0xbe4f855e	-0.2026572
117	0x3d23c8af	0.03998631
118	0x3cdb0195	0.026734153
119	0x3d99d0d7	0.07510536
120	0xbc8b9908	-0.017040744
121	0xbe0605c5	-0.13088138
122	0x3d89b9d4	0.06724897
123	0x3db9b1dc	0.09067127
124	0x3bcda1c7	0.006275389
125	0x3d794e49	0.060865674
126	0xbd9b8945	-0.075945415
127	0xbce669d0	-0.028126627
128	0x3cbc564b	0.022990366
129	0xbc163dc6	-0.009170001
130	0x3c29481b	0.010332133
131	0x3d19a6b8	0.03751251
132	0x3cec16da	0.02881949
133	0x3b94326e	0.0045226132
134	0x3d3a899f	0.045541402
135	0x3ce1269b	0.027484229
136	0x3cbbf147	0.022942198
137	0x3c76e1b3	0.015068459
138	0x3d80fa57	0.062977485
139	0x3c4491da	0.011997664
140	0x3da72818	0.08161944
141	0x3bdcd03a	0.0067386897
142	0x3c463c26	0.012099301
143	0x3be3f6d2	0.0069569135
144	0x3a65132e	0.0008738515
145	0xbd8e5f8f	-0.0695182
146	0xbc1b9726	-0.009496486
147	0x3cbf969c	0.023387246
148	0x3c9cbd5a	0.019133259
149	0x3c71b21a	0.014751935
150	0x3b9ffba0	0.004882291
151	0x3d553310	0.05205065
152	0x3cb5a893	0.022175109
153	0x3ce1e680	0.027575731
154	0x3dba7c8b	0.09105786
155	0x3df24173	0.1182889
156	0x3d7e6703	0.06210996
157	0xbe2e8150	-0.17041516
158	0xbda762c9	-0.08173139
159	0x3c3ff944	0.011717144
160	0xbbf8b89c	-0.0075903665
161	0x3dc478f5	0.09593383
162	0xb8d9a7af	-0.000103786
163	0xbd8ea944	-0.069658786
164	0x3e06d7f1	0.13168313
165	0x3e0f43d8	0.13990724
166	0x3d99cf35	0.07510225
167	0x3d884cee	0.06655298

base.mlp.fc1.0.weight f4 [64, 168]
0	0x3caab8d6	0.02084009
1	0xbe062ce4	-0.13103062
2	0xbe95ecef	-0.29282328
3	0xbe9678bf	-0.29388997
4	0xbeb71566	-0.35758513
5	0xbe504a39	-0.20340814
6	0x3a9b986a	0.0011870984
7	0xbe1cc760	-0.1531043
8	0xbd423234	-0.04741116
9	0xbde72c78	-0.112877786
10	0xbe476aa0	-0.19474268
11	0xbe1ba09b	-0.15197985
12	0xbd241a01	-0.04006386
13	0xbe213fb9	-0.15746965
14	0xbdbbaaf6	-0.091634676
15	0x3db15ecd	0.0866066
16	0x3d88e671	0.06684578
17	0xbe7bf509	-0.24605192
18	0x3e32c152	0.17456558
19	0x3e1f1bcc	0.15537947
20	0x3d5c70bb	0.053818446
21	0x3ded68e1	0.1159227
22	0xbdfb5b7b	-0.12273308
23	0x3c662840	0.014047682
24	0xbe8913ff	-0.26773068
25	0xbe4f9198	-0.20270383
26	0xbe4b154e	-0.19832346
27	0xbda1c58c	-0.07899007
28	0x3e46df25	0.1942106
29	0xbe8735f8	-0.26408362
30	0xbc86db06	-0.01646186
31	0x3e129863	0.14315943
32	0x3de75813	0.11296096
33	0xbf02d22f	-0.51101965
34	0xbd8b2f29	-0.067961045
35	0x3eb72fb0	0.3577857
36	0xbe9d15f7	-0.3068082
37	0x3dc4a07e	0.09600924
38	0x3e2c0c6a	0.1680161
39	0x3e01a228	0.12659514
40	0x3df3c5ea	0.119029835
41	0x3dbda4ae	0.09259926
42	0xbd719b2a	-0.058985867
43	0xbdf4df63	-0.1195667
44	0xbe85239d	-0.26003733
45	0xbd9de9cf	-0.07710611
46	0x3db6a60f	0.08918392
47	0xbe80e5a0	-0.2517519
48	0xbe8c145f	-0.27359292
49	0xbe5286bd	-0.20559211
50	0x3d357ea7	0.04431024
51	0xbe30e8e9	-0.17276348
52	0xbce9e2e3	-0.02855057
53	0xbe771e4f	-0.24132656
54	0xbd9d57f4	-0.07682791
55	0x3d8af726	0.06785421
56	0xbcf9e0c7	-0.03050269
57	0xbdf3bb25	-0.11900929
58	0x3e360b76	0.1777781
59	0x3e81806d	0.25293294
60	0x3d99b6eb	0.07505592
61	0x3d963149	0.07333619
62	0x3d592284	0.053011432
63	0x3d9daf10	0.07699406
64	0xbd0def1d	-0.034651864
65	0xbd77e013	-0.06051643
66	0xbe54c409	-0.20777906
67	0xbd775022	-0.060379155
68	0xbdc63d31	-0.0967964
69	0xbd692375	-0.05691858
70	0x3decb98c	0.11558828
71	0xbe82bc77	-0.25534412
72	0xbc633d2a	-0.013869563
73	0x3ebad04a	0.36487037
74	0x3e30ca4d	0.17264672
75	0xbee1b676	-0.4408452
76	0x3d81ca98	0.0633747
77	0x3f04666f	0.517188
78	0xbce38b31	-0.027776333
79	0x3ded759c	0.11594698
80	0x3d45da6b	0.048304003
81	0x3d8e09a3	0.06935432
82	0x3d5b8839	0.05359671
83	0x3e07c5eb	0.13259093
84	0xbe243629	-0.16036285
85	0xbd6200cc	-0.05517654
86	0xbdae33a6	-0.08505945
87	0xbe321f8c	-0.17394847
88	0xbe4ca58e	-0.19985029
89	0xbd51ded2	-0.05123789
90	0xbd8023f9	-0.06256861
91	0xbe70325b	-0.23456709
92	0xbd10a5e7	-0.035314467
93	0xbec13119	-0.3773277
94	0xbdd5cf8a	-0.104399756
95	0xbe11cd27	-0.14238416
96	0xbe754f07	-0.23955928
97	0x3a776ac0	0.0009438209
98	0xbc1b1a97	-0.009466789
99	0xbdb4effb	-0.08834835
100	0x3c0a053d	0.0084241005
101	0xbe3431a0	-0.17597055
102	0xbe060a7e	-0.1308994
103	0xbdf1b7fa	-0.11802669
104	0xbdc30e54	-0.09524217
105	0x3d40c532	0.04706306
106	0xbe55e5a1	-0.20888378
107	0xbe0e234e	-0.13880655
108	0xbd78f908	-0.06078437
109	0xbe242f64	-0.16033703
110	0xbd8479eb	-0.064685665
111	0xbe846abd	-0.25862685
112	0x3e11585e	0.14193866
113	0x3d6bf18d	0.057603408
114	0x3c26f844	0.010191027
115	0x3e51b100	0.20477676
116	0x3e0d695d	0.13809724
117	0xbebf9e06	-0.3742525
118	0x3c729f60	0.014808506
119	0x3ef5b345	0.47988334
120	0xbe4b916a	-0.1987969
121	0xbe4455a5	-0.19173296
122	0x3da72903	0.08162119
123	0x3e674417	0.22584568
124	0xbdbba39a	-0.09162064
125	0x3e2bbf6a	0.16772237
126	0x3ec6ec5b	0.388522
127	0xbe079904	-0.13241965
128	0xbe800987	-0.2500727
129	0xbec6589f	-0.38739488
130	0x3c8fda6e	0.01756021
131	0xbe82afe9	-0.25524834
132	0xbe9571bb	-0.29188332
133	0xbec3305e	-0.3812284
134	0x3d012703	0.031531345
135	0x3d6b57c5	0.05745675
136	0xbe805b37	-0.2506959
137	0xbe49eab5	-0.1971844
138	0xbe36a2f1	-0.17835595
139	0xbbfa8a1f	-0.00764586
140	0x3c9850e1	0.018593254
141	0xbd20c9d3	-0.039254975
142	0xbee7d32d	-0.45278302
143	0x3b4afd33	0.0030973672
144	0xbe98e59a	-0.29862672
145	0x3e0c8550	0.1372273
146	0xbdf5346b	-0.119728886
147	0x3c75e779	0.015008801
148	0x3a791957	0.0009502372
149	0x3cc9c27e	0.024628874
150	0xbe49a8c9	-0.19693293
151	0xbe08505b	-0.13311903
152	0xbd1925b6	-0.03738948
153	0xbd2e31f3	-0.042528104
154	0x3d11677e	0.03549909
155	0x3e8cd363	0.27505025
156	0xbd322aea	-0.043497957
157	0x3d27f52e	0.041005306
158	0x3ccb3485	0.024805317
159	0xbeabc5dc	-0.33549392
160	0x3d96bf5c	0.07360718
161	0x3ea873c4	0.32900822
162	0xbea60c59	-0.32431296
163	0xbe0506c6	-0.12990865
164	0xbdfb5ebf	-0.12273931
165	0x3eaf32e8	0.34218526
166	0x3db402de	0.087896094
167	0x3ddf984c	0.1091772
168	0xbce4abcb	-0.027913949
169	0xbcb40587	-0.021975292
170	0x3cadc252	0.021210823
171	0xbdfc2753	-0.12312188
172	0xbe35c702	-0.17751697
173	0xbd863984	-0.06553939
174	0xbe37a004	-0.17932135
175	0xbe2d510c	-0.16925448
176	0x3d1bc6bb	0.03803132
177	0xbce18017	-0.027526898
178	0xbe15b699	-0.14620437
179	0xbe23588b	-0.15951745
180	0x3d3465e1	0.04404247
181	0xbe92214b	-0.28541026
182	0xbead6c0b	-0.33871493
183	0x3d661206	0.056169532
184	0xbc8e9bbd	-0.017408246
185	0xbe82e152	-0.2556253
186	0x3e2aa279	0.16663541
187	0xbc65e614	-0.014031906
188	0x3dcc659f	0.0998032
189	0xbe6b2bd2	-0.22965935
190	0x3d99dedc	0.0751321
191	0x3da5ba93	0.08092227
192	0xbe165e53	-0.1468442
193	0xbd55079c	-0.05200921
194	0x3b7167d1	0.003683556
195	0xbe7ded8d	-0.2479765
196	0x3efe8f08	0.497185
197	0xbcaff6b0	-0.021479934
198	0xbdc4814f	-0.09594976
199	0xbe94fea4	-0.29100525
200	0xbdf68b4d	-0.12038288
201	0xbd470915	-0.048592646
202	0x3c7754e1	0.01509592
203	0x3eaf61f7	0.3425443
204	0x3d21b330	0.039477527
205	0x3d62283e	0.05521416
206	0x3e5caebc	0.21551031
207	0x3de78b94	0.11305919
208	0xbe39ca4f	-0.18143581
209	0x3db5e080	0.088807106
210	0xbe3e5973	-0.1858881
211	0xbe27f09c	-0.16400379
212	0x3d7210d4	0.05909808
213	0xbe0c1aa7	-0.13682042
214	0xbe7deae6	-0.24796638
215	0xbdaac088	-0.08337504
216	0xbe02a99d	-0.12760015
217	0x3db6aab7	0.0891928
218	0x3d749c91	0.059719626
219	0xbd7b4322	-0.06134332
220	0x3b52e2e5	0.0032178697
221	0xbdb1adaf	-0.08675706
222	0xbdc55cfa	-0.096368745
223	0xbe842fbf	-0.25817677
224	0x3e5d9ae0	0.21641111
225	0x3c9aca10	0.018895179
226	0xbd88f65f	-0.066876166
227	0x3ed25210	0.41078234
228	0x3d8633cf	0.065528505
229	0xbd89cb00	-0.06728172
230	0x3ed0bf32	0.4077087
231	0x3e801f95	0.25024095
232	0xbd3cd631	-0.046102706
233	0xbe3a0cc1	-0.18168928
234	0xbe1fd582	-0.1560879
235	0xbe6abe8c	-0.2292425
236	0x3e15029b	0.14551775
237	0xbe2cbdbd	-0.16869254
238	0xbe9bf020	-0.30456638
239	0x3d02a8eb	0.031899374
240	0xbe13d301	-0.1443596
241	0xbe988a0e	-0.29792827
242	0x3d231a89	0.039820228
243	0x3e83a165	0.25709072
244	0xbe279cd6	-0.16368422
245	0x3f2474b3	0.6424057
246	0x3de78a78	0.11305708
247	0x3e8b9215	0.2725989
248	0x3e368feb	0.17828338
249	0xbe528a38	-0.20560539
250	0xbd7b4eda	-0.061354496
251	0xbe0da638	-0.13832939
252	0x3e048827	0.12942563
253	0xbe4a2299	-0.1973976
254	0xbe11f9f4	-0.14255506
255	0xbe3bbec7	-0.18334495

base.mlp.fc1.0.bias f4 [64]
0	0x3d36e4ae	0.04465168
1	0xbba86f27	-0.0051402035
2	0xbdcd111d	-0.1001303
3	0x3cb6cd84	0.022314794
4	0xba36618d	-0.0006957285
5	0x3b8b53cc	0.0042519327
6	0xbc4fffbf	-0.012695252
7	0xbd52a4e2	-0.051426776
8	0x3dbce9b7	0.09224265
9	0xbe0af564	-0.13570172
10	0xbd1ebdd8	-0.038755268
11	0xbd5d26f7	-0.053992238
12	0x3db74065	0.08947829
13	0xbdf4d116	-0.119539425
14	0x3c693e5e	0.014236061
15	0x3d351c17	0.04421624
16	0x3d056940	0.032571077
17	0x3dfa4ff2	0.122222796
18	0x3d0f3fb5	0.034972865
19	0x3e0e8cd3	0.13920908
20	0x3c8df4c0	0.01732862
21	0x3cf781b2	0.03021321
22	0x3d2cb9e0	0.04216945
23	0x39db376b	0.00041812225
24	0x3cadb15d	0.021202737
25	0x3c86312a	0.016380865
26	0x3db2357a	0.08701606
27	0x3c9edde8	0.019392923
28	0x3be75ff4	0.007060999
29	0x3e6e8ab6	0.23295102
30	0x38dfe00c	0.000106752006
31	0x3e0ecc13	0.13945036
32	0x3dc14405	0.09436802
33	0xbdf5378e	-0.11973487
34	0xbd71da58	-0.05904612
35	0x3db4e301	0.0883236
36	0x3d29d146	0.041459344
37	0xbba3f55f	-0.0050036157
38	0x3dbaca3c	0.091206044
39	0x3dbefeb9	0.09325928
40	0xbde150b9	-0.11001725
41	0xbdfd0d9e	-0.12356113
42	0xbda6fbd7	-0.081535034
43	0xbe1b29fb	-0.15152733
44	0xbd843706	-0.064558074
45	0x3c97fcfa	0.018553246
46	0x3dda269d	0.10651896
47	0x3d8c3933	0.068468474
48	0xbb123bc2	-0.002231345
49	0x3b219cf2	0.0024660197
50	0x3dc0c4ee	0.09412561
51	0x3d583337	0.052783217
52	0xbe03366f	-0.12813734
53	0x3d646be4	0.055766955
54	0x3d2f0bf3	0.042736005
55	0x3dd1e7d6	0.10249297
56	0xbc8747ce	-0.016513731
57	0xbdd52f45	-0.104094066
58	0xbcc8927e	-0.024483915
59	0x3d43bb07	0.047785785
60	0x3d66fd9c	0.056394204
61	0xbc9e3745	-0.019313464
62	0x3e35d17f	0.17755698
63	0x3dd13da3	0.102168344

base.mlp.fc1.2.weight f4 [64]
0	0x3f67e7b5	0.9058793
1	0x3f881418	1.0631132
2	0x3f8327d7	1.0246533
3	0x3f90a2df	1.1299704
4	0x3f71ed4d	0.9450272
5	0x3f75540f	0.9583139
6	0x3f9c050f	1.2189044
7	0x3f911e15	1.1337305
8	0x3f8ab047	1.0835046
9	0x3f8be154	1.092814
10	0x3f8e3712	1.1110556
11	0x3f6617cc	0.8988006
12	0x3f81c2ee	1.0137613
13	0x3f6b9bb2	0.9203445
14	0x3f600b0f	0.87516874
15	0x3f663b5e	0.8993434
16	0x3f9177c7	1.1364678
17	0x3f5b881b	0.85754555
18	0x3f8250b4	1.0180879
19	0x3f8f5453	1.1197609
20	0x3fb5d888	1.4206705
21	0x3f5ac6bb	0.8545949
22	0x3f5071db	0.8142373
23	0x3f858513	1.0431236
24	0x3f8de943	1.1086811
25	0x3f7f6d9b	0.9977662
26	0x3f89085f	1.070568
27	0x3f4ee724	0.8082144
28	0x3f4da90b	0.80336064
29	0x3f6fb30d	0.93632585
30	0x3f7764e1	0.96638304
31	0x3f81fce1	1.0155298
32	0x3f6f3d8b	0.9345328
33	0x3f5f0c32	0.87127984
34	0x3f8cd75d	1.1003224
35	0x3f888024	1.0664105
36	0x3f7b9cea	0.98286307
37	0x3f50b4b2	0.8152572
38	0x3fa290b1	1.2700406
39	0x3f94c766	1.1623352
40	0x3f6f989f	0.93592256
41	0x3f923c61	1.1424676
42	0x3f985501	1.1900941
43	0x3f5dc5e8	0.86630106
44	0x3f607ab3	0.87687224
45	0x3f4c1db3	0.7973282
46	0x3fb27ff0	1.3945293
47	0x3f9137b6	1.1345127
48	0x3f87c315	1.0606409
49	0x3f42a5b1	0.76034075
50	0x3f91c2d5	1.1387583
51	0x3f99313e	1.1968153
52	0x3f4eb173	0.80739516
53	0x3f78a98d	0.97133714
54	0x3f4400f5	0.7656396
55	0x3fa5018f	1.2891101
56	0x3f5520fe	0.8325347
57	0x3f8797eb	1.0593237
58	0x3f592c62	0.8483335
59	0x3f72a54e	0.94783485
60	0x3f85d74d	1.045633
61	0x3f5b9429	0.8577295
62	0x3f9aa89e	1.2082708
63	0x3f90b1d1	1.1304265

base.mlp.fc1.2.bias f4 [64]
0	0x3d794e55	0.06086572
1	0xbd2cb9e3	-0.042169463
2	0x3d114329	0.03546444
3	0x3e017e44	0.12645823
4	0x3d03f47d	0.032215584
5	0xbd286c22	-0.04111875
6	0xbc92911b	-0.017891457
7	0x3d6a35c0	0.057180166
8	0xbc8e6673	-0.017382836
9	0xbdd157d3	-0.10221829
10	0xbd2a4921	-0.041573647
11	0x3c169e76	0.0091930535
12	0x3a864ffa	0.0010247224
13	0x3d85e0e3	0.06537034
14	0x3df99630	0.12186849
15	0xbd3ace20	-0.045606732
16	0xbda7fa74	-0.08202067
17	0x3d9607e6	0.07325725
18	0x3c60f558	0.0137303695
19	0x3c54ad59	0.012980782
20	0x3d510c69	0.051037226
21	0x3d5b6b94	0.05356939
22	0x3c71b33d	0.014752206
23	0xbd97ae26	-0.07406263
24	0xbd39d1ea	-0.045366205
25	0x3da3f7d7	0.08006256
26	0x3c1a4b1e	0.009417323
27	0x3d0dbd24	0.034604207
28	0x3a3bcbc6	0.00071638485
29	0x3d7918ad	0.06081455
30	0xbd65c78b	-0.056098502
31	0xbe25ae7e	-0.16179845
32	0x3e3fbfaf	0.18725465
33	0x3dd9611e	0.10614227
34	0xbd262048	-0.04055813
35	0x3d0e4e87	0.03474286
36	0xbcf2329d	-0.02956515
37	0x3d01b954	0.031670883
38	0xbdabbbfe	-0.08385466
39	0x3e3ffb7b	0.18748276
40	0x3c44df4a	0.012016127
41	0xbd9f15fb	-0.07767864
42	0xbdb5626e	-0.088566646
43	0x3ccd7836	0.025081735
44	0xbd9c2c06	-0.07625584
45	0xbc3a7423	-0.011380228
46	0xbe1de936	-0.15420994
47	0x3da98a98	0.08278388
48	0xbd90b823	-0.07066371
49	0x3d07e0e4	0.033173457
50	0xbdc5db3f	-0.096609585
51	0xbcc03c62	-0.023466293
52	0xbd0847ac	-0.033271477
53	0xbc70922f	-0.01468329
54	0x3ddb4115	0.10705773
55	0x3d87f422	0.066383615
56	0xbca61b0c	-0.020276569
57	0xbe2a0d12	-0.16606548
58	0x3c1ce17f	0.009575247
59	0xbc9c2f8c	-0.01906564
60	0xbd667d08	-0.056271583
61	0xbd263719	-0.04057989
62	0x3dc897ac	0.09794554
63	0x3dfac6d0	0.12244952

base.mlp.fc2.0.0.weight f4 [64, 64]
0	0xbe31ba42	-0.17356208
1	0xbbed0665	-0.0072334283
2	0x3edd5839	0.4323137
3	0xbd8d09fb	-0.06886669
4	0x3f37c5d3	0.7178623
5	0xbdee54fc	-0.11637303
6	0x3e636d54	0.22209674
7	0xbda41e8f	-0.08013641
8	0x3e9ae816	0.30255193
9	0x3e1fe671	0.1561525
10	0xbd8fb900	-0.07017708
11	0x3f109e02	0.564911
12	0xbeadcbaa	-0.33944446
13	0x3e74bab5	0.23899348
14	0x3eabc1e4	0.33546364
15	0xbcd568c9	-0.026050942
16	0xbd058824	-0.032600537
17	0xbdf248cf	-0.118302934
18	0x3f414f54	0.7551167
19	0x3ee4f41c	0.4471749
20	0x3ef5b49e	0.47989362
21	0xbdf52f10	-0.11971867
22	0x3d205d8c	0.039151713
23	0xbed67d78	-0.418926
24	0xbec46837	-0.3836076
25	0x3dbcf9bb	0.0922732
26	0xbe8436d0	-0.2582307
27	0xbee53a6b	-0.44771132
28	0xbdc03e54	-0.09386888
29	0xbecead12	-0.40366417
30	0x3c9933a5	0.018701384
31	0x3eb490c7	0.35266706
32	0xbda1f013	-0.07907119
33	0xbdb9d0b9	-0.09073014
34	0x3e810490	0.25198793
35	0xbdaecb61	-0.08534885
36	0xbeda74ca	-0.42667228
37	0xbea8cb24	-0.32967484
38	0xbdbf41f4	-0.093387514
39	0x3f25d2c5	0.64774734
40	0xbe7616bd	-0.24032111
41	0xbf02598f	-0.50917906
42	0x3f1af99e	0.60537136
43	0xbe6db485	-0.23213394
44	0xbdd59b65	-0.1043003
45	0x3e02662c	0.12734288
46	0xbe56e44b	-0.20985524
47	0xbe4d9b20	-0.20078707
48	0xbdfc8d10	-0.12331593
49	0x3e19ce8d	0.15020199
50	0x3ea47de6	0.32127303
51	0x3ebb9b1a	0.3664177
52	0x3cb9dd16	0.02268843
53	0xbd999d69	-0.07500727
54	0x3e201b70	0.15635467
55	0xbdc1b0c9	-0.09457547
56	0x3c859f61	0.01631135
57	0xbe8648af	-0.26227328
58	0xbddbb815	-0.1072847
59	0xbccf9484	-0.025339372
60	0xbe1f6f9d	-0.15569921
61	0xbe52fa13	-0.20603208
62	0xbbab1edd	-0.005222185
63	0x3e633a2b	0.22190158
64	0xbef58868	-0.47955632
65	0xbec1af06	-0.37828845
66	0x3ed5ab6f	0.41732356
67	0x3d10a299	0.035311315
68	0xbca9bb2a	-0.02071913
69	0x3e160fad	0.14654417
70	0x3d3a7c65	0.045528788
71	0x3efc8295	0.49318376
72	0xbf0a51f4	-0.540313
73	0xbdcabe57	-0.09899586
74	0xbdd4dcf6	-0.103937075
75	0x3d937ec0	0.0720191
76	0xbe3c47d1	-0.18386771
77	0xbe4db04f	-0.20086788
78	0x3ea92bf2	0.3304134
79	0x3c3fe1dd	0.011711565
80	0xbeaec5e4	-0.34135354
81	0x3db109c7	0.08644443
82	0xbdfc817a	-0.12329383
83	0xbe709d6e	-0.23497555
84	0xbdc9fbc7	-0.09862476
85	0xbe16eaaf	-0.14737962
86	0xbe5974cb	-0.21235959
87	0xbd363440	-0.044483423
88	0x3d5a1d68	0.0532507
89	0xbdd35a91	-0.103200085
90	0xbe9acf97	-0.30236503
91	0x3e4b2f27	0.19842206
92	0xbdaedeaf	-0.08538567
93	0x3d9e4fd0	0.07730067
94	0xbcea5a55	-0.028607527
95	0x3e481d00	0.19542313
96	0x3ea67c58	0.32516742
97	0x3f26207e	0.6489333
98	0x3e19530d	0.14973088
99	0xbc23ef51	-0.010005788
100	0xbdc29129	-0.09500343
101	0xbd14c1d0	-0.036317647
102	0x3ccaabf4	0.024740197
103	0xbe293120	-0.16522646
104	0xbd922383	-0.071356796
105	0x3c991633	0.018687343
106	0xbdef2f33	-0.116789244
107	0x3e32c6ac	0.174586
108	0x3c2b3be2	0.010451289
109	0xbe6f49cd	-0.23367997
110	0xbdbd1753	-0.09232964
111	0xbeaa660c	-0.3328098
112	0xbe14d2c1	-0.14533521
113	0x3e633ac3	0.22190385
114	0x3d341d82	0.043973453
115	0xbe47806b	-0.19482581
116	0x3d364f69	0.044509325
117	0x3e71536d	0.2356698
118	0x3ecee73e	0.404108
119	0x3e8af3db	0.27139172
120	0x3e405e4c	0.18785971
121	0x3cd6ce68	0.026221469
122	0xbe00bffc	-0.12573236
123	0xbe537e3c	-0.20653623
124	0x3db44ca5	0.08803681
125	0xbdc4e48d	-0.09613905
126	0xbf024565	-0.5088714
127	0x3eca3ee5	0.3950111
128	0xbe5d07bc	-0.21584982
129	0xbf1221b0	-0.57082653
130	0xbd66bd16	-0.05633267
131	0x3e22e8cc	0.15909117
132	0xbe9d28dc	-0.30695236
133	0x3da7db38	0.081961095
134	0x3e60e038	0.21960533
135	0xbe711879	-0.23544492
136	0x3e174232	0.14771345
137	0x3cca5e4c	0.024703167
138	0x3e559865	0.20858915
139	0x3dd47470	0.10373771
140	0xbda5480a	-0.08070381
141	0xbe1719a0	-0.14755869
142	0x3de8ea9c	0.11372873
143	0xbd9b505b	-0.07583686
144	0xbe892e07	-0.2679293
145	0xbd7602c9	-0.06006125
146	0x3eddd407	0.43325827
147	0xbed0f674	-0.4081303
148	0xbf00a356	-0.5024923
149	0xbf11bb73	-0.5692665
150	0xbe85fc3b	-0.26169
151	0xbd9a79da	-0.075427726
152	0x3e1113ea	0.14167753
153	0xbe1bf0ac	-0.15228528
154	0xbbf98b25	-0.0076154643
155	0xbe9ee5c5	-0.31034675
156	0x3e780a1d	0.24222608
157	0x3e9c7df1	0.30564836
158	0x3de4535b	0.11148711
159	0xbe387931	-0.18014981
160	0x3e11b8e8	0.14230692
161	0x3e5be96d	0.21475764
162	0xbd1bc472	-0.03802914
163	0xbd4df4b7	-0.050282206
164	0xbe8e6dfe	-0.27818292
165	0x3ce346d6	0.027743738
166	0xbed74217	-0.4204261
167	0x3f40dac2	0.753338
168	0x3c38ce88	0.01127971
169	0x3d7be9d8	0.061502308
170	0x3ecb068e	0.39653438
171	0x3f063a71	0.52432925
172	0x3d905ce3	0.07048967
173	0x3e8090c1	0.25110438
174	0xbd1dfdc3	-0.038572084
175	0xbf2b5c1f	-0.6693744
176	0xbe8c4891	-0.27399114
177	0xbb90e5ee	-0.004421941
178	0xbda5868e	-0.08082305
179	0xbda9679b	-0.08271714
180	0x3da7cf3c	0.08193824
181	0xbecc5309	-0.399071
182	0xbeddf6f0	-0.4335246
183	0x3dae2ca6	0.0850461
184	0xbe4801d7	-0.19531952
185	0x3ebdb7dd	0.3705434
186	0x3c608622	0.013703855
187	0x3ee04491	0.43802312
188	0x3d33fba2	0.043941148
189	0xbe58028a	-0.21094719
190	0xbda41f5c	-0.08013794
191	0x3e46702e	0.1937873
192	0x3cf6b93f	0.03011763
193	0xbd5af2ca	-0.053454198
194	0x3eb62987	0.35578558
195	0x3d97fedd	0.07421658
196	0xbe199ecd	-0.15001984
197	0x3e530b90	0.2060988
198	0xbea13084	-0.31482327
199	0x3c5e281a	0.013559366
200	0x3d90d0ed	0.070710994
201	0xbe813fb5	-0.25243917
202	0xbe8525c9	-0.2600539
203	0xbe3eb113	-0.18622236
204	0x3eda241f	0.42605683
205	0x3f492582	0.7857286
206	0xbe979175	-0.29603162
207	0xbea51ff2	-0.32250935
208	0xbdd23643	-0.10264256
209	0x3e09abdf	0.1344447
210	0x3dfe933e	0.12430428
211	0x3de721fd	0.112857796
212	0xbc1f29d7	-0.009714565
213	0x3e6be473	0.23036365
214	0xbe19e38a	-0.15028206
215	0x3e3d5c31	0.184922
216	0xbeb3ccab	-0.35117087
217	0x3e767697	0.24068676
218	0x3dc32058	0.095276535
219	0xbe943640	-0.2894764
220	0xbdd0773e	-0.10178994
221	0xbdd90bac	-0.10597929
222	0x3e8388ee	0.25690407
223	0xbe769877	-0.24081598
224	0xbde23bbf	-0.11046552
225	0xbe3c109a	-0.18365708
226	0x3ec5bc7a	0.3862036
227	0x3d98651d	0.07441161
228	0x3d7dcec7	0.061964776
229	0xbec4e4a5	-0.38455692
230	0xbe8d293c	-0.27570522
231	0xbe7669c7	-0.24063788
232	0xbeb53dd6	-0.3539874
233	0xbed9b95f	-0.4252424
234	0x3dc32dbf	0.0953021
235	0x3cd8ba31	0.02645597
236	0x3b85729c	0.0040725004
237	0xbeba1747	-0.36345884
238	0xbe08d2e8	-0.13361704
239	0x3e4a9e6e	0.19786999
240	0x3ec1ba0a	0.3783725
241	0xbe1a03bd	-0.15040489
242	0x3e5d2f1a	0.21599999
243	0xbe8a72d6	-0.27040738
244	0x3f1842d3	0.59476966
245	0x3d68e478	0.05685851
246	0x3db315d4	0.08744398
247	0xbe976d59	-0.29575613
248	0x3ed35a0d	0.4127964
249	0x3e681644	0.22664744
250	0xbe1695c2	-0.14705566
251	0xbf12ec7d	-0.573921
252	0x3e86ddea	0.26341182
253	0x3d35308c	0.04423575
254	0xbe0cb7a2	-0.13741925
255	0xbdc8fcb2	-0.09813823

base.mlp.fc2.0.0.bias f4 [64]
0	0x3e0ff59c	0.14058536
1	0x3c9a03f6	0.018800717
2	0x3d94d083	0.07266333
3	0xbca60ada	-0.020268846
4	0x3dd18bfd	0.10231779
5	0x3d4b4f8f	0.04963642
6	0xbe5bfe84	-0.21483809
7	0x3dde4233	0.1085247
8	0x3d28d108	0.041214973
9	0xbdbdc311	-0.092657216
10	0xbdc7da63	-0.09758451
11	0xbbd00aef	-0.0063489596
12	0xbcfd9b7c	-0.03095793
13	0x3e388b84	0.18021971
14	0x3c3b2e6a	0.01142464
15	0x3d9a664d	0.075390436
16	0x3e082c3f	0.13298129
17	0x3d4d2d87	0.050092246
18	0x3cfd3130	0.030907243
19	0x3d2bdef8	0.041960686
20	0x3e6d57cc	0.23178023
21	0xbbd51254	-0.006502429
22	0x3ed5c71d	0.41753474
23	0x3c376d89	0.011195549
24	0xbd8f2bb0	-0.069907546
25	0xbe9788da	-0.29596597
26	0x3e48fedb	0.1962847
27	0xbde363f1	-0.11103047
28	0x3d7ded11	0.061993662
29	0xbbed0373	-0.007233077
30	0x3c87b2ef	0.016564814
31	0xbda5e955	-0.08101145
32	0x3b87ff0e	0.004150278
33	0x3d901f45	0.07037214
34	0xbdb496a1	-0.08817793
35	0xbdcc7b6b	-0.099844776
36	0xbdf0e75d	-0.11762879
37	0xbd8e5518	-0.06949824
38	0x3dea7ac1	0.11449195
39	0x3d9b6136	0.07586901
40	0x3e18f7ff	0.14938353
41	0xbd0fb4ec	-0.03508465
42	0x3bb59e9e	0.0055425903
43	0x3edddc54	0.4333216
44	0x3d93d71c	0.07218763
45	0x3e16d72e	0.14730522
46	0xbe04bb52	-0.12962082
47	0xb9dd5c6c	-0.00042221264
48	0x3d74773c	0.059684023
49	0xbdda9b48	-0.10674149
50	0xbd991365	-0.07474402
51	0xbe335cf8	-0.17515934
52	0xbd695809	-0.056968722
53	0x3e3d5f90	0.18493485
54	0x3dc14346	0.094366595
55	0xbd3a4c70	-0.045483053
56	0x3ca65ede	0.020308908
57	0xbd79dac2	-0.06099964
58	0xbd04f045	-0.0324557
59	0x3c715db1	0.01473181
60	0xbd405b47	-0.04696205
61	0x3bc7373d	0.006079583
62	0x3df5c70e	0.12000857
63	0x3c503a5a	0.012709225

base.mlp.fc2.0.2.weight f4 [64]
0	0x3f2c8f5f	0.67406267
1	0x3f62e24e	0.88626564
2	0x3ef91269	0.48646858
3	0x3f290ad1	0.6603213
4	0x3f557651	0.8338366
5	0x3f5a4818	0.85266256
6	0x3f61c42e	0.8818997
7	0x3f5cfbca	0.863217
8	0x3f5bca88	0.85855913
9	0x3f749d96	0.9555296
10	0x3f6e0c72	0.9298774
11	0x3f1fc3f8	0.624084
12	0x3f057e77	0.52146095
13	0x3f5be7e6	0.85900724
14	0x3f4f1919	0.8089767
15	0x3f64ed5a	0.8942467
16	0x3f6f9761	0.9359036
17	0x3f665a04	0.899811
18	0x3f74102f	0.95337194
19	0x3f4f22a8	0.80912256
20	0x3f465351	0.7747088
21	0x3f61dfda	0.88232195
22	0x3f5beeef	0.8591146
23	0x3f78b0c8	0.97144747
24	0x3f3b450c	0.7315223
25	0x3f758ff1	0.9592276
26	0x3ec35f37	0.3815858
27	0x3f53ea92	0.827798
28	0x3f643404	0.8914187
29	0x3f7644a6	0.961985
30	0x3f66cc3c	0.90155387
31	0x3f671dc1	0.90279776
32	0x3f52cab0	0.82340527
33	0x3f4d929c	0.80301833
34	0x3f577185	0.8415759
35	0x3f328fb5	0.6975053
36	0x3f6e7ef0	0.9316244
37	0x3f2783fa	0.65435755
38	0x3f66e483	0.9019243
39	0x3f4658f2	0.7747947
40	0x3f1f1cdf	0.6215343
41	0x3f4703a3	0.77739924
42	0x3f530296	0.8242582
43	0x3f4af312	0.79277146
44	0x3f80c518	1.0060148
45	0x3f52c7e9	0.8233629
46	0x3f4ceffe	0.800537
47	0x3f46958d	0.77571946
48	0x3f519b6a	0.8187777
49	0x3f67a62b	0.9048793
50	0x3f731c93	0.94965476
51	0x3f781510	0.9690714
52	0x3f5d7852	0.8651172
53	0x3f6a3269	0.9148317
54	0x3f2bcdfa	0.6711117
55	0x3f5e2149	0.8676954
56	0x3f585878	0.8450999
57	0x3f59595a	0.84901965
58	0x3f6a5e06	0.9154972
59	0x3f724410	0.94635105
60	0x3f4c9530	0.7991514
61	0x3f5c9a3a	0.8617283
62	0x3efcd92d	0.49384442
63	0x3f5b613d	0.8569525

base.mlp.fc2.0.2.bias f4 [64]
0	0xb9f2cad3	-0.00046308953
1	0x3d8ec63e	0.069714054
2	0x3d174a88	0.036936313
3	0x3ce5bad9	0.028043197
4	0x3da76085	0.081727065
5	0x3d83930d	0.06424532
6	0x3c922913	0.017841851
7	0x3da2fd9a	0.07958527
8	0xbd6d6ac2	-0.05796314
9	0xbd4cea69	-0.05002824
10	0x3dc9bc1a	0.09850331
11	0xbc84bcbc	-0.016203277
12	0xbd1c8818	-0.038215727
13	0xbd10ed66	-0.03538265
14	0x3d8db979	0.06920142
15	0x3d6cbce4	0.057797328
16	0x3dc3fc96	0.09569661
17	0x3d95bce0	0.07311416
18	0x3db16b66	0.08663063
19	0x3dd63131	0.10458601
20	0x3d0874ff	0.0333147
21	0x3d1fc60a	0.039007224
22	0x3aa668af	0.0012695993
23	0xbd3a68f7	-0.04551026
24	0xbbca2e95	-0.006170104
25	0xbd079e7e	-0.033110134
26	0xbd8a511e	-0.06753753
27	0x3be9a2a5	0.0071299844
28	0x3d6eeaf5	0.05832954
29	0x3dcdba2c	0.10045275
30	0x3db2edf7	0.087367944
31	0x3de4a06a	0.11163409
32	0x3d44adaa	0.04801718
33	0xbce82965	-0.028340051
34	0x3aea90fb	0.0017895991
35	0x3d4c4df8	0.049879044
36	0xbd0e2a19	-0.034708116
37	0x3cc59930	0.024120897
38	0x3d91b61d	0.071148135
39	0x3d81d34b	0.06339129
40	0xbe38e88d	-0.18057461
41	0x3cfc7fb5	0.030822614
42	0xbdb1649c	-0.08661768
43	0xbd3a15c4	-0.045430914
44	0x3d674c76	0.056469403
45	0x3d9c6edd	0.07638333
46	0x3dc9afbe	0.09847973
47	0x3d50395b	0.05083595
48	0x3dca497c	0.09877297
49	0x3ddfb780	0.10923672
50	0xbd49ff16	-0.049315535
51	0xbd27ff42	-0.041014917
52	0xbd27713f	-0.040879484
53	0x3c4a1b08	0.012335546
54	0xbd4e4c41	-0.05036569
55	0x3daaaeca	0.083341196
56	0x3d911805	0.070846595
57	0x3dc2f1b0	0.095187545
58	0xbd4e49da	-0.0503634
59	0x3dcc3c54	0.09972444
60	0xbd24de4a	-0.040251054
61	0x3db01b99	0.08599014
62	0xbdab9347	-0.083777
63	0xbd0d7e60	-0.03454435

v_out.weight f4 [1, 64]
0	0xbd2db6ab	-0.042410534
1	0x3dea2056	0.11431949
2	0xbb81ae2e	-0.0039575314
3	0xbd33c0ec	-0.043885157
4	0x3dd37cbb	0.10326525
5	0x3db697cf	0.08915674
6	0xbd9f91d8	-0.07791489
7	0x3d4e04e8	0.050297648
8	0xbd8034ac	-0.06260046
9	0xbe1dd9d3	-0.15415125
10	0x3dcc5783	0.09977629
11	0xbcbedf07	-0.023299707
12	0x3d55b9dd	0.052179206
13	0xbd5e6072	-0.054291196
14	0x3dcc28a1	0.09968687
15	0x3d9ca032	0.07647742
16	0x3cee1351	0.029061945
17	0x3e38169e	0.17977378
18	0x3e452097	0.19250713
19	0x3d1c72f9	0.038195584
20	0x3d2b3dbc	0.04180692
21	0x3d64765d	0.055776943
22	0x3d3a4538	0.04547617
23	0xbdf19add	-0.11797116
24	0xbcdc58b8	-0.026897773
25	0xbdcfa640	-0.101391315
26	0x3bc0066e	0.0058601415
27	0xbd879d57	-0.06621807
28	0x3d915784	0.070967704
29	0x3dedcbcd	0.116111375
30	0x3dea2ce4	0.114343435
31	0x3d80d5e5	0.06290797
32	0x3d8b590f	0.06804096
33	0xbdc80f03	-0.09768488
34	0xbd2beb7e	-0.04197263
35	0xbc209fd1	-0.009803728
36	0xbdab59eb	-0.0836676
37	0x3c2ca5be	0.010537563
38	0x3da45060	0.08023143
39	0x3d30d9cf	0.04317647
40	0x3c5c08ec	0.0134298615
41	0xbd00414f	-0.031312283
42	0xbd84adc9	-0.064784594
43	0x3d1edd9a	0.038785554
44	0x3e3107f3	0.17288189
45	0x3d8e657e	0.06952952
46	0x3c75a4e5	0.014992927
47	0x3cb3a8db	0.021931102
48	0x3d60ad18	0.054852575
49	0x3d6710c8	0.05641249
50	0xbdef9dd4	-0.11700025
51	0xbdff615a	-0.1246974
52	0xbda5d4cb	-0.08097228
53	0x3d8b5eb9	0.06805176
54	0x3ce2cb62	0.027684871
55	0x3de02efe	0.10946463
56	0x3dd30525	0.103037156
57	0x3d910dca	0.07082708
58	0xbdf30b44	-0.11867383
59	0x3dd3fda9	0.10351116
60	0xbd40466f	-0.04694217
61	0x3e1ff8f9	0.1562232
62	0x3d229b0b	0.03969864
63	0xbcefb757	-0.029262228
