checkpoint/mappo_seed114_run20260211_185546_ep4000_agent1_critic.pt (torch, 56978 bytes, 11 tensors)

base.feature_norm.weight f4 [126]
000000 7e 33 9f 3f 91 d1 75 3e e0 fc 73 3f 3b 47 83 3f
       1.2437589 0.24005724 0.9530773 1.0256113
000010 ed d9 6d 3f 50 c2 45 3f 62 e5 86 3f a1 25 82 3f
       0.92910653 0.7724962 1.0538752 1.0167733
000020 5d 3a 7b 3f 8f de 88 3f 24 63 4e 3f 23 64 46 3f
       0.9813593 1.069292 0.80620027 0.77496547
000030 0b 31 8b 3f 5f 62 47 3f fe a8 39 3f 8e f7 88 3f
       1.0874342 0.7788448 0.72523487 1.0700548
000040 f4 3e 3d 3f be dc 72 3f 53 7a 29 3f 9d c2 82 3f
       0.73924184 0.94868076 0.66202277 1.0215641
000050 6e e6 a9 3f ae 0e 81 3e a6 88 65 3f fa 72 79 3f
       1.3273447 0.25206512 0.89661634 0.97441065
000060 5e 9c 70 3f ed 5b 70 3f fb 60 40 3f 95 3d 4c 3f
       0.939886 0.9389027 0.7514798 0.79781467
000070 f9 d4 4f 3f 3a 19 8b 3f e2 a0 53 3f 52 93 81 3f
       0.81184345 1.0867074 0.8266736 1.0123084
000080 c9 69 58 3f a9 c2 7d 3f df 4d 65 3f cf 97 6d 3f
       0.84536415 0.9912515 0.89571947 0.92809767
000090 57 26 4e 3f 78 63 63 3f 45 aa 3b 3f ca be 95 3f
       0.8052725 0.8882365 0.73306686 1.1698849
0000a0 da 88 9e 3f 8b 2e 98 3e e6 20 39 3f 30 4b 64 3f
       1.2385514 0.2972301 0.72315824 0.8917723
0000b0 97 b1 7b 3f 45 49 46 3f 37 56 5f 3f 40 8e 9b 3f
       0.98317856 0.7745555 0.8724093 1.2152786
0000c0 96 90 9c 3f 05 ac bc 3e f1 78 85 3f 61 22 80 3f
       1.2231624 0.3684999 1.0427533 1.0010492
0000d0 6c 2e b0 3f 43 6d d5 3f f8 0c fd 3f 51 1d 0b 40
       1.3764167 1.6673969 1.9769583 2.1736643
0000e0 11 87 fa 3f ac 98 9d 3f f1 a8 17 3f 87 f9 5a 3f
       1.9572469 1.2312217 0.5924216 0.85537
0000f0 1e 5b 2d 3f 5c ae 05 3f 0c 38 bc 3e fa 22 95 3f
       0.6771716 0.52219176 0.3676151 1.1651299
000100 b5 0c a0 3e 48 f7 61 3f 47 19 85 3f 24 05 50 3f
       0.31259695 0.88267946 1.0398339 0.81257844
000110 47 e3 6e 3f 24 fe 44 3f f6 78 4f 3f 95 22 76 3f
       0.9331555 0.7695029 0.81043947 0.9614652
000120 2c 30 77 3f c0 82 84 3f 06 ec 66 3f bb f7 66 3f
       0.9655788 1.0352402 0.90203893 0.90221757
000130 86 26 44 3f 1a 88 76 3f f1 5f 64 3f ea 0e 71 3f
       0.7662128 0.96301425 0.89208895 0.9416338
000140 c2 88 69 3f 69 e8 31 3f 28 a3 53 3f e8 51 9e 3f
       0.912243 0.69495255 0.8267083 1.2368746
000150 ad 1a 77 3e cd 05 76 3f 79 50 70 3f 9b 25 3b 3f
       0.2413127 0.961026 0.9387279 0.73104256
000160 2c 1c 60 3f 80 70 4f 3f 18 6b 64 3f a1 32 77 3f
       0.87542987 0.81031036 0.8922591 0.9656163
000170 58 5f 66 3f 8d 7d 6a 3f 14 5f 50 3f 6d de 59 3f
       0.89989233 0.91597825 0.8139508 0.8510502
000180 cc 59 5c 3f b0 1c 30 3f 05 f3 30 3f 8a 08 6e 3f
       0.8607452 0.68793774 0.6912082 0.9298178
000190 8c b9 78 3f a1 22 08 3f ed 89 8f 3f 06 9c 81 3f
       0.9715812 0.5317784 1.1213967 1.012574
0001a0 d9 8c c1 3e 69 00 5e 3f 41 70 3f 3f 18 e3 6a 3f
       0.3780277 0.86719376 0.7478066 0.9175277
0001b0 75 9a 21 3f 3d 8a 5a 3f f7 29 98 3f e6 01 a9 3f
       0.6312631 0.85367185 1.1887807 1.3203704
0001c0 62 52 af 3e 4b f8 94 3f 43 89 a0 3f 85 c9 a2 3f
       0.3424254 1.1638273 1.2541889 1.2717749
0001d0 dd 12 c8 3f b5 9b 01 40 17 54 25 40 49 31 00 40
       1.5630757 2.0251286 2.5832574 2.0030081
0001e0 f7 be a1 3f d9 d1 d9 3e 94 d5 a0 3f 34 58 27 3f
       1.2636403 0.42542914 1.2565179 0.6536896
0001f0 17 9d 24 3f d5 db 28 3f
       0.643022 0.6596044

base.feature_norm.bias f4 [126]
000000 00 ea 16 be 7c 42 83 bc 80 7c 4b 3c 8c b2 e0 3c
       -0.14737701 -0.016022913 0.01241982 0.027428888
000010 af f3 dc 3c 73 88 5a bd c7 51 22 3d fe e0 46 3b
       0.026971666 -0.053352784 0.03962877 0.0030346508
000020 78 cd ef bc 4d 65 e7 3c ac d9 3e 3b 85 a6 53 bc
       -0.02927278 0.028246546 0.0029121442 -0.012918119
000030 16 67 bd 3b f5 c7 3e 3d 3f 6a ce 3c da 30 9a 3d
       0.005780111 0.046577413 0.025197146 0.07528849
000040 60 3c 90 3d fc cc b3 bc 21 5e a4 bb 75 96 45 bc
       0.070427656 -0.02194833 -0.005016104 -0.0120597975
000050 4f 40 84 3c 91 e4 6f 3d 86 0b 30 3d 5c c2 cc 3c
       0.016143946 0.058567587 0.04297974 0.024995022
000060 f7 67 e2 bc 8e ea 84 3c 27 63 a9 3c 5c 8a 2e bc
       -0.027637465 0.016225126 0.020677162 -0.010653105
000070 62 b0 79 3d 4f 23 81 bc 5b 95 51 3c 4e 43 fb 3c
       0.060959227 -0.015763907 0.012791957 0.030671742
000080 ad fb 2b 3d 25 ea 03 3d 49 1c a8 3c ff 3a 97 3d
       0.041988064 0.03220572 0.0205213 0.073842995
000090 e6 28 21 bd 09 d2 4d bc 8e 19 36 3d 65 62 b0 bc
       -0.039345644 -0.012562283 0.044457965 -0.021531293
0000a0 c1 d7 a0 3c fb b3 a9 bd 6a 0c b1 ba 53 06 05 3b
       0.01963413 -0.08286282 -0.0013507728 0.002029796
0000b0 21 f1 e0 bc e0 35 aa 3c f6 42 65 3d 3e cb ac 3c
       -0.02745873 0.020777643 0.055972062 0.021093007
0000c0 62 fe 8d 3d 3f 27 2e bd 84 99 26 b9 d7 38 7f bd
       0.06933285 -0.042517897 -0.00015888183 -0.062310066
0000d0 11 71 e3 bc 51 5e 9c 3c e0 c1 dd 3c c7 b0 68 3c
       -0.027763875 0.019087942 0.027069986 0.014202303
0000e0 fb 36 e8 3c 4a f0 86 bc e2 60 2a bc 20 00 58 3d
       0.02834653 -0.016472 -0.010399075 0.052734494
0000f0 ec 4d de 3c 76 c6 0a bd 72 83 3a be cf e4 81 3d
       0.027136765 -0.033880673 -0.18214205 0.0634247
000100 1a f0 2a bd 45 0c be 3c a6 21 95 3c 54 93 b5 3c
       -0.041732885 0.02319921 0.018204521 0.022164978
000110 93 31 17 bc b4 a3 fd 3b ed b0 90 3c aa be d7 bc
       -0.009228128 0.007740462 0.01766249 -0.026336033
000120 46 9a 58 bc 03 d3 f3 bb 6e 74 6a 3c 4a 2d 36 bb
       -0.013220375 -0.007440926 0.014309986 -0.002779799
000130 c7 d2 a3 3c fa e4 6d 3c ad 1f 8d 3c 4f 5c 67 bd
       0.019997967 0.014519924 0.017227018 -0.056484517
000140 8a 51 49 bd 14 81 9e 3d dc 8a c4 bd c5 ab 63 bd
       -0.049150027 0.077394634 -0.09596798 -0.055583734
000150 90 bb 72 bd df a3 21 3d 0f e1 13 3c 59 a0 69 3c
       -0.059260905 0.03946292 0.009025826 0.014259421
000160 a4 d9 f6 bb bd 3a 0d 3d 16 f9 86 3c a2 e5 b5 3b
       -0.007533269 0.034479845 0.016476195 0.005551056
000170 ce 5d 27 3d c3 cf 09 3c 6e 72 c2 3d 8a 07 a6 3d
       0.040860943 0.008411351 0.09494482 0.08106907
000180 df 4e ec bc 9a 6f 7b 3c dd 5d b4 bc a6 f1 f7 3b
       -0.028846202 0.015346432 -0.022017414 0.0075666485
000190 72 d1 af 3c 57 9f 02 bc 72 3c 04 bc 89 c7 5f bd
       0.021462176 -0.00797256 -0.008071052 -0.05463365
0001a0 dd 3e 08 be 9e a6 b1 3c 61 61 63 bd f8 ff 30 bc
       -0.1330523 0.021685895 -0.05551279 -0.010803215
0001b0 b7 72 ce 3a d9 e6 15 3c 8d 17 84 3d d4 53 8f 3d
       0.001575074 0.009149277 0.064498045 0.06998411
0001c0 90 7b 53 bb cc 8c bc 3d cc f5 01 3d 5d 7c be bd
       -0.0032269694 0.092065424 0.03172855 -0.09301064
0001d0 2f e6 10 bd 4c 96 d6 3b e5 f9 50 3c 5b af e8 3c
       -0.03537577 0.0065486785 0.012754892 0.028403929
0001e0 06 f6 0e bb 38 52 b1 3d 42 d8 37 3d 01 62 b0 3b
       -0.0021814122 0.0865826 0.044883974 0.0053827767
0001f0 c1 ea eb 3c 86 8c b6 bd
       0.028798463 -0.089135215

base.mlp.fc1.0.weight f4 [64, 126]
000000 58 94 a5 be 60 fd fc 3d 3b d9 7a 3d e8 57 f4 bd
       -0.3233974 0.12353015 0.061242323 -0.11930829
000010 38 45 39 3d 81 c6 cd bd b7 52 3d 3d 59 7a 03 3e
       0.045232028 -0.10047627 0.04622146 0.1283964
000020 2a 14 04 3c 56 c5 46 bd 93 f5 60 be 91 44 21 3e
       0.008061448 -0.048528038 -0.21968679 0.15748812
000030 40 3f 84 3d 17 04 57 3e 8b a0 a1 bd f1 8e 8e 3e
       0.064573765 0.20997654 -0.07891949 0.2784343
000040 70 09 27 3d f7 a1 83 3c 83 31 5d 3d 32 9c e5 3d
       0.040780485 0.016068442 0.054002296 0.112114325
000050 9f a6 0a 3f 31 9f 92 bd fa e9 1e 3d 68 23 5e 3d
       0.54160494 -0.071592696 0.038797356 0.054232985
000060 a8 2d 09 bd 49 df 10 3e bc e9 91 3d 86 98 6e 3d
       -0.033490807 0.14147677 0.071246594 0.058250926
000070 db 64 72 3d 6e d0 06 3e 5a 23 9f b9 e6 61 24 3c
       0.059178215 0.13165447 -0.00030353182 0.010033106
000080 66 b2 93 3d ca a9 14 3e bd 71 93 bd e5 90 b2 3d
       0.07211761 0.14517894 -0.07199428 0.08719043
000090 5f af bf 3c 48 3c d3 3c d0 0b 48 be f3 23 7c 3d
       0.023399053 0.02578558 -0.19535756 0.06155772
0000a0 94 67 32 be b3 2d 1a 3e 8b 1b be bd 6f 20 5b bd
       -0.17422324 0.15056495 -0.09282597 -0.053497728
0000b0 72 df 9c bd 42 c4 85 bd 37 42 27 3e 50 64 9c be
       -0.07659806 -0.06531574 0.16333853 -0.30545282
0000c0 d5 9c ed 3d a7 07 0b 3e b4 8a 7b 3e 5f d8 60 bd
       0.11602179 0.13577138 0.2456463 -0.054893848
0000d0 bf 67 b3 be 50 6d 21 be 0f 85 46 3d 31 97 31 bd
       -0.3504009 -0.15764356 0.04846674 -0.043357078
0000e0 37 fe 0b 3e 0b 71 84 3e f4 e3 24 3e 20 90 ae be
       0.13671194 0.25867495 0.16102582 -0.34094334
0000f0 3c e7 bc be b1 13 a4 bd c0 61 ab 3e f8 bf 5d 3e
       -0.36895168 -0.08011568 0.33473015 0.21655262
000100 95 f7 e6 bd 29 dc 95 3d f0 a1 20 3d 49 09 38 3d
       -0.11277691 0.07317383 0.039216936 0.04493073
000110 50 78 c0 3d 41 08 1b 3d 6e 04 4d bd d8 3d f2 bc
       0.09397948 0.03784967 -0.050053053 -0.029570505
000120 08 f6 2a 3e f4 1e 79 3d 2f 6f ba bd 96 6f d2 bd
       0.16695416 0.060820535 -0.09103238 -0.102751896
000130 dc 5f 8f 3b 16 cb 11 3e 1d 1b 01 3c f9 17 49 3d
       0.004375441 0.14237627 0.0078799995 0.049095128
000140 87 0b c5 3a 3d a8 bb bd 66 9d 65 be 5d 07 6b be
       0.0015033343 -0.09162948 -0.22423324 -0.22952028
000150 c6 f4 33 3e bb e3 c0 3d c1 21 cc bd 8e bc 8f 3d
       0.17573842 0.09418436 -0.099673755 0.07018386
000160 56 f2 b5 3d 58 27 01 3e 33 67 c8 3e 7a 34 30 be
       0.088841125 0.12612665 0.39141235 -0.17207518
000170 63 6f a6 3e d5 82 5f 3e e8 c1 20 bd 7f 5d 30 3e
       0.32506856 0.21827252 -0.039247423 0.17223166
000180 57 6b c8 bb c0 dd ae 3b a4 e7 9c 3e 4f 5d 5d bc
       -0.0061163115 0.0053364933 0.30645478 -0.013511016
000190 50 57 55 3e 64 34 fb 3b 85 ad 5e bd 23 a6 7e 3d
       0.20834088 0.0076661576 -0.0543647 0.06217016
0001a0 88 2d 11 3e a8 91 75 be ce 29 2c be f0 ff 33 bd
       0.14177525 -0.23981345 -0.16812822 -0.043945253
0001b0 19 b8 13 be 87 7d 15 3c 63 e6 20 bd f6 e0 a3 be
       -0.14425696 0.009124166 -0.039282214 -0.3200757
0001c0 6a 68 49 3c 32 e5 5c be 90 ce f5 bd 23 96 4f bc
       0.012292961 -0.21571806 -0.12002289 -0.012670073
0001d0 3d db 6c be d1 fd 6a 3e 7b 13 1e bd 43 46 18 bd
       -0.23130508 0.22948386 -0.038592797 -0.03717638
0001e0 81 71 c4 3d 45 c1 34 3e d5 56 39 3d 02 f3 0a be
       0.09591962 0.17651851 0.045248825 -0.13569263
0001f0 2e 55 3d be 15 01 a1 bd 71 c6 ae 3d 4e 8b e7 bd
       -0.18489525 -0.078615345 0.085339434 -0.11305867
000200 33 ac 0a 3e f6 47 2e 3e 41 be 12 3e ad 76 ea bd
       0.13542251 0.17019638 0.14330389 -0.11448417
000210 e8 e9 9a 3d f1 ca bc bb 27 2e 2a 3e 0f 3b 56 3e
       0.07564145 -0.005761497 0.16619168 0.20920967
000220 23 67 7c 3e 53 d3 32 3e e3 6c 16 3e 9f 21 18 3e
       0.24648719 0.17463426 0.14689974 0.14856575
000230 0b b4 2b bd 24 e8 a8 bd 16 d4 34 3e 6d a4 db ba
       -0.04191975 -0.08247402 0.1765903 -0.0016757377
000240 4a 4e 2a 3d e0 69 a7 be 06 ce 4d 3d 0b 79 53 be
       0.04157857 -0.32697964 0.050245307 -0.20651643
000250 34 dd 95 3e 3f 42 f0 3d 5c 8f fa 3d d9 11 ae 3d
       0.29270327 0.117313854 0.12234375 0.08499498
000260 97 c1 32 bd 21 8a 0c be 07 a2 30 bd 65 b1 7b 3e
       -0.043641653 -0.13724567 -0.04312327 0.2457939
000270 fe 9f 30 3e 33 25 ac bd ba 62 ab 3d 38 de e5 3b
       0.17248532 -0.08405533 0.0836844 0.007015016
000280 84 5e d0 3d f9 d3 cb 3d ac 3c 33 be 0e 7c 9b 3e
       0.101742774 0.0995254 -0.17503613 0.30368084
000290 da 80 ae 3e ab 4a c4 3d 50 b0 9c 3e 03 2e 4c be
       0.3408268 0.09584554 0.30603266 -0.19939427
0002a0 fc bb 1a 3e 6a b3 6c be 15 0a de 3d 91 bf d2 3e
       0.15110773 -0.23115316 0.10841767 0.4116178
0002b0 94 89 c4 3e 26 64 14 3e c5 ce 05 be 18 7f 7a bd
       0.38386214 0.14491329 -0.13067158 -0.061156362
0002c0 39 94 d4 3d 3b 98 2a 3e a2 68 ae be d8 90 04 bc
       0.10379834 0.16659634 -0.34064204 -0.008091174
0002d0 99 5e 92 3e 45 81 1b be 55 66 72 3e 5d f1 8b 3c
       0.28587797 -0.15186031 0.23671849 0.017082864
0002e0 49 c2 05 3e 84 c8 27 be 22 d5 78 3d a0 c8 bd bc
       0.13062395 -0.16385084 0.060750134 -0.023166955
0002f0 23 a2 f0 bd 36 80 eb bd e1 46 1c 3e 45 1d 2b 3d
       -0.11749675 -0.11499064 0.15261413 0.04177596
000300 cc 33 47 be 19 e3 36 3d f0 e3 a4 3e 79 55 34 3e
       -0.19453353 0.04465017 0.32205153 0.1761073
000310 c0 bb 70 3e 14 3a 93 3e 5f 3e 9c 3e 86 cf 4b bc
       0.23509121 0.28755248 0.30516335 -0.012439614
000320 21 95 55 3e 66 ce 1d 3e c0 2a 83 3e 48 99 86 bd
       0.2085767 0.15410766 0.25618553 -0.06572205
000330 67 9a c6 bd 2c 69 77 3e 4a 80 63 bd e9 1a 8a 3d
       -0.09697419 0.24161214 -0.055542268 0.06743414
000340 d5 ad 03 be 21 30 ef bd 94 d4 ed 3c 01 91 e2 3c
       -0.1285928 -0.11679102 0.02903203 0.027657034
000350 e3 6b da 3d 4c 70 d0 bc 00 06 a0 3d f0 18 92 3e
       0.10665109 -0.025444172 0.078136444 0.2853465
000360 2b 22 18 3d 5f 72 8c 3e 81 06 76 ba 26 28 0f 3e
       0.03714196 0.27431008 -0.00093851244 0.13980159
000370 82 70 f3 3d f1 40 ff bc 4f 42 55 3d c5 29 a5 3d
       0.118866935 -0.031158896 0.05206519 0.080646075
000380 00 ee 85 bd c8 39 6f 3c 5e 8a 0d 3e d9 0a a7 bb
       -0.065395355 0.0146011785 0.13822314 -0.0050977287
000390 51 e1 64 bc a1 f4 91 bb 17 fd 3d 3d 65 88 0e be
       -0.013969735 -0.004454211 0.046383943 -0.13919218
0003a0 38 f2 b5 3e d2 ab 00 3e f8 4a c0 3c ae 8b c2 3c
       0.3553636 0.12565544 0.023473248 0.023748245
0003b0 87 68 47 3e 41 f6 9e bd 81 4f a7 3d bc 1e 20 3e
       0.19473468 -0.07761813 0.08169461 0.15636724
0003c0 4f ef 8d be 36 82 d3 bd bf 63 2e 3e b5 02 0e 3e
       -0.2772164 -0.1032757 0.17030238 0.1386822
0003d0 63 3b 2a 3c 68 82 9b 3d ea 0c 92 bd b8 1d 6a 3e
       0.010390135 0.075932324 -0.071313694 0.228629
0003e0 a6 b5 70 be e4 2b f5 bd d1 e5 80 be 54 34 0e be
       -0.23506793 -0.11971262 -0.25175336 -0.13887149
0003f0 e2 df e1 bd fb 3a 83 bd 22 1b 49 be 69 4e 48 3d
       -0.110290304 -0.06407734 -0.19639257 0.048902903

base.mlp.fc1.0.bias f4 [64]
000000 5a 6b 89 bd b2 24 19 bd c6 a6 41 3e 21 2e 03 3e
       -0.06709929 -0.03738851 0.18911275 0.12810566
000010 51 58 b5 3d 46 f3 7b bd b1 77 1a 3e 7c 80 3e 3d
       0.08854736 -0.0615113 0.15084721 0.04650925
000020 0b 2e f7 3d fc c8 24 bd cb 91 e1 bd 34 49 cf 3d
       0.12069329 -0.040230736 -0.11014136 0.10121384
000030 c2 11 8d 3d 44 1b d3 3d 97 b5 60 3c c5 7f ea bc
       0.06888153 0.10307935 0.013715169 -0.028625378
000040 97 5d be bc 93 58 10 3e e0 b0 e2 3c 73 71 84 3b
       -0.023237986 0.14096288 0.027672231 0.0040418445
000050 6f 34 f5 3c e0 94 f7 3a be 6d 04 bc 4c 90 fe 3d
       0.029932229 0.0018888973 -0.008082805 0.12429866
000060 4b 65 99 bd a3 e4 69 bd 0f db 32 bc a1 ed 6c 3d
       -0.07490023 -0.05710281 -0.010916485 0.057843808
000070 90 30 71 3d 63 09 c3 bc b4 9c 5b bc 41 46 a5 3d
       0.058884203 -0.023808187 -0.01340406 0.080700405
000080 5b 68 14 3d 5f 61 b7 bd 86 b0 f8 bd fe 46 43 3d
       0.036232334 -0.08954119 -0.12143044 0.047675125
000090 e5 1f 2a 3d e8 67 5a bb 38 82 c3 bd ed f5 b8 3c
       0.041534323 -0.0033326093 -0.09546322 0.022578204
0000a0 eb fb a5 3c f5 36 38 bd 5a cd b0 3d b5 5a 0a 3e
       0.020261725 -0.044974286 0.08632918 0.13511164
0000b0 80 07 ef 3c 60 9f 74 3c 65 5b 00 be 32 8b ae 3d
       0.029178381 0.014930576 -0.12534864 0.08522643
0000c0 61 b3 27 3b 45 07 06 3d 5b dd 8f 3d d6 37 a1 3d
       0.0025589096 0.032721777 0.07024642 0.07871978
0000d0 56 6d d9 3d dd bd 97 3a b0 c3 8f bd 73 71 ec 3d
       0.10616557 0.0011576969 -0.07019746 0.11545076
0000e0 fa 31 d1 3c 13 2e c5 3d d3 f4 c2 3b 50 09 fd bd
       0.025536526 0.096279286 0.0059495955 -0.12355292
0000f0 1c 83 ac bc 38 e0 57 be 28 ae 09 3d 0a 05 3e 3d
       -0.021058612 -0.21081626 0.033613354 0.046391524

base.mlp.fc1.2.weight f4 [64]
000000 43 88 87 3f e2 99 4d 3f 25 3c 8f 3f 92 22 8d 3f
       1.0588459 0.8031293 1.119023 1.1026175
000010 c8 3c 82 3f a1 ae 7a 3f dc 28 75 3f 08 d6 7a 3f
       1.0174799 0.9792271 0.9576547 0.97982836
000020 b6 4e 94 3f 6d 5a 81 3f 58 ad 79 3f 8a 8a 9e 3f
       1.1586521 1.0105721 0.97530127 1.2386029
000030 d9 9a 86 3f 7e 72 83 3f fe 72 7b 3f 9c d9 5f 3f
       1.0516006 1.0269315 0.9822234 0.8744142
000040 c4 2b 5a 3f bb a2 84 3f 2e 57 74 3f 85 37 87 3f
       0.8522303 1.0362161 0.95445526 1.0563818
000050 20 38 a3 3f cf de 59 3f 46 c0 65 3f 82 18 81 3f
       1.2751503 0.85105604 0.8974651 1.0085604
000060 10 dd 8f 3f 8c f4 65 3f 4b f8 8c 3f 0c ea 85 3f
       1.1239338 0.89826274 1.1013273 1.046205
000070 1d f3 96 3f 32 9c 91 3f d6 79 80 3f 06 61 82 3f
       1.1792942 1.1375792 1.0037181 1.0185859
000080 e7 c0 95 3f f4 de 82 3f f6 bb 77 3f 04 a0 93 3f
       1.1699494 1.022429 0.9677118 1.1533208
000090 82 f1 65 3f 83 15 71 3f 57 1f 7a 3f 1e c3 8f 3f
       0.89821637 0.9417345 0.9770407 1.123142
0000a0 c9 04 87 3f 8e 49 50 3f 45 2d 77 3f 9d 54 7f 3f
       1.0548335 0.81362236 0.9655345 0.99738485
0000b0 f3 3f 64 3f 64 72 9f 3f c2 bd 7a 3f 8b 32 91 3f
       0.8916008 1.2456784 0.979458 1.134355
0000c0 e2 de 74 3f 02 f8 76 3f fa c1 78 3f 93 c6 7a 3f
       0.9565259 0.9647218 0.97170985 0.9795925
0000d0 2f 17 a4 3f f3 69 7d 3f ba 6f 6f 3f 1b 54 94 3f
       1.2819575 0.9898979 0.93529856 1.1588167
0000e0 cf f5 85 3f c5 1b 8e 3f f3 b9 65 3f 9f 10 61 3f
       1.046564 1.1102225 0.8973686 0.87915987
0000f0 1d bb 84 3f ab 38 74 3f 1b c3 4b 3f f9 d4 8a 3f
       1.0369602 0.9539897 0.7959458 1.0846244

base.mlp.fc1.2.bias f4 [64]
000000 81 40 b3 bc 75 71 1b bc e4 5a 80 bd 88 9a 06 3e
       -0.021881344 -0.0094874995 -0.06267336 0.13144886
000010 11 78 b4 3d 0d 93 08 bd 3c f2 e1 3d d1 67 3a bd
       0.08811963 -0.033343364 0.11032531 -0.045509163
000020 35 41 a3 3d dc 1a 48 bc f2 0f b2 bd 6f 18 a0 bd
       0.07971422 -0.012213435 -0.086944476 -0.0781716
000030 c0 e2 c2 3d e9 82 fa 3c 74 e3 14 3d 19 b5 d4 3d
       0.095159054 0.030580001 0.03634973 0.10386104
000040 f4 9b 0f be a8 56 3f 3d 7b a0 50 3d aa 8a ef bc
       -0.14024335 0.0467135 0.050934296 -0.029240925
000050 39 35 6d bd 18 af 31 3d b2 f1 72 bd e8 aa b1 bc
       -0.057912085 0.043379873 -0.05931253 -0.02168794
000060 37 5c dc 3c 3c 9d 1c bd 70 b9 0b 3e a2 0a 86 bd
       0.02689944 -0.038235888 0.13644958 -0.06544997
000070 f3 c4 d6 3d 28 21 9e bd cf 6e 3a 3d 34 f3 47 bd
       0.10486784 -0.07721168 0.04551583 -0.04881592
000080 6c e7 d6 3d af 0f 06 be 87 87 81 bd c1 16 4d bd
       0.10493359 -0.1309192 -0.06324678 -0.050070528
000090 89 c9 6b 3d 8f 0e ef bc d6 b8 63 bd 15 6a a9 bd
       0.057565246 -0.029181747 -0.055596195 -0.08272187
0000a0 70 c3 b4 3d 39 c7 5a 3d 46 99 b8 3b 08 99 fc bd
       0.08826339 0.05341265 0.005633506 -0.12333876
0000b0 0f 76 3f bd 03 e0 92 3d b1 76 b2 bc ea 1b db bd
       -0.04674345 0.07171633 -0.021785112 -0.106986836
0000c0 26 43 91 bd 4d 80 1e bc 10 b7 3d 3d 95 6e c3 3c
       -0.07092886 -0.009674144 0.04631716 0.02385644
0000d0 a9 81 9c 3d b7 ea 25 bd 1c 5c 81 3d da ba 30 3d
       0.07641918 -0.040507045 0.063163966 0.043146946
0000e0 3a c4 b9 bc 3a 13 ba bb 91 a0 99 bc d0 86 43 3d
       -0.022676576 -0.0056785615 -0.018753322 0.04773599
0000f0 cf 84 13 bd 1d 29 86 bb 05 ce a6 3d 95 21 2e bd
       -0.036015328 -0.0040942566 0.08144764 -0.042512495

base.mlp.fc2.0.0.weight f4 [64, 64]
000000 16 71 4e be d7 ae 73 be 5c 87 ef bd 63 d4 4b 3d
       -0.20160326 -0.23797165 -0.116957396 0.049763095
000010 87 9d b0 bd ec e1 51 be 5a 4b 15 bd c1 8e 4c 3e
       -0.08623796 -0.20496339 -0.036448814 0.19976331
000020 d7 ce bd 3b df 0b 4e bd cb 06 74 bd 36 60 7f 3e
       0.0057924795 -0.05030429 -0.05957679 0.24939045
000030 93 b0 35 3e 56 92 9a 3e 3e 86 8a be 33 ea 8d bd
       0.17743139 0.3018977 -0.27055544 -0.069294356
000040 7f 95 24 3e c7 ab 90 3e d7 6c 53 3e 97 7a 80 3b
       0.16072653 0.28256056 0.20646988 0.003920864
000050 53 26 65 3e 7f 22 8b 3d ac 25 ce 3d 7c f5 e0 bc
       0.22377901 0.06793689 0.10065779 -0.027460806
000060 49 99 e6 bd 2f 74 99 3d 17 26 27 3e 25 65 73 bd
       -0.112597056 0.074928634 0.16323124 -0.05942263
000070 41 c1 4d be 34 7c 86 bd dd b2 85 3b 5a 93 b2 bd
       -0.20093252 -0.065666586 0.00408016 -0.08719511
000080 88 dc cb be ea 02 c6 be 87 51 96 be 4a 6b 08 3e
       -0.3981669 -0.38674098 -0.29359075 0.13322178
000090 0d 06 9f 3d 98 90 66 be 8a 71 bd be 5d ea 8d 3d
       0.07764826 -0.22516096 -0.37000686 0.06929467
0000a0 64 db 00 be 7e ce c8 3e 27 60 61 3e 7d 11 c4 be
       -0.12583691 0.3922004 0.22009335 -0.38294592
0000b0 64 5f 07 bd 5e 0e e2 bd db 7b bc 3d ea c5 86 be
       -0.033049956 -0.110378966 0.09203311 -0.2632287
0000c0 f3 2c d6 3c 82 f1 85 bd 5d 07 0e be 3f 87 d1 be
       0.02614448 -0.065402046 -0.13869996 -0.40923497
0000d0 55 de da 3d 31 33 ec be c5 46 0f 3d 1b cc 24 be
       0.10686938 -0.46132806 0.0349796 -0.16093485
0000e0 08 f6 c4 3d a4 a1 2c 3e 6d 65 82 3c 33 0b e0 3d
       0.09617239 0.16858536 0.015917504 0.10939636
0000f0 86 66 f2 bd 6b 53 c9 bd 4f b2 e1 3d 6f 47 b8 bc
       -0.11835961 -0.09830364 0.11020338 -0.022495
000100 40 7b b5 be 20 3b 9f bc 1b 16 86 bd 6d 67 b2 be
       -0.35445595 -0.019437373 -0.06547185 -0.34844533
000110 e0 98 50 be 57 38 29 3e 54 a4 4a 3b a0 2a ea 3d
       -0.20370817 0.16525398 0.00309207 0.11433911
000120 e5 51 c9 3e 14 8b 36 3e 5a 61 25 3e 63 b2 ab be
       0.39320293 0.17826492 0.16150418 -0.33534536
000130 e2 7e e4 bd 49 21 8e 3e 62 f0 10 3e f2 98 94 3e
       -0.111570135 0.2775977 0.14154199 0.29022938
000140 37 03 d5 be 2e a1 d4 3d bd f2 94 3d 21 7a 8b 3e
       -0.41604015 0.10382305 0.07272861 0.27241614
000150 3e b7 4f bf 3c e7 21 be 1d 5a d0 be 09 b2 1e bf
       -0.8113898 -0.15810865 -0.4069375 -0.6199041
000160 cb df d8 3e 4b 71 c5 3d 39 63 c5 3d 62 72 99 3e
       0.4235824 0.096407495 0.09638066 0.2997008
000170 b1 b9 25 3d 18 5d b9 3e 36 07 82 be 74 5a 13 be
       0.040460292 0.36203837 -0.25396127 -0.14389974
000180 94 02 1d bf 02 f3 65 3d c2 06 1b bd 07 9e a0 be
       -0.6133206 0.056139953 -0.03784824 -0.31370565
000190 92 61 b6 3c 4c 1b 23 be 18 0a 3a 3e 9f 79 b4 be
       0.022263322 -0.15928382 0.18167913 -0.3524904
0001a0 aa 64 97 3d 05 94 99 bd 9c f2 9a 3e 80 ca 27 bf
       0.07392247 -0.074989356 0.3026322 -0.65543365
0001b0 1c 49 ee bd e9 20 02 3f 22 9d 3c be 2f 78 95 be
       -0.11635038 0.50831467 -0.18419316 -0.29193255
0001c0 85 e1 68 be 41 64 17 3c 49 6f a1 be da 25 bb 3e
       -0.22742279 0.009240211 -0.31530216 0.36552316
0001d0 ab 0b ba bd bc 88 0c bc 53 95 94 3e f6 02 87 3e
       -0.09084257 -0.008577522 0.29020175 0.26369447
0001e0 6f 43 42 bd ce 9e a0 be 0a f7 14 be 5c d1 58 3e
       -0.04742759 -0.31371158 -0.14547363 0.21173614
0001f0 69 70 55 3d f1 a4 1a 3e 85 c1 77 be eb 62 bd 3e
       0.052109156 0.15101983 -0.24194916 0.3698953
000200 a7 4f eb 3d 05 54 bb bd f9 e3 95 bd 80 cd e6 bd
       0.11489802 -0.09146885 -0.07318873 -0.11269665
000210 34 a6 f2 bc 11 93 db bc 09 0f 79 be d9 db aa be
       -0.029620267 -0.026803525 -0.24322142 -0.33370855
000220 dc b2 87 bd 6b 0f 4a be 1e a8 8a 3d a6 1c ff bd
       -0.066259116 -0.19732444 0.06770347 -0.12456636
000230 01 ed ab be 15 77 93 be dc dd 90 be 8c ea 0a 3d
       -0.33579257 -0.2880179 -0.28294265 0.033915088
000240 c8 7b 6c bc c8 ad 81 3d b6 d5 21 be 7e 17 c7 be
       -0.014433809 0.06331974 -0.1580418 -0.3888511
000250 60 9c 33 be c5 a2 8b be 66 eb 9b 3e 49 0f c8 3e
       -0.17540121 -0.2727262 0.30453032 0.39074162
000260 ee cf a8 3e 77 44 41 bd 0b 40 a9 3e 1f e1 cc be
       0.32971138 -0.047184434 0.33056673 -0.40015504
000270 ad 19 a2 be 06 32 ff bd 5f 0b 36 be ae 88 ad 3e
       -0.31660214 -0.12460713 -0.17777775 0.3389334
000280 25 82 4c 3d ed 14 28 3e d4 83 d0 bd c6 dd 3a be
       0.049928803 0.16414233 -0.10181394 -0.18248662
000290 0f c0 0b 3e 9e 73 b3 3d 3b 43 99 be b3 55 b3 3e
       0.13647483 0.087622866 -0.29934105 0.3502632
0002a0 04 30 5e 3e 65 92 31 3d 64 64 47 3e 16 e9 56 3d
       0.21698004 0.043352503 0.1947189 0.05246838
0002b0 b8 c9 19 bd 28 23 9d 3e c7 63 df bc a8 9a c7 3c
       -0.03754589 0.30690885 -0.027269257 0.024365738
0002c0 9e 0b bb bc ff b3 8c 3e 7c 30 32 be 8c a8 98 be
       -0.022832688 0.27481076 -0.17401308 -0.2981609
0002d0 e6 a5 bc bd a8 88 1b bf 29 3b 76 be 32 21 a8 bd
       -0.0921133 -0.60755396 -0.24046005 -0.082094565
0002e0 3d be a3 be 96 c7 75 be f5 80 20 be 6a 15 d4 3d
       -0.31981078 -0.24001917 -0.15674193 0.10355647
0002f0 0d 91 e3 bc 7e f0 fe 3d 57 0f 1b 3e 67 8b ec 3c
       -0.027779127 0.12448214 0.1514257 0.028875066
000300 82 ec 93 3e df 8d d6 3c a5 9b 5f 3c b8 c7 4e 3e
       0.2889138 0.026190696 0.013647948 0.20193374
000310 a2 19 71 be 43 47 e4 3d c9 e2 46 3e b5 26 b4 3e
       -0.23544934 0.111464046 0.19422449 0.3518578
000320 67 43 7d bd e2 c0 92 3e 37 6a c1 3d d8 26 56 bd
       -0.061831858 0.28662783 0.09444087 -0.052283138
000330 1a e5 5d be 07 bd 74 be 67 dd 43 bd f2 98 f6 bd
       -0.21669427 -0.23900233 -0.047818568 -0.12040891
000340 18 08 5e 3d 3c 13 5d 3e 90 be 37 3e 30 0e 01 be
       0.054206938 0.21589369 0.17943788 -0.12603068
000350 fa 32 b7 3e 85 6e 0b 3f e3 6f a4 be 31 7b 64 bd
       0.3578108 0.54465514 -0.32116613 -0.055781547
000360 d3 62 12 3d e6 4e 9a be 7d c3 81 be 16 f0 fc bd
       0.035738777 -0.3013832 -0.25344458 -0.1235048
000370 9a ae 07 be 41 7b 32 bc b0 62 86 3e cf d5 c5 3d
       -0.13250199 -0.010893644 0.26247168 0.096599214
000380 16 63 8b be 3b 92 3a 3e c1 47 9a bb 46 88 7a 3e
       -0.27224034 0.18219845 -0.0047082608 0.24466047
000390 a2 b1 9d 3e 90 ee 2b be 79 8b 5a 3e f1 d3 37 3e
       0.30799586 -0.16790223 0.21342267 0.17951943
0003a0 21 04 8b bc 0d fd 9c be d4 6c ac 3e 68 e2 33 bf
       -0.016969742 -0.30661812 0.3367678 -0.70267344
0003b0 f1 9d 24 be 54 70 c8 3d ad 6e 00 3e 4d 06 13 be
       -0.16075875 0.0978705 0.1254222 -0.14357872
0003c0 17 83 65 3e 2d d4 70 be 0c 71 71 3e 6a 32 8d 3e
       0.22413288 -0.23518439 0.2357828 0.27577525
0003d0 bb 52 81 3e 66 e4 a1 bd 7e 34 7b be 5d 1b 31 bf
       0.2525843 -0.07904892 -0.24531743 -0.6918238
0003e0 1e 14 53 3d 85 f8 7f 3e f1 53 82 bd 6f cb 89 3d
       0.051532857 0.24997146 -0.06363667 0.06728255
0003f0 11 67 bb bc 60 45 e5 bd 79 1d 84 3e c1 de a5 bd
       -0.022876294 -0.11194873 0.25803736 -0.080991276

base.mlp.fc2.0.0.bias f4 [64]
000000 10 f2 3b 3d 9c fe f4 39 0d bc fd bc 3a 55 0d bb
       0.045885146 0.00046729005 -0.030973459 -0.0021565692
000010 c8 ea 95 bd fa 36 bb bd b4 a2 32 3d 8c b8 bf bc
       -0.073201716 -0.09141345 0.043612197 -0.023403428
000020 87 2f 41 3b b9 13 33 3d 3b 42 47 bd 63 3e dd 3e
       0.0029477791 0.04371998 -0.048647147 0.4321166
000030 92 28 80 bd 69 41 43 3d 19 25 ec bb 47 11 a9 3d
       -0.06257738 0.0476698 -0.007206571 0.082552485
000040 62 df 00 be ba 25 37 3e a5 33 87 3e 69 64 4a 3e
       -0.12585214 0.17885485 0.2640659 0.19764866
000050 78 f1 1f bc 72 f6 7a 3d 47 f4 2d 3b 15 5b 72 3d
       -0.0097621605 0.061270185 0.0026543306 0.059168894
000060 db 74 6c bd 0b bf 43 3d 25 24 36 bd 41 ab 0b 3e
       -0.05772863 0.047789615 -0.044468064 0.13639547
000070 1c 7e 90 3d 5a 54 1a bb ed 89 e6 bc 98 75 79 3d
       0.070553035 -0.0023548813 -0.02814194 0.06090316
000080 28 c3 22 bb c4 ec ae bc a6 4f a8 bd 24 a0 ec bc
       -0.002483556 -0.021353133 -0.08218317 -0.028884955
000090 2d 19 a3 bd c9 08 1d 3b cc e1 05 be 1a 61 83 3d
       -0.07963786 0.0023961535 -0.13074416 0.06415005
0000a0 20 a1 82 3d 29 58 b0 bc 18 ac ea bc df 91 36 bc
       0.063783884 -0.021526413 -0.028646514 -0.011143177
0000b0 0d ac d9 3d 1f d1 9e bc dc d6 b9 bd 14 1d 8d bd
       0.10628519 -0.019386826 -0.09074184 -0.06890312
0000c0 3a 6a cb ba e4 51 f8 3c aa d8 5a bd 6e eb 4a bd
       -0.0015519329 0.030312486 -0.053429283 -0.04954093
0000d0 b5 e6 17 bd 79 fe 11 3e bc 61 92 bb d6 e4 b3 bd
       -0.037085254 0.1425723 -0.0044672173 -0.08783881
0000e0 6b 6e 87 bd cf 55 40 3d be 1b 19 bd 0d 26 bd b9
       -0.066128574 0.046956833 -0.037379973 -0.0003607724
0000f0 f5 02 e3 3c 63 8a d1 bd 28 e3 ca 3d 8e 82 0b 3e
       0.027711371 -0.10231473 0.09906608 0.13624021

base.mlp.fc2.0.2.weight f4 [64]
000000 f7 de 53 3f 4e 6b 8f 3f fe 7e 56 3f a6 6f 40 3f
       0.8276209 1.1204622 0.83787525 0.7517036
000010 22 db 60 3f 54 c7 63 3f bb a6 7c 3f ff 71 4d 3f
       0.8783437 0.88976026 0.9869191 0.8025207
000020 fe 26 2e 3f 06 ac 46 3f c4 4c 6b 3f 35 41 61 3f
       0.6802825 0.77606237 0.9191401 0.87990123
000030 9f bf 44 3f 41 8f 6c 3f d5 82 72 3f ab 5b 60 3f
       0.7685489 0.9240609 0.94730884 0.87639874
000040 7a 09 58 3f 06 0e 49 3f 10 8f 6f 3f 5d c0 6b 3f
       0.8438946 0.78537023 0.9357767 0.920904
000050 36 cc 67 3f a7 25 5b 3f 02 cb 6c 3f 2b f1 d5 3e
       0.90545976 0.8560433 0.92497265 0.4178556
000060 eb 8f 7d 3f 9a 64 5b 3f 1a 80 42 3f 02 27 35 3f
       0.99047726 0.8570038 0.7597672 0.70762646
000070 b0 85 66 3f a9 b0 64 3f f7 52 60 3f de b1 6e 3f
       0.9004774 0.8933206 0.87626594 0.93240154
000080 51 6a 64 3f 74 16 5f 3f f9 3b 49 3f 54 9f 6e 3f
       0.89224726 0.87143636 0.78607136 0.93211865
000090 6c 19 69 3f 46 f0 3b 3f c2 9e 57 3f da b5 6a 3f
       0.91054416 0.73413503 0.8422662 0.91683733
0000a0 fd a0 4f 3f bb 94 59 3f f5 16 75 3f 34 8f 5e 3f
       0.81105024 0.8499257 0.95738155 0.8693726
0000b0 a5 7c 44 3f fa 38 55 3f df 43 73 3f b5 aa 4e 3f
       0.7675269 0.83290064 0.9502544 0.8072923
0000c0 eb db 72 3f dc 28 29 3f 8b 4e 5e 3f d8 ad 56 3f
       0.9486682 0.6607797 0.868386 0.83859015
0000d0 65 67 71 3f ac 5d 27 3f 50 03 54 3f b7 00 50 3f
       0.9429839 0.65377307 0.82817554 0.8125109
0000e0 ae 4d 69 3f e4 d0 6d 3f b1 8c 80 3f b1 00 69 3f
       0.91134155 0.92896867 1.0042936 0.9101668
0000f0 d0 eb 5d 3f f1 cd 70 3f 8b 41 4d 3f 6d 22 37 3f
       0.86687946 0.9406424 0.80178136 0.71536905

base.mlp.fc2.0.2.bias f4 [64]
000000 f1 48 95 bc c3 ca 78 3d 03 2b 9f 3c 1d 40 c8 3d
       -0.018223258 0.060740244 0.01942969 0.09777854
000010 9c bd ed 39 d6 94 ad 3d 07 a5 0a 3d 65 8e 29 3c
       0.00045345433 0.08475654 0.03384879 0.010348891
000020 d9 f3 89 3d e7 59 1b 3d c1 21 95 3c 65 f6 ac bd
       0.067359634 0.037927534 0.018204572 -0.084454335
000030 b9 9f ee 3d 78 1e c7 3b 04 7a b1 3c 5d 3c 9a 39
       0.116515584 0.00607663 0.021664627 0.00029418143
000040 ba 8a b1 3b 3f 8f 05 bd 0e aa e8 bb 60 9b 60 3d
       0.005418149 -0.032607313 -0.00710035 0.054835677
000050 ef ac 4b 3d 28 a1 1c 3c dd d3 04 3c 58 79 08 be
       0.04972547 0.009559907 0.008107153 -0.13327539
000060 b0 07 93 3a ee f4 3e 3c 06 b4 bc 3c 55 6c a4 bc
       0.0011217501 0.0116550755 0.02303506 -0.020071188
000070 43 79 86 bc 62 c0 af 3a 3d c3 87 3c 28 39 2d 3c
       -0.016415244 0.0013408775 0.016572589 0.010572709
000080 ad b5 22 3d 4c d0 4c 3d 5b ae 31 3d 89 99 ec 3c
       0.03972404 0.050003335 0.04337917 0.028881805
000090 5f 1e cc 3c cf 90 bd bd 58 87 74 3d fc 25 6e ba
       0.024916826 -0.09256136 0.059699386 -0.00090846396
0000a0 ab 55 21 bd 57 67 ca 3c ce 90 47 3b 0b 85 3d bc
       -0.03938834 0.02470748 0.00304513 -0.011567364
0000b0 7c c7 5a 3c 3f b0 df b8 6d 75 1f 3d f5 08 f7 3b
       0.013353225 -0.00010666297 0.038930345 0.0075389096
0000c0 fa ef d2 3c 8d 66 a6 3d cc 96 bd 3c 50 be 9f 3c
       0.025749195 0.08125029 0.023143195 0.019499928
0000d0 29 b2 0f 3d a4 f0 0c be 28 ba 46 3c a9 4e 58 3d
       0.035082016 -0.13763672 0.012129344 0.05280939
0000e0 9b 27 96 3b f6 ad dd bc 7a 2f 2e 3c d5 4b 29 3d
       0.004582358 -0.02706049 0.0106314365 0.041332085
0000f0 6d 26 fa 3c 9c 7a d2 3b 44 c9 80 bb ef 48 13 bd
       0.030535901 0.0064233076 -0.0039302427 -0.035958227

v_out.weight f4 [1, 64]
000000 9e 73 f8 bd b0 04 56 3e dc 2b 23 3d 58 a7 07 bd
       -0.12131427 0.20900226 0.03983675 -0.033118576
000010 6f 4a 05 3d 8c 70 83 bd 7e f3 09 3e f8 ec 12 bc
       0.03254169 -0.06417951 0.13471791 -0.008967631
000020 5e 53 07 3c 6f ea d5 bd a2 cf b9 bd 65 21 35 3d
       0.008259622 -0.10445105 -0.09072806 0.0442213
000030 36 40 8f bc ad 9b bd 3d cb 38 ff 3d a0 08 26 3d
       -0.017486673 0.092582084 0.12462004 0.04053557
000040 10 0a 02 be 37 06 f5 bc a4 de ad 3d 13 09 c6 3d
       -0.12699151 -0.02991019 0.08489731 0.096696995
000050 72 4f 9e 3d 8c 4d ab bd 47 fb 76 bd b7 6f f4 3b
       0.07729997 -0.083644 -0.06029823 0.0074596065
000060 28 7b 46 3e b7 ab 95 3d fc be 09 bc a8 60 ac bb
       0.19382918 0.07308143 -0.008407351 -0.0052605458
000070 ba 1a 5e 3d f5 e3 11 3e cb d4 bd 3d 4f 69 6e bd
       0.054224707 0.14247115 0.09269103 -0.0582059
000080 df a1 4c bd e3 bf 14 3d b3 0a d0 bb 24 a0 a5 bd
       -0.04995906 0.03631581 -0.0063489317 -0.08087185
000090 8f 36 11 3e 3d bf bd 3b f0 23 19 bd 2b f2 c1 3d
       0.14180969 0.0057906196 -0.03738779 0.09470018
0000a0 09 31 10 3d b2 1f 84 3d 62 1d e9 bd 61 d8 4c bd
       0.035203014 0.06451358 -0.113825575 -0.050011043
0000b0 d3 08 96 bc ea f9 8d 3d b4 02 44 3d ea 15 f1 bd
       -0.018314755 0.06932433 0.04785414 -0.11771758
0000c0 67 46 18 3e 8c cc 10 bd 15 01 9a 3d 1b a7 3c bd
       0.14870606 -0.03535132 0.07519738 -0.0460578
0000d0 35 0b 0b 3e 8e 25 e4 bb 69 6f 20 bd aa d2 bd bc
       0.13578494 -0.0069624847 -0.03916875 -0.023171742
0000e0 b9 5b b8 3d 7f b4 96 3d d3 eb 06 be 69 e3 ba 3d
       0.0900187 0.07358646 -0.13175897 0.09125406
0000f0 a5 9a 8a 3d 5c e4 1c 3e e4 2e 82 bc 0a 27 ea 3b
       0.06767777 0.15321487 -0.0158915 0.007145767
